models/100bp_arround_STRends_models/hg38AAAAC_.pt (torch, 11710 bytes, 15 tensors)

last_block.conv.weight f4 [1, 1, 14, 4]
00000000: ebf0 ba3d 3a7b 40bc 48a7 24bd aa75 94bd
00000010: e5e7 e1bd 4ff9 3c3c ae07 3a3d de05 be3b
00000020: 2ed2 9e3d 9875 993c 15ce 82be 1510 27bd
00000030: 11c6 96bd c8c5 9e3d 07ef 02be 0276 413d
00000040: 9fa5 99bd 0db1 42bc ede0 26be b790 f1bd
00000050: 5326 99bc ba6b 5bbe 6a8d da3d 7f10 5bbe
00000060: 42ca 18bf 9006 583e 8c85 5cbe fd4e 0c3e
00000070: a04d 573e 5edd a7be be24 213e c15c 6fbe
00000080: a2a1 11bc 1615 953d 7653 863d 972d 1bbd
00000090: 3460 c5bc f996 cb3c 64eb 3bbe a671 113e
000000a0: b1c2 b2bd cfa2 953d 7542 80bc 0362 9abd
000000b0: 0442 99be 68ff 903e 7475 333c 6240 99bd
000000c0: 0bdd c0bd e6c1 3e3d bb43 23bb 7f7c 583c
000000d0: 4e6c c33c 5599 f3bb 34f1 d13c eb12 e1bd
0.09127983 -0.0117481295 -0.040198594 -0.07249005 -0.110305585 0.011534049 0.04541748 0.0057990393
0.07754932 0.01873283 -0.25547853 -0.04078682 -0.07361997 0.077525675 -0.12786494 0.04723168
-0.07502293 -0.0118830325 -0.1629674 -0.1179518 -0.018695032 -0.21427813 0.10671504 -0.21393012
-0.5968362 0.21096253 -0.21535319 0.13702007 0.21025705 -0.32786077 0.15736672 -0.23375227
-0.008888634 0.072794124 0.06558888 -0.037885275 -0.024093725 0.024852263 -0.18351513 0.1420351
-0.08728541 0.07306444 -0.01565669 -0.075382255 -0.29933178 0.2831986 0.010953296 -0.07482983
-0.094171606 0.046571635 -0.0024912197 0.013213276 0.023855355 -0.00743405 0.02562771 -0.109899364

last_block.dense.weight f4 [1, 87]
00000000: 09f5 19bd 2ef2 4dbc d1d4 07bd a098 1e3c
00000010: 328a 39bd 3502 003c dfb8 0fbd 82e9 3e3d
00000020: 4549 a9bd 3676 68bc 595c c6bc 98e3 56bc
00000030: 7e29 96bc 75a2 6d3d 9f44 5ebd d94a a7bc
00000040: af35 fdbd 43f5 853d b26a e1bd 2e9e fabd
00000050: 63ed 10be 20c4 8fbd b9d6 42be c366 bb3c
00000060: e501 34bd 3a12 5ebc 9da5 22bd e2ad 31bc
00000070: 1e98 083d c0ca 5bbd 93d1 91bd ed67 31bd
00000080: d0e7 c13d 7969 85bd 1079 9e3d 7a13 f4bc
00000090: 00b0 f43d c7e2 febc 35de 743d 88fe 30bf
000000a0: d11b b73e 0361 3f3e b00a b03d 6110 79be
000000b0: a8dd d0bc 4c18 2c3e 6c59 b03e 1a21 813d
000000c0: 1cd1 af3d 5bab 573e 33a5 3f3e acad 413e
000000d0: adff 3e3e db83 5e3e 80ee 333e 0de9 713d
000000e0: 9510 ed3d 9657 da3c f73a 383e 9318 8a3d
000000f0: 27f5 2cbb fcda d63c be7c 08bc c6c6 cebb
00000100: 9f2a afbd acce bd3c 0217 6d3c 617c 8abd
00000110: ccdf 4fbd febc c3bc a34f 9cbc 2fd9 0dbd
00000120: dcea c3bd 95c7 afbd 7a75 e7bd 90ff 53bd
00000130: a8a4 4d3d 1b57 85bd 171b 163d d075 4f3c
00000140: 7704 4cbd 12c3 c23d 64d0 933d 2609 05ba
00000150: b004 0c3d 0933 47bd 6a0e 8ebd
-0.0375872 -0.012569947 -0.033161942 0.009679943 -0.04529781 0.007813026 -0.035088416 0.04660941
-0.08265928 -0.01418834 -0.024213957 -0.013115786 -0.018330332 0.05801626 -0.05426466 -0.020421432
-0.12363755 0.065409206 -0.11006679 -0.12237202 -0.14153056 -0.0701983 -0.19027223 0.022876149
-0.04394712 -0.01355415 -0.039708722 -0.01084468 0.033348195 -0.053660154 -0.07120051 -0.043312002
0.09468043 -0.06514258 0.077379346 -0.029794443 0.11947632 -0.031113995 0.059782226 -0.69138384
0.3576341 0.18689351 0.085957885 -0.24322654 -0.025496319 0.16806144 0.34443223 0.06305142
0.08584806 0.2106146 0.18715362 0.18913907 0.1865222 0.21729986 0.1757145 0.059060145
0.115754284 0.026653092 0.17991243 0.067429684 -0.002639124 0.026227467 -0.008330522 -0.0063103167
-0.08553051 0.023169838 0.0144708175 -0.06762005 -0.05075054 -0.02389383 -0.019080942 -0.03463095
-0.0956628 -0.08582989 -0.11301704 -0.051757395 0.050205857 -0.06510755 0.03664693 0.012662366
-0.049808946 0.09509863 0.07217482 -0.00050749106 0.034184158 -0.048632655 -0.06936343

blocks.0.conv.weight f4 [1, 1, 18, 4]
00000000: 5d57 e4bd 3183 62be 4a8d 0cbd b85c 7abe
00000010: e30b 42be 3f13 63be 03cd 623e 9581 a2be
00000020: 9755 acbe bcad e93c 21ce d9be 87a2 aebe
00000030: 6fbf 83be 1942 d53d 5f46 16bf 467c bfbd
00000040: ab00 9cbd 415e b7be e4ac 093e db82 9ebe
00000050: 2d85 5bbe b774 1cbe e449 123e 9021 3ebe
00000060: 95cb 26be 77ef 94be 89b8 5b3e 524a cbbe
00000070: b25a 14bf bc2d 843e f146 bbbe b099 8a3b
00000080: ed7f 103c a582 9ebe 00e7 a53e b5a4 87be
00000090: 4f7b c6be 2fd4 6e3d 4ea9 0dbe da9b 28be
000000a0: fa39 11bd 9a5e a9be 7b0b b5be 71c3 5dbe
000000b0: 4b54 01be d84a aabd b095 843e 374c 02bf
000000c0: 267a 06bf d92d 893e 9622 b9be 42bf 8e3e
000000d0: 37f8 38be aac5 46be a648 d43e 8034 d0bb
000000e0: b9ac 85bd dd5a 9abc da7c 583e f6ec 9bbe
000000f0: c9cc 79be 2531 ed3d b7f6 69be 9eaa 07be
00000100: 848a 6ebd d2b8 6cbd 1511 13be 99b0 7c3d
00000110: 6c4e 91be 02ad de3d 8535 cbbd bc86 5cbe
-0.11149476 -0.22120358 -0.03431443 -0.24449432 -0.18949847 -0.2217531 0.22148518 -0.31739488
-0.3365905 0.028525226 -0.42540076 -0.34108374 -0.2573199 0.10412998 -0.5870113 -0.09349875
-0.07617315 -0.35814098 0.13444859 -0.3095921 -0.21437521 -0.15278898 0.14286 -0.1856749
-0.16288598 -0.29088947 0.21457113 -0.3970514 -0.5795089 0.25816143 -0.36577561 0.0042297468
0.008819562 -0.3095905 0.32402802 -0.2649285 -0.38765952 0.058307823 -0.13834116 -0.16465703
-0.03545568 -0.33079988 -0.3536032 -0.21656586 -0.12629811 -0.083150566 0.25895452 -0.50897545
-0.52530134 0.2679279 -0.361592 0.27880293 -0.18063436 -0.1941134 0.41461676 -0.0063539147
-0.06527085 -0.018842155 0.21141377 -0.30454224 -0.24394526 0.11581639 -0.2284802 -0.13248679
-0.058237568 -0.057793446 -0.14361985 0.061691854 -0.28380144 0.10872842 -0.099223174 -0.21535772

blocks.0.dense.weight f4 [1, 83]
00000000: c43f e2bc 7b30 c0bd 6a5c dbbc 779c abbc
00000010: b20b ad3b 5039 193e a1ea 98bd 9157 8fbc
00000020: a726 aabc 0397 993c 1794 46bd 0c1a af3b
00000030: 23bf 97bb 7ee5 bd3c ba1b aa3c ae16 c53c
00000040: 325d 243e 8e83 e23c 2696 d83c 7161 c2bb
00000050: 7aa0 f63d a4b6 753d 7820 2c3d 4c63 a63c
00000060: 1a9c d53c 3c2c 143d 438d 94bb 65ec 7dbd
00000070: a6af 02bc cd5d 193d 1496 053e 1286 003d
00000080: c28f eb3d a24e 0b3e 8c1f 4cbd c5cc 56be
00000090: 682d 66bd 9b13 22be 866a c03e a035 76be
000000a0: 8f17 ffbd 295a eabd 567f 0dbe 5c69 23be
000000b0: ac3f 57be 4933 6fbe f67f 3ebe 7ca9 45be
000000c0: 4514 59be c7f1 8bbe 0871 e4be 3671 ebbe
000000d0: 62f0 cfbe a43f eabe c133 dabe 6092 b7be
000000e0: 94c2 5cbe 4c29 8fbe 4442 16be 77b5 2ebe
000000f0: b4fc 0dbe 4a1b 09be 0af7 2bbe 5aa4 4fbe
00000100: 50dc 0fbd da7e adbd 8550 6fbc f45a c03d
00000110: 6e5d b7bd 292c d2bb 666f ca3d 2b51 8e3d
00000120: 7825 10bd 0c6e e33c 45a6 21be 6571 533b
00000130: 758a 973d e489 a23d 2220 95bd 4127 9bbd
00000140: a032 ccbc 8cd6 24bd d358 bf3c
-0.027618296 -0.09384247 -0.026777465 -0.020948632 0.005280935 0.14963269 -0.07466627 -0.01749781
-0.020770384 0.018748766 -0.048481073 0.005343681 -0.0046309396 0.02318072 0.020765174 0.024058666
0.16051176 0.02765062 0.026438784 -0.005932026 0.12042327 0.059988633 0.042023152 0.02031102
0.026075412 0.036174998 -0.0045334413 -0.06199302 -0.007976448 0.03744297 0.13045532 0.03137786
0.11502029 0.13604215 -0.049834773 -0.20976551 -0.056195647 -0.15827791 0.3758127 -0.24043894
-0.12455665 -0.11442978 -0.13818106 -0.1595816 -0.21020383 -0.23359407 -0.186035 -0.19302934
-0.21199138 -0.273329 -0.44617486 -0.4598481 -0.40613085 -0.4575168 -0.4261761 -0.35853863
-0.215586 -0.27961195 -0.14673716 -0.17061411 -0.1386593 -0.13389316 -0.16793457 -0.20277539
-0.035122216 -0.08471461 -0.0146066 0.09392348 -0.08953367 -0.0064139557 0.09884529 0.06949075
-0.035191983 0.027762435 -0.15786083 0.0032263633 0.073994555 0.07936457 -0.072815195 -0.075758465
-0.024926484 -0.04024367 0.023357784

blocks.1.conv.weight f4 [1, 1, 15, 4]
00000000: 8231 65bd 46ae a5bb 4e03 70bc f9b5 edbd
00000010: 7be0 b73c 39a9 493e 41b9 ca3c 914f 75bd
00000020: 87fa 1c3d c8bc 8f3d cfec 073e aa5e 94bc
00000030: 3a85 d53d 6566 63bc 9e8a b83c 0598 51bc
00000040: 776e 74bd 1d39 6a3d b699 cfbb 0ec9 793a
00000050: bdcd cabd d888 313e 5de3 09be 006a 2c3e
00000060: 486c d73d 9b64 983d 3fab 3d3e dbe4 1abe
00000070: 9ba0 f3bc e237 d5bf 9e0b f43d d0fe b93e
00000080: 13e1 d4bf 09f4 333e 8181 013e 9de2 093f
00000090: 1c12 f33c 07c7 5a3e 2b5f 1f3e 1b78 a3be
000000a0: 4017 7abe 006a c63e 6dfc 71be 2ac5 1ebd
000000b0: 955f 363c 493d 813e 8d52 5b3d aab9 cbbd
000000c0: 29ef 293d 224c 873c af8e 133c 1b73 aa3c
000000d0: 5456 043d 403b 4a3d 088a f63c eb2f 15bd
000000e0: 0fb2 f83c 0947 7abd 338c 9dbc f7b8 ad3c
-0.055955417 -0.0050561754 -0.014649225 -0.11606974 0.022445908 0.1969346 0.02474654 -0.059890334
0.03832486 0.07018429 0.13273929 -0.018111546 0.104258016 -0.013879393 0.022527035 -0.012792592
-0.05967566 0.057183374 -0.0063354624 0.00095285557 -0.09902523 0.17337358 -0.13465638 0.16837311
0.105187 0.07441064 0.18522356 -0.15126364 -0.029739669 -1.6657679 0.11916278 0.3632722
-1.6631187 0.17573561 0.12647058 0.5386141 0.029671721 0.21364985 0.15563647 -0.3192757
-0.24422932 0.38752747 -0.23631449 -0.03876225 0.011131187 0.2524207 0.053545523 -0.09947522
0.041487847 0.016515795 0.009006186 0.02080684 0.03230889 0.04937291 0.030095115 -0.03642265
0.030358342 -0.0611029 -0.019231891 0.021206362

blocks.1.dense.weight f4 [1, 86]
00000000: a5cd 043c 68c8 26bd 85b2 47bd 5593 313c
00000010: aef3 3abc eade 3cbd df38 d93b 4fd6 8bbc
00000020: 5b6a 06bd 7bbc 1fbe adf4 8bbd cc60 20bd
00000030: f322 583d f475 cabd 7e6e f6bd 8690 82bd
00000040: 3c91 bebd af46 c9bd 996c b3bc 2888 cebd
00000050: 3af8 f7bd 17e2 10be ab5f 99bd 149a 15be
00000060: 0489 62be 42a7 bbbe 15c5 61be cc77 cdbe
00000070: 9aaf 92be 2670 02bf cfb9 ffbe 9128 acbe
00000080: a0eb 96be ae10 d8be 6eb8 ecbe 23d9 eebe
00000090: 132f 9ebe c57f efbe 21b9 813b 14dc 41bf
000000a0: 0341 edbe fc09 993e 20ab aabd 2ffd 7d3e
000000b0: 3a46 8a3e da7d 823e 1918 963e 6146 b03e
000000c0: 0946 a93e 7f05 be3e ecea b93e 3801 c73e
000000d0: 5108 d43e c9f2 923e 11ff be3e b6e2 b43e
000000e0: 40df aa3e 73b2 b83e 0f43 913e 32e3 7b3e
000000f0: c9e4 563e 9f36 7b3e beb3 f83d 7313 483e
00000100: 3e5c 643e cd7d 293e c971 283e c944 ea3d
00000110: d0e5 1b3e 3a69 b93d 0478 143e f049 3d3e
00000120: 673d 583d a696 9a3d c8f5 a73d 80c8 543d
00000130: 3155 e2bb 9be1 913d 3729 10bd 72d1 753d
00000140: cdf1 f93b 4cdb 963c 270e 383d 14ff dabc
00000150: 040e 41bd f78e 5139
0.00810567 -0.040718466 -0.048754234 0.010838349 -0.011410637 -0.046111025 0.006629094 -0.017069964
-0.032816272 -0.15599243 -0.068337776 -0.039154813 0.052767705 -0.09885779 -0.120327935 -0.06375222
-0.09305045 -0.09827935 -0.02190237 -0.100845635 -0.12107892 -0.14148746 -0.0748895 -0.14609557
-0.2212258 -0.36651045 -0.22047837 -0.4013046 -0.28649598 -0.50952375 -0.49946448 -0.336247
-0.29476643 -0.42200226 -0.4623446 -0.46650037 -0.3089529 -0.46777168 0.0039588367 -0.7572644
-0.46338663 0.2989043 -0.08333421 0.24803613 0.27006704 0.25486642 0.2931526 0.34428695
0.33061245 0.37113568 0.36312044 0.38868117 0.41412595 0.28700855 0.37303975 0.35329217
0.3337345 0.36073646 0.28371474 0.24598387 0.20985712 0.24532555 0.12143658 0.1953867
0.22300813 0.16551895 0.16449656 0.11438901 0.15224385 0.090532735 0.14498907 0.18485236
0.052792933 0.07548265 0.08201176 0.051949024 -0.0069071283 0.07123109 -0.035195556 0.060014196
0.007627702 0.018415116 0.04493537 -0.026732959 -0.047132507 0.00019985052

blocks.2.conv.weight f4 [1, 1, 5, 4]
00000000: 02e0 ac3b 6bce b5bd ae2f 9f3e f61c 78be
00000010: c0a7 a73e 2006 5fbf adf5 3f3d e4fd 6abf
00000020: 4ab1 b73e f637 32be 53a6 7bbf 2990 62bd
00000030: d08e 13be 0c39 a33d c3c1 29bc f088 d73d
00000040: bd3f f53c 5c7a 5e3e e574 1c3e 062a 3f3e
0.0052757272 -0.08877262 0.31091064 -0.24229798 0.3274517 -0.8711872 0.046865154 -0.91793656
0.35877448 -0.1740416 -0.98300666 -0.055313263 -0.14409947 0.07969865 -0.010361138 0.10524166
0.02993762 0.21726364 0.15278967 0.18668374

blocks.2.dense.weight f4 [1, 96]
00000000: 55db 78bd 3f5a 7e3c bd13 743c 8355 7dbb
00000010: aa36 6abc ba60 093d f853 463d eed8 333d
00000020: 4a21 8abd 21b5 7a3c d9ce 923c e7b8 913c
00000030: 9e92 f8bc 53a7 863d 2ccc 70ba 897f 353d
00000040: 08f4 bebd 4f54 66bd bac4 c03d 4971 d53c
00000050: bcc8 793d f823 843d da31 debc 1072 2dbd
00000060: 0f8b 123b 3d40 b7bc a5b8 df3b 8319 23bc
00000070: 9ca0 e5bd 80c2 d33c 3f6a 61bd 87df 87bc
00000080: da74 01be aa4c 68bd a9ea dabb 4bd5 9ebd
00000090: 5ab7 abbd ddab 07be a646 aabd e834 ddbd
000000a0: a910 47bd 698d d0bd 26b4 fcbd 96c8 33bd
000000b0: 4d26 003b 516e b23d dd8b 01be 7b58 443e
000000c0: 7586 0c3f 794b bf3e 9096 973e 3bf4 bf3e
000000d0: 54d2 003f 1bfd d03e bd5c f03e ba2a 093f
000000e0: d67f 023f 637c 0b3f b3c7 003f 7c87 073f
000000f0: 1198 ee3e e866 ee3e 199e f93e 439c d03e
00000100: d99f dc3e cd08 b33e 058f a53e 3d58 ad3e
00000110: 4938 a43e 55c0 7e3e a6b1 903e 3c9a 6f3e
00000120: 9be8 8e3e 78a3 283e b351 653e 5bcb 1c3e
00000130: 888b 783e b581 2c3e 8147 3d3e 9b65 253e
00000140: 21ac 103e ba21 2d3e df9c fa3d efa6 c93d
00000150: 9be7 e23d ea21 3d3d 583f ab3d d0c9 a1bc
00000160: d440 ce3d e1f7 393b 2a7f 963d 3d4f a43d
00000170: 9651 f2bb ed8e 3f3d 3f11 173d aee3 4f3d
-0.060756046 0.015524446 0.014897284 -0.0038655705 -0.0142952595 0.03353951 0.048419923 0.043908052
-0.06744631 0.015301974 0.017920898 0.017788364 -0.03034335 0.06574883 -0.00091856974 0.04431108
-0.09323889 -0.056232747 0.094125226 0.026054995 0.06098245 0.06452173 -0.02712338 -0.042345107
0.0022360717 -0.022369498 0.0068274313 -0.009954813 -0.112122744 0.02584958 -0.055032965 -0.016586078
-0.12642232 -0.056713738 -0.0066808057 -0.07755526 -0.08384581 -0.13249154 -0.08314256 -0.10801107
-0.048599873 -0.10183222 -0.12339048 -0.043892466 0.001955408 0.087124474 -0.1265101 0.19174378
0.54892665 0.3736227 0.29607058 0.3749102 0.50320935 0.40818104 0.46945754 0.5358082
0.5097631 0.54486674 0.50304717 0.5294111 0.46600392 0.46562886 0.4875343 0.40744218
0.43090704 0.34967652 0.32335678 0.33856383 0.32074192 0.24878056 0.28260535 0.2339868
0.2791184 0.16468608 0.22394447 0.15311949 0.24271977 0.16846354 0.18484308 0.1615204
0.14128162 0.16907397 0.12236952 0.09846293 0.110793315 0.04617492 0.08361691 -0.019749552
0.10070959 0.0028376507 0.07348473 0.08022926 -0.0073949797 0.046767164 0.03688168 0.05075424

blocks.3.conv.weight f4 [1, 1, 3, 4]
00000000: 0302 57be ec78 313e 3118 2cbe d0a6 7fbe
00000010: ed19 6dbe 05de d9be 22e9 9a3e edbf 1c3e
00000020: a769 223e 4eda 3a3e 0ae8 1fbe d24e 5cbe
-0.20996861 0.17331284 -0.16806103 -0.24965978 -0.23154421 -0.425522 0.3025599 0.15307589
0.15860616 0.18247339 -0.1561586 -0.21514443

blocks.3.dense.weight f4 [1, 98]
00000000: b70a 80bc d5eb da3c 5a9d 523b 4fc8 c03c
00000010: 69ca 283c 5b7c 00bd b8b6 13bd 9f37 42bd
00000020: a0b8 0cbc ec1c 893c 9afd 2c3d bc47 b53c
00000030: 2726 9abc 8974 9b3a c901 f23c 3286 68bd
00000040: 52ad 353c 7cc5 d2bc a178 913c 0f68 46bc
00000050: 4050 953c 27a6 9c3b 6520 fb3a 520d 69bb
00000060: 088f 83bc 8416 f23c 31d8 47bc 4fcc 99bd
00000070: 9739 a7bc f677 2cbd be0b 3dbd f7d3 1d3d
00000080: 5e66 a73d 57a4 04be 5aa1 04be 21d0 1abe
00000090: 1c37 ffbd 7eb5 77bd 6b33 02be 979a cfbd
000000a0: 0233 f53b b3dc 19be db7b 5bbe 8c46 99be
000000b0: d387 2bbd 4a11 23be 60f1 763d f250 3ebe
000000c0: 36c3 95ba f257 c2be 2ae8 babe 2013 a3be
000000d0: b450 a6be 06d6 aebe 8d82 d9be 01cb d4be
000000e0: 9efd aabe 2325 acbe 0ad3 aebe 55f7 b2be
000000f0: 0bae d0be 53c1 b0be 0ba0 9abe 5da0 8bbe
00000100: 1d86 63be 47c2 7dbe 922e 64be 0a8a 77be
00000110: 7a5b 37be 3d4d f1bd 8bab cabd c830 d1bd
00000120: 4005 e1bd 3aac bfbd 10cd 93bd ec9e b2bd
00000130: 3464 bcbd f501 02be afe2 79bd df69 b4bd
00000140: f5df 12be e7c7 babd e394 82bd 7444 dcbd
00000150: b088 59bd 9926 c9bd 2771 09bd 335d 33bd
00000160: 321c 93bd bdca 05bc 21fa 43bd c34b 87bc
00000170: b582 95bb 4c9c 2cbd 4008 e43b 60a5 1dbd
00000180: 898e 7dbc 0709 f6bb
-0.01563011 0.026723782 0.0032137246 0.023533015 0.010302165 -0.031368595 -0.036062926 -0.047416326
-0.00858894 0.016737424 0.04223404 0.022128932 -0.01881702 0.0011860292 0.029541867 -0.056768604
0.011088686 -0.025728934 0.017757716 -0.01210977 0.018226743 0.004780549 0.0019159435 -0.0035560918
-0.016059414 0.029551752 -0.01219754 -0.07509672 -0.020413203 -0.04210659 -0.046153776 0.038532224
0.08173822 -0.12953316 -0.12952176 -0.15118457 -0.12461683 -0.06047582 -0.12714927 -0.101369075
0.0074828872 -0.15025596 -0.21433966 -0.29936635 -0.04187758 -0.15924564 0.060288787 -0.18585566
-0.0011425975 -0.37957722 -0.36505252 -0.3185053 -0.32483447 -0.34147662 -0.42482415 -0.4156113
-0.3339662 -0.33622083 -0.34145385 -0.34954324 -0.40757784 -0.34522495 -0.30200228 -0.27270785
-0.22219129 -0.24781142 -0.2228339 -0.24173751 -0.1790599 -0.1178231 -0.098960005 -0.102143824
-0.109873295 -0.093590215 -0.07216847 -0.08721718 -0.091988 -0.12696059 -0.061007198 -0.08809256
-0.14343245 -0.091201596 -0.06376054 -0.10755244 -0.05310887 -0.09821815 -0.033555176 -0.043790054
-0.07183112 -0.008166012 -0.047845963 -0.016515618 -0.0045627006 -0.042141244 0.0069589913 -0.038487792
-0.015475878 -0.0075084004

blocks.4.conv.weight f4 [1, 1, 4, 4]
00000000: d489 823e b517 493e 44bc f33d 6e8a c2bd
00000010: cd5b bebe e066 fcb9 0ded 9c3e 830d 00bd
00000020: 1bb9 793e c620 8bbd f2ec 3abf 0c1c 483e
00000030: b0b1 c0bd b6a4 0fbe 21d7 1a3e b690 2ebe
0.2549578 0.1963795 0.11901143 -0.094990596 -0.37179413 -0.00048141833 0.30649605 -0.031262886
0.24387018 -0.067933604 -0.730178 0.19541949 -0.09408891 -0.14027676 0.15121128 -0.1704739

blocks.4.dense.weight f4 [1, 97]
00000000: 4f5b 5c3d e650 75bd 19c4 d33b 5e80 b53d
00000010: 1fed 4a3d 2cd7 1ebd ec7f 22bc 51ce 4c3d
00000020: ac78 493c 51ce bebc d88a 9cbd acc2 63bd
00000030: 7888 db3c c7c5 b6bb 3c82 e93d 68b0 cd3d
00000040: 7da8 35be 1db4 0bbd f6a5 28bd 6655 82bb
00000050: 864f 08bd 4b26 c93a a89b cdbd 6742 3cbe
00000060: 5484 48be f357 03be 6a2c 39be 132b 33be
00000070: a55d c0bd a794 febc d2eb 1bbe 2201 4fbe
00000080: 6269 18be 7141 8abe 491e 1cbe dcb7 5ebe
00000090: 00f2 2bbe c14a 65be 9fe0 1c3c fdc6 0dbe
000000a0: 511d 1bbe db03 1fbe cc0b 10be 2ee1 a0ba
000000b0: aa9c babe d83b 703e 30b7 90be a1fd 50be
000000c0: f2c5 c83d a23e cfbe 09b2 01be 85f2 adbe
000000d0: cc79 e0be 81ce e9be 0171 9dbe 9d1d aabe
000000e0: c8a1 87be afa2 86be f3cb adbe 6a95 55be
000000f0: 9ec6 36be a93f 3fbe 5038 3fbe c539 64be
00000100: 15b7 6cbe 08e4 bcbd 644b 74be 2bc4 fcbd
00000110: 9dea 16be d1ba 44be d883 bebd 9e96 29be
00000120: f515 0cbe 1f8f 36bd d365 23bd afdd 37bc
00000130: b1a9 20be 1636 ad3c c992 393b c72f 233d
00000140: e2ce 98bc 32fa 223a 096e 663d 4723 11bd
00000150: 21f3 d4bc e027 963c 3dfc 6dbc d060 babd
00000160: 335a 8d3d 15f7 ccbc 73c0 1ebd 2b11 bf3c
00000170: da39 213e 4fec 8dbc 09f9 ea3c 234e 013e
00000180: 16c3 a53d
0.053798016 -0.059891604 0.0064625856 0.08862375 0.049542543 -0.038779423 -0.009918194 0.050001446
0.012296837 -0.023291739 -0.0764367 -0.055605575 0.026798472 -0.005577776 0.11401793 0.100434124
-0.17740054 -0.034107316 -0.041173898 -0.0039774654 -0.033278964 0.0015346495 -0.10039455 -0.18384705
-0.19581729 -0.12826519 -0.18083349 -0.174969 -0.09392861 -0.031076742 -0.15226677 -0.20215276
-0.1488395 -0.27003053 -0.15245928 -0.21749824 -0.16791534 -0.22391798 0.009575038 -0.1384544
-0.15147902 -0.15528814 -0.14067 -0.001227414 -0.3644765 0.23460329 -0.2826476 -0.20409252
0.0980338 -0.40477473 -0.12665571 -0.3397409 -0.43842924 -0.45665362 -0.30750278 -0.33225718
-0.26490617 -0.26295993 -0.33944663 -0.20857778 -0.17849204 -0.18676628 -0.18673825 -0.22287662
-0.23116715 -0.09223181 -0.23856884 -0.123421036 -0.14737935 -0.1921189 -0.09302491 -0.16561362
-0.13680251 -0.044570085 -0.03989203 -0.011222287 -0.15689732 0.021143954 0.002831625 0.039840486
-0.018653337 0.00062170916 0.05625728 -0.035434034 -0.02599484 0.01832956 -0.01452547 -0.09100497
0.0690197 -0.025020162 -0.038757753 0.023323616 0.15744725 -0.017324595 0.028683202 0.12627463
0.0809385

blocks.5.conv.weight f4 [1, 1, 16, 4]
00000000: 4397 b33d 3a70 57bc d2c1 94be d853 69bd
00000010: b98b c4b9 428c c1bd 4966 a53d 1aa4 dabe
00000020: 8966 1ebe dd52 9c3e 533d 12bf 9edf c33d
00000030: 6577 c03d 224e 09be 24d8 d0be 9e6d bfbd
00000040: 1e94 553d b551 a9bd ba88 bd3e 6795 d2be
00000050: fd37 db3d 14ad 663d d5f4 96bd 6bc9 bcbd
00000060: 65de ed39 772c 88bb 3ba1 1abe 10dd a33d
00000070: aebe 013d ed2b b5bd 1652 52bd c409 6b3c
00000080: 8ee6 b0bd 52fc 17bd ac16 c9bd 84cb 07be
00000090: af07 143d b1fe 51bd efd0 433d 0cd7 92bd
000000a0: cd19 813d 5cfe 793d 0baa b6bd 7a09 59bd
000000b0: 7bc0 7b3d 4147 723c 825e 05be a645 18be
000000c0: a1bf 84bd 8359 9b3c e38b 83bb 0a8e abbd
000000d0: c950 ce3d 71ab dc3d 81b1 2abd ba25 1a3d
000000e0: 5daa 9e3d 1d7d 973c 0280 a2bd 1b56 503b
000000f0: 5798 513d 30f4 f8bc 5581 4ebd 21c9 b1bd
0.08769085 -0.0131493155 -0.29054123 -0.056964725 -0.00037488135 -0.0945058 0.0807615 -0.42703325
-0.15468802 0.3053197 -0.57124823 0.09564136 0.09397773 -0.13408712 -0.40789902 -0.0934708
0.05214321 -0.082675375 0.37018377 -0.4112961 0.10704038 0.056317404 -0.07370917 -0.09218105
0.0004536986 -0.0041556912 -0.15100567 0.08001149 0.031675987 -0.08846269 -0.051347815 0.01434559
-0.08637725 -0.037105866 -0.098187774 -0.13261229 0.03614014 -0.051268283 0.047806676 -0.07169923
0.06303749 0.06103359 -0.08919152 -0.052987553 0.06146286 0.014787496 -0.13024333 -0.14870319
-0.06481863 0.018963581 -0.0040144785 -0.08376701 0.10074002 0.10774887 -0.041673187 0.037633635
0.07747338 0.018492276 -0.07934572 0.0031789604 0.051170673 -0.030389875 -0.05041631 -0.086809404

blocks.5.dense.weight f4 [1, 85]
00000000: 8a83 60bd a7a1 f5bd c410 ac3c f84b 883c
00000010: 5b4e 46bd 0fba 9ebc 1421 9dbd 8238 8f3c
00000020: ecff c3bc 5f01 5b3c d5c9 12bd 7835 bdbd
00000030: 959d 8abd 60a0 d6bd 43dc 883c eac7 c7bd
00000040: a0af 52bc 30c0 dcbd 8d62 9bbd 65e0 e1bc
00000050: d34f d839 c913 60bd e07c afbd 8bfb a0bd
00000060: e01a 3ebd 0a49 80bd 32b7 11bc d9f0 1cbc
00000070: 91c5 173c b3eb 99bd 2720 6fbd 5635 6bbc
00000080: 6ae9 bdbd e7d9 42bd 79ea 97bd 7378 5f3d
00000090: dc10 04bd 09af 1e3c 3cec 253d a080 b0bd
000000a0: c6de edbc 550c 8dbd 5e59 d53c 7a38 683e
000000b0: e4d2 b43d 9875 a4b8 1e9a 8b3d 148b 12bd
000000c0: a48a 323e a877 033e 9cbb 3a3e aef3 0f3e
000000d0: ca39 323e 9c89 633e f067 3b3e 7161 523e
000000e0: 1137 813e d09f 503e e8ce 1c3e ae52 713e
000000f0: a187 493e 3ec3 5d3e 2dd7 113e a902 c13d
00000100: ff50 273e 2065 5d3e 7967 ff3d ab13 0e3e
00000110: 72a2 ce3d a079 51bc 252e 623d 1e1f c53d
00000120: 478c 563e 9d10 0f3e 2a8d c63d 0c51 453d
00000130: 0e9a db3d b055 193e 8b34 963d 7a98 e13d
00000140: 0004 0c3d 0310 123e 6f32 34bd ba25 04bc
00000150: 59cb e9bd
-0.054812945 -0.11993723 0.021004088 0.016637787 -0.04841457 -0.019375829 -0.07672325 0.017483
-0.023925744 0.013367026 -0.035837013 -0.09238714 -0.06768338 -0.10479808 0.016706591 -0.097549275
-0.012859255 -0.10778844 -0.075871564 -0.02757282 0.00041258204 -0.05470637 -0.0856874 -0.07860478
-0.04641235 -0.06263931 -0.008893775 -0.009578907 0.009263412 -0.07515659 -0.058380272 -0.014355978
-0.09273036 -0.04757109 -0.07417769 0.05455823 -0.03224264 0.009685286 0.040508494 -0.08618283
-0.02903689 -0.06887118 0.02604359 0.22677794 0.08829287 -7.842033e-05 0.06816505 -0.035777166
0.174357 0.12838614 0.1823563 0.140578 0.17404857 0.22220463 0.18301368 0.20544983
0.25237325 0.20373464 0.15313303 0.23566696 0.19680645 0.2165651 0.1424224 0.094243355
0.16339491 0.21620607 0.12470908 0.1387469 0.10089578 -0.012785345 0.055219788 0.09625076
0.20951949 0.13971181 0.09694894 0.048172995 0.10722743 0.14974093 0.073342405 0.11015411
0.034183502 0.1426392 -0.04399341 -0.008065635 -0.114157386

linear.weight f4 [1, 7]
00000000: 4673 403e 00c5 cd3d 3061 78bd 0c66 d5bd
00000010: b1ad 8cbe 8072 88bd e89a 0c3e
0.18793973 0.100473404 -0.06063956 -0.104198545 -0.27476266 -0.06662464 0.13730967
