models/100bp_arround_STRends_models/hg38AAAC_.pt (torch, 10275 bytes, 13 tensors)

last_block.conv.weight f4 [1, 1, 17, 4]
0	0x3b7536af	0.0037416627
1	0xbe2369a5	-0.15958269
2	0xbe97aa48	-0.29622102
3	0xbde637da	-0.112411216
4	0xbc860bd1	-0.016363056
5	0xbe59b38d	-0.212599
6	0xbe7eff67	-0.24902116
7	0xbdcc86ed	-0.099866726
8	0xbd2cdb3f	-0.042201277
9	0x3e171a07	0.14756022
10	0xbe62c8f5	-0.22146972
11	0xbd6f692d	-0.058449913
12	0xbc8f983d	-0.017528648
13	0x3d870339	0.065924115
14	0xbe65cf68	-0.224424
15	0xbe8a5497	-0.27017662
16	0x3ddc3d65	0.107538976
17	0xbec2ebac	-0.38070428
18	0xbe6c91c6	-0.23102483
19	0xbea2f361	-0.31826308
20	0x3d207eca	0.039183415
21	0xbb68f249	-0.0035544804
22	0xbe934e85	-0.28770843
23	0xbe7ab995	-0.24484856
24	0xbc1a201f	-0.009407072
25	0x3d983d9d	0.07433627
26	0xbe1b5489	-0.15168966
27	0xbe487232	-0.19574812
28	0x3e0f2aee	0.1398122
29	0xbeb7a162	-0.35865313
30	0x3dac63b8	0.08417457
31	0xbd7aa473	-0.061191987
32	0x3d8fd6da	0.070234016
33	0xbea6ef6a	-0.32604533
34	0x3daa83e2	0.08325936
35	0xbe527596	-0.20552668
36	0x3dc1919b	0.094516
37	0xbeceb016	-0.40368718
38	0xbe0cacb7	-0.1373776
39	0xbd2a521e	-0.04158222
40	0xbe9f5e57	-0.31126663
41	0x3d2d0453	0.042240452
42	0xbe64ceba	-0.22344485
43	0x3d500b34	0.050791934
44	0x3d465e92	0.048430033
45	0xbe43d6fd	-0.1912498
46	0xbe3d9ce1	-0.18516876
47	0xbb20fa0a	-0.0024563097
48	0xbd6ec231	-0.058290664
49	0xbe969c1c	-0.29415977
50	0x3ad04a61	0.0015891307
51	0x3c97b39b	0.01851826
52	0xbdb0b9c7	-0.08629184
53	0xbe72ef2d	-0.23724051
54	0x3dac846f	0.08423697
55	0x3d778519	0.060429666
56	0x3cfd32a5	0.030907938
57	0xbd01281f	-0.031532403
58	0x3d4c1ab6	0.04983016
59	0xbbaab9f0	-0.0052101538
60	0x3c7bdbb5	0.015372206
61	0xbe1d7a3f	-0.15378664
62	0x3d9ce1da	0.07660265
63	0xbd167aaf	-0.036738094
64	0x3d8455d3	0.06461682
65	0xbe713e8d	-0.23559017
66	0xbd9be193	-0.07611384
67	0xbdb025be	-0.08600949

last_block.dense.weight f4 [1, 84]
0	0xbdaf91b3	-0.08572712
1	0x3d3ef31b	0.046618562
2	0x3e02ab82	0.12760738
3	0x3e69e821	0.22842456
4	0x3e15a3fa	0.14613333
5	0x3d7b681a	0.061378576
6	0x3d7199fe	0.05898475
7	0x3dc409d5	0.09572188
8	0x3d6c5d09	0.057705913
9	0x3e1a1beb	0.15049712
10	0x3dabc214	0.08386627
11	0x3c84d8d8	0.01621668
12	0x3dbe756c	0.0929974
13	0x3e36b516	0.17842516
14	0x3db00857	0.08595341
15	0x3e56aea1	0.20965053
16	0x3e1d38fa	0.15353766
17	0x3d820ca0	0.06350064
18	0x3e61cb78	0.22050273
19	0x3dea664e	0.11445294
20	0x3e0bc9ad	0.13651152
21	0x3db4badf	0.08824705
22	0x3e074845	0.13211162
23	0x3e2d11b0	0.16901278
24	0x3e0dd953	0.13852434
25	0x3e033e89	0.12816824
26	0x3d939e5f	0.07207941
27	0x3db25028	0.08706695
28	0x3df24a39	0.11830563
29	0x3e001e78	0.12511623
30	0x3dd12dfb	0.10213848
31	0x3d6348ee	0.055489473
32	0x3d9efafe	0.07762717
33	0x3d21b042	0.039474733
34	0x3d9472a2	0.07248427
35	0xbe3f0c74	-0.18657094
36	0xbe06872b	-0.131375
37	0xbdc05eea	-0.093931034
38	0xbd555ec5	-0.052092332
39	0x3d8b5add	0.0680444
40	0x3e4e7a86	0.20163926
41	0x3e0f2d97	0.13982235
42	0x3dc96e51	0.09835494
43	0x3cb6e057	0.02232377
44	0x3e28c369	0.16480793
45	0x3db713f3	0.08939352
46	0xbdaca559	-0.08429975
47	0xbc94821c	-0.018128447
48	0xbdcd3f26	-0.1002181
49	0xbdbcf8d9	-0.092271514
50	0x3d8d81cc	0.069095224
51	0xbc56c528	-0.013108529
52	0x3e18a02b	0.14904849
53	0x3db016fb	0.08598133
54	0x3dc30ff8	0.0952453
55	0x3d2f69db	0.04282556
56	0x3dc2bb17	0.09508341
57	0x3c86dcf4	0.01646278
58	0xbdbe2bbc	-0.092856854
59	0xbdaab5ee	-0.083354816
60	0xbe0e97a0	-0.13925028
61	0x3ddc4fcc	0.107574075
62	0x3db66ef8	0.08907884
63	0xbc22d886	-0.0099393185
64	0xbe021f34	-0.12707216
65	0x3d84d11c	0.06485197
66	0x3dce2605	0.100658454
67	0xbe5bbbc8	-0.21458352
68	0x3e06080f	0.13089012
69	0x3cfe10b3	0.031013822
70	0xbe84f4dd	-0.25968066
71	0xba95172f	-0.0011374707
72	0xbc4dc299	-0.012558603
73	0x3c553e3a	0.013015324
74	0xbe37525e	-0.17902514
75	0xbe66611f	-0.22497986
76	0x3cc68e3c	0.024237745
77	0x3de6eb49	0.11275346
78	0x3daef41d	0.08542655
79	0x3e1af2af	0.15131639
80	0xbd5e55ac	-0.05428092
81	0xbe33b74e	-0.17550394
82	0x3dec9503	0.11551859
83	0xbe92fdbb	-0.28709206

blocks.0.conv.weight f4 [1, 1, 14, 4]
0	0xbdd59f2c	-0.1043075
1	0xbd18e969	-0.037331972
2	0xbd4eecbf	-0.050518747
3	0xbd7a9033	-0.061172675
4	0xbd914b4c	-0.0709444
5	0x3e1ac094	0.15112525
6	0x3c004673	0.007829296
7	0x3e3c2f72	0.18377474
8	0x3dc1aa58	0.094563186
9	0x3d070c45	0.032970686
10	0xbcd3e00d	-0.025863672
11	0xbd2feb5a	-0.042949058
12	0xbd891081	-0.06692601
13	0x3d40766a	0.04698793
14	0x3b6dfa56	0.0036312542
15	0xbd0d7323	-0.03453363
16	0xbdc85002	-0.09780885
17	0x3e0c7f7c	0.13720506
18	0xbf11daf2	-0.5697471
19	0xbdab9b12	-0.08379187
20	0xbd6283bc	-0.055301413
21	0xbf0be048	-0.546391
22	0x3ee5c2aa	0.4487508
23	0xbeb08894	-0.344792
24	0xbf012829	-0.50451905
25	0x3f06a071	0.52588564
26	0xbf2a3aaa	-0.66495764
27	0xbef0f1aa	-0.47059375
28	0xbd95d0c3	-0.07315209
29	0xbeda3cfd	-0.42624655
30	0x3e94c5f1	0.29057267
31	0x3ebf5f9e	0.37377638
32	0x3e0a652c	0.13515157
33	0x3d774340	0.06036687
34	0x3d01eb30	0.031718433
35	0xbec10f99	-0.37707213
36	0xbdbf3f6a	-0.09338267
37	0x3d4c724e	0.049913697
38	0x3ca041d5	0.019562641
39	0xbcd065b9	-0.02543913
40	0xbcc7b84d	-0.024379874
41	0x3e2465dd	0.16054483
42	0xbd4e9c76	-0.05044218
43	0xbdd908c5	-0.10597376
44	0xbe4a89d2	-0.19779137
45	0xbe200422	-0.15626577
46	0xbdcd7f2f	-0.10034024
47	0xbd3c6011	-0.045990054
48	0xbdca71d6	-0.09884994
49	0xbd647bd0	-0.05578214
50	0xbe046606	-0.12929544
51	0xbe4256ee	-0.18978474
52	0xbdc3d877	-0.09562772
53	0xbbccd777	-0.0062512713
54	0x3c8b7abd	0.0170263
55	0xbd604aa7	-0.054758694

blocks.0.dense.weight f4 [1, 87]
0	0xbb01fbae	-0.001983385
1	0xbc87804a	-0.016540665
2	0x3d0894dd	0.033345092
3	0xbcd91d9e	-0.02650338
4	0xbcbc9bb7	-0.02302347
5	0xbb9c2254	-0.0047648344
6	0xbd88e480	-0.06684208
7	0xbc7354ee	-0.014851792
8	0xbc8f0b1c	-0.017461352
9	0xbc9dc654	-0.01925961
10	0x3af69bc2	0.001881473
11	0xbcf8827c	-0.030335657
12	0xbd21d50a	-0.03950981
13	0x3d65d669	0.05611268
14	0x3d1b1097	0.03785762
15	0xbb01d4c7	-0.0019810663
16	0xb98c17b3	-0.00026720538
17	0xbaa01187	-0.0012212255
18	0x3d488c79	0.04896209
19	0x3cc1288b	0.023578903
20	0xbcbbeac4	-0.022939093
21	0xbc762423	-0.015023264
22	0x3bc07f83	0.0058745756
23	0x3d672611	0.056432787
24	0x3c83dff5	0.016098002
25	0xbb8c8d8a	-0.0042893337
26	0xbc06c11b	-0.008224751
27	0xbc897d19	-0.016783284
28	0xbd706353	-0.058688473
29	0x3c8e0c3b	0.017339816
30	0xbddabea3	-0.10680892
31	0xbe54a080	-0.20764351
32	0xbe37c9b6	-0.1794804
33	0xbd906d60	-0.070521116
34	0xbbe65244	-0.00702885
35	0xbe075866	-0.13217315
36	0xbe9cb4d5	-0.30606714
37	0xbe242096	-0.16028056
38	0xbe9aa3e4	-0.30203164
39	0xbef0f557	-0.4706218
40	0xbda61825	-0.08110074
41	0xbede0ba9	-0.4336827
42	0xbe8b4584	-0.27201474
43	0xbe9b49c1	-0.30329707
44	0xbe97bf3a	-0.29638082
45	0xbeb1fcf4	-0.347633
46	0xbebae33b	-0.36501488
47	0xbe9f9218	-0.31166148
48	0xbee0182f	-0.4376845
49	0xbebc1d2a	-0.36741
50	0xbeb60d36	-0.35556954
51	0xbe9bb8db	-0.3041447
52	0xbea4e7fc	-0.3220824
53	0xbeb064c8	-0.3445189
54	0xbe9ed633	-0.31022796
55	0xbec9ac44	-0.3938924
56	0xbe925d3c	-0.28586757
57	0xbe935a8d	-0.28780022
58	0xbe9d6b19	-0.30745772
59	0xbe8eedcb	-0.27915797
60	0xbe688532	-0.2270706
61	0xbe614896	-0.22000346
62	0xbe722789	-0.23647894
63	0xbe4957c9	-0.19662394
64	0xbe5575c4	-0.20845705
65	0xbe25c1db	-0.16187231
66	0xbe38f2ab	-0.1806132
67	0xbe4411ca	-0.19147411
68	0xbe25968a	-0.16170707
69	0xbe07d809	-0.13266005
70	0xbdde13f7	-0.10843652
71	0xbdc7cd0b	-0.09755906
72	0xbdb02649	-0.08601052
73	0xbdec83b4	-0.11548558
74	0xbdc66342	-0.09686901
75	0xbda49bfd	-0.08037565
76	0xbde8645f	-0.11347269
77	0xbd9ee253	-0.07758012
78	0xbdb7bb9f	-0.08971333
79	0xbd6f6356	-0.058444344
80	0xbd979bed	-0.07402787
81	0xbd84079f	-0.06446766
82	0x3bf413a4	0.0074486304
83	0xbc59c60f	-0.01329185
84	0xbd2c9d13	-0.042141985
85	0xbce2ed9e	-0.027701195
86	0xbc4090da	-0.011753285

blocks.1.conv.weight f4 [1, 1, 12, 4]
0	0x3d460274	0.048342183
1	0x3d9c2d63	0.07625844
2	0xbe251fc6	-0.16125402
3	0xbe147ae1	-0.145
4	0x3c491d19	0.012275004
5	0x3d654cd4	0.055981472
6	0x3e77f9dc	0.24216408
7	0xbe1d6520	-0.15370607
8	0x3d93aefe	0.072111115
9	0xbd30331c	-0.04301749
10	0x3e1bb362	0.15205148
11	0xbdfea507	-0.1243382
12	0x3c7c6a42	0.015406193
13	0xbd4860a0	-0.048920274
14	0x3db03276	0.08603375
15	0xbdf5d2c4	-0.12003091
16	0x3d0d8dfc	0.034559235
17	0x3cbce926	0.023060393
18	0x3ce08171	0.027405472
19	0xbd3d3d67	-0.046201136
20	0x3caf8c77	0.021429284
21	0xbdd3b197	-0.10336607
22	0x3d50e86d	0.05100291
23	0xbda9f504	-0.08298686
24	0x3d9df29b	0.07712289
25	0x3db962c4	0.09052041
26	0xbdbb41ef	-0.09143435
27	0xbd4ac647	-0.0495055
28	0xbbfe503f	-0.007761031
29	0x3c538047	0.012909002
30	0xbd9fc92c	-0.07802042
31	0x3bfdc6a7	0.0077446285
32	0x3d636243	0.05551363
33	0xbe508617	-0.20363651
34	0xbeaefbbe	-0.3417644
35	0xbdb9f6cb	-0.09080275
36	0xbe8f6ab1	-0.28011087
37	0xbeb673ba	-0.35635167
38	0xbf473b70	-0.7782507
39	0x3efb808e	0.49121517
40	0xbf16852b	-0.5879695
41	0x3e4dc3a8	0.20094168
42	0xbd0fcf22	-0.035109647
43	0x3e0047d3	0.12527399
44	0x3b6fa82e	0.0036568749
45	0x3de55fdf	0.111999266
46	0x3e9992f0	0.29994917
47	0xbdf5f3a4	-0.120093614

blocks.1.dense.weight f4 [1, 89]
0	0x3da5ccee	0.08095728
1	0x3de3a30e	0.111150846
2	0x3db23011	0.08700574
3	0x3d08596b	0.0332884
4	0xbd7a9243	-0.061174642
5	0x3cf9ad45	0.03047813
6	0x3e0a5160	0.13507605
7	0x3d388151	0.0450452
8	0x3d2921ac	0.041291878
9	0x3c816ad3	0.015798008
10	0x3e08b7ce	0.13351366
11	0x3aa672b1	0.0012698976
12	0x3b80ff52	0.0039366866
13	0xbbfcf6ba	-0.007719842
14	0x3d355cb9	0.04427788
15	0x3d9635bc	0.07334468
16	0x3d9bbab0	0.07603967
17	0x3dc54c9e	0.09633754
18	0x3d549ed1	0.05190927
19	0x3d7d520c	0.061845824
20	0x3dd190c2	0.102326885
21	0xbc880e9b	-0.016608527
22	0x3d4fcee3	0.050734412
23	0x3da47faf	0.08032166
24	0xbc4488e9	-0.011995533
25	0x3dc3a8c2	0.095536724
26	0x3d5aaa3f	0.053385016
27	0x3e3203c3	0.17384247
28	0x3e77f6d7	0.24215256
29	0x3e66ca06	0.22538003
30	0x3e225a2f	0.15854715
31	0xba0a623e	-0.00052789215
32	0x3ebf9a41	0.37422374
33	0x3e0f393e	0.1398668
34	0x3e762e15	0.24041016
35	0x3c9c87a6	0.019107651
36	0x3f1e1cd0	0.61762714
37	0x3c3019c9	0.010748335
38	0x3ed0c5e5	0.40775982
39	0x3d3b83d7	0.04578003
40	0x3d586ae4	0.052836314
41	0xbd36cc32	-0.04462833
42	0xbe560645	-0.20900829
43	0xbe5cf331	-0.21577145
44	0xbe35f297	-0.17768322
45	0xbe975945	-0.29560295
46	0xbe96d839	-0.2946184
47	0xbe798d03	-0.24370198
48	0xbebd325a	-0.36952478
49	0xbe88cfe2	-0.26721102
50	0xbeb2385b	-0.3480862
51	0xbea4e9fb	-0.32209763
52	0xbeb9ec93	-0.36313304
53	0xbe965235	-0.29359594
54	0xbe8be22e	-0.27321
55	0xbeb9b3fd	-0.36270133
56	0xbe416641	-0.18886663
57	0xbe9926a7	-0.29912302
58	0xbe7c18b1	-0.24618794
59	0xbe86e879	-0.26349238
60	0xbe379905	-0.17929466
61	0xbe52bf91	-0.2058089
62	0xbe1249d3	-0.14285974
63	0xbdeb4bd4	-0.114890724
64	0xbda9549f	-0.08268093
65	0xbe6bf9e7	-0.23044549
66	0xbe2b828f	-0.16749023
67	0xbe59390f	-0.21213172
68	0xbd85bd91	-0.065302975
69	0xbe1b1cfa	-0.15147772
70	0xbdc4d5c9	-0.09611089
71	0xbb6770b6	-0.0035314984
72	0xbe0001dd	-0.12500711
73	0xbd5736bd	-0.052542437
74	0xbd664ac6	-0.056223653
75	0xbde3d1b6	-0.111239836
76	0xbdd9f4c0	-0.106423855
77	0xbe1debad	-0.15421934
78	0xbc8bdead	-0.017073954
79	0xbd8f917b	-0.0701017
80	0xbd3e3803	-0.046440136
81	0xbd4a58a9	-0.04940096
82	0xbd527c95	-0.051388342
83	0xbd719b82	-0.058986194
84	0x3db7f7b4	0.089827925
85	0x3ce69c4f	0.028150706
86	0x3b61490d	0.0034375817
87	0x3c290d80	0.01031816
88	0x3db49e7f	0.08819293

blocks.2.conv.weight f4 [1, 1, 10, 4]
0	0xbda2f646	-0.07957129
1	0xbdff0280	-0.12451649
2	0x3dd0e5bb	0.102000676
3	0xbcabcac6	-0.020970713
4	0xbdada6c3	-0.08479073
5	0xbe959172	-0.29212528
6	0x3d0fc5ad	0.035100628
7	0xbcb2eb2b	-0.021840652
8	0xbd9e9fdb	-0.07745334
9	0xbdb72590	-0.08942711
10	0xbdb83c43	-0.08995869
11	0xbdd4bd2f	-0.103876464
12	0x3d98ab7a	0.074545816
13	0xbe280460	-0.16407919
14	0xbd0987a9	-0.03357664
15	0x3d0629da	0.032754757
16	0xbd054db3	-0.032544803
17	0xbd9422ed	-0.07233224
18	0xbe2f9945	-0.17148311
19	0x3d587051	0.05284149
20	0xbe29d44d	-0.16584893
21	0xbe8bf231	-0.27333215
22	0xbd383742	-0.044974573
23	0x3e1bd8d4	0.15219432
24	0xbd9177f5	-0.07102958
25	0x3ea4e9da	0.32209665
26	0xbe9fc025	-0.31201282
27	0xbf02bccf	-0.5106935
28	0xbd94d08c	-0.0726634
29	0x3e791a6b	0.24326484
30	0x3ded2774	0.11579791
31	0xbea69873	-0.32538185
32	0x3d6faf4c	0.058516786
33	0x3d87a663	0.066235326
34	0xbdc995bb	-0.09843012
35	0xbe25ca40	-0.16190434
36	0xbc53666d	-0.012902838
37	0xbab14556	-0.0013524692
38	0x3d0cd883	0.03438617
39	0xbc8c96e7	-0.0171618

blocks.2.dense.weight f4 [1, 91]
0	0x3d066ccf	0.03281861
1	0xbd428d6b	-0.047498148
2	0x3c423512	0.011853473
3	0x3d2e362e	0.04253214
4	0x3d8e81f4	0.0695838
5	0xbd93b663	-0.07212522
6	0x3c92ba85	0.017911205
7	0xbc2e36f1	-0.010633216
8	0x3d10ffeb	0.035400312
9	0x3cdd5eb1	0.027022691
10	0xbd917518	-0.07102412
11	0xbd5b670f	-0.05356508
12	0xbca961d9	-0.02067654
13	0xbc90c3ac	-0.017671429
14	0xbcdd0e18	-0.02698426
15	0x3d903379	0.07041068
16	0x3d6e77a7	0.058219578
17	0x3c477097	0.01217284
18	0x3b883f3c	0.0041579287
19	0x3c5bed5b	0.013423289
20	0x3dc5f25e	0.096653685
21	0xbc4b6126	-0.012413299
22	0xbd79a53f	-0.060948607
23	0x3d93860b	0.07203301
24	0xbcb46f6e	-0.02202579
25	0xbce88ff7	-0.02838896
26	0xbcd3c70b	-0.025851747
27	0x3d6f8b9c	0.05848275
28	0x3da11a19	0.07866306
29	0x3e0223bb	0.12708943
30	0x3d1ecd64	0.038770095
31	0x3e6da783	0.23208432
32	0x3a450a07	0.0007516448
33	0xbde62194	-0.11236873
34	0xbe70acf4	-0.23503476
35	0x3cd67883	0.026180511
36	0x3e891cef	0.26779887
37	0xbd92550c	-0.07145128
38	0xbdbaea27	-0.09126692
39	0xbe60b222	-0.21942952
40	0x3d1d6dfa	0.03843496
41	0xbe0a7abb	-0.1352338
42	0xbd4551ca	-0.048173703
43	0xbb5242fd	-0.0032083385
44	0xbf3c19ca	-0.7347685
45	0xbe1062ea	-0.14100233
46	0xbde155f5	-0.11002723
47	0xbeb97884	-0.3622476
48	0xbe82b8b5	-0.25531545
49	0xbe99b2d2	-0.30019242
50	0xbe9b0cf1	-0.3028331
51	0xbe5bd158	-0.21466577
52	0xbe374fb2	-0.17901495
53	0xbe18af43	-0.14910607
54	0xbe3c30ed	-0.18378039
55	0xbe51c906	-0.2048684
56	0xbe7424d6	-0.23842177
57	0xbea82156	-0.32837933
58	0xbe4568f3	-0.19278316
59	0xbe59e5b6	-0.21279034
60	0xbe255027	-0.16143857
61	0xbe4f812d	-0.2026412
62	0xbe6c565a	-0.23079816
63	0xbe42c4ee	-0.19020435
64	0xbe6575ae	-0.22408172
65	0xbe2ebb30	-0.17063594
66	0xbe60c962	-0.21951821
67	0xbe05dd07	-0.13072596
68	0xbe096ce6	-0.13420448
69	0xbe27b3d6	-0.16377196
70	0xbe1893b9	-0.14900102
71	0xbdde0aee	-0.108419284
72	0xbe087ad7	-0.1332811
73	0xbe04ad77	-0.12956797
74	0xbdb5eb95	-0.08882824
75	0xbe1fca69	-0.15604557
76	0xbe0e79be	-0.13913628
77	0xbe4a2d7e	-0.19743916
78	0xbe2fd5c6	-0.17171392
79	0xbdd49b16	-0.10381143
80	0xbdc91355	-0.098181404
81	0xbd4fc33f	-0.05072331
82	0xbd5a5e7f	-0.053312775
83	0xbd923ee3	-0.07140901
84	0x3c75bfc3	0.014999333
85	0xbcd570dc	-0.026054792
86	0xbd2b4bd3	-0.04182036
87	0xbc53b971	-0.012922631
88	0x3d3d18a9	0.046166096
89	0xbd09215c	-0.03347908
90	0x3c977079	0.018486248

blocks.3.conv.weight f4 [1, 1, 18, 4]
0	0xbd8573c4	-0.06516221
1	0xbc052e4d	-0.008128715
2	0xbcb5a744	-0.022174485
3	0xbccbbadc	-0.024869375
4	0xbd07efb0	-0.03318757
5	0x3e389e50	0.18029141
6	0xbdefbeef	-0.117063396
7	0xbd585e3f	-0.052824255
8	0xbbb34bda	-0.0054716887
9	0xbd37702b	-0.044784706
10	0x3dea6227	0.11444502
11	0xbe1b62e5	-0.15174444
12	0x3dbf568a	0.09342678
13	0x3e823c2b	0.2543653
14	0xbe102a34	-0.14078599
15	0xbd65e210	-0.056123793
16	0xbda40469	-0.08008654
17	0xbd055270	-0.03254932
18	0x3e112956	0.14175925
19	0xbe58964d	-0.21151085
20	0x3dacff7e	0.08447169
21	0x3d329358	0.04359755
22	0xbd3845e3	-0.044988524
23	0x3e1aa94e	0.15103647
24	0x3de589c5	0.11207918
25	0x3e79d3b3	0.24397163
26	0x3b6975d2	0.0035623205
27	0xbf6242a7	-0.88382953
28	0xbea57ac7	-0.32320234
29	0xbe0700c7	-0.1318389
30	0x3db44b18	0.088033855
31	0x3ed977ab	0.42474112
32	0x3d9bff27	0.07617026
33	0x3dc26d9f	0.09493565
34	0x3e1b88a8	0.15188849
35	0xbf459e21	-0.7719441
36	0xbe802f02	-0.25035864
37	0x3dc2ea6a	0.09517367
38	0xbd6cf7c8	-0.05785349
39	0x3e05a0f0	0.13049674
40	0x3daab017	0.08334368
41	0x3dd789e7	0.1052435
42	0x3cf8ff4c	0.030395173
43	0xbe15d135	-0.14630587
44	0xbd046ab1	-0.03232831
45	0x3e085f7e	0.13317677
46	0xbd8921cf	-0.066959016
47	0xbea497f5	-0.32147184
48	0x3dead137	0.11465686
49	0xbeb16e8a	-0.34654647
50	0xbbba79bd	-0.005690782
51	0x3e8f751a	0.2801903
52	0x3e113676	0.14180931
53	0xbcae5d64	-0.021284766
54	0xbe489ad7	-0.19590317
55	0xbe88289a	-0.26593477
56	0xbe0ea912	-0.13931683
57	0x3e7a5413	0.24446134
58	0x3d97dc4b	0.074150644
59	0xbe8368bc	-0.25665843
60	0xbda1d806	-0.07902531
61	0x3da75cd9	0.08172006
62	0xbab0e82c	-0.0013496927
63	0xbc865fcd	-0.016403103
64	0x3e2e6ec0	0.17034435
65	0xbd5e6714	-0.05429752
66	0xbd0170a4	-0.031601563
67	0xbdcdd404	-0.100502044
68	0x3d49a0a0	0.04922545
69	0xbe0f7b4d	-0.1401188
70	0xbddfc1c2	-0.10925628
71	0xbda1a24e	-0.07892285

blocks.3.dense.weight f4 [1, 83]
0	0xbca5426b	-0.020173272
1	0xbd2aa033	-0.041656684
2	0xbcefa381	-0.02925277
3	0xbd308319	-0.043093774
4	0xbca2c3c2	-0.019868735
5	0xbcaf384e	-0.021389153
6	0xbd10538c	-0.035235927
7	0xbcaba7da	-0.020954061
8	0xbd2a394f	-0.04155856
9	0xbcb6f0d4	-0.022331633
10	0xbd960e69	-0.07326967
11	0xbd3657f8	-0.044517487
12	0xbdc00327	-0.09375601
13	0x3ca29f55	0.019851366
14	0x3becdfaa	0.0072288113
15	0xbd2d6d9f	-0.04234087
16	0xbccd38f7	-0.025051577
17	0x3d51e12a	0.051240124
18	0x3b96118c	0.0045797285
19	0xbc9db6b3	-0.019252157
20	0x3ad36599	0.0016128301
21	0x3d5372a2	0.051622994
22	0xbc05f7de	-0.008176772
23	0x3b65a12c	0.0035038693
24	0xbd19935b	-0.037494045
25	0xbc17d128	-0.009266175
26	0x3c46c78f	0.012132539
27	0xbe329568	-0.17439806
28	0xbe068e87	-0.13140307
29	0x3ba604bb	0.005066482
30	0xbca6b651	-0.020350607
31	0x3e3b2a55	0.18277867
32	0x3d222597	0.03958663
33	0xbec5f9d2	-0.3866716
34	0xbf13d67c	-0.5774915
35	0x3e3ee9c6	0.18643865
36	0xbcbfd289	-0.02341582
37	0x3e1b5971	0.15170838
38	0xbdb5eac6	-0.0888267
39	0x3d887016	0.06662004
40	0xbd54763b	-0.051870566
41	0x3e873f1d	0.2641534
42	0x3de8ca53	0.11366715
43	0x3e68761d	0.22701307
44	0x3cf534bf	0.029932378
45	0x3e5b05c5	0.2138892
46	0x3e289e32	0.16466597
47	0x3e4ff876	0.20309624
48	0x3e70fa91	0.23533083
49	0x3e8a3c50	0.2699914
50	0x3e744bcd	0.2385704
51	0x3e84b6f5	0.25920835
52	0x3e9f2564	0.31083214
53	0x3eac2158	0.3361919
54	0x3eac6092	0.33667427
55	0x3e9e25da	0.30888253
56	0x3e8625a7	0.262006
57	0x3e8e4266	0.27785033
58	0x3e6b353d	0.22969528
59	0x3e32c9ee	0.17459843
60	0x3e55f85e	0.20895526
61	0x3e563d98	0.20921934
62	0x3e5911ff	0.21198271
63	0x3e33faf3	0.17576198
64	0x3db6d537	0.08927386
65	0x3e19ab29	0.15006699
66	0x3de2e6e5	0.11079196
67	0x3d43506f	0.04768413
68	0xbb037617	-0.00200594
69	0x3d14ec8b	0.036358397
70	0xbc07fdf0	-0.0083002895
71	0xbc648d88	-0.013949759
72	0x3cfe8bc1	0.0310725
73	0x3aca3a44	0.0015428741
74	0x3c7d23fc	0.015450474
75	0x3db951b4	0.09048787
76	0x3d2ba97d	0.041909683
77	0x3c83312a	0.016014654
78	0xbc3a1d8c	-0.011359584
79	0xbcf57eee	-0.029967751
80	0xbb1e928b	-0.0024196233
81	0xbcb937fe	-0.022609707
82	0x3ce01520	0.027353823

blocks.4.conv.weight f4 [1, 1, 6, 4]
0	0xbdde59d7	-0.10856979
1	0x3dbb2e35	0.09139673
2	0x3d8768ff	0.06611823
3	0x3ce75cca	0.028242487
4	0xbec845d4	-0.39115775
5	0xbd395301	-0.045245174
6	0xbe4b77ea	-0.19869962
7	0x3e7eb566	0.24873886
8	0x3e814fe1	0.25256255
9	0xbe56a610	-0.20961785
10	0xbf6e1d9c	-0.9301393
11	0xbe819589	-0.253094
12	0xbea9c0a8	-0.33154798
13	0x3ded2c5f	0.11580729
14	0x3ec081b2	0.3759895
15	0xbd1d37dc	-0.03838335
16	0x3a90eded	0.0011057236
17	0x3e024620	0.12722063
18	0xbe5325a5	-0.20619829
19	0x3dea43a2	0.11438681
20	0xbb45ef80	-0.0030202568
21	0x3d9572d3	0.072972916
22	0x3d484816	0.04889687
23	0x3d9fda5c	0.078053206

blocks.4.dense.weight f4 [1, 95]
0	0xbbba39e7	-0.005683172
1	0xbd251d1c	-0.040310964
2	0xbbfd950c	-0.007738715
3	0xbc471df2	-0.012153136
4	0xbc022efa	-0.00794577
5	0xbc413940	-0.011793435
6	0xbb732ab0	-0.00371043
7	0x3c6dee6e	0.014522178
8	0xbb54fcce	-0.0032499316
9	0xbd05737e	-0.032580845
10	0x3ccad5d3	0.024760162
11	0xbcf411f0	-0.02979371
12	0x3c72f327	0.01482848
13	0xbcb12a63	-0.021626657
14	0x3c8bbe13	0.017058408
15	0xbd10994a	-0.035302438
16	0xbd1f1eb3	-0.038847636
17	0xbc368235	-0.011139442
18	0xbd0ee395	-0.034885008
19	0x3d1ede33	0.038786124
20	0xbd1ee5a7	-0.038793232
21	0xbd3c3215	-0.0459462
22	0x3c1ecf69	0.009693005
23	0x3d4d94ca	0.050190724
24	0xbca127de	-0.01967233
25	0xbc0ab587	-0.008466131
26	0xbce18d52	-0.027533207
27	0xbd437632	-0.04772014
28	0xbd4013fa	-0.04689405
29	0xbca3c499	-0.019991206
30	0xbd0ae5d8	-0.033910602
31	0xbd7db38d	-0.06193881
32	0xbe1c7f05	-0.15282829
33	0xbe99b3da	-0.30020028
34	0xbe407dbb	-0.18797962
35	0xbee073b0	-0.43838263
36	0xbe6e1045	-0.23248394
37	0xbde2a4be	-0.11066578
38	0xbdc14705	-0.09437374
39	0xbec4def5	-0.38451353
40	0xbecc9c80	-0.3996315
41	0xbe8fa21d	-0.2805337
42	0xbe3364e9	-0.17518963
43	0xbe3e899d	-0.18607183
44	0xbea57bc3	-0.32320985
45	0x3d1d3393	0.038379263
46	0xbf8d2c5f	-1.1029166
47	0xbf18d268	-0.59696054
48	0xbd913202	-0.07089616
49	0xbef7642d	-0.48318616
50	0xbeb7fc10	-0.35934496
51	0xbebcc94d	-0.3687233
52	0xbeb8119a	-0.3595093
53	0xbeb7ab08	-0.35872674
54	0xbed2760e	-0.41105694
55	0xbebb9aa1	-0.3664141
56	0xbed355cd	-0.41276398
57	0xbebbb4e9	-0.3666146
58	0xbebb2bb8	-0.36556792
59	0xbeaa95be	-0.3331737
60	0xbea3cab3	-0.31990585
61	0xbeacc4ec	-0.3374399
62	0xbea9baf9	-0.3315046
63	0xbea221ca	-0.31666404
64	0xbe9ea734	-0.3098694
65	0xbe87f441	-0.26553538
66	0xbe716f21	-0.23577549
67	0xbe734462	-0.23756555
68	0xbe5cfd5f	-0.21581028
69	0xbe22816a	-0.1586968
70	0xbe58a44b	-0.21156423
71	0xbe232444	-0.15931803
72	0xbe268465	-0.16261442
73	0xbe19f31f	-0.1503415
74	0xbe185622	-0.14876607
75	0xbe1128ea	-0.14175764
76	0xbe0e1cba	-0.13878146
77	0xbdcd6098	-0.100281894
78	0xbdb0c8a4	-0.08632019
79	0xbdb87aaa	-0.09007771
80	0xbd9dedc4	-0.07711366
81	0xbd85c913	-0.065324925
82	0xbd20a1db	-0.039216857
83	0xbca3ca53	-0.019993937
84	0xbd611628	-0.05495277
85	0xbd18429c	-0.0371729
86	0xbb36c069	-0.0027885681
87	0xbd5779d9	-0.052606437
88	0xbd1baab6	-0.0380046
89	0xbd62238c	-0.05520968
90	0xbd1e30c1	-0.038620714
91	0xbcdefa3b	-0.027218929
92	0xbd645593	-0.055745672
93	0xbd28fff5	-0.041259725
94	0xbccfa996	-0.02534942

linear.weight f4 [1, 6]
0	0xbe7d064d	-0.24709435
1	0xbe79ec59	-0.24406566
2	0x3d8cd57f	0.06876659
3	0x3e4a8c5c	0.19780105
4	0x3da0799c	0.07835695
5	0xbe51ce59	-0.20488872
