models/100bp_arround_STRends_models/hg38GT_.pt (torch, 8776 bytes, 11 tensors)

last_block.conv.weight f4 [1, 1, 17, 4]
0.14105561 -0.5439722 0.13140517 -0.32553947 -0.38122526 -0.05112269 -0.32706127 -0.043582797
0.05133902 -0.41018417 0.05680155 -0.08271965 -0.29842547 -0.084343664 -0.22141187 0.07495526
0.11526279 -0.12708804 0.087552376 -0.3031401 -0.32257771 -0.13515987 -0.29663798 0.19324315
-0.044258587 -0.29022324 0.017559128 -0.1736554 -0.18505163 -0.04116676 -0.4228245 0.15256591
-0.024331577 0.0013450404 -0.051638734 -0.13115835 -0.10953188 -0.07483488 -0.62099063 0.04125318
0.07764678 0.0084807025 -0.050963808 -0.09947814 -0.11239224 0.011310368 -0.15779386 0.029699719
-0.021287322 -0.10437177 -0.023631379 -0.06303303 -0.07317214 -0.105174296 -0.060162358 -0.21992329
-0.01825833 -0.16634701 -0.11866872 -0.0915231 0.18968673 -0.042098906 -0.37706634 -0.114196755
0.16111624 -0.0467024 0.01255496 -0.27623966
00000000: e270 103e c341 0bbf 148f 063e 1cad a6be
00000010: f52f c3be 0766 51bd 9374 a7be e083 32bd
00000020: dd48 523d a903 d2be bea8 683d eb68 a9bd
00000030: 39cb 98be 5fbc acbd cbb9 62be 2582 993d
00000040: e60e ec3d 5e23 02be a94e b33d 2e35 9bbe
00000050: e828 a5be 5967 0abe efe0 97be 88e1 453e
00000060: 7e48 35bd 2498 94be 29d8 8f3c b9d2 31be
00000070: 2d7e 3dbe 7a9e 28bd 747c d8be 3d3a 1c3e
00000080: 0453 c7bc 114c b03a 2383 53bd 604e 06be
00000090: 4052 e0bd 0843 99bd 3ef9 1ebf 18f9 283d
000000a0: 4605 9f3d a5f2 0a3c 6dbf 50bd 32bb cbbd
000000b0: e72d e6bd 1f4f 393c b794 21be d34c f33c
000000c0: c062 aebc dec0 d5bd 9896 c1bc 7617 81bd
000000d0: 46db 95bd 9f65 d7bd ce6c 76bd 9233 61be
000000e0: 7e92 95bc df56 2abe 9608 f3bd 7770 bbbd
000000f0: 3d3d 423e e76f 2cbd d70e c1be fddf e9bd
00000100: a8fb 243e 044b 3fbd 52b3 4d3c 496f 8dbe

last_block.dense.weight f4 [1, 84]
0.01791511 -0.0029395374 0.009015217 -0.010076771 -0.0060365475 0.12977122 -0.078571305 -0.006389675
0.02598053 0.007314861 0.010208536 -0.022626778 0.002536474 -0.07825025 -0.011109774 -0.060486887
-0.05259479 0.022365298 0.017931264 0.011539191 0.06632254 0.028156959 0.062442318 0.023526745
-0.10913804 -0.001964641 0.015626641 0.047312625 0.08637513 -0.018608525 0.03994005 0.010363411
-0.07941664 -0.039262544 -0.04557288 -0.08914868 0.002679045 0.050361086 0.088634886 -0.052227933
-0.09278806 -0.119197376 -0.17147124 -0.21310127 -0.22739828 -0.25103617 -0.28434554 -0.23633716
-0.12199222 -0.2338624 -0.31378186 -0.16415147 -0.2321988 -0.19654292 -0.17855138 -0.1745869
-0.19974694 -0.23389722 -0.18011269 -0.14012003 -0.12887879 -0.16142838 -0.06712373 -0.086769156
-0.20913632 -0.121017955 -0.074547604 -0.15452589 -0.0686128 -0.06340329 -0.1879252 -0.15922913
-0.18382025 -0.09869107 -0.026352614 -0.102546655 -0.12554033 -0.018450301 -0.01956566 -0.106343955
-0.06410319 -0.032063913 -0.06898583 -0.09651058
00000000: b5c2 923c 41a5 40bb 90b4 133c 0a19 25bc
00000010: 3bce c5bb bfe2 043e fee9 a0bd 7b60 d1bb
00000020: 1fd5 d43c 80b1 ef3b b441 273c cb5b b9bc
00000030: f93a 263b ab41 a0bd c505 36bc 19c1 77bd
00000040: a26d 57bd 6e37 b73c 96e4 923c e00e 3d3c
00000050: 1dd4 873d 6ca9 e63c 84c3 7f3d 29bb c03c
00000060: c483 dfbd 35c1 00bb 7103 803c e2ca 413d
00000070: 72e5 b03d e870 98bc 2e98 233d 4ccb 293c
00000080: 31a5 a2bd c3d1 20bd a1aa 3abd 9593 b6bd
00000090: eb92 2f3b 6d47 4e3d 3586 b53d f5ec 55bd
000000a0: ab07 bebd c11d f4bd 2896 2fbe 3837 5abe
000000b0: 18db 68be d087 80be bd95 91be 5e02 72be
000000c0: 0fd7 f9bd a079 6fbe 04a8 a0be 5317 28be
000000d0: 86c5 6dbe 8c42 49be 2cd6 36be e9c6 32be
000000e0: 768a 4cbe c182 6fbe 766f 38be a07b 0fbe
000000f0: cdf8 03be 7b4d 25be 2b78 89bd 07b4 b1bd
00000100: d527 56be 43d8 f7bd 6aac 98bd 093c 1ebe
00000110: de84 8cbd 96d9 81bd 776f 40be f60c 23be
00000120: 603b 3cbe 8b1e cabd 70e1 d7bc fb03 d2bd
00000130: a58d 00be 1625 97bc 2a48 a0bc dcca d9bd
00000140: 8948 83bd 7355 03bd 7148 8dbd 57a7 c5bd

blocks.0.conv.weight f4 [1, 1, 13, 4]
-0.10250341 -0.31550777 0.0054341527 -0.30563796 -0.33639196 -0.6708191 -0.1616016 0.03074877
-0.10686653 -0.6560917 0.22388631 0.06012984 -0.333448 -0.14143045 -0.28139094 -0.15767865
-0.12028771 -0.5539513 -0.12143925 -0.5987792 -0.27091736 -0.24298038 -0.48880026 0.002777278
-1.0391366 -1.5115241 0.64833105 -0.64519036 -0.24843355 -0.35807824 0.061456054 0.10981293
-0.48044384 -0.8496033 0.015405008 -0.1815855 -0.6379976 -0.7409396 0.24047543 0.03879887
-0.4712775 -0.31069365 -0.056243043 -0.40175664 -0.8911358 -0.9011414 -0.12505798 -0.01726033
-0.3209407 -0.64591956 -0.0465239 -0.17472361
00000000: 4fed d1bd 3c8a a1be fa10 b23b 947c 9cbe
00000010: 913b acbe cdba 2bbf e47a 25be d8e4 fb3c
00000020: d7dc dabd a0f5 27bf 7442 653e b54a 763d
00000030: b2b9 aabe 25d3 10be 7912 90be 8376 21be
00000040: 6759 f6bd c1cf 0dbf 24b5 f8bd 9849 19bf
00000050: aeb5 8abe d9cf 78be 0744 fabe fe02 363b
00000060: 6e02 85bf 9f79 c1bf 06f9 253f 322b 25bf
00000070: 5d65 7ebe 0856 b7be 58b9 7b3d 9ae5 e03d
00000080: bcfc f5be 9a7f 59bf 4965 7c3c 8df1 39be
00000090: d053 23bf 38ae 3dbf 313f 763e 90eb 1e3d
000000a0: 494b f1be 3d13 9fbe 1b5f 66bd 0cb3 cdbe
000000b0: 7a21 64bf 34b1 66bf 330f 00be 8965 8dbc
000000c0: 5752 a4be fc5a 25bf d88f 3ebd bfea 32be

blocks.0.dense.weight f4 [1, 88]
0.05158467 0.14988089 0.11209497 0.16887255 0.12806907 0.06291228 0.10896554 0.1316092
0.05020826 0.073791236 0.17459042 0.17188837 0.117143594 0.11193456 0.107671924 0.069950245
0.1828496 0.10540125 0.17239669 0.10045754 0.13518733 0.12468806 0.12581669 0.1967006
0.17086309 0.14346932 0.15386711 0.13815795 0.16780773 0.110480994 0.06924233 0.08292485
0.09108023 0.11848389 0.24021803 0.2953811 0.30553743 0.25472233 0.25330737 0.17599866
0.5179735 0.26552153 0.3804211 0.418498 0.22196504 0.04854424 0.24606569 0.27534425
0.356408 -0.052859828 -0.08950657 0.4129216 0.69986385 0.3651159 0.2839427 0.16947171
0.36279553 0.41363648 0.14749295 0.38336325 0.05972997 0.31216478 0.36177778 0.38689142
0.2886717 0.122481 0.24616757 0.12613411 -0.10376103 -0.008484998 0.08615456 -0.033508893
-0.016304765 0.017156605 0.055238288 0.13250269 -0.030919194 0.23447412 0.19151416 0.12191333
0.07627693 -0.01904766 -0.045527983 -0.043005098 0.11734458 0.0092515275 -0.022530116 -0.094835736
00000000: 724a 533d 607a 193e 0c92 e53d edec 2c3e
00000010: 8a24 033e 27d8 803d 5329 df3d 90c4 063e
00000020: 2da7 4d3d dc1f 973d d5c7 323e 8103 303e
00000030: fbe8 ef3d f23d e53d 1983 dc3d 1342 8f3d
00000040: ed3c 3b3e 9cdc d73d c288 303e afbc cd3d
00000050: 8c6e 0a3e 745c ff3d 17d6 003e e26b 493e
00000060: bcf6 2e3e 9fe9 123e 578f 1d3e 4779 0d3e
00000070: cad5 2b3e dc43 e23d ecce 8d3d 81d4 a93d
00000080: 4688 ba3d afa7 f23d b7fb 753e 313c 973e
00000090: 676f 9c3e f76a 823e 81b1 813e fe38 343e
000000a0: e999 043f 70f2 873e 8ec6 c23e 5f45 d63e
000000b0: ce4a 633e 53d6 463d a5f8 7b3e ecf9 8c3e
000000c0: 1c7b b63e 8c83 58bd 384f b7bd 766a d33e
000000d0: 472a 333f 79f0 ba3e f060 913e fe89 2d3e
000000e0: 56c0 b93e 29c8 d33e 6408 173e 3048 c43e
000000f0: 6aa7 743d 10d4 9f3e f03a b93e a216 c63e
00000100: c7cc 933e 52d7 fa3d 5a13 7c3e 4d29 013e
00000110: aa80 d4bd a904 0bbc cd71 b03d 9f40 09bd
00000120: 9291 85bc 028c 8c3c 8b41 623d c9ae 073e
00000130: 404a fdbc fc19 703e 4a1c 443e b2ad f93d
00000140: 1437 9c3d d709 9cbc 8d7b 3abd 1d26 30bd
00000150: 5b52 f03d b893 173c 1491 b8bc 3d39 c2bd

blocks.1.conv.weight f4 [1, 1, 13, 4]
0.011007136 0.23382515 0.037826985 0.025475772 -0.029775973 0.0055155614 0.028463783 -0.032043528
-0.038157716 -0.02269035 0.08835356 -0.013586196 -0.05216727 0.08251492 0.04170988 0.038745586
-0.0066497275 0.11145353 -0.11435642 -0.038060818 0.04059446 -0.108636566 0.1511483 -0.022778632
-0.08245068 0.009538621 0.1473202 0.015616764 0.026062278 0.5310195 -0.52932036 -0.2281638
0.15710284 -0.3589061 0.5703831 -0.013536366 0.048677802 0.45138615 -0.1986844 -0.29622576
0.14762701 -0.017450335 0.15402338 -0.12098656 -0.103223905 0.13066487 -0.08820401 -0.03924656
0.05713507 0.061092984 0.027396588 0.07384994
00000000: 4657 343c dc6f 6f3e 78f0 1a3d 91b2 d03c
00000010: beec f3bc e2bb b43b e12c e93c 1340 03bd
00000020: 444b 1cbd 1de1 b9bc b6f2 b43d a398 5ebc
00000030: 59ad 55bd 95fd a83d fbd7 2a3d b1b3 1e3d
00000040: f5e5 d9bb c041 e43d b333 eabd a9e5 1bbd
00000050: 6046 263d d97c debd 9fc6 1a3e 419a babc
00000060: e7db a8bd e047 1c3c 1bdb 163e 75dd 7f3c
00000070: 8f80 d53c e5f0 073f 8a81 07bf c5a3 69be
00000080: 91df 203e 8ac2 b7be a004 123f a2c7 5dbc
00000090: 6062 473d 161c e73e ec73 4bbe e7aa 97be
000000a0: 892b 173e 01f4 8ebc 4eb8 1d3e cdc7 f7bd
000000b0: 0e67 d3bd 03cd 053e 4ea4 b4bd 00c1 20bd
000000c0: 7706 6a3d a33c 7a3d cf6e e03c a33e 973d

blocks.1.dense.weight f4 [1, 88]
-0.0042735594 -0.0037982888 0.004828102 0.006052964 0.015516678 0.023042364 0.021686297 0.0024738281
-0.003635957 -0.0055282703 -0.0051393746 0.005677088 0.018336302 -0.0039382037 -0.0007653907 0.01871755
0.03658979 0.022143269 -0.009001963 -0.005140653 0.001005012 0.020707672 0.017072935 0.045966096
0.028604986 0.042991437 0.02827712 -0.008971696 -0.00073725346 -0.022480384 0.040721305 0.10726791
0.058364667 0.065832034 0.09446254 0.0690867 0.018968428 -0.15254293 -0.14657827 -0.1554887
-0.4086097 0.376434 0.27910516 0.26894376 0.28448343 0.2778606 0.28841907 0.3427931
0.30709025 0.2863213 0.28901845 0.2796449 0.24097332 0.20556223 0.20883721 0.23417082
0.24451211 0.20680621 0.19727632 0.1977521 0.1947315 0.17180735 0.16275766 0.13236517
0.1461529 0.11869197 0.10133573 0.102914065 0.08550593 0.07079897 0.07472877 0.08569392
0.08293558 0.046816036 0.03801671 0.022225164 0.060547844 0.04701389 0.026566133 0.024158454
0.025981098 0.029833741 0.010139819 0.006421099 0.0114917215 0.025576822 0.0026682722 -0.017197676
00000000: 3709 8cbb b6ec 78bb 0e35 9e3b f157 c63b
00000010: aa39 7e3c 57c3 bc3c 76a7 b13c f31f 223b
00000020: 3c49 6ebb 7e26 b5bb 3368 a8bb de06 ba3b
00000030: 0336 963c 0c0c 81bb 80a4 48ba 8c55 993c
00000040: 2ddf 153d cd65 b53c f87c 13bc ec72 a8bb
00000050: 9bba 833a 23a3 a93c 8adc 8b3c f246 3c3d
00000060: 0155 ea3c ca17 303d 6ba5 e73c 05fe 12bc
00000070: 3e44 41ba c828 b8bc 62cb 263d 47af db3d
00000080: ca0f 6f3d f2d2 863d 9375 c13d 547d 8d3d
00000090: ad63 9b3c 3734 1cbe 9d18 16be 6e38 1fbe
000000a0: 4a35 d1be f5bb c03e dfe6 8e3e ffb2 893e
000000b0: d0a7 913e bf43 8e3e aaab 933e 9482 af3e
000000c0: ef3a 9d3e b598 923e 3afa 933e 9e2d 8f3e
000000d0: b6c1 763e e87e 523e 6cd9 553e 7aca 6f3e
000000e0: 6261 7a3e 02c5 533e ce02 4a3e 877f 4a3e
000000f0: b267 473e 44ee 2f3e f2a9 263e bc8a 073e
00000100: 1ba9 153e c714 f33d 1b89 cf3d 9cc4 d23d
00000110: bc1d af3d 0dff 903d 660b 993d 4b80 af3d
00000120: 21da a93d 2cc2 3f3d 69b7 1b3d 8c11 b63c
00000130: 0401 783d a391 403d 38a1 d93c f3e7 c53c
00000140: 50d6 d43c e465 f43c 7c21 263c 1568 d23b
00000150: c647 3c3c 7c86 d13c 2ede 2e3b 24e2 8cbc

blocks.2.conv.weight f4 [1, 1, 14, 4]
-0.037337784 0.07939744 -0.01374528 0.058566753 -0.14690113 -0.057715446 -0.06085991 0.011477811
-0.042264976 0.010005385 -0.038657162 0.10022858 -0.14845093 -0.10634001 -0.096726224 -0.0036042416
0.038447384 -0.06026824 0.056789383 0.08816652 -0.018606678 -0.039626647 0.020192878 -0.026435846
-0.083616585 0.044493545 -0.013018878 0.004290689 0.09247935 -0.19985995 0.09347634 0.07222149
-0.2704569 0.4220422 0.027871743 -0.24725477 -1.5616926 -1.3444796 -1.0740782 0.5119477
0.5747984 -0.39384863 -0.22178796 -0.31282824 -0.23068108 0.05660436 0.011370437 0.1552083
-0.056189653 0.041930713 -0.018559158 0.18668757 -0.10649713 -0.009229762 -0.030300936 0.14885491
00000000: 81ef 18bd 209b a23d e233 61bc b1e3 6f3d
00000010: 406d 16be 0867 6cbd 3e48 79bd 6e0d 3c3c
00000020: 0a1e 2dbd a0ed 233c f956 1ebd a444 cd3d
00000030: 8503 18be cbc8 d9bd 6618 c6bd 2435 6cbb
00000040: 017b 1d3d d4db 76bd fc9b 683d a690 b43d
00000050: 086d 98bc 8d4f 22bd 896b a53c fd8f d8bc
00000060: 2c3f abbd dd3e 363d 224d 55bc e898 8c3b
00000070: d065 bd3d 16a8 4cbe 8670 bf3d dce8 933d
00000080: 5479 8abe ea15 d83e 4853 e43c 5b30 7dbe
00000090: 8be5 c7bf e817 acbf 657b 89bf 010f 033f
000000a0: fd25 133f 87a6 c9be 621c 63be 062b a0be
000000b0: a937 6cbe f9d9 673d 124b 3a3c edee 1e3e
000000c0: 1f27 66bd 8abf 2b3d 6009 98bc 072b 3f3e
000000d0: 2b1b dabd 6d38 17bc ab39 f8bc 6c6d 183e

blocks.2.dense.weight f4 [1, 87]
0.015564352 0.00171507 -0.030184168 -0.012084403 -0.018308703 -0.020411028 -0.017168034 -0.013176435
-0.035516202 -0.011039361 -0.015076848 -0.053036243 -0.04856656 -0.043875936 -0.039310433 -0.02721027
-0.03670755 -0.022577459 -0.018544283 -0.036495674 -0.017003994 -0.0258909 -0.017344777 -0.03371191
-0.082468756 -0.07409814 -0.10263863 -0.12010248 -0.14781319 -0.1540577 -0.15058237 -0.11255341
-0.116799325 -0.0592499 -0.054505426 -0.08252178 -0.14124039 0.026356496 0.08625035 -0.11130309
-0.6386034 -0.43215412 -0.5386568 -0.5167243 -0.49483442 -0.5092141 -0.47534353 -0.47139758
-0.4369847 -0.39864463 -0.40497208 -0.38308707 -0.3760689 -0.34019196 -0.3538127 -0.34035686
-0.338246 -0.2953445 -0.27889046 -0.26585382 -0.24496226 -0.23042135 -0.22052985 -0.1902112
-0.190161 -0.17457457 -0.15411738 -0.14207764 -0.15313809 -0.11725979 -0.12361516 -0.12217998
-0.09920535 -0.09790141 -0.080291264 -0.0694421 -0.05877637 -0.084375 -0.04900569 -0.041340552
-0.056765083 -0.044080455 -0.036930107 -0.03438475 -0.0051582498 -0.028918907 -0.031303782
00000000: a001 7f3c 33cc e03a ca44 f7bc a9fd 45bc
00000010: 22fc 95bc 0735 a7bc faa3 8cbc f9e1 57bc
00000020: 7079 11bd 70de 34bc e204 77bc 883c 59bd
00000030: bbed 46bd 41b7 33bd fa03 21bd 12e8 debc
00000040: a85a 16bd 5df4 b8bc 2eea 97bc 7d7c 15bd
00000050: f64b 8bbc 2719 d4bc a216 8ebc 8015 0abd
00000060: 61e5 a8bd c4c0 97bd 3434 d2bd 4af8 f5bd
00000070: 575c 17be 4dc1 1dbe 4432 1abe 6782 e6bd
00000080: 7c34 efbd 06b0 72bd 1541 5fbd 2e01 a9bd
00000090: 52a1 10be 94e9 d73c 06a4 b03d e0f2 e3bd
000000a0: 837b 23bf 4e43 ddbe 69e5 09bf 0b48 04bf
000000b0: f05a fdbe db5b 02bf 3a60 f3be 065b f1be
000000c0: 75bc dfbe 261b ccbe 8058 cfbe fd23 c4be
000000d0: 1a8c c0be a42d aebe f026 b5be 4143 aebe
000000e0: 942e adbe 6537 97be bbca 8ebe fe1d 88be
000000f0: 63d7 7abe 93f3 6bbe 94d2 61be bac6 42be
00000100: 91b9 42be adc3 32be f2d0 1dbe cd7c 11be
00000110: 3bd0 1cbe e725 f0bd f229 fdbd 7f39 fabd
00000120: 2d2c cbbd 8980 c8bd bf6f a4bd a937 8ebd
00000130: 7ebf 70bd cdcc acbd 31ba 48bd b654 29bd
00000140: 8182 68bd b58d 34bd 0644 17bd 06d7 0cbd
00000150: 8906 a9bb 58e7 ecbc 6538 00bd

blocks.3.conv.weight f4 [1, 1, 9, 4]
-0.13601802 0.4223268 0.08719695 0.042358294 0.2901511 -0.029480765 -0.1624288 0.01193097
0.23195635 0.20348242 -1.6285233 0.07975799 -0.009956194 0.06311437 -0.46979067 0.2680674
-0.08346879 0.2221895 0.014521706 -0.07889579 0.09491701 -0.056206156 0.20114176 -0.09591671
0.08663766 0.13082853 0.17552756 0.017183935 0.029205337 0.041063827 0.13728149 0.07979821
-0.033082623 2.6346303e-05 0.02465869 0.01594181
00000000: 4f48 0bbe 383b d83e 5194 b23d e47f 2d3d
00000010: af8e 943e a581 f1bc bc53 26be 1d7a 433c
00000020: f785 6d3e b25d 503e 7473 d0bf 2858 a33d
00000030: 4e1f 23bc 1b42 813d 6788 f0be 2140 893e
00000040: aff1 aabd a585 633e 73ec 6d3c 1e94 a1bd
00000050: d963 c23d 6d38 66bd 1bf8 4d3e fb6f c4bd
00000060: 166f b13d eaf7 053e 7fbd 333e 53c5 8c3c
00000070: 0840 ef3c 8b32 283d 8593 0c3e 3e6d a33d
00000080: a581 07bd 4102 dd37 0501 ca3c 6698 823c

blocks.3.dense.weight f4 [1, 92]
-0.004308908 -0.028957935 -0.03769603 -0.030581275 -0.05162782 -0.025085047 -0.01403335 -0.05243584
-0.011611166 -0.023090886 -0.049035218 -0.04758412 -0.062449373 -0.040978152 -0.053811792 -0.045718066
-0.06673775 -0.08006691 -0.031136319 -0.06975272 -0.058614176 -0.04296346 -0.08109566 -0.06061762
-0.08551699 -0.10699738 -0.07698376 -0.08865377 -0.08040679 -0.074757166 -0.14169097 -0.09941882
-0.18732432 -0.1343855 -0.18187861 -0.23646168 -0.22536655 -0.16310667 -0.2884146 -0.16386044
-0.42299888 -0.10282024 -0.22950843 -0.3921358 -0.77844566 -0.36786735 -1.2435375 0.24796456
-0.177189 -0.3266781 -0.33855832 -0.2616049 -0.30787665 -0.2885049 -0.29237068 -0.29597214
-0.26355094 -0.26254195 -0.27926847 -0.23141506 -0.29501453 -0.24493629 -0.25576884 -0.24210155
-0.21930787 -0.21841912 -0.19115432 -0.22877304 -0.22999495 -0.16346689 -0.1716427 -0.15650688
-0.15163986 -0.14853337 -0.16376217 -0.10902747 -0.14918783 -0.05541058 -0.042987764 -0.11638529
-0.032969654 -0.08260141 -0.0777487 -0.07886063 -0.053950597 -0.045441307 -0.07820353 -0.024173176
-0.060953416 -0.036874153 -0.015198946 -0.05232418
00000000: bd31 8dbb 3139 edbc 2767 1abd 9585 fabc
00000010: b177 53bd 287f cdbc 23ec 65bc f7c6 56bd
00000020: c33c 3ebc 1929 bdbc 27d9 48bd 91e7 42bd
00000030: eaca 7fbd b5d8 27bd c169 5cbd de42 3bbd
00000040: cdad 88bd 1ffa a3bd 9811 ffbc 84da 8ebd
00000050: 6b15 70bd 74fa 2fbd 7b15 a6bd 2e4a 78bd
00000060: 8823 afbd 7121 dbbd a9a9 9dbd 1c90 b5bd
00000070: 51ac a4bd 491a 99bd 7017 11be 189c cbbd
00000080: f2d1 3fbe 5a9c 09be 633e 3abe 0323 72be
00000090: 7dc6 66be 6f05 27be 14ab 93be 08cb 27be
000000a0: 4f93 d8be 6b93 d2bd 4204 6bbe 06c6 c8be
000000b0: 3748 47bf 1c59 bcbe 3d2c 9fbf 6cea 7d3e
000000c0: 0971 35be 5a42 a7be 8457 adbe 14f1 85be
000000d0: 02a2 9dbe eab6 93be 9cb1 95be a989 97be
000000e0: 26f0 86be e66b 86be 47fc 8ebe 12f8 6cbe
000000f0: 250c 97be 94d0 7abe 22f4 82be 78e9 77be
00000100: 3e92 60be 43a9 5fbe f5bd 43be 7b43 6abe
00000110: cc83 6bbe dd63 27be 1bc3 2fbe 5743 20be
00000120: 7b47 1bbe 2219 18be 45b1 27be cb49 dfbd
00000130: b2c4 18be 34f6 62bd f013 30bd 695b eebd
00000140: 300b 07bd ee2a a9bd b63a 9fbd af81 a1bd
00000150: 4dfb 5cbd aa20 3abd 2c29 a0bd d306 c6bc
00000160: 4aaa 79bd 5a09 17bd 0005 79bc e151 56bd

linear.weight f4 [1, 5]
0.35510534 -0.24118175 0.25972545 -0.23944119 0.1588766
00000000: 5ed0 b53e 59f8 76be bcfa 843e 1230 75be
00000010: 8cb0 223e
