models/100bp_arround_STRends_models/hg38GTTTT_.pt (torch, 11582 bytes, 15 tensors)

last_block.conv.weight f4 [1, 1, 14, 4]
0	0xbe373e15	-0.17894776
1	0x3e3e6c78	0.18596065
2	0x3e2499ab	0.16074245
3	0xbe34e5e0	-0.17665815
4	0xbe49a061	-0.19690086
5	0x3ce5cfae	0.028053131
6	0xbe12e8e9	-0.1434666
7	0x3cff0f44	0.031135209
8	0xbe07f86b	-0.13278358
9	0x3e0cff18	0.13769186
10	0x3e59b048	0.21258652
11	0xbd9c8031	-0.07641638
12	0xbe74e6f3	-0.23916225
13	0x3d68a740	0.056800127
14	0x3ea3d5d5	0.31999078
15	0x3d3c3ae4	0.0459546
16	0xbdfaf382	-0.12253477
17	0xbe66688d	-0.2250082
18	0x3da8ada0	0.08236241
19	0x3e251da1	0.16124584
20	0xbe8c4df5	-0.27403226
21	0x3ddf66dd	0.109082915
22	0x3d43beaf	0.047789272
23	0x3dc12241	0.094303615
24	0x3df9cbe0	0.12197089
25	0xbcc965de	-0.024584707
26	0x3debd0d4	0.1151444
27	0xbe7a8483	-0.24464612
28	0x3d85ad74	0.06527224
29	0xbd44b218	-0.048021406
30	0xbce74a49	-0.028233664
31	0xbda4e39f	-0.08051228
32	0x3d0eab6c	0.03483145
33	0xbe51c642	-0.20485786
34	0x3db9943b	0.09061476
35	0x3e19134c	0.14948767
36	0x3e202880	0.1564045
37	0xbcff98b1	-0.031200739
38	0x3dbe7a70	0.09300697
39	0xbdb874e1	-0.09006668
40	0x3dbae58c	0.09125814
41	0xbe48a66d	-0.19594736
42	0x3dba40f1	0.09094418
43	0x3d87ba3d	0.06627319
44	0x3c9dc0da	0.019256998
45	0x3d69ac45	0.057049055
46	0xbd9300de	-0.071779
47	0xbe1f79a7	-0.1557375
48	0xbd814674	-0.06312266
49	0xbe4adaf7	-0.19810091
50	0xbdf1526d	-0.117832996
51	0x3d3418a9	0.04396883
52	0xbd411e33	-0.04714794
53	0xbe0453af	-0.12922548
54	0xbd78bce7	-0.060727026
55	0xbd3800ca	-0.044922628

last_block.dense.weight f4 [1, 87]
0	0x3d09f0f1	0.033677045
1	0xbcd16276	-0.025559645
2	0xbd4fb5eb	-0.0507106
3	0xbb74e23e	-0.0037366296
4	0x3d67e1bd	0.056611765
5	0xbd7d5406	-0.06184771
6	0xbc08cc43	-0.008349481
7	0x3c8c5b81	0.017133476
8	0x3c6c577b	0.014425154
9	0x3db3ba39	0.087757535
10	0x3d767fca	0.060180463
11	0xbc1b01cf	-0.00946088
12	0xbd8a1057	-0.06741398
13	0xbcea9b81	-0.028638603
14	0xbca50082	-0.020141844
15	0x3d24f4cb	0.040272515
16	0x3d35923a	0.044328906
17	0x3e055438	0.13020408
18	0x3d7e1890	0.062035143
19	0x3d3befb1	0.045882884
20	0x3d8e374d	0.069441415
21	0x3cb13d0b	0.021635553
22	0x3e14d652	0.14534882
23	0x3da973b0	0.08274019
24	0x3d5d2cce	0.053997807
25	0x3d071cde	0.032986514
26	0x3ded6e5d	0.11593316
27	0x3e4e6c7c	0.20158571
28	0xbdfc4170	-0.12317169
29	0x3d5a62e1	0.053316955
30	0xbe020757	-0.12698112
31	0xbe286fa6	-0.1644884
32	0x3d04446c	0.032291815
33	0xbd5ab619	-0.053396318
34	0xbbcf53a4	-0.0063271094
35	0x3d1bd2f4	0.038042977
36	0xbdc1a46b	-0.09455188
37	0x3d98867a	0.07447524
38	0xbceff61e	-0.029292163
39	0xbe44faab	-0.19236247
40	0x3c68854a	0.014191935
41	0x3e166da4	0.14690262
42	0x3d12d0ee	0.035843782
43	0x3e562ffb	0.2091674
44	0x3f033d11	0.51265055
45	0xbc9974fb	-0.018732538
46	0xbd1f27a8	-0.03885618
47	0xbb9c2f2b	-0.004766365
48	0xbe7ce9ae	-0.24698517
49	0xbd951af7	-0.07280534
50	0xbe05b5e7	-0.13057671
51	0xbe3bfb4a	-0.18357578
52	0xbd6c9f48	-0.05776909
53	0xbdb7757e	-0.08957957
54	0xbdac9357	-0.0842654
55	0xbdc0abda	-0.09407778
56	0x3c5e92d6	0.013584813
57	0x3de6be60	0.1126678
58	0xbd89e59b	-0.06733247
59	0x3df44a17	0.11928194
60	0x3e1a154b	0.15047185
61	0x3dadcc7a	0.084862664
62	0xbd6ba1d2	-0.05752737
63	0x3e2818a0	0.16415644
64	0x3e6f34e4	0.2336002
65	0x3e01dc85	0.12681778
66	0x3daaa0ef	0.08331477
67	0x3e374a10	0.17899346
68	0x3d8cb1ce	0.06869851
69	0x3d909f72	0.07061662
70	0x3bf3cfac	0.007440528
71	0xbd55c3de	-0.052188747
72	0xbd02bbb0	-0.031917274
73	0xbdc98450	-0.0983969
74	0xbd4a87b7	-0.049445834
75	0xbdd1c42c	-0.10242495
76	0xbd74401e	-0.05963146
77	0xba5ddae8	-0.00084631005
78	0xbe3c5a33	-0.18393783
79	0xbb907644	-0.0044086296
80	0xbcfd1be5	-0.03089709
81	0x3ce5bd84	0.02804447
82	0xbd92db18	-0.07170695
83	0xbdd421a6	-0.103579804
84	0xbd9a03a7	-0.07520228
85	0xbc8e50e2	-0.017372552
86	0x3b7a6206	0.00382054

blocks.0.conv.weight f4 [1, 1, 10, 4]
0	0xbddb170e	-0.10697757
1	0xbefe3a90	-0.49654055
2	0xbe42615d	-0.18982454
3	0xbe092d99	-0.133963
4	0xbe5e1896	-0.21689066
5	0xbe0867fb	-0.13320915
6	0xbeb98ee1	-0.3624182
7	0xbd42ba82	-0.04754115
8	0xbe782d64	-0.24236065
9	0xbdfcd3ce	-0.12345086
10	0xbe62ced1	-0.22149207
11	0xbe300051	-0.1718762
12	0xbe5f8495	-0.2182792
13	0xbea9c801	-0.33160403
14	0xbe91e85b	-0.28497586
15	0xbe37b1e5	-0.17938955
16	0xbe8e8433	-0.27835235
17	0xbe1ddb7c	-0.15415758
18	0x3d1ac8ec	0.03778927
19	0xbe79b281	-0.243845
20	0x3dbd5ba1	0.092459925
21	0xbddbee6a	-0.10738833
22	0x3d9f2d12	0.07772268
23	0xbf304f86	-0.68871343
24	0x3e928730	0.28618765
25	0xbea5a760	-0.3235426
26	0xbe14ee29	-0.14543976
27	0xbe98ee44	-0.29869282
28	0xbe1cfa7b	-0.15329926
29	0xbe8f051f	-0.27933595
30	0xbe794b3d	-0.24345107
31	0xbe0c65a7	-0.13710652
32	0xbeaf1c98	-0.34201503
33	0xbead3add	-0.33833972
34	0xbeac2224	-0.33619797
35	0x3d948b60	0.07253146
36	0xbebc0da8	-0.3672917
37	0xbcb8c309	-0.022553938
38	0xbe85f4dd	-0.26163378
39	0x3d37c60d	0.04486661

blocks.0.dense.weight f4 [1, 91]
0	0xbe7544c3	-0.23952012
1	0xbe424f5f	-0.1897559
2	0xbe7b34fa	-0.24531928
3	0xbe6c9a74	-0.23105794
4	0xbe6582db	-0.22413199
5	0xbe59bf37	-0.21264349
6	0xbe64cf3a	-0.22344676
7	0xbe45770f	-0.19283698
8	0xbe8b1f2f	-0.2717223
9	0xbe736dac	-0.23772305
10	0xbe90ecb9	-0.28305605
11	0xbe5059b1	-0.20346715
12	0xbe618c95	-0.22026284
13	0xbe69c298	-0.22828138
14	0xbe80553d	-0.25065032
15	0xbe835603	-0.2565156
16	0xbe63404d	-0.22192498
17	0xbe4be3cc	-0.19911116
18	0xbea0a54f	-0.3137612
19	0xbe4ddd2e	-0.20103905
20	0xbe72e095	-0.23718484
21	0xbe81a710	-0.2532277
22	0xbe923beb	-0.2856134
23	0xbe8a526c	-0.27016008
24	0xbe85267c	-0.26005924
25	0xbe16be8a	-0.14721122
26	0xbe66e4e6	-0.22548255
27	0xbeaefa47	-0.3417532
28	0xbea9dd6d	-0.33176747
29	0xbe97290a	-0.29523498
30	0xbef941c7	-0.48682997
31	0xbed9d320	-0.42543888
32	0xbf064f19	-0.52464443
33	0xbf05444d	-0.52057344
34	0xbf191fb4	-0.59814
35	0xbe955085	-0.29162994
36	0xbf02cedf	-0.5109691
37	0xbedcc161	-0.43116286
38	0xbea9b2c0	-0.33144188
39	0xbe67645f	-0.22596882
40	0xbed3368d	-0.41252556
41	0x3e0bd0a1	0.13653804
42	0x3f9ac2c5	1.2090689
43	0xbf1822cf	-0.59428114
44	0x3c55d0d7	0.01305028
45	0x3e30d2ae	0.17267868
46	0x3e4a3b29	0.1974913
47	0x3ddb3bbe	0.10704754
48	0x3d817320	0.063207865
49	0x3e852c44	0.26010334
50	0x3e420a8d	0.18949337
51	0x3e912940	0.28351784
52	0x3e85faed	0.26168004
53	0x3e788339	0.24268807
54	0x3e626809	0.22109999
55	0x3e67054e	0.22560617
56	0x3de22d17	0.110437565
57	0x3dc14316	0.09436624
58	0x3d2cfbce	0.042232327
59	0xbb4c436b	-0.0031168114
60	0xbc620c73	-0.013796913
61	0xbdf9b493	-0.12192645
62	0xbe1c46f2	-0.15261438
63	0xbe1c8731	-0.15285946
64	0xbe276913	-0.16348676
65	0xbe665574	-0.22493535
66	0xbe47dd06	-0.19517908
67	0xbe8a7216	-0.27040166
68	0xbe4264a0	-0.18983698
69	0xbe646069	-0.22302403
70	0xbe5f7df6	-0.21825394
71	0xbe6fb21b	-0.23407786
72	0xbe7de34d	-0.2479374
73	0xbe78733c	-0.24262708
74	0xbe843b30	-0.25826406
75	0xbe8f650b	-0.28006777
76	0xbdee4792	-0.11634745
77	0xbe4842fe	-0.19556805
78	0xbe5dcae2	-0.21659425
79	0xbe42e8a6	-0.19034061
80	0xbe38289d	-0.17984243
81	0xbe6d2671	-0.23159195
82	0xbe96fcfd	-0.2948989
83	0xbe65468e	-0.22390196
84	0xbe82c4b2	-0.25540692
85	0xbe8eee27	-0.2791607
86	0xbea8f96f	-0.33002803
87	0xbe833df6	-0.2563321
88	0xbe4e6ebe	-0.20159432
89	0xbe50c9fa	-0.20389548
90	0xbe2e9f14	-0.17052871

blocks.1.conv.weight f4 [1, 1, 16, 4]
0	0x3e39ee69	0.18157353
1	0xbe0d78c9	-0.13815607
2	0xbe3eeb43	-0.18644433
3	0x3e303175	0.17206366
4	0xbca1787b	-0.01971077
5	0xbd8754c8	-0.066079676
6	0xbdf8a4d7	-0.12140816
7	0x3b049386	0.0020229532
8	0x3def2320	0.116766214
9	0xbe8524c5	-0.26004615
10	0xbe68fad1	-0.22751929
11	0x3e7fd910	0.24985147
12	0xbe86e944	-0.26349843
13	0xbe05599f	-0.13022469
14	0xbde3effc	-0.11129758
15	0x3e0ada81	0.13559915
16	0x3e34f714	0.17672378
17	0x3e2fdc0a	0.17173782
18	0xbdc93244	-0.098240405
19	0x3d7448cd	0.05963974
20	0x3d88bd23	0.066767
21	0xbf20552f	-0.6262998
22	0x3f178eee	0.5920247
23	0xbea278e3	-0.31732854
24	0xbfd087c7	-1.6291436
25	0x3f6e0625	0.92978126
26	0x3eef94cc	0.4679321
27	0xbf39f44b	-0.72638386
28	0xbf85fc05	-1.0467535
29	0xbfacfa8c	-1.3513961
30	0xbf3aa511	-0.7290812
31	0x3efc41a1	0.4926882
32	0x3f073acb	0.52824086
33	0xbe8f953e	-0.2804355
34	0x3ed99860	0.42499065
35	0xbf6ef464	-0.9334166
36	0xbe9d774a	-0.30755073
37	0x3ed467bf	0.41485402
38	0x3e139fd3	0.14416437
39	0xbd0bdb22	-0.03414453
40	0xbe078c05	-0.13237007
41	0x3d52844f	0.05139571
42	0x3e479954	0.19492084
43	0xbddc1bfb	-0.10747524
44	0xbe7acd25	-0.24492319
45	0x3d88a8f9	0.06672854
46	0xbceb4db4	-0.028723575
47	0x3d6f5dba	0.058438994
48	0xbd88492f	-0.06654584
49	0x3ce93812	0.02846912
50	0x3e57a6e4	0.21059757
51	0xbe8cfcba	-0.27536565
52	0xbd66c9f6	-0.05634495
53	0x3cf8083b	0.030277362
54	0x3e2bbea8	0.16771948
55	0x3db64de0	0.08901572
56	0xbc1e9683	-0.0096794395
57	0x3d514ddc	0.051099643
58	0x3de05a81	0.10954762
59	0x3be21905	0.006899955
60	0xbe50ac8e	-0.20378324
61	0xbd81bed4	-0.06335226
62	0x3deefe34	0.11669579
63	0xbdc0fcf7	-0.09423249

blocks.1.dense.weight f4 [1, 85]
0	0xbca93cc7	-0.020658864
1	0x3c8c9acf	0.017163662
2	0xbafec838	-0.0019438332
3	0x3ce7b952	0.02828661
4	0x3cf4985e	0.02985781
5	0x3cbe7811	0.023250611
6	0x3cea4a8d	0.028600002
7	0xbd909644	-0.07059911
8	0xbbfab335	-0.0076507577
9	0x3beb7ff0	0.007186882
10	0xbc024757	-0.007951579
11	0x3c630356	0.013855776
12	0xbbd9190d	-0.0066253007
13	0xbb17737b	-0.0023109603
14	0xbc86f769	-0.016475396
15	0x3d4e7d47	0.050412443
16	0x3bdb29e6	0.0066883443
17	0x3d50ebe9	0.05100623
18	0x3ba1837f	0.0049290056
19	0xbcda9d19	-0.026686238
20	0xbd9c66bf	-0.07636785
21	0xbca31cd2	-0.019911204
22	0xbe325fe0	-0.17419386
23	0xbdc358ec	-0.09538445
24	0xbe881f1a	-0.2658623
25	0xbe7c221d	-0.24622388
26	0xbebcba3d	-0.3686084
27	0xbe8eb96d	-0.27875844
28	0xbe929b6c	-0.28634202
29	0xbf082bb9	-0.53191715
30	0xbec41927	-0.3830044
31	0xbea084f4	-0.31351435
32	0xbf0f0391	-0.55864817
33	0xbefb978c	-0.4913906
34	0xbf0f5042	-0.5598184
35	0xbef9fd0a	-0.48825866
36	0xbf0df513	-0.5545208
37	0xbf18532c	-0.5950191
38	0xbf3d37c2	-0.73913205
39	0xbe6b1fd1	-0.22961356
40	0xbeb0cc70	-0.34530973
41	0xbf15c3e7	-0.5850205
42	0xbf70eec4	-0.9411433
43	0xbee02762	-0.43780047
44	0xbf197a16	-0.59951913
45	0xbf07a4d7	-0.529859
46	0xbf13809a	-0.57618105
47	0xbf178bab	-0.5919749
48	0xbf1646e8	-0.58701944
49	0xbf1e052d	-0.6172665
50	0xbf21a131	-0.63136584
51	0xbf035bd1	-0.51311976
52	0xbf0cc563	-0.5498869
53	0xbf18aa15	-0.59634525
54	0xbec369f0	-0.3816676
55	0xbeb949df	-0.36189172
56	0xbecbddce	-0.3981766
57	0xbea33876	-0.31879014
58	0xbea8482a	-0.32867557
59	0xbe93aa08	-0.2884066
60	0xbe76bf68	-0.24096453
61	0xbea0eef8	-0.3143232
62	0xbe6f2a4a	-0.23355976
63	0xbe628c37	-0.221238
64	0xbe42fbbc	-0.19041342
65	0xbe89b515	-0.26895967
66	0xbe83cae3	-0.25740728
67	0xbe8e6faf	-0.27819583
68	0xbe320dfc	-0.17388147
69	0xbe59d052	-0.21270874
70	0xbdd4042b	-0.103523575
71	0xbde66752	-0.112501755
72	0xbe2d2ee5	-0.1691242
73	0xbdaa951e	-0.08329223
74	0xbd04ae47	-0.032392766
75	0xbd1364b6	-0.035984717
76	0xbd228156	-0.039674126
77	0xbc52a6fc	-0.012857195
78	0xbd0d0b16	-0.0344344
79	0xbdb7a4c2	-0.08966972
80	0xbda4f696	-0.08054845
81	0x3b15c822	0.0022854884
82	0xbc31fb8a	-0.010863194
83	0xbd988811	-0.074478276
84	0x3c812ce2	0.015768472

blocks.2.conv.weight f4 [1, 1, 3, 4]
0	0xbf20b403	-0.62774676
1	0xbed88014	-0.42285216
2	0xbe45599e	-0.19272467
3	0x3e6341c2	0.22193053
4	0xbf298abf	-0.66227335
5	0xbe3060e4	-0.17224461
6	0x3e4e7a2d	0.20163794
7	0xbe35e540	-0.17763233
8	0xbe7a5fd2	-0.24450615
9	0xbeec4490	-0.4614606
10	0x3eb404c3	0.35159883
11	0xbef0b931	-0.4701629

blocks.2.dense.weight f4 [1, 98]
0	0xbe20f00f	-0.15716575
1	0x3d8254f7	0.06363862
2	0xbdcb0f38	-0.09915012
3	0x3debb942	0.115099445
4	0x3d59b5e6	0.053151987
5	0x3df64fb5	0.12026922
6	0xbe6088ed	-0.21927233
7	0xbda7d2fe	-0.081945404
8	0xbc9965d3	-0.018725311
9	0xbcc02cd8	-0.023458883
10	0xbdb31fdf	-0.08746313
11	0x3e0da3b9	0.13831986
12	0xbcd6f841	-0.026241424
13	0xbcf23296	-0.029565137
14	0x3d171a0b	0.03689007
15	0x3dab6df7	0.083705835
16	0x3c52eb0b	0.012873421
17	0x3cb01c67	0.021497918
18	0x3af51ac2	0.0018699991
19	0xbd0329ef	-0.032022413
20	0x3debefd7	0.11520355
21	0xbcf70acf	-0.030156521
22	0x3e1e4a6c	0.15458077
23	0x3b9eb0c5	0.00484285
24	0x3e13e512	0.14442852
25	0x3b44397f	0.0029941497
26	0x3e260fa4	0.16216904
27	0x3d01496c	0.03156416
28	0x3e0e7ecf	0.13915561
29	0x3e89ad56	0.26890057
30	0x3e0e46d9	0.13894214
31	0x3ecc8192	0.39942604
32	0x3edcd2c3	0.43129548
33	0x3ecebaf8	0.4037702
34	0x3eda2063	0.42602834
35	0x3ee7d018	0.4527595
36	0x3e96e7c9	0.29473713
37	0x3e987122	0.29773813
38	0x3ee81217	0.453263
39	0x3e85cc6e	0.2613253
40	0x3ecd239c	0.4006623
41	0x3f2ac72f	0.6671018
42	0x3f12019e	0.5703372
43	0x3ece3fd6	0.40283078
44	0x3f0ae6c9	0.542584
45	0x3ec3b46a	0.38223583
46	0x3f6091d6	0.8772253
47	0x3eef3b1b	0.4672478
48	0x3dd69eaf	0.10479485
49	0x3e8f129c	0.27943885
50	0xbda3f68e	-0.08006011
51	0x3ef7c8ed	0.48395482
52	0x3ee6e844	0.4509908
53	0x3ea8f867	0.33002016
54	0x3ecd6599	0.40116575
55	0x3ebd3326	0.36953086
56	0x3f003e3b	0.50094956
57	0x3ee2a58f	0.44266936
58	0x3ed225c9	0.41044453
59	0x3f033628	0.5125451
60	0x3ef327d0	0.47491312
61	0x3ed31f95	0.41235033
62	0x3ee86e9c	0.45396888
63	0x3e99bfc5	0.3002912
64	0x3ea25eaf	0.31712863
65	0x3e5b6468	0.2142502
66	0x3e54c9d5	0.20780118
67	0x3e6b6951	0.22989394
68	0x3ec05e41	0.3757191
69	0x3e8db2a1	0.27675346
70	0x3ee461a8	0.44605756
71	0x3e30f6ee	0.17281696
72	0x3e7872c8	0.24262536
73	0x3e7a40d8	0.24438798
74	0x3ea28cf7	0.31748173
75	0x3e26a326	0.16273174
76	0xbde00e2f	-0.10940205
77	0xbcc42c66	-0.023946952
78	0x3d340dd2	0.043958493
79	0x3d86c2bb	0.06580111
80	0xbc52ce06	-0.012866503
81	0x3d721cae	0.059109382
82	0x3d9eacbe	0.07747792
83	0x3d1369f9	0.035989735
84	0xbc3a8e2e	-0.011386437
85	0x3dc781fe	0.09741591
86	0x3e0f7d2a	0.1401259
87	0xbd2843dc	-0.04108034
88	0x3d4b9661	0.04970396
89	0x3e0b7d87	0.13622104
90	0x3d8c4d31	0.068506606
91	0x3dc9faa0	0.09862256
92	0xbd077643	-0.033071768
93	0xbdf9744f	-0.12180387
94	0xbd560e37	-0.05225965
95	0xbcc77761	-0.024348916
96	0xbdafa271	-0.08575905
97	0xbe27873b	-0.1636018

blocks.3.conv.weight f4 [1, 1, 11, 4]
0	0xbe4a7937	-0.19772802
1	0x3df520e0	0.11969161
2	0xbe36faa2	-0.17869046
3	0x3e1d12fb	0.15339272
4	0xbf28c17d	-0.6592024
5	0xbcc61a45	-0.024182448
6	0xbe88f08e	-0.2674603
7	0x3db71899	0.089402385
8	0x3ec01bb2	0.3752113
9	0x3dbade3c	0.09124419
10	0xbecfb5e8	-0.4056847
11	0x3e033b06	0.12815484
12	0xbf3b2959	-0.73109967
13	0xbed410b7	-0.41419002
14	0xbe6063fb	-0.2191314
15	0x3e8aca58	0.271075
16	0x3e49e9ed	0.19718142
17	0xbdc648c1	-0.096818455
18	0xbfb10bac	-1.3831687
19	0xbe007260	-0.1254363
20	0xbf987906	-1.1911933
21	0xbeabcd8c	-0.33555257
22	0x3e4704e7	0.19435464
23	0xbc0de501	-0.008660556
24	0xbdd15e16	-0.102230236
25	0x3d223b8d	0.039607573
26	0xbf6e6adf	-0.9313182
27	0x3d643d21	0.05572236
28	0x3dec7e26	0.115474984
29	0xbddc6e5f	-0.10763239
30	0x3d9da412	0.076973096
31	0xbe3d2e2f	-0.18474649
32	0xbe97835e	-0.29592413
33	0x3d84d5bf	0.06486081
34	0x3e721b8f	0.23643325
35	0x3d0a39c0	0.03374648
36	0xbdaaf7ae	-0.083480224
37	0x3ddf12f8	0.1089229
38	0x3d49a763	0.049231898
39	0xbe31c2ad	-0.17359419
40	0xbd66f277	-0.056383576
41	0x3dcf5429	0.10123474
42	0xbdd6aca7	-0.104821496
43	0xba81ff87	-0.0009918072

blocks.3.dense.weight f4 [1, 90]
0	0x3d7330e3	0.059372794
1	0xbd65a6fc	-0.05606745
2	0x3b810adb	0.0039380617
3	0x3d0d524a	0.034502305
4	0x3b2fe9f9	0.002684234
5	0x3decdead	0.115659095
6	0x3db0e220	0.0863688
7	0x3d949b8e	0.07256232
8	0x3d0a3bea	0.033748545
9	0x3bbd690b	0.0057803444
10	0x3de48c6a	0.11159594
11	0x3d55a876	0.05216261
12	0x3e5f1580	0.21785545
13	0x3dc32255	0.09528033
14	0x3d819c3d	0.06328628
15	0x3e2cb9e6	0.1686779
16	0x3e005a44	0.12534434
17	0x3dd12666	0.10212402
18	0x3df45027	0.1192935
19	0x3e47ac9e	0.19499442
20	0x3cd001af	0.025391428
21	0x3b8abe4d	0.0042341114
22	0x3e08d58d	0.13362713
23	0x3e8341a8	0.2563603
24	0x3df2ccbc	0.11855456
25	0x3e9a79f9	0.30171183
26	0x3e8df23c	0.27723873
27	0x3e630b26	0.22172222
28	0x3ec1345a	0.37735254
29	0x3e76b14a	0.24091068
30	0x3e9cc6d5	0.30620447
31	0x3ea34658	0.31889606
32	0x3e93d2cc	0.28871763
33	0x3ec8777e	0.39153665
34	0x3ea9dbec	0.331756
35	0x3e80311f	0.25037476
36	0x3df7ccba	0.12099595
37	0x3f02544f	0.50909895
38	0x3f100063	0.5625059
39	0x3c52ad00	0.012858629
40	0x3e22d3a1	0.15901043
41	0x3f6d4d54	0.9269612
42	0xbe81a2af	-0.2531943
43	0xbc52578d	-0.012838257
44	0x3f19e58e	0.601159
45	0x3d35728e	0.0442987
46	0x3ee1fe6b	0.44139418
47	0x3e6561ca	0.22400585
48	0x3e83de64	0.25755608
49	0x3e59db81	0.2127514
50	0x3e901ad1	0.2814546
51	0x3e209120	0.15680361
52	0x3e41862c	0.18898839
53	0x3e80651b	0.25077137
54	0x3e800642	0.25004774
55	0x3e0da6f4	0.13833219
56	0x3e2b7503	0.16743855
57	0x3e942f0a	0.28942138
58	0x3ee70f21	0.4512873
59	0x3ebe67f4	0.37188685
60	0x3ed84ce6	0.4224617
61	0x3ee92304	0.45534527
62	0x3ec4e047	0.3845236
63	0x3e75de5d	0.24010606
64	0x3e824f3c	0.25451076
65	0x3ea7bb2f	0.32759997
66	0x3e62c8c5	0.221469
67	0x3e3a9d1e	0.18223998
68	0x3e8c4859	0.27398947
69	0x3e7e7f10	0.24853158
70	0x3e7ce4ed	0.24696703
71	0x3ea501ab	0.32227835
72	0x3ebf2c24	0.37338364
73	0x3e512649	0.20424761
74	0x3e648e47	0.223199
75	0x3e8c96ea	0.27458888
76	0x3d8bf12b	0.068331085
77	0x3dd6ea14	0.104938656
78	0x3d56fe57	0.05248865
79	0x3d35a01a	0.044342138
80	0xbc63232e	-0.013863368
81	0x3c900ab7	0.017583234
82	0x3ddd2bf0	0.10799396
83	0x3dcbcdf8	0.09951395
84	0x3c1795bd	0.009252009
85	0x3dd15f93	0.102233075
86	0x3e3b1d67	0.18272935
87	0x3d774d03	0.06037618
88	0xbdabcbf8	-0.08388513
89	0x3e186164	0.14880902

blocks.4.conv.weight f4 [1, 1, 7, 4]
0	0xbe420c60	-0.18950033
1	0xbe860200	-0.261734
2	0x3d00b84d	0.031425763
3	0xbe46db9f	-0.19419716
4	0xbe5d521e	-0.21613356
5	0xbed85ee2	-0.4225989
6	0x3ee3ef0c	0.44518316
7	0xbf04790f	-0.5174722
8	0xbe3bdd2c	-0.18346089
9	0xbec52646	-0.38505763
10	0x3e71c3f9	0.23609914
11	0xbe658931	-0.22415616
12	0xbe0ff5ea	-0.14058653
13	0xbe842cdf	-0.25815484
14	0xbd85be85	-0.06530479
15	0x3c15db24	0.0091464855
16	0xbdf8e26e	-0.12152563
17	0xbe2d4079	-0.16919126
18	0xbe241a30	-0.16025615
19	0x3c95f98e	0.018307474
20	0x3c3d9e77	0.0115734255
21	0xbd06a098	-0.032867998
22	0xbd9fcae0	-0.07802367
23	0x3e58ee84	0.21184736
24	0xbe0ede06	-0.13951883
25	0x3dbb675d	0.09150574
26	0xbe816c76	-0.25278062
27	0x3d61f975	0.05516954

blocks.4.dense.weight f4 [1, 94]
0	0x3ca59423	0.020212239
1	0x3cda6a78	0.026662096
2	0xbd150eb3	-0.03639097
3	0x39c14d6b	0.0003686951
4	0xbbb69299	-0.005571675
5	0xbdc12456	-0.09430759
6	0xbddc4e77	-0.107571535
7	0x3d347c13	0.04406364
8	0x3d50bb9c	0.05096017
9	0x3ba7d039	0.0051212576
10	0xbd9ceca4	-0.07662323
11	0x3d852c89	0.06502635
12	0xbd15e387	-0.03659394
13	0xbd85d318	-0.065344036
14	0xbd1a3059	-0.037643764
15	0xbd360a10	-0.04444319
16	0xbe12dc3d	-0.14341827
17	0xbc479956	-0.012182554
18	0xbd97aed0	-0.0740639
19	0xbca51e6f	-0.020156113
20	0xbc910aa1	-0.017705264
21	0xbd82fc5b	-0.06395789
22	0xbc2a8528	-0.0104077235
23	0xbe17dce3	-0.14830355
24	0x3db4f865	0.0883644
25	0xbdfcbf93	-0.123412274
26	0xbdf627f3	-0.120193385
27	0xbd8baf4d	-0.06820545
28	0xbdb67262	-0.089085355
29	0x3d8d099a	0.06886597
30	0xbe4ccc5a	-0.19999829
31	0x3d679d47	0.056546476
32	0xbd8e7aa1	-0.06956983
33	0x3d05907f	0.032608505
34	0xbd1f3266	-0.038866423
35	0x3de5ebf9	0.11226649
36	0xbe0e3da5	-0.13890703
37	0xbe1ef382	-0.15522578
38	0x3e2300ce	0.15918276
39	0x3e7aa47e	0.24476811
40	0xbea68740	-0.32525063
41	0x3d749afd	0.05971812
42	0xbea2e011	-0.31811574
43	0x3dcddbf6	0.1005172
44	0xbedeb444	-0.43496907
45	0x3eff1ca7	0.49826548
46	0x3e5fd5b6	0.21858868
47	0x3cb814e6	0.022470903
48	0x3e283dba	0.16429797
49	0x3c672da7	0.014110005
50	0x3f01094f	0.5040483
51	0x3f0a0ca8	0.5392556
52	0x3eaf71a0	0.34266376
53	0x3ed173ca	0.40908653
54	0x3ea241fb	0.31690964
55	0x3e887a93	0.26656017
56	0x3e8ada87	0.27119848
57	0x3e699a81	0.22812845
58	0x3e7e322b	0.24823825
59	0x3e3b4750	0.18288922
60	0x3e383ed7	0.17992721
61	0x3e88b53b	0.26700768
62	0x3e082436	0.13295063
63	0x3e6069b2	0.2191532
64	0x3dcf9aa0	0.10136914
65	0x3e7b393b	0.2453355
66	0x3ed2d470	0.41177702
67	0x3e76a2df	0.24085568
68	0x3e518ecf	0.20464633
69	0x3e77b777	0.2419108
70	0x3e2b69cf	0.16739582
71	0x3e0968e9	0.13418926
72	0x3c03a0f7	0.0080339825
73	0x3e054519	0.1301464
74	0xbd741ca2	-0.05959762
75	0x3ca84bdb	0.020543983
76	0x3df46d57	0.119349174
77	0x3cdf9ac9	0.027295487
78	0xbd934d5b	-0.07192489
79	0x3e204e4e	0.15654871
80	0x3e3274c1	0.1742735
81	0x3da611f1	0.08108891
82	0x3d120ef4	0.03565879
83	0x3e010c7a	0.12602416
84	0xbc122853	-0.008920747
85	0xbd49f3af	-0.04930466
86	0xbc9db107	-0.019249452
87	0xbd9c35c3	-0.07627442
88	0x3bf1d56a	0.0073801773
89	0xbdb6d7cf	-0.08927881
90	0xbd81f184	-0.063448936
91	0xbdc6efa2	-0.09713675
92	0x3dbffd03	0.0937443
93	0x3dda60e1	0.106630094

blocks.5.conv.weight f4 [1, 1, 13, 4]
0	0xbf11a727	-0.5689568
1	0xbdca7a7e	-0.09886645
2	0x3e2483db	0.16065924
3	0x3dd806f9	0.10548205
4	0x3db20815	0.08692948
5	0xbdd80eb1	-0.10549677
6	0xbda55a91	-0.08073915
7	0x3cb2f11c	0.021843486
8	0xbf768b75	-0.96306545
9	0x3c10c2fe	0.008835552
10	0x3d8363fb	0.06415554
11	0x3e195af3	0.149761
12	0xbd98011b	-0.07422086
13	0xbed8cf64	-0.42345726
14	0xbd69bd01	-0.057065014
15	0xbd9991ac	-0.07498488
16	0xbe85d3eb	-0.26138243
17	0x3db28513	0.08716788
18	0x3dbadd5d	0.09124253
19	0x3d5a4183	0.053285133
20	0x3dc0e54a	0.094187334
21	0xbeab9135	-0.33509222
22	0x3e2f2a08	0.17105877
23	0x3e0f8222	0.14014485
24	0xbd8bce60	-0.06826472
25	0x3e2c648a	0.16835228
26	0xbe783578	-0.24239147
27	0xbdce4b8f	-0.100730054
28	0xbe867667	-0.2626221
29	0xbe541746	-0.20712003
30	0xbe0dfc4e	-0.13865778
31	0x3db6a363	0.08917882
32	0x3c8757b9	0.016521322
33	0xbc8f3a2b	-0.017483791
34	0x3db43c3f	0.088005535
35	0xbd940292	-0.07227053
36	0xbd805c44	-0.06267598
37	0x3e5e09d5	0.21683438
38	0x3e3ecc02	0.1863251
39	0xbe65eb0e	-0.22452947
40	0xbf1a67b8	-0.6031451
41	0xbcf4d3bd	-0.02988612
42	0xbe479257	-0.19489418
43	0x3e8989c5	0.26862922
44	0x3b5ae5e1	0.0033401179
45	0x3cddaf24	0.027061053
46	0xbdab3846	-0.08360343
47	0xbea186a3	-0.31548032
48	0xbe8a7a15	-0.27046266
49	0xbe814c80	-0.25253677
50	0x3e03ed7a	0.12883559
51	0x3e0288d3	0.12747507

blocks.5.dense.weight f4 [1, 88]
0	0xbbf68510	-0.0075231865
1	0x3d54907c	0.051895604
2	0x3cb3eaff	0.02196264
3	0x3ce96759	0.028491663
4	0xbb6bfb8d	-0.003600809
5	0xbcfc3b9d	-0.030790145
6	0xbd37e90c	-0.044899985
7	0x3c405d65	0.011741017
8	0xba9d87d5	-0.001201863
9	0xbd25e1d7	-0.04049858
10	0x3d534d5e	0.051587455
11	0xbbf21aba	-0.00738844
12	0x3d194d82	0.037427433
13	0xbcc973c0	-0.024591327
14	0xbb60bd06	-0.0034292354
15	0xbdd1944e	-0.10233365
16	0xbd859a2b	-0.06523546
17	0xbc867845	-0.01641477
18	0xbd2a985d	-0.04164921
19	0x3ca5217c	0.020157568
20	0x3c4cb1c9	0.012493559
21	0xbda69794	-0.0813438
22	0x3c6ecfab	0.014575879
23	0xbcb76820	-0.022388518
24	0xbdb4e962	-0.08833577
25	0xbc4caaec	-0.012491923
26	0xbd724d55	-0.05915578
27	0xbd8ecdbd	-0.06972835
28	0x3cf11dda	0.02943318
29	0xbd0db324	-0.03459467
30	0x3c924df0	0.01785943
31	0xbd845807	-0.064621024
32	0xbca0c059	-0.019622969
33	0xbcec1d6d	-0.028822625
34	0xbde313ad	-0.11087737
35	0xbe09d8aa	-0.13461557
36	0xbbbc7536	-0.0057512773
37	0xbe3db7e9	-0.18527187
38	0xbe4d06a6	-0.20022067
39	0x3ecd817a	0.40137845
40	0x3e34682d	0.17617865
41	0x3e4a95a8	0.19783652
42	0x3e34c237	0.17652212
43	0x3e171a56	0.1475614
44	0x3e44ddaf	0.1922519
45	0x3e822d79	0.25425318
46	0x3e76e8a3	0.24112181
47	0x3e6b4473	0.2297533
48	0x3ea7ede1	0.32798675
49	0x3eb3be29	0.35106018
50	0x3ea99203	0.3311921
51	0x3eae8f23	0.3409358
52	0x3e9fd612	0.3121801
53	0x3ecd3fc9	0.40087727
54	0x3ec240c9	0.37940052
55	0x3ed74410	0.42044115
56	0x3ec75d6a	0.38938457
57	0x3e4854ab	0.19563548
58	0x3e0329bd	0.1280889
59	0x3e2c99e1	0.16855575
60	0x3d895d57	0.06707256
61	0xbc2d50c0	-0.010578334
62	0x3d884e3d	0.06655548
63	0x3daed37d	0.08536432
64	0xbd361b50	-0.04445964
65	0xbc86b133	-0.016441917
66	0x3e0318c8	0.12802422
67	0x3d514cdc	0.05109869
68	0x3d5a5d0d	0.053311396
69	0x3e307336	0.1723145
70	0x3dfb31de	0.12265371
71	0x3dc26b45	0.09493116
72	0x3dded8b7	0.10881179
73	0x3d3dc395	0.0463291
74	0x3da94e27	0.082668595
75	0x3d955f48	0.07293564
76	0x3d3e4e77	0.04646155
77	0xbdb92cd0	-0.090417504
78	0xbdc68ea3	-0.096951745
79	0xba1ba08c	-0.0005936704
80	0x3d7bf445	0.06151225
81	0x3ddf8390	0.109137654
82	0xbc77f3a7	-0.015133775
83	0x3cb09008	0.021553054
84	0xbc7d0324	-0.015442643
85	0x3b291a3d	0.0025802993
86	0x3da0fef2	0.07861127
87	0x3d0d3428	0.03447357

linear.weight f4 [1, 7]
0	0x3e294a56	0.16532263
1	0xbea3fa07	-0.32026693
2	0xbdd065aa	-0.10175641
3	0xbe186565	-0.14882429
4	0x3e1e23a0	0.15443277
5	0xbe599b18	-0.2125057
6	0x3e717b83	0.23582272
