models/100bp_arround_STRends_models/hg38GTT_.pt (torch, 7277 bytes, 9 tensors)

last_block.conv.weight f4 [1, 1, 7, 4]
0.16159515 -0.12850834 0.2504444 -0.22452556 0.10410127 0.057963952 0.104677215 0.108711
0.020635316 0.073221155 -0.06636446 -0.1257014 0.0012346009 -0.097048044 -0.037502475 0.07602889
0.0578433 0.078953184 -0.16351324 0.0061021983 0.22729589 0.039347913 -0.02125967 -0.15129563
0.07420395 0.043555625 -0.113131076 0.17176914
00000000: 3379 253e b197 03be 403a 803e 07ea 65be
00000010: 0c33 d53d 9c6b 6d3d 0261 d63d dfa3 de3d
00000020: 650b a93c f9f4 953d 17ea 87bd deb7 00be
00000030: 55d2 a13a 20c1 c6bd 329c 19bd 09b5 9b3d
00000040: 19ed 6c3d 35b2 a13d 0470 27be f3f4 c73b
00000050: 41c0 683e 472b 213d c228 aebc 3eed 1abe
00000060: 3ef8 973d 6267 323d 44b1 e7bd 40e4 2f3e

last_block.dense.weight f4 [1, 94]
0.10036791 -0.056253888 -0.039762855 -0.03823724 -0.0976386 -0.016409356 0.047507584 -0.055285335
0.036555998 0.058395028 -0.06298169 -0.010150904 -0.028464342 0.032667223 -0.050536912 0.012996589
-0.026230523 -0.010572722 0.02307875 -0.0045919716 -0.080644995 0.055914152 0.024583925 -0.058646973
0.014879952 -0.009545298 0.0077007003 0.0847926 -0.03201292 0.054319035 -0.18443784 0.10723627
-0.3427447 -0.026811803 0.08585891 -0.18368681 0.15028693 -0.11863256 0.04427851 -0.2795795
-0.23709916 -0.006220787 -0.38623494 0.18623011 -0.36734775 -0.16970111 -0.015201059 -0.12455703
-0.10334004 0.14854132 0.025271403 -0.2122094 -0.1519139 -0.15084234 -0.120364465 -0.19832869
-0.12658635 -0.13829374 -0.009073151 -0.12179894 0.021514114 -0.020047233 0.017418396 -0.106616184
-0.111588895 -0.121849574 0.04310386 0.0049871407 0.016810149 0.081375115 0.08585463 -0.06851078
-0.048865598 -0.0022057525 -0.17368641 -0.090140365 -0.026229776 -0.069937274 -0.08806461 -0.032359052
-0.14889768 -0.080506265 -0.022954682 -0.022569137 0.009993218 -0.038878266 -0.1278295 -0.010945211
-0.050411724 -0.015645493 -0.067462005 0.06529817 -0.013153314 -0.0523327
00000000: b18d cd3d 7a6a 66bd 60de 22bd a79e 1cbd
00000010: bff6 c7bd ea6c 86bc 5097 423d e072 62bd
00000020: bebb 153d a02f 6f3d 8bfc 80bd fa4f 26bc
00000030: 0d2e e9bc 11ce 053d cbff 4ebd a5ef 543c
00000040: 65e1 d6bc 3639 2dbc a60f bd3c 4078 96bb
00000050: 3429 a5bd 3d06 653d 3a64 c93c cf37 70bd
00000060: 0bcb 733c e263 1cbc 2856 fc3b bea7 ad3d
00000070: fb1f 03bd a37d 5e3d 46dd 3cbe b19e db3d
00000080: 3c7c afbe 6da4 dbbc ccd6 af3d 6518 3cbe
00000090: d1e4 193e a1f5 f2bd 625d 353d 0b25 8fbe
000000a0: 1fca 72be bed7 cbbb 96c0 c5be 1bb3 3e3e
000000b0: 0115 bcbe 21c6 2dbe dd0d 79bc c217 ffbd
000000c0: f1a3 d3bd 371b 183e f905 cf3c 6c4d 59be
000000d0: 518f 1bbe 6a76 1abe a581 f6bd ad16 4bbe
000000e0: da9f 01be e09c 0dbe 8ea7 14bc b971 f9bd
000000f0: 5e3e b03c 183a a4bc 06b1 8e3c 9659 dabd
00000100: b888 e4bd 458c f9bd ac8d 303d 2b6b a33b
00000110: 70b5 893c ffa7 a63d 8dd4 af3d 614f 8cbd
00000120: 4b27 48bd 638e 10bb dada 31be 839b b8bd
00000130: d4df d6bc 463b 8fbd 385b b4bd ed8a 04bd
00000140: a278 18be 78e0 a4bd 750b bcbc e9e2 b8bc
00000150: 98ba 233c d13e 1fbd bde5 02be 8b53 33bc
00000160: 867c 4ebd fa2a 80bc 8529 8abd 0cbb 853d
00000170: ff80 57bc d05a 56bd

blocks.0.conv.weight f4 [1, 1, 19, 4]
-0.025795575 0.058487017 0.044496384 0.10755238 -0.11041286 -0.07077712 -0.05728556 0.069060355
0.03739812 -0.114194565 -0.19527473 0.03923069 -0.10883369 0.033285398 -0.11383462 0.05429487
-0.17827 -0.08201087 -0.36788523 -0.020369643 -0.10423906 0.077648565 -0.027551625 0.10610506
-0.11816126 -0.004524273 -0.115662366 -0.06698904 -0.22880436 -0.20246094 -0.10766705 0.016379327
0.16273029 -0.18826598 0.052126028 -0.06381045 -0.18571988 0.25512207 0.107342325 -0.1292151
-0.37437314 -0.11814712 -0.064404786 0.12778421 0.17792015 -0.020884031 0.06424137 -0.035108767
-0.15268648 0.4167781 -0.062332958 -0.2650211 -0.9062942 -0.9037029 -0.19728787 0.1708066
0.26938185 0.19545986 -0.10181129 -0.27964497 -0.16011956 -0.011876921 0.05209261 0.24450795
0.14748046 0.14734578 0.0009215006 -0.17177081 -0.3755199 -0.06602119 0.008027712 0.059701417
-0.030564722 -0.007959573 0.032327626 0.01033191
00000000: 3e51 d3bc 1590 6f3d d741 363d 6c44 dc3d
00000010: 2320 e2bd 98f3 90bd 43a4 6abd 846f 8d3d
00000020: c52e 193d d7de e9bd 19f6 47be 5cb0 203d
00000030: 33e4 debd 4556 083d 2022 e9bd 4c64 5e3d
00000040: 698c 36be 51f5 a7bd 745b bcbe 3dde a6bc
00000050: 4a7b d5bd 3606 9f3d f2b3 e1bc 9c4d d93d
00000060: 88fe f1bd 5a40 94bb 64e0 ecbd 8d31 89bd
00000070: b14b 6abe ec51 4fbe 8b80 dcbd f02d 863c
00000080: c5a2 263e ccc8 40be 1a82 553d 0eaf 82bd
00000090: 5a2d 3ebe 5c9f 823e 4bd6 db3d f750 04be
000000a0: d6ad bfbe 1ef7 f1bd a8e6 83bd ddd9 023e
000000b0: b330 363e fd14 abbc fb90 833d 36ce 0fbd
000000c0: d859 1cbe f063 d53e d850 7fbd d8b0 87be
000000d0: e602 68bf 1359 67bf d505 4abe ede7 2e3e
000000e0: 6bec 893e a126 483e 7082 d0bd a02d 8fbe
000000f0: 62f6 23be 6b97 42bc 105f 553d 4b60 7a3e
00000100: 1e05 173e d0e1 163e dc90 713a b0e4 2fbe
00000110: 2544 c0be 1e36 87bd aa86 033c 7989 743d
00000120: de62 fabc de68 02bc f969 043d 2c47 293c

blocks.0.dense.weight f4 [1, 82]
0.035712324 0.0012178249 -0.02550678 0.017641222 -0.01985934 -0.005339269 -0.0217765 0.08893966
-0.0039355946 0.008552374 -0.060456675 0.01845627 0.049493276 -0.007483321 0.041232742 0.08346628
0.023333734 0.08789471 -0.018053453 0.02801332 0.049242828 0.12040017 0.17245707 0.21948266
0.19785237 0.092616156 0.13972017 0.06361113 0.20334847 0.20019267 0.19547167 0.13261193
-0.13139823 0.1344702 0.3526783 0.33627656 0.23821668 0.06511311 0.34631374 0.37184152
0.32681155 0.34558052 0.4314021 0.37221393 0.40236515 0.32356745 0.36560073 0.33997753
0.36380807 0.37111333 0.39231038 0.38613862 0.391754 0.33042967 0.28705153 0.3270162
0.2563592 0.2595592 0.16659737 0.23425071 0.23469327 0.15546684 0.19962247 0.234477
0.17045693 0.21613874 0.15366258 0.07851964 0.052735887 0.051031943 0.056884956 0.09964118
0.08189746 0.13681841 -0.015051521 -0.029797595 0.042899784 0.036013454 0.042892046 -0.024083005
-0.06647503 -0.041401085
00000000: 1647 123d 6c9f 9f3a 98f3 d0bc 5384 903c
00000010: 0eb0 a2bc 09f5 aebb a164 b2bc ff25 b63d
00000020: 29f6 80bb 421f 0c3c 6ba1 77bd 9b31 973c
00000030: 76b9 4a3d a536 f5bb aae3 283d 5ef0 aa3d
00000040: 6326 bf3c 2402 b43d d6e4 93bc 317c e53c
00000050: d9b2 493d 5d94 f63d 9698 303e 10c0 603e
00000060: d099 4a3e 8aad bd3d ce12 0f3e 8d46 823d
00000070: 953a 503e 4fff 4c3e ba29 483e 6ccb 073e
00000080: 428d 06be 8eb2 093e 4092 b43e 712c ac3e
00000090: 13ef 733e 065a 853d 0950 b13e 0362 be3e
000000a0: d853 a73e eeef b03e bce0 dc3e d392 be3e
000000b0: ce02 ce3e a2aa a53e 0530 bb3e 8911 ae3e
000000c0: 0d45 ba3e 9102 be3e e8dc c83e f6b3 c53e
000000d0: fb93 c83e 142e a93e 6bf8 923e ab6e a73e
000000e0: 8341 833e f2e4 843e 8098 2a3e 6bdf 6f3e
000000f0: 6f53 703e b332 1f3e d569 4c3e bd1a 703e
00000100: 438c 2e3e 7953 5d3e b959 1d3e e8ce a03d
00000110: 9601 583d df06 513d 3300 693d ad10 cc3d
00000120: dbb9 a73d 201a 0c3e a89a 76bc 161a f4bc
00000130: afb7 2f3d d882 133d 92af 2f3d b949 c5bc
00000140: 0f24 88bd 2f94 29bd

blocks.1.conv.weight f4 [1, 1, 8, 4]
-0.03895388 0.13167307 -0.26562467 -0.014624193 0.19494405 -0.16545212 -0.11174437 -0.26723024
-0.7752667 -0.1723242 0.328808 -0.5120708 -0.20294194 0.41220197 -0.4991716 0.1370299
-0.1672719 -0.14834146 0.28482464 -0.21462661 -0.034433007 -0.008053549 0.052503634 -0.010820706
0.17105739 -0.00026688995 0.20242034 0.005967634 -0.09690081 0.07473338 -0.09276733 -0.030242637
00000000: 1b8e 1fbd 4ed5 063e f5ff 87be 509a 6fbc
00000010: 6a9f 473e 486c 29be 3bda e4bd 67d2 88be
00000020: e177 46bf c175 30be 8659 a83e 1217 03bf
00000030: 03d0 4fbe 230c d33e 6c93 ffbe 9151 0c3e
00000040: 5349 2bbe d3e6 17be 89d4 913e 14c7 5bbe
00000050: a009 0dbd 08f3 03bc 0d0e 573d 5549 31bc
00000060: ab29 2f3e 5ded 8bb9 4747 4f3e 248c c33b
00000070: ef73 c6bd d00d 993d ccfc bdbd 68bf f7bc

blocks.1.dense.weight f4 [1, 93]
-0.021848978 -0.10450851 0.029178014 -0.030272337 -6.952937e-05 -0.0005076162 0.059867762 0.05537635
0.013732157 0.033251867 0.04519785 0.019536093 0.010019958 0.001426835 -0.038423274 0.009193858
-0.029810496 -0.06430483 0.023745269 0.071061425 0.054712087 -0.0895846 0.050387263 -0.08924811
-0.15082599 0.027549587 -0.1147737 -0.139094 -0.26028737 -0.16088691 -0.33792531 -0.22427131
-0.34980175 -0.33516708 -0.30587676 -0.113558605 -0.5781061 -0.47983328 -0.8073801 -0.59028363
-0.7210913 -1.1199902 -0.90346074 -0.33630052 -0.5678736 0.06857047 -0.6738042 -0.41481897
-0.2977783 -0.62123376 -0.6649802 -0.65398216 -0.65095776 -0.61096 -0.54217374 -0.3553688
-0.4589251 -0.5045917 -0.3845098 -0.43597165 -0.48120224 -0.46915624 -0.39460987 -0.32318452
-0.3749711 -0.3039909 -0.29263616 -0.3378338 -0.26209995 -0.27542406 -0.1648817 -0.21683049
-0.072697714 -0.13124692 -0.20099533 -0.2247688 -0.24042647 -0.17874898 -0.079686634 -0.11361024
-0.07944012 -0.04921171 -0.120053105 -0.14506182 -0.13776197 -0.08577923 -0.093841165 -0.19717458
-0.09842596 -0.065062635 -0.09472306 -0.065517314 -0.0523671
00000000: a1fc b2bc 8f08 d6bd bb06 ef3c b1fd f7bc
00000010: 4cd0 91b8 8c11 05ba e637 753d 50d2 623d
00000020: d7fc 603c 1c33 083d 6121 393d 280a a03c
00000030: c02a 243c a304 bb3a b961 1dbd d6a1 163c
00000040: 2435 f4bc 40b2 83bd 7085 c23c a788 913d
00000050: c819 603d 2178 b7bd e062 4e3d b7c7 b6bd
00000060: 2172 1abe acaf e13c 790e ebbd a86e 0ebe
00000070: 6344 85be 8abf 24be 8c04 adbe 61a7 65be
00000080: 3719 b3be 059b abbe e19b 9cbe 6a91 e8bd
00000090: c3fe 13bf b5ac f5be 76b0 4ebf d41c 17bf
000000a0: 7099 38bf d75b 8fbf 3449 67bf 952f acbe
000000b0: 2a60 11bf ad6e 8c3d 6f7e 2cbf 2763 d4be
000000c0: 6676 98be 2d09 1fbf 243c 2abf 606b 27bf
000000d0: 2ba5 26bf e067 1cbf e6cb 0abf e6f2 b5be
000000e0: 3bf8 eabe ec2c 01bf 78de c4be ad37 dfbe
000000f0: 2460 f6be 3f35 f0be 4e0a cabe 7178 a5be
00000100: 36fc bfbe b2a4 9bbe 68d4 95be 8df8 acbe
00000110: f731 86be 6204 8dbe c0d6 28be d008 5ebe
00000120: 8ae2 94bd 9865 06be b8d1 4dbe cb29 66be
00000130: 5b32 76be f909 37be bf32 a3bd 7cac e8bd
00000140: 80b1 a2bd 3892 49bd 67de f5bd 168b 14be
00000150: 7911 0dbe 05ad afbd cc2f c0bd 22e8 49be
00000160: 8d93 c9bd 8f3f 85bd 2afe c1bd f12d 86bd
00000170: e27e 56bd

blocks.2.conv.weight f4 [1, 1, 8, 4]
-0.010114655 -0.18045333 -0.10398621 -0.080466546 -0.23741187 -0.04484017 -0.100626476 0.16081846
-0.023123467 -0.25138637 0.014584913 0.0403219 -0.1126675 -0.03056656 -0.3374421 0.15484369
-0.011185591 -0.45511928 0.18107092 0.020143932 -0.21655062 0.055407427 -0.10826339 0.13557458
-0.09345686 -0.16450755 -0.18356857 0.09023515 -0.23514608 -0.3196814 -0.06341868 -0.04833779
00000000: f0b7 25bc c2c8 38be b9f6 d4bd a5cb a4bd
00000010: 191c 73be 53aa 37bd 4115 cebd 98ad 243e
00000020: 6d6d bdbc b7b5 80be 8ff5 6e3c 9428 253d
00000030: 38be e6bd b966 fabc 36c5 acbe 588f 1e3e
00000040: c543 37bc 6505 e9be a86a 393e e304 a53c
00000050: 72bf 5dbe e6f2 623d 32b9 ddbd 10d4 0a3e
00000060: 4f66 bfbd ab74 28be 66f9 3bbe 35cd b83d
00000070: 22ca 70be 48ad a3be a7e1 81bd d9fd 45bd

blocks.2.dense.weight f4 [1, 93]
-0.036318302 -0.0027176472 -0.017848587 -0.064793974 -0.05552641 0.08095942 0.045752592 0.04648019
-0.036025543 0.019828344 0.055254407 0.022532398 -0.016303107 0.0073632994 -0.06532432 -0.014553232
-0.008088171 -0.031466365 0.032818213 0.0476175 -0.035929896 0.06071647 -0.034647595 -0.026033284
0.04708538 0.017333433 0.011193098 -0.03364592 0.0011993941 -0.00057577144 -0.037995964 -0.034610372
-0.10694571 0.008300953 0.058689274 0.08344685 -0.0397458 -0.027084984 0.015738085 -0.030304061
-0.047100615 0.0008403481 -0.09356557 0.15362352 0.15307815 -0.061382633 0.03961233 -0.075834885
-0.00764638 -0.19805957 -0.128513 -0.061375994 -0.097859375 -0.19113305 -0.18840718 -0.28621545
-0.2263789 -0.0937672 -0.25826916 -0.14756142 -0.111829385 -0.0146797225 -0.3330979 -0.18523708
-0.025329042 -0.22819528 -0.146587 -0.07162866 -0.09220887 -0.21309178 -0.1624552 -0.13170695
-0.20734094 -0.17593326 -0.048461597 -0.25975412 -0.14660083 0.053768586 -0.16028701 -0.24443251
-0.087456554 -0.01647389 -0.097250044 0.0005376753 -0.07787375 -0.023554103 -0.20457876 -0.057793897
-0.04140762 -0.041082863 -0.0039856485 -0.10133368 0.13251933
00000000: 80c2 14bd 8e1a 32bb 3337 92bc b4b2 84bd
00000010: a96f 63bd 0dce a53d 1267 3b3d 0362 3e3d
00000020: 858f 13bd 0d6f a23c 7252 623d dd95 b83c
00000030: 188e 85bc d547 f13b c2c8 85bd ae70 6ebc
00000040: 3f84 04bc e0e2 00bd 646c 063d 910a 433d
00000050: 3a2b 13bd d5b1 783d a3ea 0dbd c143 d5bc
00000060: 99dc 403d d8fe 8d3c 4163 373c 4ed0 09bd
00000070: fd34 9d3a 5eef 16ba a8a1 1bbd 9bc3 0dbd
00000080: 5a06 dbbd b800 083c 2a64 703d 2fe6 aa3d
00000090: 7ecc 22bd 54e1 ddbc 28ed 803c 3940 f8bc
000000a0: 93ec 40bd ce4a 5c3a 4e9f bfbd 7c4f 1d3e
000000b0: 85c0 1c3e 5b6c 7bbd 8a40 223d 524f 9bbd
000000c0: 7c8e fabb 21d0 4abe e998 03be 6565 7bbd
000000d0: 7f6a c8bd 62b8 43be d0ed 40be d58a 92be
000000e0: dfcf 67be 0509 c0bd db3b 84be 571a 17be
000000f0: ce06 e5bd 3883 70bc cf8b aabe caae 3dbe
00000100: da7e cfbc 06ac 69be e71a 16be 0cb2 92bd
00000110: 01d8 bcbd bb34 5abe a85a 26be 30de 06be
00000120: 2f51 54be d927 34be ab7f 46bd 7efe 84be
00000130: 871e 16be 733c 5c3d 4722 24be 844c 7abe
00000140: 6c1c b3bd 40f4 86bc 082b c7bd c7f2 0c3a
00000150: 467c 9fbd 89f4 c0bc 187d 51be 4bb9 6cbd
00000160: 099b 29bd 8146 28bd 0b9a 82bb 0888 cfbd
00000170: 26b3 073e

linear.weight f4 [1, 4]
-0.188274 0.41567725 -0.3178709 -0.43409738
00000000: e6ca 40be a6d3 d43e f9bf a2be 0342 debe
