models/100bp_arround_STRends_models/hg38CCTT_.pt (torch, 11518 bytes, 15 tensors)

last_block.conv.weight f4 [1, 1, 9, 4]
-0.003840441 0.011025562 0.19364417 0.08208976 0.035803307 -0.05906898 0.12200498 0.0071600694
-0.18040797 0.048082415 -0.08213845 -0.012993878 -0.07073733 0.17884149 0.13907899 -0.07347319
0.2624252 0.024610694 -0.115769155 -0.17130774 0.09031601 -0.06749732 -0.1243301 0.09962777
-0.038965743 -0.18231104 0.11630874 -0.009542262 0.028703114 -0.24904841 -0.03401207 0.078732155
-0.005691306 0.08450313 0.07147551 -0.06921495
00000000: e8af 7bbb 8fa4 343c a84a 463e ad1e a83d
00000010: 7da6 123d 51f2 71bd bfdd f93d 049f ea3b
00000020: debc 38be 11f2 443d 3438 a8bd 46e4 54bc
00000030: bcde 90bd 3922 373e b96a 0e3e 1d79 96bd
00000040: 995c 863e 5e9c c93c 6118 edbd 4c6b 2fbe
00000050: 9af7 b83d 093c 8abd c8a0 febd a509 cc3d
00000060: 8b9a 1fbd bfaf 3abe 4733 ee3d 2657 1cbc
00000070: cb22 eb3c 8c06 7fbe 3e50 0bbd 533e a13d
00000080: 237e babb fa0f ad3d c161 923d 91c0 8dbd

last_block.dense.weight f4 [1, 92]
0.046527244 0.089547314 0.037549708 0.08557619 0.056085248 0.07969027 0.0995047 0.040589716
0.06643419 0.11991784 0.095757395 0.052460056 0.08294664 0.050348002 0.031787224 -0.017887855
0.07940028 0.16665839 -0.023027133 0.026472835 0.14499326 0.101222046 0.16229327 -0.004416917
0.034468282 0.18585359 0.0075050644 0.22097813 0.1021638 0.085073404 0.055589058 0.1253549
0.052732315 -0.022361916 0.06997328 -0.23941566 -0.0066404263 -0.040434428 -0.100161135 -0.009668785
0.050222836 -0.1470919 -0.14561185 0.33310065 -0.022669503 -0.08455798 0.07189972 -0.028697303
-0.1173551 0.04500753 -0.04313991 0.046928696 -0.074984886 0.006252622 -0.097882554 0.015536946
0.025975749 -0.04073436 0.05509815 -0.024615407 -0.16099095 -0.06509244 -0.052509148 -0.061995886
-0.06234507 -0.079425 -0.0669206 -0.03516061 0.028103061 -0.05901975 -0.020634796 -0.051603325
-0.057893638 -0.059397187 -0.04587523 -0.12166764 0.0045311945 -0.05541908 0.020457678 -0.11170634
-0.028379083 -0.054728393 -0.049981635 -0.07933252 0.012655979 -0.052083142 -0.027127508 -0.046624687
-0.08390393 -0.06625133 0.017326351 -0.101174824
00000000: 5a93 3e3d 9564 b73d b9cd 193d 9242 af3d
00000010: a5b9 653d a734 a33d 1fc9 cb3d 6741 263d
00000020: a60e 883d 7c97 f53d 741c c43d 5be0 563d
00000030: eedf a93d b539 4e3d 5233 023d 8d89 92bc
00000040: 9d9c a23d 7fa8 2a3e 66a3 bcbc 8fdd d83c
00000050: 1d79 143e 814d cf3d 3530 263e c9bb 90bb
00000060: 9d2e 0d3d 6750 3e3e 0bed f53b 1748 623e
00000070: 413b d13d f73a ae3d 5ab1 633d 095d 003e
00000080: d7fd 573d 5630 b7bc 274e 8f3d 6129 75be
00000090: ef97 d9bb 929e 25bd 4821 cdbd d369 1ebc
000000a0: 76b6 4d3d 429f 16be 461b 15be 2b8c aa3e
000000b0: 65b5 b9bc bc2c adbd 2940 933d 9b16 ebbc
000000c0: df57 f0bd d159 383d 79b3 30bd 4e38 403d
000000d0: ad91 99bd cce2 cc3b a676 c8bd ad8e 7e3c
000000e0: 18cb d43c 13d9 26bd 99ae 613d 40a6 c9bc
000000f0: d0da 24be 2f4f 85bd d513 57bd 66ef 7dbd
00000100: 8b5d 7fbd 93a9 a2bd ab0d 89bd 9204 10bd
00000110: 6438 e63c b2be 71bd 4e0a a9bc 025e 53bd
00000120: e121 6dbd 774a 73bd aae7 3bbd e22c f9bd
00000130: 6a7a 943b 1eff 62bd dc96 a73c 4bc6 e4bd
00000140: 407b e8bc e12a 60bd 8bb9 4cbd 1779 a2bd
00000150: 065b 4f3c 2255 55bd 823a debc 87f9 3ebd
00000160: d3d5 abbd c7ae 87bd feef 8d3c bf34 cfbd

blocks.0.conv.weight f4 [1, 1, 3, 4]
0.109230235 -0.16116372 0.5415276 -0.13954222 -0.8712142 0.25407904 -0.8739276 -0.27193838
-0.0076624136 -0.41563988 0.14221218 0.1433584
00000000: 1ab4 df3d 1a08 25be 8ea1 0a3f 28e4 0ebe
00000010: e507 5fbf a616 823e b8b9 5fbf 823b 8bbe
00000020: fc14 fbbb c0ce d4be 12a0 113e 8bcc 123e

blocks.0.dense.weight f4 [1, 98]
0.08511605 0.20098689 0.10258657 0.07722969 0.10039544 0.0047276523 0.05983072 -0.012446855
-0.09971959 -0.13215604 -0.08524151 -0.06856085 -0.17649534 -0.016822627 -0.11898934 -0.06848952
-0.095072806 -0.36009446 -0.21775822 -0.07985103 -0.065769024 0.022468193 -0.09326253 -0.016921083
0.041765865 -0.014105562 -0.12046034 -0.37364838 -0.52036864 -0.09948609 -0.27408618 -0.1347787
-0.103825614 -0.051701095 -0.05233383 0.06513566 -0.093018025 -0.13648419 -0.09034674 0.010908981
-0.5467301 0.0031606227 -0.33248335 -0.26283807 -0.19748661 -0.25170872 -0.2886905 -0.24433374
-0.1833146 0.033157993 0.40928778 0.5244296 0.5801498 0.50015616 0.5642219 0.54916465
0.3351333 0.48123294 0.5460775 0.75809425 0.63556147 0.4314863 0.3950726 0.36480555
0.5199435 0.34909478 0.27360776 0.33854073 0.3012494 0.11904083 0.09798695 0.03741388
0.2119051 0.18247563 0.2514369 0.16178603 0.20932508 0.09712455 0.081136875 0.0103917215
0.07695539 0.044593807 0.014443222 0.07832071 0.10782158 -0.07265251 0.059286606 -0.06820626
0.13821694 -0.002342789 0.0910293 -0.07266295 -0.06278621 -0.0060446067 0.0034356038 -0.09140998
0.11853212 0.05071671
00000000: 5351 ae3d 82cf 4d3e e818 d23d 9a2a 9e3d
00000010: 209c cd3d 6cea 9a3b 0f11 753d e5ed 4bbc
00000020: c939 ccbd ea53 07be 1a93 aebd a269 8cbd
00000030: 32bb 34be 9bcf 89bc afb0 f3bd 3c44 8cbd
00000040: 88b5 c2bd 4d5e b8be 03fc 5ebe f088 a3bd
00000050: e9b1 86bd 370f b83c 6d00 bfbd 159e 8abc
00000060: af12 2b3d 041b 67bc e9b3 f6bd d74e bfbe
00000070: e136 05bf 5dbf cbbd 0655 8cbe 6d03 0abe
00000080: 86a2 d4bd 87c4 53bd 005c 56bd d865 853d
00000090: 3c80 bebd 83c2 0bbe b607 b9bd 95bb 323c
000000a0: 81f6 0bbf 7322 4f3b 423b aabe b692 86be
000000b0: ee39 4abe f7df 80be 3ecf 93be a032 7abe
000000c0: d3b6 3bbe add0 073d 2b8e d13e 0541 063f
000000d0: b384 143f 3c0a 003f d970 103f 0e96 0c3f
000000e0: 9896 ab3e 2a64 f63e bccb 0b3f 7712 423f
000000f0: 28b4 223f c6eb dc3e f546 ca3e cbc7 ba3e
00000100: 041b 053f 8dbc b23e 5116 8c3e 3655 ad3e
00000110: 5d3d 9a3e aecb f33d 62ad c83d 4c3f 193d
00000120: a7fd 583e e4da 3a3e 56bc 803e 3dab 253e
00000130: 5059 563e 3ce9 c63d 172b a63d 0a42 2a3c
00000140: ca9a 9d3d ffa7 363d 44a3 6c3c 9c66 a03d
00000150: 8fd1 dc3d d7ca 94bd 83d6 723d b9af 8bbd
00000160: be88 0d3e 7a89 19bb 926d ba3d 50d0 94bd
00000170: 0e96 80bd d611 c6bb de27 613b 2835 bbbd
00000180: f8c0 f23d 53bc 4f3d

blocks.1.conv.weight f4 [1, 1, 14, 4]
0.10194369 0.0080841845 0.16861947 -0.16820264 0.07306972 0.21094957 -0.51649165 -0.02284545
-0.280955 -0.122365266 0.3878228 0.005722154 -0.095862575 0.08061466 0.025109828 -0.04832625
-0.028483845 0.11170634 -0.40938058 0.08339269 0.17240973 -0.6706351 0.14204806 0.34663624
0.25717294 0.18951716 0.03429435 -0.23211697 -0.09712408 -0.07179743 -0.2792221 0.13227317
0.067480445 -0.016694505 -0.04203232 0.044826865 -0.08552762 0.1277242 0.033009518 0.037647545
-0.30715483 0.009576364 -0.21075538 -0.0710837 0.021415953 0.03181053 -0.10354824 -0.04561307
-0.10354032 -0.10120894 -0.03090056 -0.07589288 -0.07842022 0.19348477 0.08591425 -0.22326168
00000000: dac7 d03d 8773 043c 95aa 2c3e 503d 2cbe
00000010: 94a5 953d 2a03 583e cc38 04bf 6226 bbbc
00000020: 55d9 8fbe a49a fabd b690 c63e e880 bb3b
00000030: 9953 c4bd 4d19 a53d 20b3 cd3c bff1 45bd
00000040: f456 e9bc 4bc6 e43d 559a d1be c9c9 aa3d
00000050: 2d8c 303e beae 2bbf 0c75 113e 4e7a b13e
00000060: 2cac 833e c910 423e 3b78 0c3d 12b0 6dbe
00000070: fde8 c6bd 880a 93bd 33f6 8ebe 9e72 073e
00000080: 3033 8a3d eac2 88bc 152a 2cbd 609c 373d
00000090: 1b29 afbd 22ca 023e fd34 073d 5034 1a3d
000000a0: 6643 9dbe 2fe6 1c3c 42d0 57be 5594 91bd
000000b0: 8270 af3c c24b 023d 1a11 d4bd c5d4 3abd
000000c0: f30c d4bd a246 cfbd 2c23 fdbc ba6d 9bbd
000000d0: c89a a0bd df20 463e cff3 af3d b69e 64be

blocks.1.dense.weight f4 [1, 87]
0.15075824 0.20436992 0.10390267 0.22749773 0.1585645 0.15808187 0.064463235 0.21732268
0.23401445 0.22493349 0.13450894 0.2044915 0.22720797 0.16081494 0.18257463 0.28333095
0.22578293 0.25566348 0.14913957 0.18249328 0.248543 0.23405671 0.13496557 0.07741232
0.14199628 0.23931646 0.23706666 0.16570161 0.29945385 0.08449321 0.20089719 0.27814376
0.38224015 0.34314457 0.20771033 0.16470928 0.1883155 0.64447117 0.14513688 0.11135894
0.16363011 0.27489856 -0.030408036 0.6666325 0.45630792 0.48325315 -0.033061218 0.16227448
0.03732342 0.27089557 0.19797963 0.18208097 0.14272837 0.18954007 0.08562554 0.012270848
-0.12328486 -0.03880183 0.07075661 0.09407463 -0.043125372 0.02875802 0.11123806 0.20237252
0.08703434 -0.04963734 0.024577202 0.07914922 0.0034444754 -0.072436534 0.015155862 -0.02880058
-0.11986971 0.10109358 -0.06592243 0.10027795 -0.047335714 0.0741679 0.1624529 0.055879574
0.007699423 -0.16247286 0.029146798 0.031394243 0.06681258 0.013276154 -0.038915537
00000000: 5e60 1a3e 5946 513e ecca d43d 2af5 683e
00000010: bb5e 223e 37e0 213e 4d05 843d d689 5e3e
00000020: 7ca1 6f3e f754 663e b6bc 093e 3866 513e
00000030: 35a9 683e acac 243e d8f4 3a3e c110 913e
00000040: a433 673e 53e6 823e 0bb8 183e 85df 3a3e
00000050: 0e82 7e3e 90ac 6f3e 6a34 0a3e 5a8a 9e3d
00000060: 7967 113e 600f 753e 9ac1 723e afad 293e
00000070: 0452 993e c70a ad3d feb7 4d3e dc68 8e3e
00000080: fbb4 c33e a5b0 af3e 04b2 543e 8da9 283e
00000090: c7d5 403e 10fc 243f c39e 143e 2810 e43d
000000a0: a78e 273e 81bf 8c3e 461a f9bc 6da8 2a3f
000000b0: 31a1 e93e f56c f73e 336b 07bd 482b 263e
000000c0: 71e0 183d d3b2 8a3e 2cbb 4a3e 6f73 3a3e
000000d0: 6327 123e cb16 423e 715c af3d ab0b 493c
000000e0: c67c fcbd abee 1ebd d7e8 903d 33aa c03d
000000f0: 3ba4 30bd f095 eb3c c8d0 e33d be3a 4f3e
00000100: 0f3f b23d 8650 4bbd 2156 c93c fc18 a23d
00000110: b5bc 613b 9b59 94bd 4b50 783c 32ef ebbc
00000120: 407e f5bd 270a cf3d 5702 87bd 875e cd3d
00000130: 18e3 41bd 57e5 973d 0e5a 263e fbe1 643d
00000140: 714b fc3b 495f 26be 44c5 ee3c 4097 003d
00000150: 09d5 883d 3a84 593c e665 1fbd

blocks.2.conv.weight f4 [1, 1, 17, 4]
-0.08096348 -0.23423068 -0.08643149 0.05045764 -0.05960202 -0.07276831 0.00054273143 -0.28771853
-0.10193652 -0.091145396 -0.025112025 0.03485929 -0.16743802 -0.02598875 -0.14621733 -0.1742976
-0.20800473 -0.002949932 -0.2920285 -0.0675972 -0.114942044 -0.004494637 -0.033984303 -0.012729397
-0.053976934 -0.18220218 -0.13832253 -0.21395066 -0.046731375 0.02409371 0.16920805 -0.0123364115
-0.30494773 -0.094553076 -0.2186466 -0.07019173 -0.037481695 -0.09707542 -0.04871824 0.020514315
-0.18470871 0.07490166 -0.28820935 -0.15923542 -0.15733394 0.031024877 -0.24084389 -0.11800142
-0.009477169 -0.166533 -0.07419233 -0.16234411 -0.10133377 -0.026958596 -0.33476168 -0.20293114
-0.013061201 0.030184634 -0.13107201 -0.1324006 -0.22416516 -0.055898793 -0.110121384 -0.022835815
0.034387086 -0.06720222 -0.06145384 -0.2803057
00000000: 2ed0 a5bd 2bda 6fbe fe02 b1bd acac 4e3d
00000010: 3f21 74bd 8d07 95bd 1746 0e3a d84f 93be
00000020: 18c4 d0bd 70aa babd bcb7 cdbc 9dc8 0e3d
00000030: df74 2bbe 5ce6 d4bc ffb9 15be 127b 32be
00000040: 31ff 54be a553 41bb c284 95be 6770 8abd
00000050: bc66 ebbd bf47 93bb 2033 0bbd f68e 50bc
00000060: eb16 5dbd 3593 3abe 6ca4 0dbe e215 5bbe
00000070: 6669 3fbd 2c60 c53c e044 2d3e a91e 4abc
00000080: 1c22 9cbe 0ba5 c1bd e5e4 5fbe afc0 8fbd
00000090: 6886 19bd 7acf c6bd c78c 47bd a30d a83c
000000a0: 4824 3dbe 0b66 993d 2d90 93be 9c0e 23be
000000b0: 261c 21be e227 fe3c c89f 76be baaa f1bd
000000c0: 2146 1bbc a087 2abe 26f2 97bd 893d 26be
000000d0: 1488 cfbd 46d8 dcbc e265 abbe 2ecd 4fbe
000000e0: a6fe 55bc c445 f73c be37 06be 0694 07be
000000f0: 8d8b 65be 22f6 64bd 5287 e1bd 2d12 bbbc
00000100: 79d9 0c3d 51a1 89bd 06b7 7bbd 3b84 8fbe

blocks.2.dense.weight f4 [1, 84]
-0.01010308 0.011003868 -0.0022585038 0.008764043 -0.07923466 0.090626106 0.00018419234 -0.04440348
0.06003749 0.023689564 0.09888933 -0.055076774 -0.041351676 0.01057402 0.13065241 -0.037003763
0.105848044 0.08007652 0.037334196 0.026622169 0.13590044 0.017022079 -0.079772815 0.01444446
0.1078775 -0.028303053 0.15469742 0.027541125 0.11589693 0.061863873 0.10452588 0.123156145
0.06423564 0.06859171 0.10306861 0.04409839 -0.046539735 0.0030149415 -0.029269204 -0.024237541
-0.03607394 -0.08248269 -0.051277984 0.077713184 0.027182547 -0.04197505 0.10616553 -0.053165663
-0.041956376 0.02239574 0.110853404 0.0487405 0.022852264 0.0826623 0.08563875 -0.020465137
0.21064396 0.015560724 0.020162536 0.05345365 0.04922556 -0.014613734 0.0877949 0.05443526
0.06545508 -0.018241739 0.056263983 0.09766117 0.013647899 0.016576424 0.10846536 0.12791018
-0.0029480185 0.045121122 0.12574485 0.08594409 -0.02914777 0.09136548 0.08185939 0.08951305
0.06905616 0.10583987 0.013101716 0.13379225
00000000: 6487 25bc 9149 343c 6803 14bb 1097 0f3c
00000010: c845 a2bd 2e9a b93d c123 4139 6ce0 35bd
00000020: dfe9 753d 9e10 c23c 7d86 ca3d 2f98 61bd
00000030: 6060 29bd a83e 2d3c bfc9 053e 4291 17bd
00000040: dcc6 d83d 29ff a33d beeb 183d bc16 da3c
00000050: 7c29 0b3e e371 8b3c ee5f a3bd 75a8 6c3c
00000060: e1ee dc3d cedb e7bc 0069 1e3e ed9d e13c
00000070: 5f5b ed3d f964 7d3d aa11 d63d 4a39 fc3d
00000080: fa8d 833d cf79 8c3d a315 d33d 83a0 343d
00000090: 73a0 3ebd 5396 453b f8c5 efbc cf8d c6bc
000000a0: 45c2 13bd afec a8bd dd08 52bd 1728 9f3d
000000b0: efad de3c 08ee 2bbd 506d d93d 3dc4 59bd
000000c0: 73da 2bbd 4577 b73c 1c07 e33d 1ea4 473d
000000d0: ac34 bb3c da4a a93d 5e63 af3d 81a6 a7bc
000000e0: 0db3 573e 68f2 7e3c e72b a53c 37f2 5a3d
000000f0: bea0 493d 716e 6fbc d0cd b33d 82f7 5e3d
00000100: 500d 863d b36f 95bc 1075 663d 9402 c83d
00000110: 709b 5f3c 48cb 873c 1623 de3d e3fa 023e
00000120: 8b33 41bb edd0 383d 42c3 003e 7403 b03d
00000130: 4ec7 eebc d31d bb3d e5a5 a73d 9e52 b73d
00000140: 516d 8d3d 93c2 d83d 94a8 563c d600 093e

blocks.3.conv.weight f4 [1, 1, 13, 4]
-0.7333695 0.046093628 -0.45685494 0.09434794 -0.3745161 0.054879088 -0.20596209 -0.15340385
0.063933246 0.058900755 -0.20393983 0.14408696 -0.33361658 -0.34049624 -0.34935144 0.16940612
-0.4298048 0.016406136 0.07276189 -0.1486077 -0.46376225 0.0133935055 0.1800239 0.0077848965
-0.09814249 -0.13571255 0.045800745 -0.014562254 0.19748776 -0.6151166 -0.15958387 0.12894231
0.18837835 0.16014475 -0.4759206 -0.04198331 0.24309988 0.16245784 -0.33270654 -1.2920991
0.45971557 0.06291096 0.031495925 -0.28908744 0.1943579 -0.46728346 -0.1739527 0.08528146
-0.37272272 -0.13300888 -0.18272296 0.12621905
00000000: 1bbe 3bbf accc 3c3d e4e8 e9be 7e39 c13d
00000010: 93c0 bfbe e5c8 603d bae7 52be e615 1dbe
00000020: 6fef 823d eb41 713d 9ad5 50be 888b 133e
00000030: cbcf aabe 8655 aebe 31de b2be cc78 2d3e
00000040: 600f dcbe 2966 863c 3004 953d 9e2c 18be
00000050: 3f72 edbe 6f70 5b3c 2f58 383e 7218 ff3b
00000060: eefe c8bd 3bf8 0abe 9099 3b3d 8596 6ebc
00000070: 3b3a 4a3e 4878 1dbf f469 23be 7409 043e
00000080: 41e6 403e fcfc 233e ddab f3be b1f6 2bbd
00000090: 2def 783e 595b 263e 8358 aabe 8163 a5bf
000000a0: d75f eb3e 76d7 803d df01 013d 4503 94be
000000b0: c205 473e c73f efbe a820 32be 0ca8 ae3d
000000c0: 83d5 bebe 7b33 08be ba1b 3bbe 913f 013e

blocks.3.dense.weight f4 [1, 88]
-0.058616 -0.2564651 -0.25623253 -0.1570586 -0.2220981 -0.021385485 -0.08799682 0.03473092
-0.118833154 -0.08577281 -0.09059313 -0.28640068 -0.15825732 -0.11941101 -0.2330705 -0.15055896
-0.15609832 0.043682527 -0.025845747 -0.18700992 -0.08427869 -0.056663983 -0.25433752 -0.08562595
-0.015969537 -0.13225098 -0.022963202 -0.15038589 -0.12719978 -0.07779255 -0.13764772 -0.07543371
-0.18162705 -0.013174042 0.031210836 0.044776533 -0.015788505 -0.12677945 -0.17169948 -0.36953628
0.26627597 -0.7092374 -0.07231416 -0.17387377 -0.0314193 -0.032435343 -0.2665868 -0.5007259
-0.2001591 -0.3778672 -0.4042629 -0.23359892 -0.3442374 -0.44235012 -0.26585007 -0.2956669
-0.3081753 -0.13378613 -0.21829547 -0.19260558 -0.3511834 -0.1695591 0.013432059 -0.010566175
-0.0147721125 -0.2826041 -0.09837673 -0.17640884 -0.29758567 0.17009123 -0.12730771 0.040519334
-0.29976255 -0.34521204 0.08170078 -0.31488425 -0.074680634 -0.007750533 -0.09175108 -0.2758794
0.11578945 -0.1319359 -0.1361593 0.13358758 -0.3142113 0.04921873 -0.08951121 0.049171448
00000000: 5517 70bd 654f 83be e930 83be f8d3 20be
00000010: af6d 63be 9d30 afbc ad37 b4bd 0242 0e3d
00000020: cc5e f3bd a8a9 afbd e488 b9bd 1ca3 92be
00000030: 350e 22be c28d f4bd 08aa 6ebe 212c 1abe
00000040: 3dd8 1fbe 73ec 323d 76ba d3bc 877f 3fbe
00000050: 4e9a acbd 7e18 68bd 8738 82be a85c afbd
00000060: 8cd2 82bc cd6c 07be 531d bcbc c2fe 19be
00000070: a940 02be b351 9fbd 86f3 0cbe fd7c 9abd
00000080: 71fc 39be f0d7 57bc dead ff3c 9967 373d
00000090: e556 81bc 79d2 01be fdd1 2fbe dc33 bdbe
000000a0: 5355 883e 9590 35bf 7219 94bd f70b 32be
000000b0: 86b1 00bd ecda 04bd 117e 88be 932f 00bf
000000c0: 82f6 4cbe cf77 c1be 8cfb cebe 8e34 6fbe
000000d0: e23f b0be b77b e2be 801d 88be a761 97be
000000e0: 27c9 9dbe 3bff 08be d988 5fbe 663a 45be
000000f0: 50ce b3be e7a0 2dbe 2412 5c3c c01d 2dbc
00000100: bb06 72bc 7cb1 90be bd79 c9bd 85a4 34be
00000110: 265d 98be 652c 2e3e f45c 02be 9af7 253d
00000120: 7a7a 99be a2bf b0be bd52 a73d 8238 a1be
00000130: 29f2 98bd 2ff8 fdbb fde7 bbbd 1140 8dbe
00000140: 0523 ed3d 341a 07be 586d 0bbe 2fcb 083e
00000150: 4ee0 a0be 9499 493d a751 b7bd 0068 493d

blocks.4.conv.weight f4 [1, 1, 2, 4]
-0.20018026 0.27425155 0.09179885 -0.22218741 0.17836851 -0.33776894 0.1962329 -0.33863053
00000000: 0efc 4cbe b36a 8c3e 0901 bc3d 1985 63be
00000010: 3ca6 363e 0df0 acbe 47f1 483e fb60 adbe

blocks.4.dense.weight f4 [1, 99]
-0.0799557 0.067553885 -0.11520586 0.09480713 0.045385875 -0.0071082325 -0.13994227 0.075373545
-0.060671374 0.17550188 0.20556839 -0.12614638 -0.014371552 -0.11978239 -0.07073397 -0.066438615
-0.2393752 0.14576396 0.056210045 0.06601459 -0.071565636 0.2194907 0.08046038 0.1291437
-0.060506452 -0.15200134 0.041172694 -0.04401083 -0.12186782 -0.115085416 -0.33709005 -0.011392213
0.012404331 0.31738108 0.104243554 0.11490321 0.19000207 0.096888356 0.44541943 0.09325662
0.22315958 0.3336679 0.3396049 0.34136176 0.20205246 0.3094027 0.43796188 0.4060268
0.48426172 0.05446595 -0.02124146 0.13284487 0.09691919 0.15818322 0.14807586 0.027811509
0.12756498 0.14461619 0.108917914 0.19069609 0.07515971 0.11375116 0.09684013 0.039188415
0.05994726 0.08326582 0.07248892 0.042518444 0.18623811 0.061522555 0.09197422 0.07827887
0.0572966 0.05759892 0.096693985 0.12740037 0.0048207105 -0.12467241 0.042472214 -0.089228906
0.012095777 0.069491915 0.19365095 0.10474588 0.14552738 -0.08699547 -0.005831788 0.023995223
0.0200114 0.13306423 0.04736912 -0.024285035 -0.007937464 0.029409131 -0.030628223 -0.0062963013
-0.06633369 0.03818531 -0.112024404
00000000: d0bf a3bd b159 8a3d 0df1 ebbd 3e2a c23d
00000010: 8ae6 393d 2dec e8bb 074d 0fbe 725d 9a3d
00000020: 8c82 78bd c4b6 333e 8580 523e 842c 01be
00000030: a876 6bbc 7850 f5bd f9dc 90bd f810 88bd
00000040: c61e 75be 2643 153e 813c 663d a832 873d
00000050: 0191 92bd 2cc2 603e 69c8 a43d 3f3e 043e
00000060: 9dd5 77bd 3da6 1bbe b3a4 283d b344 34bd
00000070: d695 f9bd e7b1 ebbd 1197 acbe 68a6 3abc
00000080: 893b 4b3c c67f a23e a57d d53d 6052 eb3d
00000090: e78f 423e 676d c63d 040e e43e 54fd be3d
000000a0: f283 643e 85d6 aa3e b2e0 ad3e f8c6 ae3e
000000b0: d7e6 4e3e 086a 9e3e 8a3c e03e bfe2 cf3e
000000c0: 27f1 f73e b017 5f3d 9202 aebc 7c08 083e
000000d0: 917d c63d c8fa 213e 33a1 173e f6d4 e33c
000000e0: 65a0 023e 4416 143e 5b10 df3d d645 433e
000000f0: 56ed 993d 5ef6 e83d 1e54 c63d 0884 203d
00000100: 428b 753d 4587 aa3d 1275 943d d227 2e3d
00000110: 34b5 3e3e 13ff 7b3d fb5c bc3d ac50 a03d
00000120: d7af 6a3d d8ec 6b3d 7f07 c63d 3e75 023e
00000130: 0df7 9d3b 4054 ffbd 58f7 2d3d a5bd b6bd
00000140: 5e2d 463c c751 8e3d 6f4c 463e 0285 d63d
00000150: 2105 153e ae2a b2bd 9518 bfbb a191 c43c
00000160: f3ee a33c fd41 083e 1f06 423d 69f1 c6bc
00000170: 230c 02bc 6beb f03c 0ae8 fabc 3451 cebb
00000180: f5d9 87bd 3368 1c3d 0d6d e5bd

blocks.5.conv.weight f4 [1, 1, 4, 4]
0.24528164 -0.3340142 -0.182824 0.1883289 -0.17458476 -0.123041905 -0.011795129 0.13483948
0.2525278 -0.19469483 0.4207599 -0.12426733 0.0827179 -0.056361265 -0.1647224 -0.2813603
00000000: 1c2b 7b3e e903 abbe 3736 3bbe 4bd9 403e
00000010: 59c6 32be 65fd fbbd 5b40 41bc 5c13 0a3e
00000020: 534b 813e 155e 47be d76d d73e df7f febd
00000030: 0168 a93d 12db 66bd fdac 28be 750e 90be

blocks.5.dense.weight f4 [1, 97]
0.2080157 0.060493566 -0.14678292 -0.0053910366 0.04413105 0.15817705 -0.0881469 -0.1837768
0.058237128 -0.029155143 -0.12895437 -0.039761405 -0.17524664 0.049782775 0.00794323 0.07273609
0.0021502653 -0.20188658 0.10314763 -0.06765307 -0.17273305 0.19947523 -0.06965142 0.07161248
0.13084704 0.27756658 -0.038117386 -0.18432255 -0.052839953 0.06614834 0.06775255 -0.02777003
0.020742672 0.07421325 0.214046 0.32246828 -0.018452987 0.18518634 0.390084 0.14556304
0.092254594 0.28151157 0.13166434 0.26944256 0.4512758 0.2573695 0.29429522 0.77091503
0.4694182 -0.3076846 -0.03020653 -0.14231703 0.012959465 -0.08529939 -0.08154085 -0.21356176
-0.17437945 -0.15316457 -0.055717736 -0.07905878 -0.117399774 0.0052018054 -0.13583013 -0.07395701
-0.14367738 -0.12101088 -0.14978354 0.029433893 -0.05523292 -0.18717699 -0.122446 -0.13188371
-0.09953435 -0.07940112 -0.017114652 0.07018431 0.0059569464 -0.039061975 0.053951673 0.024664285
-0.16878808 -0.1638004 -0.071994185 -0.061809603 -0.09804207 -0.019052587 -0.03934708 0.10369579
0.06787881 0.0706866 -0.013350394 -0.10694608 0.0072432305 -0.032570064 -0.015229211 -0.060761634
0.00065863586
00000000: 1102 553e 1ac8 773d 434e 16be 4ba7 b0bb
00000010: c3c2 343d 2af9 213e 5d86 b4bd fc2f 3cbe
00000020: 0e8a 6e3d c4d6 eebc 9d0c 04be dbdc 22bd
00000030: db73 33be 06e9 4b3d 5224 023c a9f6 943d
00000040: 77eb 0c3b 5bbb 4ebe 113f d33d b18d 8abd
00000050: efe0 30be 3c43 4c3e 67a5 8ebd 90a9 923d
00000060: c4fc 053e 351d 8e3e fa20 1cbd 0dbf 3cbe
00000070: b56e 58bd c878 873d d9c1 8a3d f97d e3bc
00000080: 89ec a93c 1efd 973d e02e 5b3e 901a a53e
00000090: b82a 97bc 7da1 3d3e 17b9 c73e 7a0e 153e
000000a0: faef bc3d 4922 903e 04d3 063e 60f4 893e
000000b0: 9f0d e73e efc5 833e ddad 963e b05a 453f
000000c0: 9557 f03e d688 9dbe af73 f7bc 8ebb 11be
000000d0: f053 543c 72b1 aebd e4fe a6bd efaf 5abe
000000e0: 8790 32be 2cd7 1cbe 4838 64bd 92e9 a1bd
000000f0: 4b6f f0bd e873 aa3b 0e17 0bbe c676 97bd
00000100: 2a20 13be 8dd4 f7bd db60 19be 591f f13c
00000110: ea3b 62bd 53ab 3fbe f8c4 fabd 860c 07be
00000120: aad8 cbbd 0e9d a2bd 0734 8cbc cbbc 8f3d
00000130: 7d32 c33b 73ff 1fbd 6efc 5c3d c10c ca3c
00000140: c8d6 2cbe 4bbb 27be b071 93bd 112c 7dbd
00000150: 48ca c8bd 2c14 9cbc 672a 21bd 755e d43d
00000160: 0c04 8b3d 23c4 903d 9cbb 5abc 8c06 dbbd
00000170: 9f58 ed3b 3068 05bd f183 79bc 31e1 78bd
00000180: 4ea8 2c3a

linear.weight f4 [1, 7]
0.2956969 0.15370263 0.14984602 -0.028469518 0.10991709 -0.09740688 0.15545878
00000000: 9665 973e 3964 1d3e 3c71 193e e838 e9bc
00000010: 361c e13d 427d c7bd 9630 1f3e
