models/100bp_arround_STRends_models/hg38GT|AT_.pt (torch, 9955 bytes, 13 tensors)

last_block.conv.weight f4 [1, 1, 9, 4]
0	0x3b9fb753	0.004874149
1	0xbd818924	-0.063249856
2	0x3dad3c5e	0.0845878
3	0xbe0e4f3d	-0.13897415
4	0xbcd97787	-0.026546253
5	0xbcc29f71	-0.023757668
6	0xbddeaf9b	-0.10873338
7	0xbcac6e89	-0.021048801
8	0x3de2f045	0.11080984
9	0x3c8e1a00	0.017346382
10	0x3df9c709	0.12196166
11	0x3dbbf0ae	0.091767654
12	0xbe4628b1	-0.1935146
13	0x3e0a1927	0.13486157
14	0xbe0eb2bf	-0.13935374
15	0x3d8bdba4	0.068290025
16	0x3d44440a	0.04791645
17	0x3c80ee34	0.015738584
18	0xbdcced8d	-0.10006247
19	0xbd490e3c	-0.04908584
20	0xbe0e55cf	-0.13899921
21	0xbd4d38af	-0.050102886
22	0x3dd4700a	0.10372932
23	0xbe238a33	-0.15970688
24	0xbd700afa	-0.058604218
25	0x3cd4dbb4	0.025983669
26	0xbd0e4108	-0.034729987
27	0xbc567966	-0.013090467
28	0xbcd79c89	-0.026319759
29	0xbd0348c7	-0.032051828
30	0xbdfc06d7	-0.12305992
31	0xbe43e592	-0.19130543
32	0xbe3b998c	-0.18320292
33	0xbe65b1a1	-0.22431041
34	0x3ca01489	0.019541042
35	0x3d41e367	0.04733601

last_block.dense.weight f4 [1, 92]
0	0xbc01eb62	-0.007929655
1	0xbdca7c51	-0.09886993
2	0xbc612b7c	-0.013743278
3	0xbc9714b7	-0.018442495
4	0x3ce9ef1c	0.028556399
5	0x3a6e347c	0.00090868
6	0x3c81b896	0.015835088
7	0xbc68b4ed	-0.014203292
8	0xbd299ff1	-0.041412298
9	0xbdb88927	-0.09010535
10	0x3dbaa2b9	0.09113068
11	0xbdb69d2b	-0.08916696
12	0xbc51dae5	-0.012808536
13	0x3bc7a86f	0.006093077
14	0xbbf65686	-0.0075176386
15	0x3d6d9314	0.058001593
16	0xbda397fd	-0.07987974
17	0xbd95bc98	-0.07311362
18	0xbd39e181	-0.045381073
19	0x3d840134	0.06445542
20	0xbc52eb87	-0.012873537
21	0x3d411a35	0.047144134
22	0x3c28edf6	0.010310641
23	0xbab2b2fa	-0.0013633661
24	0x3ce946b4	0.028476097
25	0xbd05927a	-0.032610394
26	0xbd0565b6	-0.032567702
27	0xbd26992f	-0.04067343
28	0x3d1df9b0	0.0385682
29	0x3da20017	0.079101734
30	0x3d72829b	0.059206586
31	0x3d7b5c44	0.06136729
32	0x3d6662a5	0.05624642
33	0xbd6c48b4	-0.057686523
34	0xbd72f24e	-0.05931311
35	0xbbab1dc6	-0.005222055
36	0xbd7a4584	-0.06110145
37	0x3d0aee60	0.03391874
38	0xbdf06c4f	-0.11739408
39	0x3d1ca086	0.038239025
40	0xbd2d338e	-0.042285495
41	0x3d37ce12	0.04487426
42	0xbbf9e704	-0.007626416
43	0x3d2ead81	0.042645935
44	0x3d28910d	0.041153956
45	0xbde77c0d	-0.11302958
46	0xbb1a3625	-0.0023530808
47	0x3d8be362	0.06830479
48	0x3bdd4f08	0.006753806
49	0xbd007361	-0.031360034
50	0xbdb842fc	-0.08997151
51	0xbd0e0c77	-0.034679856
52	0x3dc10763	0.09425237
53	0x3c3e62d9	0.011620247
54	0x3d591e95	0.05300768
55	0xbde4622a	-0.11151536
56	0xbd11d9da	-0.03560815
57	0xba836221	-0.0010023752
58	0x3d79d698	0.06099567
59	0xbd045cb9	-0.03231499
60	0xbca3f92e	-0.02001628
61	0xbd78c717	-0.060736742
62	0x3dc28aba	0.09499116
63	0x3cc5ff98	0.024169728
64	0x3c436e76	0.011928191
65	0xbcba13f9	-0.022714602
66	0xbdd045d9	-0.101695724
67	0xbdaaa960	-0.08333087
68	0x3bf42d18	0.0074516647
69	0x3d18bd14	0.037289694
70	0xbdb05675	-0.0861024
71	0x3cebfae8	0.028806165
72	0x3d87176e	0.06596266
73	0x3d17c497	0.037052717
74	0xbd51c805	-0.051216144
75	0x3cad3855	0.021145025
76	0xbd8ad351	-0.06778587
77	0xbd9f1b11	-0.077688344
78	0xbd9ee6d9	-0.077588744
79	0xbd1a71d5	-0.037706215
80	0x3d8bbe29	0.068233795
81	0x3ddeeec0	0.10885382
82	0x3bef6c26	0.0073065935
83	0x3c6f4552	0.01460393
84	0x3db643c2	0.088996425
85	0xbda13b4f	-0.0787264
86	0xbbf5a13e	-0.007496028
87	0x3db7999c	0.089648455
88	0xb8b0a75d	-8.423508e-05
89	0x3ce0967f	0.027415512
90	0x3d853572	0.065043345
91	0x3caa4638	0.020785436

blocks.0.conv.weight f4 [1, 1, 8, 4]
0	0x3e154d93	0.14580373
1	0xbf03a246	-0.51419485
2	0xbed828c3	-0.422186
3	0xbc5a92d0	-0.013340667
4	0xbf03031b	-0.51176614
5	0x3e710911	0.23538615
6	0xbd94d826	-0.072677895
7	0x3e22cfb0	0.15899539
8	0x3e265e3b	0.16246884
9	0xbe0ebb8e	-0.13938734
10	0x3e16dc89	0.14732565
11	0xbf014328	-0.504931
12	0x3db30274	0.08740702
13	0x3ee83c1e	0.45358366
14	0xbc90664a	-0.0176269
15	0xbe401110	-0.18756509
16	0x3e8810b4	0.26575243
17	0x3d4f0109	0.050538097
18	0x3e8a2c8c	0.26987112
19	0xbf9a075b	-1.2033495
20	0x3f414bc9	0.75506264
21	0xbed13514	-0.40860808
22	0xbf3f8e8e	-0.74826896
23	0xbe69b70a	-0.2282373
24	0xbce1c2cd	-0.027558709
25	0xbed93d26	-0.42429465
26	0xbf25b32d	-0.64726526
27	0x3ee8c790	0.45464754
28	0xbf5ebe83	-0.8700945
29	0xbef77a53	-0.48335513
30	0xbeef9add	-0.4679784
31	0x3e3a7990	0.18210435

blocks.0.dense.weight f4 [1, 93]
0	0xbce2afc3	-0.0276717
1	0x3ccff0c3	0.025383359
2	0xbdf2907e	-0.11843966
3	0x3ae2f25c	0.001731466
4	0xbdd6e4dc	-0.1049287
5	0x3d1fad4c	0.03898363
6	0xbd8f64d3	-0.070016526
7	0x3d007b4e	0.031367593
8	0x3d529216	0.05140885
9	0xbe25eb66	-0.16203079
10	0xbd7dc3d8	-0.06195435
11	0xbdf276c1	-0.11839057
12	0xbe71560c	-0.2356798
13	0xbee82888	-0.45343423
14	0xbe541250	-0.2071011
15	0xbe3239ce	-0.17404863
16	0xbec4d5ad	-0.38444272
17	0xbea6611b	-0.3249596
18	0xbec07f3c	-0.37597072
19	0x3d17b84a	0.037040986
20	0xbcd9282e	-0.026508417
21	0xbefdf573	-0.49601325
22	0xbecb71c5	-0.39735237
23	0xbda3d698	-0.07999915
24	0xbe10bba8	-0.14134085
25	0xbec08d54	-0.37607825
26	0xbec8ee93	-0.39244518
27	0xbe237a4a	-0.15964618
28	0xbeae0374	-0.3398701
29	0xbe427fa0	-0.18993998
30	0x3d65c641	0.056097273
31	0xbe2f8356	-0.17139944
32	0xbecf8406	-0.40530413
33	0xbe961d5d	-0.29319277
34	0xbe34da7c	-0.1766147
35	0xbec18f50	-0.3780465
36	0xbea3dde4	-0.32005227
37	0xbe5b66f9	-0.21426
38	0xbf0df086	-0.55445135
39	0xbe85f785	-0.26165405
40	0xbece0504	-0.40238202
41	0xbe933c25	-0.28756824
42	0xbe41cc24	-0.1892553
43	0xbfc22b06	-1.516938
44	0xbdca2cdd	-0.09871838
45	0xbf082578	-0.5318217
46	0xbf38bbdf	-0.7216167
47	0xbefeae7b	-0.49742493
48	0xbf1aaefb	-0.6042325
49	0xbee1cbfc	-0.4410094
50	0xbf06b624	-0.52621675
51	0xbed9e943	-0.42560777
52	0xbf135e84	-0.57566094
53	0xbe8e21e7	-0.2776024
54	0xbebc46e7	-0.36772844
55	0xbee66fe2	-0.45007235
56	0xbea327b2	-0.31866223
57	0xbea7f15d	-0.32801333
58	0xbeb26f8a	-0.34850723
59	0xbe7da38b	-0.24769418
60	0xbe7968f5	-0.24356444
61	0xbe135439	-0.14387597
62	0xbe004d93	-0.12529592
63	0xbe1a0f42	-0.15044883
64	0xbe033173	-0.12811832
65	0xbdf637d2	-0.12022366
66	0xbc040be4	-0.008059476
67	0xbdecb21a	-0.11557408
68	0xbdb4210a	-0.08795364
69	0xbd0b87e5	-0.034065146
70	0x3d186f45	0.03721549
71	0xbb8c39bd	-0.004279344
72	0xbcd77e92	-0.02630547
73	0xbd05afa6	-0.032638215
74	0xbdf63ddb	-0.12023517
75	0xbb4c2163	-0.003114783
76	0xbe15d71e	-0.14632842
77	0xbd8187da	-0.0632474
78	0xbe0ebfbf	-0.13940333
79	0xbdf0844e	-0.11743985
80	0xbd5cd015	-0.05390938
81	0xbe8660a2	-0.262456
82	0x3d70b0f1	0.058762494
83	0xbe49151f	-0.19636963
84	0xbe027680	-0.12740517
85	0xbda7ff43	-0.08202984
86	0xbdb25a9e	-0.0870869
87	0xbe07dfcb	-0.13268964
88	0xbdbfcc90	-0.09365189
89	0x3c469ad6	0.012121877
90	0xbcb1122a	-0.021615107
91	0xbd79bd7a	-0.060971715
92	0xbd29847d	-0.041386116

blocks.1.conv.weight f4 [1, 1, 2, 4]
0	0xbe2764ce	-0.16347048
1	0xbe855208	-0.26039147
2	0xbe8a5d95	-0.27024522
3	0x3c35f589	0.011105903
4	0x3e0d1c22	0.13780263
5	0xbd69b025	-0.05705275
6	0xbe910685	-0.28325287
7	0xbd65b7a6	-0.056083344

blocks.1.dense.weight f4 [1, 99]
0	0xbc848411	-0.016176255
1	0x3d115dd8	0.035489887
2	0x3d816af3	0.06319227
3	0xbdbff880	-0.093735695
4	0x3d2d4316	0.042300306
5	0xbcef0cdd	-0.029180938
6	0xbd29e22c	-0.04147546
7	0xbca6cc52	-0.0203611
8	0x3dcc9921	0.099901445
9	0x3dd3efac	0.10348448
10	0x3c7577b6	0.014982155
11	0x3b008c5c	0.001961491
12	0x3cb0571f	0.021525918
13	0xbd52850f	-0.051396426
14	0xbd423810	-0.047416747
15	0xbda024c3	-0.07819512
16	0xbcd8cad1	-0.026463898
17	0xbd60ab84	-0.05485107
18	0xbdfdc0e7	-0.12390309
19	0xbb9e93c9	-0.0048393947
20	0xbd1037ab	-0.03520934
21	0x3b31f0c6	0.0027151569
22	0x3c3d45b3	0.011552262
23	0xbd213535	-0.039357383
24	0xbe48dde9	-0.19615902
25	0xbe2dea85	-0.16983993
26	0x3d80dca3	0.06292083
27	0xbc266c85	-0.010157709
28	0xbbcbcad9	-0.0062192497
29	0xbe3a3e92	-0.18187931
30	0xbcad69a0	-0.02116853
31	0xbd7dc8c9	-0.06195906
32	0xbc771149	-0.015079805
33	0xbdb80551	-0.08985389
34	0xbcaeb5da	-0.021326948
35	0xbdd4be7b	-0.10387894
36	0xbc31bcd5	-0.010848244
37	0x3c74c7dd	0.014940229
38	0x3db8a497	0.09015768
39	0x3dcbca3c	0.099506825
40	0xbca51e50	-0.020156056
41	0x3d0bd2bf	0.03413653
42	0x3ddbb0f1	0.10727108
43	0x3e2ec1b1	0.17066075
44	0x3e361b75	0.17783912
45	0x3cf0a074	0.029373385
46	0x3e08fd4e	0.13377878
47	0x3d4d1750	0.05007106
48	0x3da82120	0.08209443
49	0x3e4ed2fb	0.2019767
50	0x3f38bb85	0.7216113
51	0x3e0be072	0.13659838
52	0xbd1f5c89	-0.038906608
53	0x3be10f76	0.006868298
54	0x3e722e2d	0.23650427
55	0x3e6c240c	0.23060626
56	0x3e2dd0c9	0.16974176
57	0x3e800407	0.25003073
58	0x3e667d36	0.22508702
59	0x3e94b719	0.29045942
60	0x3e854da8	0.2603581
61	0x3eaebf16	0.34130162
62	0x3e92c177	0.28663227
63	0x3e05b193	0.1305602
64	0x3e894e24	0.2681743
65	0x3e07a7a1	0.13247539
66	0x3da39554	0.079874665
67	0x3e6883f6	0.22706589
68	0x3cbae135	0.022812465
69	0x3ea2730f	0.31728408
70	0x3e836dc0	0.2566967
71	0x3e1f7c97	0.15574871
72	0x3ddb51a5	0.10708932
73	0x3dbdefd3	0.092742585
74	0x3ddf3657	0.108990364
75	0x3ca5bf56	0.020232838
76	0x3b5e9d5b	0.0033968303
77	0xbca4bc3b	-0.020109287
78	0x3e0828c6	0.13296804
79	0x3dff9a30	0.12480581
80	0x3d87714b	0.06613406
81	0x3d98483c	0.074356526
82	0x3dac20ef	0.08404719
83	0xbca54561	-0.020174684
84	0xbcb582be	-0.02215707
85	0xbc4d50e5	-0.012531494
86	0x3e04f931	0.12985684
87	0x3e0ac7f8	0.13552845
88	0xbcf27568	-0.029597
89	0x3d9717a0	0.07377553
90	0x3d5a85a8	0.05335012
91	0x3d7b66ba	0.061377265
92	0x3d2cbcf8	0.042172402
93	0xbc220e6d	-0.009891135
94	0x3d9ed8e5	0.07756213
95	0x3c9cabeb	0.019124946
96	0x3e764f3a	0.2405366
97	0x3e9ce97f	0.30646893
98	0x3e0ee581	0.13954736

blocks.2.conv.weight f4 [1, 1, 13, 4]
0	0x3d9161da	0.07098742
1	0xbec33727	-0.38128015
2	0x3d265db1	0.040616695
3	0xbc80fbd8	-0.015745088
4	0xbdd1e496	-0.102486774
5	0x3e9f4f23	0.31115064
6	0xbe12d0b7	-0.14337431
7	0x3c6de7d5	0.014520605
8	0xbdbe9cf6	-0.09307282
9	0xbed9d617	-0.4254615
10	0xbecd5721	-0.40105537
11	0x3e874acc	0.26424253
12	0xbdbbc081	-0.091675766
13	0x3d53aaab	0.051676434
14	0x3cd4d0b1	0.025978418
15	0xbe9502f8	-0.29103827
16	0xbdd723ea	-0.10504897
17	0xbe079823	-0.1324163
18	0xbeb2cbb7	-0.34921047
19	0x3e49d50c	0.19710177
20	0x3c8f1fda	0.017471243
21	0xbdc7f53b	-0.09763571
22	0x3d1a7f37	0.037718978
23	0xbe5d97ab	-0.21639888
24	0xbe76bf5e	-0.24096438
25	0xbd19dab7	-0.0375621
26	0xbe01fa0a	-0.12693039
27	0x3e2f089a	0.17093125
28	0x3d42c893	0.047554564
29	0xbe912808	-0.28350854
30	0x3dc82f51	0.0977465
31	0xbe5b5c26	-0.2142187
32	0xbe619052	-0.2202771
33	0x3d2f3eb3	0.042784404
34	0x3dd82ea2	0.105557695
35	0xbd0d85ad	-0.03455131
36	0xbd1dba15	-0.03850754
37	0xbe8d92e5	-0.27651134
38	0xbe93be9e	-0.28856367
39	0x3b90eb4b	0.0044225804
40	0xbe95a4a9	-0.29227188
41	0xbe625e32	-0.22106245
42	0x3e9d35df	0.30705163
43	0x3d0b99ab	0.034082096
44	0xbe384897	-0.17996441
45	0x3d635c15	0.05550774
46	0xbf2acfdc	-0.6672342
47	0x3d3f7b84	0.046748653
48	0xbe4c6ab8	-0.19962585
49	0xbeba3e5b	-0.36375698
50	0x3da94b2a	0.082662895
51	0x3dc8e1d9	0.09808702

blocks.2.dense.weight f4 [1, 88]
0	0x3d90b4a4	0.070657045
1	0xbddb73c9	-0.10715444
2	0x3d6033c6	0.054736875
3	0xbd9ce34e	-0.076605424
4	0xbd73983a	-0.059471346
5	0x3d4b1c92	0.049587794
6	0x3c03bfbc	0.0080413185
7	0x3de502a4	0.11182144
8	0x3dccef1a	0.100065425
9	0xbd39af28	-0.045333058
10	0xbd29ea79	-0.041483376
11	0x3d226d07	0.039654758
12	0x3d2757b8	0.04085514
13	0x3cbf4a70	0.023350924
14	0xbbdbabae	-0.0067038154
15	0x3dc36b11	0.09541906
16	0xbe0c46d9	-0.13698901
17	0x3d3bc79e	0.045844667
18	0xbcbaa5f0	-0.022784203
19	0xbe0159da	-0.12631932
20	0xbd74d24b	-0.059770864
21	0x3d31099d	0.04322206
22	0xbd267f41	-0.040648703
23	0x3e0a3d8b	0.1350004
24	0x3d15675a	0.036475517
25	0x3c93a3a5	0.018022368
26	0xbd635c15	-0.05550774
27	0x3decd5ae	0.11564194
28	0x3db77e63	0.08959653
29	0xbdacb748	-0.084333956
30	0x3d193484	0.0374036
31	0xbdb4b2d0	-0.08823168
32	0x3d40c906	0.04706671
33	0xbd3e3651	-0.04643852
34	0xbdaf2fe0	-0.08554053
35	0xbd752922	-0.05985368
36	0xbdaa1665	-0.08305053
37	0x3d254755	0.04035123
38	0xbbb7feb8	-0.0056150816
39	0x3c2c7808	0.010526665
40	0x3e907c09	0.2821963
41	0x3e8523b3	0.260038
42	0x3e9f3c51	0.31100705
43	0x3e413f9f	0.18871926
44	0x3df44848	0.11927849
45	0x3e23e555	0.16005452
46	0x3e824e7a	0.25450498
47	0x3ef7d1b8	0.4840219
48	0x3e87e302	0.2654038
49	0x3de49ffa	0.111633256
50	0x3edd7936	0.4325654
51	0x3e55e0ea	0.20886579
52	0x3e1f8313	0.15577345
53	0x3f137477	0.57599586
54	0x3ecdcb79	0.401943
55	0x3eeffe16	0.4687354
56	0x3ed1ae39	0.40953234
57	0x3ea8a600	0.32939148
58	0x3e121a3f	0.14267825
59	0x3eb7efd6	0.35925168
60	0x3de61cf9	0.11235995
61	0x3e7acdfa	0.24492636
62	0x3e3080a8	0.17236578
63	0x3e3c1950	0.18369031
64	0x3e4ea191	0.2017882
65	0x3e85d4e1	0.26138976
66	0x3eaaad53	0.3333536
67	0x3e2e29f0	0.17008185
68	0x3d7ffbd8	0.062496036
69	0x3e3173ba	0.17329302
70	0x3e583fe9	0.2111813
71	0x3e2235c4	0.15840822
72	0x3e59b190	0.21259141
73	0x3e35edc4	0.17766482
74	0x3d6df0cb	0.058090966
75	0x3f0020f5	0.5005029
76	0x3e86569f	0.26237962
77	0x3e1f3925	0.15549143
78	0x3dbbdd93	0.09173121
79	0x3e857a1b	0.26069722
80	0x3de278b2	0.11058177
81	0x3e75cfc8	0.24005044
82	0x3e29bf63	0.16576914
83	0x3d5f2f92	0.054488726
84	0xbccb0152	-0.024780903
85	0xbe21eb87	-0.15812503
86	0x3d9bfc5b	0.07616492
87	0xbe3d1844	-0.18466288

blocks.3.conv.weight f4 [1, 1, 11, 4]
0	0xbe389b47	-0.18027984
1	0x3e8bde95	0.27318254
2	0xbe93f0fc	-0.28894794
3	0x3de3cb33	0.111227416
4	0x3df31a00	0.118701935
5	0xbec27b84	-0.3798486
6	0x3e2b83e2	0.16749528
7	0xbd824a2f	-0.06361806
8	0xbe95af18	-0.29235148
9	0x3ee75ac8	0.45186448
10	0x3d95fd0a	0.07323654
11	0x3d6f0530	0.058354557
12	0xbeb476c7	-0.3524687
13	0xbed61cf3	-0.41818962
14	0xbefdd354	-0.49575293
15	0x3e851a07	0.2599642
16	0x3e434d13	0.1907237
17	0xbeb0cda5	-0.34531894
18	0xbd3dcdc7	-0.046338823
19	0xbe1bc4a6	-0.15211734
20	0xbcb6ba29	-0.022305565
21	0xbc533421	-0.0128908465
22	0x3eb8247a	0.3596533
23	0xbd3d064b	-0.04614858
24	0xbe01ecd7	-0.12688003
25	0x3e6b4aee	0.22977802
26	0xbe7bd0c9	-0.24591364
27	0x3e2c88c7	0.16849051
28	0x3d6e85fb	0.058233242
29	0xbe91e184	-0.28492367
30	0xbdbb462c	-0.091442436
31	0x3d39eaec	0.045390055
32	0x3d4e7bea	0.050411142
33	0x3e79f212	0.24408749
34	0x3dd8a24f	0.10577833
35	0x3d7c29b9	0.061563227
36	0xbe08d6d9	-0.13363208
37	0xbdfb5276	-0.122715876
38	0xbeb88a9c	-0.3604325
39	0x3e01576c	0.12631005
40	0x3d94a78f	0.07258522
41	0xbd8f11cc	-0.06985816
42	0x3d8c6dd4	0.068568856
43	0xbe8546aa	-0.26030475

blocks.3.dense.weight f4 [1, 90]
0	0x3de7d091	0.11319078
1	0x3e732240	0.23743534
2	0x3e98f625	0.29875293
3	0x3dbcabeb	0.09212478
4	0x3e1c66c2	0.15273574
5	0x3e8fe3d3	0.28103504
6	0x3e644cd4	0.22294933
7	0x3e83c8ab	0.25739035
8	0x3e1da517	0.15395008
9	0x3ed9a77f	0.42510602
10	0x3e59249c	0.21205372
11	0x3d7b7b27	0.061396744
12	0x3e3b8678	0.18313015
13	0xbddf215d	-0.108950354
14	0x3eeed9a2	0.46650416
15	0x3d828dd3	0.06374707
16	0x3eb2fc56	0.34958142
17	0x3edb3d44	0.4282018
18	0x3eacf987	0.33784124
19	0x3ef3c1a2	0.47608668
20	0x3c1ba8bc	0.009500679
21	0x3efdc828	0.4956677
22	0x3e1c83e1	0.15284683
23	0x3f0e546e	0.5559758
24	0x3ef9eb77	0.48812458
25	0x3f19f31c	0.6013658
26	0x3f0d7f3b	0.55272263
27	0x3f033ff1	0.5126944
28	0x3f0af2e0	0.5427685
29	0x3ed07268	0.40712285
30	0x3f03e8cf	0.5152711
31	0x3d7c82d3	0.0616482
32	0x3eab914e	0.33509296
33	0x3ee0f4e7	0.43936846
34	0x3f06df99	0.5268493
35	0x3ec4a5fe	0.38407892
36	0x3e98f3c6	0.29873484
37	0x3edb0051	0.4277368
38	0x3f0996e7	0.53745884
39	0x3eac8569	0.33695534
40	0x3e6a26ff	0.22866438
41	0x3ed1a669	0.40947273
42	0x3f1f5910	0.62245274
43	0x3e47a96d	0.19498225
44	0x3ecc2a9d	0.3987626
45	0x3f53169a	0.8245636
46	0x3ef20736	0.47271127
47	0x3f043ea0	0.5165806
48	0x3f01361b	0.50473183
49	0x3f441346	0.7659191
50	0x3f1f3c27	0.6220116
51	0x3e57acc9	0.21062006
52	0x3e41ed19	0.18938102
53	0x3dc0e556	0.09418742
54	0x3e08eada	0.13370839
55	0x3e88b194	0.2669798
56	0x3e82a1e8	0.2551415
57	0x3eb6f56d	0.3573412
58	0x3e633904	0.22189718
59	0x3e153e04	0.14574438
60	0x3e1b3043	0.15155129
61	0x3dc68a5e	0.0969436
62	0x3e1e746d	0.154741
63	0x3e661df3	0.22472362
64	0x3e9ecf6b	0.31017622
65	0x3d5d2e3a	0.053999163
66	0x3e1e5600	0.15462494
67	0x3d89170e	0.066938505
68	0x3dbdcce0	0.092675924
69	0x3dc1a24a	0.09454782
70	0xbd4e8bb9	-0.05042622
71	0xbd8f035d	-0.06983063
72	0x3d002ade	0.03129088
73	0x3e1a1905	0.15048607
74	0x3d717923	0.058953416
75	0xbd0bdd4e	-0.0341466
76	0x3cf69ee5	0.030105064
77	0x3ddd80d9	0.10815591
78	0x3d15ff40	0.03662038
79	0x3daf5580	0.0856123
80	0xbd62c8ab	-0.055367153
81	0xbddf1d15	-0.10894219
82	0xbd6d4024	-0.057922497
83	0xbe0a5939	-0.13510598
84	0xbdd8c39e	-0.10584186
85	0xbd76ed16	-0.060284697
86	0xbe1a7a49	-0.1508571
87	0x3d3df432	0.04637546
88	0xb732fde3	-1.0668739e-05
89	0x3d242a32	0.040079303

blocks.4.conv.weight f4 [1, 1, 6, 4]
0	0x3da8c29b	0.08240243
1	0xbea6f4b5	-0.32608572
2	0x3e9f77a7	0.31145975
3	0x3e1c7b15	0.15281327
4	0xbebf26ae	-0.37334198
5	0xbdb66305	-0.08905605
6	0x3e19e26a	0.15027776
7	0xbde5b11f	-0.11215424
8	0x3d8144c3	0.063119434
9	0xbde0f9b2	-0.109851256
10	0x3e5d20b5	0.21594508
11	0xbe2f5737	-0.17123114
12	0xbedfd46f	-0.4371676
13	0xbe89dc55	-0.26925912
14	0x3ed770da	0.42078286
15	0xbd9c6a44	-0.07637456
16	0x3d3d85d4	0.046270207
17	0x3e847c53	0.25876102
18	0xbe18c061	-0.14917137
19	0xbd08f3d8	-0.033435673
20	0xbe1e09df	-0.15433453
21	0xbee8570f	-0.4537892
22	0xbdd28c84	-0.102807075
23	0x3e576dc2	0.21037963

blocks.4.dense.weight f4 [1, 95]
0	0x3d59442f	0.05304354
1	0xbe125e32	-0.14293745
2	0x3e4c141f	0.1992955
3	0x3d22a194	0.039704874
4	0x3d833002	0.06405641
5	0x3be44aa1	0.0069669043
6	0x3dae90e6	0.08523731
7	0x3db3a1b5	0.087710775
8	0xbd9b8465	-0.07593612
9	0xbd786319	-0.060641382
10	0xbde99d2b	-0.114069305
11	0x3e0ed073	0.13946705
12	0xbdadc51b	-0.084848605
13	0x3d9de194	0.07709041
14	0x3dfd1c62	0.12358929
15	0x3db4fc1d	0.08837149
16	0x3d9e0e10	0.07717526
17	0x3e62d50f	0.22151588
18	0x3e00827e	0.12549779
19	0x3d9fc4be	0.078011975
20	0xbd8f5a3c	-0.06999633
21	0x3cb12727	0.021625115
22	0xbcc6d3b5	-0.024270872
23	0x3d941cdc	0.07232067
24	0x3e383457	0.17988716
25	0x3d7a12d3	0.06105311
26	0x3dc0fd92	0.09423365
27	0x3d857514	0.065164715
28	0xbca012ff	-0.019540308
29	0x3e20992a	0.15683427
30	0x3e09dde4	0.13463551
31	0x3e61cec8	0.22051537
32	0x3d60f580	0.054921627
33	0x3bcf2b42	0.0063222954
34	0x3d52c408	0.05145648
35	0xbd3ee021	-0.046600465
36	0x3dc410d4	0.09573522
37	0xbd980d6c	-0.07424435
38	0x3e01219e	0.1261048
39	0x3da0b5ee	0.078472
40	0x3db36af0	0.08760631
41	0x3e090287	0.1337987
42	0x3ddcaca8	0.10775119
43	0x3d8d12ba	0.068883374
44	0xbcd9b38f	-0.026574878
45	0x3edb0248	0.42775178
46	0xbdcfacdf	-0.101403944
47	0xbedc316c	-0.43006456
48	0xbda17a24	-0.078846246
49	0x3cbccb4a	0.023046155
50	0x3e3d2aa1	0.18473293
51	0xbd929b09	-0.07158477
52	0x3eb6a390	0.35671663
53	0x3c64a83d	0.013956127
54	0x3de750ec	0.112947315
55	0xbd9dbb55	-0.077017464
56	0x3e6f4b23	0.23368506
57	0x3c28f101	0.010311366
58	0xbe8c246f	-0.27371547
59	0xbbd94062	-0.0066299895
60	0xbe51edc0	-0.2050085
61	0xbe4a293e	-0.19742295
62	0x3cefcad4	0.02927152
63	0xbccc451e	-0.024935301
64	0xbd210ad3	-0.039316963
65	0xbd20abd0	-0.039226353
66	0xbbf7ea53	-0.0075657754
67	0xbe816e37	-0.252794
68	0xbc849c27	-0.01618774
69	0xbe848cb0	-0.25888586
70	0x3e33e9c1	0.17569639
71	0xbaee3841	-0.0018174724
72	0xbd802ff0	-0.06259143
73	0xbe0db7a9	-0.13839592
74	0xbc3e5e17	-0.011619112
75	0x3e98e199	0.29859617
76	0xbe135f6d	-0.14391871
77	0xbe2f1ee5	-0.17101629
78	0x3d32952c	0.043599293
79	0x3e47d53c	0.19514936
80	0x3e59b8c2	0.21261886
81	0x3e86c73c	0.2632388
82	0xbde6b515	-0.112650074
83	0x3e72f7a3	0.23727278
84	0x3d631fb6	0.055450164
85	0x3cf7a4bc	0.030229919
86	0x3c8c6306	0.017137062
87	0x3e171c62	0.14756921
88	0x3de599b7	0.112109594
89	0x3e4c4ad3	0.19950418
90	0xbd051553	-0.03249104
91	0x3ea3528f	0.31898925
92	0x3e43a112	0.19104412
93	0x3d7da602	0.061925896
94	0xbe5930cc	-0.21210021

linear.weight f4 [1, 6]
0	0xbe517ab9	-0.20456971
1	0x3df98d7a	0.12185188
2	0x3d950707	0.07276731
3	0x3e361616	0.17781863
4	0x3e057b1a	0.13035241
5	0xbdc9973e	-0.098433
