models/100bp_arround_STRends_models/hg38C_.pt (torch, 5778 bytes, 7 tensors)

last_block.conv.weight f4 [1, 1, 8, 4]
0	0xbe892374	-0.2678486
1	0x3e36e4a2	0.17860654
2	0xbdf5f850	-0.120102525
3	0xbe5a3edd	-0.21313043
4	0xbedf3b91	-0.43600133
5	0x3e799759	0.24374141
6	0x3e209721	0.15682651
7	0xbe1c5469	-0.15266575
8	0x3d4f1030	0.050552547
9	0xbda5e406	-0.08100133
10	0x3e0675fb	0.13130943
11	0x3e87a0a4	0.26489747
12	0x3d8fff6a	0.07031138
13	0x3e5cf321	0.21577121
14	0x3c9d242e	0.01918229
15	0x3bf1289a	0.0073595764
16	0xbe43b234	-0.19110948
17	0x3da31fdd	0.07965062
18	0x3da5216d	0.08063016
19	0xbd3af002	-0.045639046
20	0xbdfa3a13	-0.12218108
21	0xbda3c356	-0.07996242
22	0xbd1ed240	-0.03877473
23	0x3cbe6586	0.02324177
24	0xbde11e90	-0.109921575
25	0x3e4b8e69	0.19878544
26	0x3e152a44	0.14566904
27	0xbcbad9a8	-0.022808865
28	0xbe9f5347	-0.31118223
29	0x3db8a044	0.09014943
30	0x3e368624	0.17824608
31	0x3e9d3363	0.30703267

last_block.dense.weight f4 [1, 93]
0	0xbd7d34ac	-0.06181781
1	0x3da7ff38	0.08202976
2	0x3d1b8446	0.037967943
3	0xbdd3a61d	-0.10334418
4	0xbda228c0	-0.07917929
5	0x3e808b84	0.25106442
6	0xbd8a4ea6	-0.06753282
7	0xbde6b875	-0.11265651
8	0xbd79a37f	-0.060946938
9	0xbe2ddcef	-0.1697881
10	0xbd8765e5	-0.06611232
11	0xbc6046d2	-0.01368876
12	0x3d00e9ae	0.031472854
13	0x3db917fb	0.09037777
14	0xbd03209d	-0.032013524
15	0x3d9fe547	0.07807403
16	0x3cb1c552	0.021700535
17	0xbd1526fc	-0.03641413
18	0xbcb89a3e	-0.022534486
19	0x3cb968f0	0.022633046
20	0xbd457335	-0.048205573
21	0xbcf7dc5e	-0.030256446
22	0x3e555804	0.20834357
23	0x3d8aa132	0.06769027
24	0x3cbb27bb	0.022846093
25	0xbcc5b5b4	-0.024134494
26	0xbcaf432b	-0.021394333
27	0xbb7a7f19	-0.0038222729
28	0x3de44db6	0.11147635
29	0xbe1a9e97	-0.1509956
30	0xbd94adee	-0.07259737
31	0xbe2cd822	-0.16879323
32	0xbe4187f7	-0.18899523
33	0xbdf265e6	-0.11835842
34	0xbdcbc2fa	-0.09949298
35	0xbe8a35a8	-0.2699406
36	0xbe337a72	-0.17527178
37	0xbe1ff9e2	-0.15622666
38	0xbe8ed013	-0.27893123
39	0xbe867fb6	-0.2626931
40	0xbe30b29f	-0.17255639
41	0xbda037d3	-0.078231476
42	0xbe36d939	-0.17856301
43	0xbe1468bb	-0.14493077
44	0xbe5f5ae7	-0.2181202
45	0xbebfb402	-0.37442023
46	0xbe0a5815	-0.13510163
47	0xbe6846b0	-0.22683215
48	0xbed99671	-0.4249759
49	0xbd454597	-0.04816207
50	0xbcb229ca	-0.021748442
51	0xba93e0f7	-0.0011282255
52	0xbe024215	-0.12720521
53	0xbeb4579e	-0.35223097
54	0xbf013a6c	-0.5047977
55	0x3c39a8bc	0.011331733
56	0xbd8ecbe1	-0.069724806
57	0xbe2bc593	-0.16774587
58	0xbe903235	-0.28163305
59	0xbd70654b	-0.05869035
60	0xbc3155c4	-0.010823671
61	0x3c052592	0.008126633
62	0xbe2a84d3	-0.16652231
63	0xbebbc48b	-0.36673388
64	0x3cb0b5f3	0.021571135
65	0xbe0dc16c	-0.13843316
66	0x3e501145	0.20319088
67	0x3d57f467	0.052723315
68	0xbe14bedc	-0.14525932
69	0x3cfdf987	0.031002773
70	0xbdbac93b	-0.09120413
71	0x3db5204f	0.08844053
72	0xbd367d40	-0.04455304
73	0xbca9f0ec	-0.020744763
74	0xbe0dae66	-0.13836059
75	0xbdc7bc8b	-0.097527586
76	0x3d95e798	0.073195636
77	0x3e90df59	0.282954
78	0x3e5a64fd	0.21327586
79	0x3d8af245	0.067844905
80	0x3c267fa2	0.010162266
81	0x3bb182de	0.005417212
82	0x3d81f655	0.06345812
83	0xbe511323	-0.20417456
84	0xbdf0b8cd	-0.11753998
85	0x3c9beb2d	0.019033039
86	0x3d983fe7	0.074340634
87	0x3d94f19f	0.07272648
88	0x3dd606a6	0.10450487
89	0xbda0ba97	-0.07848089
90	0xbe114039	-0.14184655
91	0xbcb1e751	-0.021716746
92	0xbc95879a	-0.018253136

blocks.0.conv.weight f4 [1, 1, 14, 4]
0	0xbe8632bb	-0.2621058
1	0xbe811d00	-0.25217438
2	0xbe2e1f49	-0.17004122
3	0xbe859da5	-0.26096836
4	0xbeb7a761	-0.35869887
5	0xbdb624b0	-0.08893716
6	0xbe8a5dba	-0.27024633
7	0xbb5c0a02	-0.00335753
8	0xbe3fdff1	-0.1873777
9	0xbd622cd2	-0.055218525
10	0xbec14fc6	-0.37756175
11	0xbe5df46b	-0.2167527
12	0xbeaa1a4e	-0.33223194
13	0xbe0fb488	-0.14033711
14	0x3d13e638	0.036108226
15	0xbdf44faa	-0.11929257
16	0xbe9047be	-0.28179735
17	0xbd94d908	-0.07267958
18	0xbdd02daf	-0.101649635
19	0xbe20b6d1	-0.15694739
20	0xbe354d25	-0.1770521
21	0xbd8cb465	-0.06870345
22	0xbdddbc45	-0.10826925
23	0xbe86f9c6	-0.26362437
24	0xbef8f741	-0.4862614
25	0xbe5137db	-0.20431463
26	0xbe06b3f6	-0.13154587
27	0xbe5c84c0	-0.21535015
28	0xbd6874f2	-0.056752153
29	0xbe19012e	-0.14941856
30	0xbe5b13b7	-0.2139424
31	0xbe41f774	-0.18942052
32	0xbed7565c	-0.42058074
33	0xbe0bc813	-0.13650541
34	0xbcbe178d	-0.02320459
35	0xbe9c4d93	-0.30527934
36	0xbe89df8c	-0.26928365
37	0xbe7b494d	-0.24539681
38	0xbec013b8	-0.37515044
39	0xbe6974c4	-0.22798449
40	0xbd11632c	-0.03549497
41	0xbd60fb4a	-0.054927148
42	0xbf1cc8d9	-0.6124397
43	0xbed5be31	-0.41746667
44	0xbe9ae262	-0.3025084
45	0xbeae66a5	-0.34062687
46	0x3e9d1f4e	0.30687946
47	0xbe92b57c	-0.28654087
48	0xbf07b706	-0.53013647
49	0x3e0fa0b3	0.14026146
50	0xbf18a075	-0.5961984
51	0xbe9f1c65	-0.3107635
52	0x3b66adea	0.0035198876
53	0xbef7169e	-0.48259443
54	0x3c803171	0.015648575
55	0x3d9b2075	0.0757455

blocks.0.dense.weight f4 [1, 87]
0	0x3e20d687	0.15706836
1	0x3d8153a5	0.06314782
2	0x3dc04d7a	0.093897775
3	0x3d4025c9	0.046911035
4	0x3e82a091	0.25513127
5	0x3e73ad93	0.23796682
6	0x3e42a3ae	0.19007751
7	0x3e0a7fc6	0.13525304
8	0x3de4a647	0.111645274
9	0x3d785aa8	0.06063333
10	0x3e07c775	0.1325968
11	0x3d269e97	0.040678587
12	0x3d821e39	0.06353421
13	0x3df6a881	0.12043858
14	0x3e176343	0.14783959
15	0x3dc21443	0.09476521
16	0x3e74d40c	0.23909014
17	0x3e685ac8	0.2269088
18	0x3e247aee	0.16062519
19	0x3e2da033	0.16955642
20	0x3de55363	0.111975454
21	0x3dd762cb	0.1051689
22	0x3dc196e0	0.09452605
23	0x3e2bd946	0.16782102
24	0x3e206d72	0.1566675
25	0x3dfa5122	0.12222506
26	0x3e091e7c	0.13390535
27	0xbcde3eb0	-0.027129501
28	0xbd27ad8e	-0.040937
29	0xbbba6ee1	-0.0056894873
30	0x3d83a247	0.06427436
31	0x3e032b38	0.12809455
32	0x3e0ada85	0.13559921
33	0x3c8f2251	0.017472418
34	0xbdfba026	-0.12286405
35	0x3b7858d1	0.0037894736
36	0x3c13b85d	0.009016124
37	0xbe24b0d5	-0.16083081
38	0x3c86b401	0.016443254
39	0xbe1039a3	-0.14084487
40	0xbda56ff9	-0.08077998
41	0xbd9b7e1f	-0.07592415
42	0xbe03e6ba	-0.12880984
43	0xbe2ad073	-0.1668108
44	0xbe21893f	-0.15775011
45	0xbd835140	-0.064119816
46	0xbd7ac4ca	-0.06122283
47	0xbe29aa72	-0.16568926
48	0xbe2c57c6	-0.16830358
49	0xbe72617c	-0.2367
50	0xbd6c7fbb	-0.057739
51	0xbda09644	-0.07841161
52	0xbde88440	-0.1135335
53	0xbe1c8b60	-0.15287542
54	0x3b1d799b	0.0024028781
55	0xbd85f2ff	-0.065404885
56	0xbd7a7577	-0.06114718
57	0xbe24117b	-0.16022293
58	0xbe213190	-0.15741563
59	0xbdd43118	-0.103609264
60	0x3beca26a	0.0072215097
61	0xbcf80d7a	-0.030279864
62	0xbda8d5c8	-0.082439005
63	0xbdddd96d	-0.10832486
64	0xbdfc7b70	-0.12328231
65	0xbca559fb	-0.020184508
66	0x3d3ed4aa	0.04658953
67	0x3c47aa61	0.012186618
68	0x3d1b2bdb	0.03788362
69	0x3da1b7d1	0.07896388
70	0x3e847eaa	0.25877887
71	0x3e62dc50	0.22154355
72	0x3e596962	0.21231607
73	0x3e38f15a	0.18060818
74	0x3e32a8d7	0.1744722
75	0x3d7e54f7	0.062092748
76	0x3da2f95a	0.07957716
77	0x3e21de03	0.15807347
78	0x3d632932	0.05545921
79	0x3daecb1a	0.08534832
80	0x3da5efa4	0.081023484
81	0x3e4629f4	0.19351941
82	0x3e489265	0.19587095
83	0x3e49ae46	0.19695386
84	0x3dce8b27	0.10085135
85	0x3ca215aa	0.01978572
86	0x3d8508c0	0.064958096

blocks.1.conv.weight f4 [1, 1, 12, 4]
0	0xbd29509e	-0.04133665
1	0x3dbf56dc	0.09342739
2	0xbda692b2	-0.08133449
3	0xbdfc01e7	-0.1230505
4	0xbea08643	-0.31352434
5	0x3d3ba75d	0.045813907
6	0x3e0ac0e4	0.13550144
7	0xbcf6f601	-0.0301466
8	0xbda290cd	-0.07937775
9	0xbd0c7299	-0.034288976
10	0xbd9eee0e	-0.07760249
11	0x3dce1dc9	0.10064275
12	0x3ddf14ad	0.108926155
13	0x3d5bb87a	0.053642727
14	0xbda8292a	-0.082109764
15	0xbd089db5	-0.033353526
16	0xbd23c372	-0.039981313
17	0x3de3a0fa	0.11114688
18	0x3c30524d	0.01076181
19	0xbc4659ec	-0.0121064
20	0xbc97c28f	-0.01852539
21	0xbdcec38e	-0.10095893
22	0xbdca1e9a	-0.09869118
23	0xbd6dec1c	-0.0580865
24	0xbe88975b	-0.26677975
25	0xbc7d96fc	-0.015477892
26	0x3d6b9c8a	0.057522334
27	0xbd1c261b	-0.038122278
28	0xbe161914	-0.14658004
29	0xbda48042	-0.08032276
30	0xbe48b799	-0.19601287
31	0xbc1d67dd	-0.0096072825
32	0x3dcc476e	0.09974562
33	0x3d94533a	0.07242437
34	0xbf48a5bb	-0.78377885
35	0xbeaeeb10	-0.34163713
36	0x3e3609f4	0.17777234
37	0xbec11aef	-0.3771586
38	0x3f2e5d80	0.6811142
39	0xbe300d8e	-0.1719267
40	0xbed895ea	-0.42301875
41	0x3ea551e1	0.3228903
42	0xbf333114	-0.6999676
43	0xbf02ab94	-0.5104306
44	0x3c7d3201	0.015453816
45	0xbe81fa00	-0.25386047
46	0x3e5ca56b	0.21547477
47	0x3e91f272	0.28505284

blocks.1.dense.weight f4 [1, 89]
0	0x3d19023f	0.037355658
1	0xbdcdd7d2	-0.1005093
2	0x3c27d826	0.010244405
3	0xbc0f6309	-0.008751639
4	0xbd22705e	-0.039657943
5	0x3e0b30c5	0.13592823
6	0xbda6636c	-0.08124432
7	0xbe5e8510	-0.21730447
8	0xbdc6da25	-0.097095765
9	0x3e02d5b4	0.12776834
10	0xbbf0e6c6	-0.007351729
11	0x3cf17310	0.029473811
12	0xbd295f62	-0.04135073
13	0x3e5eb2ac	0.21747845
14	0x3d78de3b	0.06075881
15	0x3d8f4c77	0.069970064
16	0x3e0eaca9	0.13933052
17	0x3dc5de4d	0.09661541
18	0x3cc4807a	0.023987044
19	0x3d9e08ee	0.07716547
20	0x3d68a68f	0.056799468
21	0x3de8c441	0.113655575
22	0x3e2c7aae	0.16843674
23	0x3dad8bda	0.0847394
24	0x3e91f623	0.285081
25	0x3e2532ba	0.16132632
26	0x3db7e543	0.08979275
27	0xbcdb2154	-0.02674929
28	0x3e29b354	0.16572315
29	0x3e5cacc7	0.21550284
30	0x3e5fc05c	0.21850723
31	0x3eac9012	0.33703667
32	0x3e97352d	0.29532757
33	0x3ea6bbac	0.32565057
34	0x3e48c350	0.19605756
35	0xbe3475f0	-0.17623115
36	0x3da9c91d	0.082903124
37	0xbd287a27	-0.04113212
38	0x3db0689e	0.08613704
39	0x3ee71525	0.4513332
40	0xbdbb7032	-0.09152259
41	0x3e9f97af	0.31170413
42	0x3eb1600e	0.34643596
43	0x3effcb52	0.4995981
44	0x3eb21fe9	0.3478997
45	0x3ee93835	0.45550695
46	0x3edb799d	0.4286622
47	0x3f05ea3b	0.5231053
48	0x3ee2963b	0.44255242
49	0x3ee06913	0.43830165
50	0x3eef002f	0.46679828
51	0x3f4c5acf	0.7982606
52	0x3f07a04f	0.52978987
53	0x3f067eaa	0.52537024
54	0x3edc25ff	0.4299774
55	0x3e8734c5	0.26407447
56	0x3e95fad6	0.29292935
57	0x3eabc124	0.33545792
58	0x3edee7f1	0.43536332
59	0x3ee3226f	0.44362208
60	0x3ee9cc61	0.4566374
61	0x3e94b20c	0.2904209
62	0x3ea54368	0.3227799
63	0x3eb59e79	0.35472468
64	0x3ebe9008	0.37219262
65	0x3e93071e	0.28716367
66	0x3e7d9866	0.24765167
67	0x3eb7d148	0.35901856
68	0x3e71a5ca	0.235984
69	0x3e91607e	0.2839393
70	0x3dd876fe	0.10569571
71	0x3e139d61	0.14415504
72	0xbd2da394	-0.04239233
73	0x3dec3186	0.11532883
74	0x3da4e6b4	0.08051816
75	0x3d279933	0.040917587
76	0x3e0a3121	0.13495304
77	0x3e37380e	0.17892477
78	0x3e638638	0.22219169
79	0x3d2cab6c	0.04215567
80	0x3d610858	0.054939598
81	0x3d5c9fb5	0.053863246
82	0x3e3affcb	0.1826164
83	0x3e0279bd	0.12741752
84	0x3c95ce2d	0.018286789
85	0xbb4602e0	-0.0030214116
86	0xbdadf35d	-0.084936835
87	0x3dc2d63f	0.095135204
88	0x3ea4f976	0.32221574

linear.weight f4 [1, 3]
0	0xbe0a2b2e	-0.13493034
1	0x3ea5a02b	0.3234876
2	0x3e71ef9f	0.23626564
