models/100bp_arround_STRends_models/hg38AAGG_.pt (torch, 8584 bytes, 11 tensors)

last_block.conv.weight f4 [1, 1, 3, 4]
00000000: 309c 43be 53f1 87bd 65f5 993e e6e5 35be
00000010: a11f 5cbe 172c 9dbe 79ce 823e 06a3 0c3e
00000020: 7857 edbd 58a2 803e 1cbf 8d3e 2ca2 533e
-0.1910255 -0.06637826 0.30070034 -0.1776348 -0.2149644 -0.306977 0.2554815 0.13734064
-0.11588949 0.25123858 0.27684867 0.20667332

last_block.dense.weight f4 [1, 98]
00000000: 945f 833d dd2a b33c b21d a53d 8d2d 693d
00000010: fdb5 b3bc 1cff bbbd de8d 8ebd 61d7 b83d
00000020: 213c d13c 08bf 3abd b35d 6abd a31d 6fbc
00000030: f7de 1dbe c9d6 b73b 5435 0bbd f02e ddbd
00000040: 3fe0 8d3d 2dfa 73bd d00d e3bd 6887 8e3d
00000050: d6a0 03bd ee15 cd3d 4c92 043d 4043 85bb
00000060: 8f10 e1bd aba1 bfbd b09d f03a 34f0 033d
00000070: b764 b83d 2458 6ebd 3cec 19bd 73f6 5b3d
00000080: b1b2 ffbd 8265 03bc b8a7 debc 01e8 de3d
00000090: 545a b53d 41e1 d63b ca06 c63d 3387 79bc
000000a0: 86ee cfbd 500d c33d 6e04 99bc e189 4b3d
000000b0: 5786 43bd 3250 193d aa47 023d 646c 7abd
000000c0: c5a1 12bd 4318 c33d 1189 0a3e 12fe a2bd
000000d0: 1b74 b2bd 75f6 acbd 224d 06be 2e16 1a3d
000000e0: 6f50 0abd 1d53 86bd a835 813d a8bf 063d
000000f0: b99d 013e 6dec 92bd 9c96 43bd 907d 5e3d
00000100: cbfd 883d 3fba ad3d 7b8d f63d 7096 30bd
00000110: 021a 04bd 126f 993c f24e 97bc e17a 153e
00000120: 3761 d33d 92ed 303e 96ca e33d b688 dc3d
00000130: 2607 323e 3a0f c1bc fab9 043e b72f 813c
00000140: 33f2 363e 1778 b63d 3e54 823c dde8 a6bc
00000150: cdef 9ebd 224c 4ebd 9379 cfbc 1879 643b
00000160: ab0b bbba 3a08 973d 5319 c8bc 0087 433d
00000170: 401d a53d af78 95bd 7ca0 98bd 2899 823d
00000180: 4cac c1bd 3c14 49bd
0.064147145 0.021871025 0.080623046 0.056928206 -0.021937365 -0.091795176 -0.06960653 0.09025455
0.025541367 -0.045592338 -0.057218265 -0.014594468 -0.15417086 0.005610321 -0.033986405 -0.10799968
0.06927537 -0.059564758 -0.11086619 0.069594204 -0.032135807 0.100139484 0.032366082 -0.0040668547
-0.109894864 -0.093570076 0.0018357541 0.032211497 0.09003585 -0.058189526 -0.037578806 0.05370183
-0.124852546 -0.008019807 -0.027179584 0.10884095 0.08855119 0.006557614 0.09669264 -0.015229988
-0.101529166 0.095240235 -0.01867887 0.04969204 -0.04773554 0.037429996 0.031806625 -0.061138526
-0.035798807 0.09526112 0.13528849 -0.07958616 -0.087135516 -0.084454454 -0.13115361 0.03761881
-0.033768114 -0.06558821 0.06309062 0.03289762 0.12657823 -0.07174001 -0.047751054 0.054318964
0.06689032 0.08482789 0.12038704 -0.04311222 -0.032251365 0.01872972 -0.018470261 0.14597656
0.10321277 0.17278126 0.111226246 0.10768263 0.1738554 -0.02356683 0.1296157 0.015769823
0.17865829 0.08909624 0.01590931 -0.02037471 -0.07760582 -0.050365575 -0.025326526 0.0034862217
-0.0014270445 0.07374616 -0.024426138 0.047736168 0.080622196 -0.07298409 -0.07452485 0.063768685
-0.09456691 -0.049091563

blocks.0.conv.weight f4 [1, 1, 17, 4]
00000000: 9114 bfbb 9300 5e3c 265a 583e cd05 37be
00000010: 1c9f e0bd 06f6 693e a8c0 e4bc 0f75 a23d
00000020: bd58 eebe 3963 d5bd 85b4 313e 4d21 643e
00000030: b1c9 663e deae 8b3e 9937 40bf 5981 76be
00000040: 804f 1cbf b683 b3be a968 f13e 2ad1 d0be
00000050: 1443 35be d28a b83e 2971 8ebe df87 fd3d
00000060: dd1d 8d3d 0eeb 93bd 04b6 053d cc20 a9bd
00000070: 4fd5 a7be 54f0 b83d 588a 103e 0e53 80be
00000080: 8af5 b3bc c38e f03a c6b0 0d3d 2147 8e3c
00000090: cb8a 3ebd bfbd ebbd 4a27 fb3c 872b 68be
000000a0: 509c 4abe b410 c13e a7eb 21be 8332 09be
000000b0: 686a 34be edc0 2bbe 8801 853d 2230 633d
000000c0: 2017 e13d d697 da3d 428a 07be 5768 52be
000000d0: f618 e0bc 1f7d 2abe 8fb2 823e 3d25 8dbd
000000e0: 6aba fcbd 4a7a 9f3e 2300 89bc 5521 50be
000000f0: ecca 5bbe e0bb d6bd 518c 013c a75c e6bc
00000100: 213a 923d 76e6 94bd e09e e43d 5ead d4bc
-0.005831309 0.013549942 0.21128139 -0.17873307 -0.10967848 0.22847757 -0.027923897 0.079324834
-0.46552077 -0.10419316 0.17354019 0.22278328 0.22537877 0.2728185 -0.75084835 -0.2407278
-0.6105881 -0.35061425 0.47150162 -0.4078458 -0.1770137 0.36043411 -0.2782071 0.12379431
0.068904616 -0.072225675 0.032644287 -0.08258209 -0.3277993 0.09030214 0.14115274 -0.25063366
-0.021967668 0.0018353093 0.034592412 0.017367901 -0.046519082 -0.115108006 0.030658383 -0.22672854
-0.19786191 0.37708056 -0.1581255 -0.13398175 -0.17618716 -0.16772814 0.06494433 0.055465825
0.10990739 0.10673492 -0.13236335 -0.20547615 -0.027355652 -0.16649292 0.25526854 -0.06891868
-0.12340243 0.31147987 -0.016723698 -0.20325215 -0.21464127 -0.10485053 0.007906989 -0.028120352
0.071399935 -0.072705194 0.111631155 -0.025961574

blocks.0.dense.weight f4 [1, 84]
00000000: 08d1 913d ae09 483e 9aec 703e d994 a23d
00000010: 36b1 293e 5838 e83d 74d1 5ebc 0626 0c3e
00000020: cd1c 653e 20c3 cd3d d26c 6bbc 937e 5d3e
00000030: 4955 713e 2d9b e6bc dc60 083e 664a 853e
00000040: efae a43e 1f09 d1bd 199d 253e 26b4 b93e
00000050: f0f9 023d 2f2b 363e 0048 3d3e 6868 aebd
00000060: 8549 693d 668e 263e 21a3 7b3e 0f27 8b3e
00000070: 6235 9b3d e9ee 593e 7058 ec3d 7ff7 a13d
00000080: 3a76 db3b 5233 b93e a1d5 463e e134 ae3e
00000090: 8f96 093e 989c 8b3c 5f86 983e bdf8 db3e
000000a0: 1749 993e 8875 d13e 78dd 133e 39f4 cb3e
000000b0: c820 de3c 92c2 1e3f b3fc 1a3f 1318 f03e
000000c0: 284b 2c3f 30f5 133f d00a ab3e 9d62 123f
000000d0: 6e60 573e f341 9b3e 5439 943e fd57 bc3e
000000e0: 2601 943e c0cb 8c3e 23f1 a83d d4fd 8c3e
000000f0: a4a5 9e3e 380e 9b3e 09c8 c93d e4b2 283e
00000100: 9354 8e3e 2a33 d03e 0b32 6e3e fc95 473e
00000110: c401 96b9 fb0c cb3d 2de3 5b3e 29ee 173e
00000120: 5563 eb3d c395 a63d b768 e73d 7bc0 183e
00000130: d7b8 313e 2c1d 193d 58b0 09bc 81ab 48bc
00000140: 7598 8b3d 0b46 1e3d 1010 2d3e bc53 cd3c
0.07119948 0.19534943 0.23527756 0.07938547 0.16571507 0.11338872 -0.013599742 0.1368638
0.22374268 0.10046983 -0.0143692065 0.21630315 0.2356769 -0.028150165 0.13318199 0.26033324
0.32164714 -0.10206818 0.16173209 0.36270255 0.03197664 0.1778991 0.18484497 -0.08516008
0.05695488 0.16265258 0.24573947 0.27178237 0.07578541 0.21282543 0.115403056 0.07908534
0.0066974433 0.36171967 0.1941743 0.34024718 0.1343634 0.017042443 0.29790017 0.4296321
0.29938576 0.40909982 0.14439952 0.39834765 0.02711524 0.6201564 0.6054184 0.46893367
0.6730218 0.57796 0.33406687 0.5718172 0.21032879 0.30323753 0.28949988 0.3678588
0.28907126 0.274992 0.08249118 0.27537405 0.3098575 0.30284286 0.09852607 0.16474491
0.277989 0.40664035 0.23261277 0.19490808 -0.00028611545 0.09914585 0.2147338 0.14836945
0.114935555 0.081340335 0.1129927 0.14917175 0.17355667 0.037381336 -0.00840386 -0.012247921
0.06816188 0.038641017 0.16900659 0.025064342

blocks.1.conv.weight f4 [1, 1, 4, 4]
00000000: df71 3bbe b62e bfbd 9e03 49be 1668 9f3d
00000010: 39fb 2a3e 4e0f 91be 3bed 98bd 2c98 f1be
00000020: 2889 0bbf 7a1b 213e e619 5abd 750d 13bf
00000030: 7eab 5ebd 2e79 edbe 2574 89bc 0a7b 6c3e
-0.18305157 -0.09335081 -0.19630286 0.07783525 0.16697396 -0.2833199 -0.07467123 -0.4718641
-0.5450616 0.15733138 -0.053247355 -0.5744241 -0.054362766 -0.46381515 -0.016779015 0.2309381

blocks.1.dense.weight f4 [1, 97]
00000000: 3c1f 903d be40 eabd 299f a63d c45a 4fbe
00000010: 70d5 ab3c 7204 a63d fcca 8dbe 2a65 20be
00000020: 8f24 efbd 7107 47be e2d1 b53d c77a 00be
00000030: 539a 793d 579e 82bd d42f b73d 4748 8c3d
00000040: 289d 21bd 8fd0 ed3d 9d83 cb3c f4f0 3cbe
00000050: fc49 e03b ca45 bfbb bd85 16bd 2cba 29bd
00000060: 5931 973e 9f1a a0bb 6427 febd 3a56 c43c
00000070: 794b de3d 6993 643e da89 0e3e 1dde 08bd
00000080: 389c 7e3d 4250 ca3d f4f8 833e 87ee 05be
00000090: f43f 01bd bd33 30be c405 873c 79c0 2a3e
000000a0: 0c42 983e 6fca a63c 0d3e ef3d 420f 8d3e
000000b0: cdd5 1e3e aa72 293e 22e3 23be 2631 9f3e
000000c0: 56f8 4a3e 3adc fabd c99c 30bd 42ce 663e
000000d0: bbce 113e 2f79 0d3e a3f5 943d 74a3 2e3e
000000e0: fe99 063e b73d ae3d cb05 213e 442c 353e
000000f0: 89b9 063e 8ea9 a23d ba72 743d 855d 9a3d
00000100: 8b5f 633e e8b4 913d 38b2 46bb ec6e 093d
00000110: 0274 0d3d 0bc7 283d b547 393d 1ea2 393d
00000120: 7ba2 863b 9d07 2a3d ddca 8b3b be1b 4abd
00000130: f4be 38bd 0d68 ef3c a32d d63c 2775 5b3d
00000140: 9b92 953d f6d0 1b3c f549 49bd 9d20 7e3a
00000150: 0d44 ff3c 8c7e a5bd 6be7 a33c be78 46bd
00000160: b606 073c 6380 aabc cc4a 54bd 6b37 1b3e
00000170: e0c8 2dbd 5d60 70bd c896 84bd 7fad ca3c
00000180: a060 80bc
0.070372075 -0.1143813 0.08135826 -0.20249468 0.020975798 0.081063166 -0.27693927 -0.15663591
-0.11676895 -0.19436432 0.088779226 -0.12546836 0.06093819 -0.06377857 0.08944669 0.06849723
-0.039456517 0.11612045 0.024843032 -0.18451291 0.006844757 -0.005837177 -0.036748637 -0.041437313
0.29529837 -0.004885986 -0.12409857 0.023966897 0.10854239 0.22321858 0.13919774 -0.03341495
0.0621607 0.09878589 0.25775874 -0.13079272 -0.03155513 -0.17207237 0.016482241 0.16674985
0.2973789 0.0203602 0.11681757 0.27550703 0.15511246 0.16547647 -0.16004613 0.31092185
0.19821295 -0.12249036 -0.043118272 0.22539619 0.14239018 0.13815759 0.07273414 0.1705454
0.13144681 0.08507865 0.15724866 0.17692667 0.13156714 0.07942496 0.059679724 0.07537369
0.22204416 0.07114583 -0.003031863 0.03355305 0.03453446 0.041205447 0.0452344 0.045320623
0.0041087246 0.041511167 0.0042661265 -0.049342863 -0.045103982 0.02922442 0.026144808 0.053578522
0.073033534 0.009510269 -0.049142797 0.0009694191 0.031160379 -0.080807775 0.02000781 -0.048454992
0.008241346 -0.020813173 -0.051829144 0.15157859 -0.042427897 -0.05868565 -0.06474072 0.024740933
-0.015671074

blocks.2.conv.weight f4 [1, 1, 3, 4]
00000000: d489 753d 305d 1c3e c936 a6be 1b24 533d
00000010: 6530 1d3d 784b 143e 4905 91bd adb3 5dbe
00000020: ada0 7e3d ee47 183c fe29 15be 015f 11bd
0.059945896 0.15269923 -0.32463673 0.051548105 0.03837623 0.14481914 -0.07081086 -0.21650572
0.06216495 0.009294493 -0.145668 -0.035490993

blocks.2.dense.weight f4 [1, 98]
00000000: 66b3 2a3c 34b8 093d e32b 753d b6f5 50bd
00000010: c617 993a 88d7 293d fb91 a13d 0c6d 553d
00000020: 87e5 733d 6741 dabb e17c 803d 2537 b63d
00000030: e3ec 743c 040b ab3d 06d3 b73c c6fb 10bd
00000040: 5e27 3a3d 0fb9 a93d c62b 133c ab15 14bb
00000050: 4ee6 683d b95f d63d 0a29 d13c e352 9c3d
00000060: 1d52 f13c cfa4 a4bd f9ed 373d be60 933d
00000070: f311 e13d f059 fe3d e998 02bd 2e9e 28bc
00000080: 22fa da3d 8b0d 1e3d 8408 963d f92d b33d
00000090: 8cac a63d 4bfc 883c 30e8 043d e585 fc3d
000000a0: 36ee b03c 879c e93d fb18 363c e771 0f3d
000000b0: 345b 913c 3a74 85bc f7f7 cc3d f943 523d
000000c0: 5127 813d a767 803c f63f 3e3c 576e 8f3d
000000d0: 0405 133d d090 e53b 3363 c0bc 58c7 693d
000000e0: 24a3 1a3d 24db 5f3d fcb6 ee3c 1847 ae3c
000000f0: 651f 363d e52b ee3c cc88 293d 3d5d 6d3d
00000100: 37a1 0c3d 2a25 af3d 3553 f53c c77a 4b3c
00000110: ad5c 353d fe61 513d 98f0 c33c db90 ff3c
00000120: bdac 853d e7df 103d cf90 3a3c 8ab9 b83d
00000130: fc37 833d c8be 2e3d 0efe 4a3d 1d73 263c
00000140: e380 a03d 901c 82bc 5b21 2e3d 6c33 c13d
00000150: fbbf 4b3d c0ae 513d c4d9 a2bc 522e ecbb
00000160: 4a19 483d 7f15 543c a4dd 093d 67f3 9f3c
00000170: f1c5 093d 0b18 3c3d 975e ec3c 99d9 5b3d
00000180: b903 af3c dcc2 443c
0.0104187485 0.033622935 0.059856307 -0.05101558 0.0011680059 0.041465312 0.07889172 0.05210595
0.059545066 -0.0066606286 0.06273819 0.08897237 0.014949056 0.083517104 0.022439491 -0.03539636
0.0454477 0.0828725 0.008982604 -0.0022595923 0.05686026 0.104674764 0.025532264 0.07632997
0.0294581 -0.08039247 0.044904683 0.071961865 0.10989752 0.12419498 -0.031884108 -0.010291619
0.1069224 0.038587134 0.07325843 0.08749003 0.081383795 0.016721865 0.032447994 0.12330226
0.021597963 0.11406808 0.011114354 0.035020735 0.017743684 -0.016290773 0.10008233 0.051334355
0.06306327 0.015674425 0.011611929 0.070034675 0.035893455 0.0070057884 -0.023484802 0.057074875
0.03775324 0.05465235 0.029139988 0.021274135 0.044463534 0.029073665 0.041390225 0.057950247
0.034333434 0.0855201 0.029946903 0.012419409 0.044277836 0.051118843 0.023918435 0.031197002
0.06527088 0.03536978 0.011387064 0.09019764 0.064071625 0.042662412 0.04955869 0.010159281
0.07837083 -0.01588276 0.04251228 0.09433636 0.049743634 0.051192045 -0.01987923 -0.0072076702
0.048852243 0.012944578 0.03365864 0.019525243 0.033636037 0.045921367 0.028853698 0.053674314
0.02136408 0.012009349

blocks.3.conv.weight f4 [1, 1, 17, 4]
00000000: c6b7 973c 80f9 18be 0c02 e73d 5f6f 0ebe
00000010: 505b 36be 6712 96be 22de d43d 1b9f 85be
00000020: c850 263e 1ede 6dbd 38f4 813d 77a4 91be
00000030: 8b30 b53d 16cc 2fbf 7a98 0ebe d730 1ebf
00000040: 182d b9bc a41f 65be a0af b93d aa18 fabe
00000050: 945e 22be d436 bfbe 5a52 f4bc f9cb 73be
00000060: e96c 8dbd 6c09 3ebe fdb3 8dba 9be7 0ebf
00000070: 5a20 073e 4e5b c6be 4fe0 53be faca 01be
00000080: 7bdd b0bd a6a2 89be f585 593d 2cfc f93d
00000090: a110 ccbe 1b4d 6dbf 44a4 913e 0eaf c2be
000000a0: 5983 fdbc fe7e 1cbf 92da 803e 229f d8be
000000b0: d26b 17bc 2935 a7be 8207 ab3d 2a9c 443d
000000c0: 78c5 713a 0090 be3d 9b6f a43d 1e9e de3c
000000d0: 9574 c1bd 573b 05bd d243 e53d 2900 a33a
000000e0: 14fd 55bd 12a7 9d3c ee4f 663d e614 b2be
000000f0: e42c 653d 09a7 80be 4460 3abe a091 91bd
00000100: f669 50bd 5460 3cbe 15ac dcbb 0183 803d
0.018520247 -0.14938927 0.11279687 -0.13909672 -0.1780827 -0.29310915 0.10393931 -0.2609795
0.16241753 -0.058073156 0.06345409 -0.2844579 0.088471495 -0.68670785 -0.13925353 -0.61793274
-0.02260451 -0.22375351 0.09066701 -0.48846942 -0.15856391 -0.37346518 -0.029824425 -0.23808278
-0.069055386 -0.18558282 -0.0010811087 -0.5582215 0.13195935 -0.38741535 -0.20691036 -0.12675086
-0.08635994 -0.26881903 0.053106267 0.12206301 -0.39856437 -0.9269578 0.28445637 -0.3802418
-0.03094642 -0.61131275 0.25166756 -0.4230891 -0.009242015 -0.32657745 0.083510414 0.048000492
0.00092228455 0.093048096 0.080290996 0.027175006 -0.094460644 -0.032527294 0.11194576 0.0012435961
-0.052243307 0.019244704 0.05622857 -0.3478157 0.055951014 -0.25127438 -0.18200785 -0.07107854
-0.050882302 -0.18396121 -0.006734381 0.06274987

blocks.3.dense.weight f4 [1, 84]
00000000: d3f3 d93e 1aa7 b23d 6e86 813e 8dc3 583e
00000010: 7376 2cbb 247f eb3d 8233 ea3d a946 cb3d
00000020: 1db9 213e 9a3b 0f3e 60f5 093e ee85 a8bb
00000030: 205d 153e 0a36 453d 296d aa3d 8635 283e
00000040: 436f f6bc f2a3 1f3e 5c97 053e d95d 063e
00000050: ece1 8f3d 267a 043e 5b78 213d 3d53 223d
00000060: 4bcf 5f3e 3d8f 5a3e 048e 7d3c 53c3 b73d
00000070: 3d34 9d3b a1d9 f83d 439b 003e 6437 db3b
00000080: 2452 21be 4399 52bd 1cac 833d 79ad 513e
00000090: 4f28 a5bc af2a 21be 5c91 1cbe 06d4 443c
000000a0: 0196 333e f4c4 183f bc69 043c 67fd bf3e
000000b0: 2f53 de3d f13d 263e ee61 713e 0c24 bb3e
000000c0: 19d6 073e e72d 843e 672b 213e eb35 aabd
000000d0: f694 403e fd3b c73d e829 7f3d 3091 4c3e
000000e0: 1379 103c ce85 e03d 5286 433e 21f1 443e
000000f0: 52b7 003d c18c ab3d 37f5 923d 505f 47be
00000100: 99c1 62be f4e3 25be 6d90 e3bd 93b2 d4bd
00000110: 0533 103e a1a4 6dbd 6d5e 43bd 8a9c 0cbd
00000120: 4463 f73d 321b 0bbd 74be 183d 7bcf 2d3e
00000130: 7e3f 2f3e dbb8 1f3d 7414 ba3d a742 9a3d
00000140: e877 2b3d 88cf 6dbb f004 583d b11a 3fbe
0.42568836 0.08723278 0.25297874 0.21168347 -0.0026315718 0.114988595 0.114356056 0.09925587
0.15793271 0.1398758 0.1347251 -0.005142919 0.14586306 0.04814724 0.08321602 0.16426668
-0.03008235 0.15589884 0.1304602 0.13121738 0.07025513 0.12937221 0.03942142 0.039630163
0.2185642 0.21343704 0.015475754 0.08972802 0.004797487 0.121508844 0.12559228 0.0066899527
-0.1575399 -0.051415693 0.06429312 0.20476331 -0.020160822 -0.15738939 -0.15289825 0.012013441
0.1753769 0.59675527 0.00808185 0.37498018 0.1085571 0.16234566 0.23572513 0.3655094
0.13265266 0.2581627 0.15739213 -0.08311065 0.18806824 0.09728239 0.062295824 0.1997726
0.008817929 0.10963021 0.19094208 0.19232608 0.031424828 0.08376456 0.07175677 -0.19469953
-0.22144164 -0.16200238 -0.111115314 -0.10385623 0.14081962 -0.05801833 -0.047697473 -0.034328975
0.1207948 -0.033961482 0.037291005 0.16973679 0.17114064 0.03899465 0.090859324 0.07532244
0.0418624 -0.0036287028 0.052739084 -0.18662526

linear.weight f4 [1, 5]
00000000: 30a3 95bd d058 043e ce4a cb3e 7783 90be
00000010: 85a1 cdbd
-0.07306516 0.12924504 0.3970551 -0.282253 -0.10040573
