models/100bp_arround_STRends_models/hg38AGGG_.pt (torch, 8520 bytes, 11 tensors)

last_block.conv.weight f4 [1, 1, 10, 4]
00000000: 17c6 e3bb 17db 43bb 91e3 313d 6fb2 bfbd
00000010: ce17 6b3c aa61 953c 8737 d0bd c447 3bbe
00000020: 507d b2bd 016f a0bd e01d 983d bce7 3abd
00000030: 67ef 543e af35 30be b65d 4cbe 484f 08bc
00000040: b6b0 aa3d f8bc 41bd 1ab1 bdbd 49de 46be
00000050: 9139 243e a89c c5bd 504c 1bbe be0d b7bd
00000060: 8a3e b7bd b025 8cbe bf36 61be 26a8 893d
00000070: b5e8 813d 57fe e13c dc66 d8bd 3d81 55bd
00000080: 0dba a53d e23b 45be 458a 9a3d c071 1cbe
00000090: ce9f 163e b98e 64bd b51a fdbd 7dc1 e0bd
-0.0069511044 -0.0029885226 0.043429915 -0.093602054 0.014348937 0.018235046 -0.10166841 -0.18289095
-0.08715308 -0.07833672 0.07427573 -0.045631155 0.2079445 -0.17207979 -0.19957623 -0.008319683
0.08334486 -0.047299355 -0.09262295 -0.19420733 0.16037585 -0.096490204 -0.1516583 -0.08938168
-0.08947475 -0.27372503 -0.2199354 0.06721525 0.063432135 0.027587099 -0.10566494 -0.052125204
0.08092127 -0.19261125 0.07545904 -0.15277767 0.14709398 -0.055800173 -0.123586096 -0.10974405

last_block.dense.weight f4 [1, 91]
00000000: ecdd a73c 5e52 5a3d f2ad 50bd 5127 b2bd
00000010: 03e2 e4bd b444 013d 3915 babd ce25 923c
00000020: 241e 5dbe 59fc 2fbe 7a16 bc3d 579c 11be
00000030: 031c 2dbe 8bfc 8fba ef35 27be 6649 bcbd
00000040: a5e4 8fbd 14c7 5cbe 3b89 01be 166d 84bb
00000050: 1898 c1bd 18e2 293d e551 da3b 583f f33c
00000060: d36c bd3d 23a8 d4bc 370d 44bb 097b dabd
00000070: 6e53 98bd ccc9 1c3a e738 043e 5a12 babc
00000080: 567d 6c3d 7fe8 333d 8f05 4d3d 0f02 be3d
00000090: 9f45 99bc b4fb 51bd e96b 19bd c259 1d3a
000000a0: e71c 1a3d 50ca d63c 17df 563d 55b9 b1bc
000000b0: 370c 1a3d da7b b83d 7d25 e9bd 4f72 6abd
000000c0: de7d a9bd e900 d0bd 1543 e0bd a223 d73a
000000d0: ff97 15bd 7297 bfbd 43c3 49bd d135 5f3d
000000e0: 3347 33bd d6a5 4c3d bb5a 613d ce05 013e
000000f0: 97b0 893d cc8a 45bc bc4c 37bc 5e76 cf3b
00000100: 849e cebd 6bfb 1cbe 4926 ec3c 57b9 683d
00000110: 014f d1bd 3a83 5dbd 4c11 8dbc f450 073d
00000120: 70d1 c4bc 4feb 343e 529f 03be 4c13 ecbd
00000130: 36bd 0cbe 7f9a 33bd f580 f3bd a8a0 bfbc
00000140: 057c 1d3d ba87 b4bd aa96 d83d 399e 5c3e
00000150: 0d5f 1ebe 7875 f8bd ee1c 1e3d 3683 6abd
00000160: d539 0d3d 55d2 3e3c 576e 39bd
0.020491563 0.053301208 -0.050947137 -0.08698905 -0.11175921 0.03155966 -0.09086079 0.017840292
-0.21593529 -0.17186107 0.091839746 -0.14219795 -0.16905217 -0.0010985298 -0.16329168 -0.09193687
-0.07026032 -0.21560317 -0.12650006 -0.0040413244 -0.09452838 0.041475385 0.0066625946 0.02969329
0.09249272 -0.02595908 -0.0029915103 -0.10667998 -0.07437788 0.0005980998 0.12912332 -0.022713829
0.057736717 0.043922897 0.05005413 0.092777364 -0.018709956 -0.051265433 -0.037456427 0.00060024497
0.03762522 0.026219517 0.05245885 -0.021694819 0.037609305 0.09007998 -0.113841034 -0.05723792
-0.082759604 -0.101564236 -0.10950295 0.0016413818 -0.036521908 -0.09355058 -0.04925848 0.054494683
-0.043769073 0.04996284 0.055018168 0.1259987 0.06723135 -0.012057018 -0.0111877285 0.006331249
-0.10088828 -0.15330283 0.02882685 0.05681738 -0.10220147 -0.054080226 -0.017220162 0.033036187
-0.024025649 0.17667888 -0.12853745 -0.11527118 -0.13744053 -0.04384851 -0.11889831 -0.023392037
0.038448352 -0.0881495 0.10575612 0.21544732 -0.15465946 -0.121317804 0.03860181 -0.05725404
0.03447898 0.011646827 -0.045271244

blocks.0.conv.weight f4 [1, 1, 10, 4]
00000000: 3020 92be 9088 abbe b022 74be 8799 a4be
00000010: e043 39be c810 80be 11c5 6dbe 7081 b9be
00000020: f721 643c 5d14 9fbe 8ca9 cdbe e46f b3be
00000030: 7189 953d 66be e5bd a7d3 8cbe 49a8 dabd
00000040: a091 ecbc 5269 e5be 49f5 bcbe f345 01be
00000050: 0f3f c8bd 28ab 8dbe 6618 9fbe c12f a9be
00000060: d2df e0bc c25b 33be c009 4fbe 3075 6ebe
00000070: 885d 81be 044b c2bd d8f7 53be 2f8c bd3d
00000080: 668b babe bb15 8abe 00b4 40be f137 39bd
00000090: 45e3 f1bc 3638 bbbe 1a3d 6cbe 5df7 20be
-0.28540182 -0.33502626 -0.23841357 -0.32148382 -0.18092299 -0.25012803 -0.23219706 -0.36231565
0.0139241135 -0.31070223 -0.40168417 -0.35046303 0.073016055 -0.11217956 -0.27505228 -0.10676629
-0.028878033 -0.44806916 -0.36905888 -0.1262434 -0.097776525 -0.27669644 -0.31073302 -0.33044246
-0.027450476 -0.17515472 -0.20218563 -0.23286891 -0.2526667 -0.09486964 -0.20700014 0.092552535
-0.36434478 -0.26969704 -0.18818665 -0.045219366 -0.029527316 -0.36566323 -0.23070183 -0.15719362

blocks.0.dense.weight f4 [1, 91]
00000000: f6a1 603e 92cc 803e 8568 793e c11e 893e
00000010: fe09 d53d cf70 763e 1124 463e 0261 183e
00000020: 652b 813e 503f 443e 43c5 823e 5722 9d3e
00000030: cf2e 843e 8ed2 913e 2d94 4a3e 3c40 263e
00000040: f5f8 503e 06a2 6d3e 271f 7b3e c3d1 8a3e
00000050: 4d29 683e 7337 4e3e 4146 683e 2d3e 1b3e
00000060: d083 f63d 99c5 603e f4cb 213e 559d 823e
00000070: ceab 1f3e 02e9 453e f852 0c3e 9b64 8d3d
00000080: e7d3 1f3e 88f4 503d 99e7 f23d ecfe 443e
00000090: aa43 373d 9b12 643d 546b 503e c2fc b33d
000000a0: 0ce6 393e ace3 db3d 9eec a03d a237 1d3e
000000b0: 7be0 7a3d dd7f 513e b5f1 603d a2ec bfbc
000000c0: 7b03 2bbd eced 15be 6811 92bd cd05 503d
000000d0: 991f 343c 8951 953c 08eb 7b3d ec68 9f3d
000000e0: 0567 283d e968 e53c 9df0 b73d 4efd ef3d
000000f0: 356e c73d 1cdb 103d 5f2c 80bd 0562 793c
00000100: b483 d83d 3408 213e 53d4 f83d 956c 583e
00000110: 065d 903d 094f 543e af0a 833e 9e38 0f3e
00000120: 69d9 ff3d d992 b93d 07aa 183e 38ad ac3d
00000130: 4018 393e 8775 903e ff7a 813d b32b 543e
00000140: 5149 833e 4cb9 233e 718e 113e 0b4b 483e
00000150: 3bcd 2e3e 5174 903d 1e3c 283e 3f28 7e3e
00000160: 27fd 833e 9d7b 863e 281b 923e
0.21936783 0.25156075 0.24356277 0.26781276 0.104022965 0.2406647 0.19349696 0.14880756
0.2522842 0.19164777 0.25541124 0.30690262 0.25816962 0.28480953 0.19783087 0.16235441
0.2040747 0.23206338 0.24523602 0.2711316 0.22672005 0.2013834 0.2268305 0.15160437
0.1203686 0.21950378 0.15800458 0.2551066 0.15592882 0.19327167 0.13703525 0.069039546
0.15608178 0.051014453 0.1186058 0.1923787 0.044742264 0.055681806 0.20353442 0.08788444
0.18154162 0.10736784 0.07857631 0.15353253 0.061249238 0.20458932 0.05491801 -0.023428265
-0.041751366 -0.14641541 -0.07132226 0.050786782 0.010993862 0.018227356 0.06150344 0.07783684
0.041113872 0.028004127 0.0898144 0.11718236 0.09737817 0.03536521 -0.06258463 0.015221124
0.105719954 0.15725785 0.12149873 0.21135171 0.07048993 0.20733275 0.25594088 0.13986441
0.124926396 0.09061212 0.1490861 0.08431476 0.18075657 0.28214666 0.06322288 0.20719795
0.25641873 0.15988654 0.14214493 0.19559877 0.17070477 0.070534356 0.16429183 0.2482004
0.25779077 0.26266184 0.28536344

blocks.1.conv.weight f4 [1, 1, 14, 4]
00000000: 0c2c 00bd 9f38 503e 6cd2 0ebd 582a 94be
00000010: cd14 c8bd a956 dbbe ef61 263e b9f7 c1be
00000020: fa80 9ebd f87f a23e 8e8f 3abe 53e2 bfbd
00000030: 67b9 043e 3aa5 acbe d035 183e 2e5e 82be
00000040: db1e 3ebe 4465 96be 6e4e 043e 655b 9ebe
00000050: 9f1f abbd a283 fb3e dd7d ecbd d67b bbbe
00000060: 6cc8 11be cdaa 4fbe 7181 383e edbb fd3c
00000070: 63e0 37be b490 af3d 8841 383d dcce 78be
00000080: 18d2 b7bd 424d 8b3e f9d2 c0bd 6959 29be
00000090: eac4 41be 31c5 dbbd c4c7 903d 5c8e 9cbc
000000a0: 23c0 1b3e f1bd dbbe 50f7 443d a69a 61bd
000000b0: f774 c6be f1bd 283e 256e 083e 1f09 febe
000000c0: ecad 22be cc69 423f 93ac 4dbf ff82 943e
000000d0: 245e 90be 855b 36bf 540b c23e 7100 80be
-0.031292006 0.20334099 -0.034868643 -0.28938556 -0.097695924 -0.42839554 0.16248296 -0.3788431
-0.07739444 0.31738257 -0.18218824 -0.0936934 0.1296135 -0.33719808 0.14864278 -0.25462478
-0.18566458 -0.29374135 0.12920544 -0.30929103 -0.083556406 0.49123865 -0.11547444 -0.36617917
-0.14236611 -0.20279999 0.18018128 0.030973399 -0.1795669 0.08572522 0.04498437 -0.2429766
-0.08975619 0.2720738 -0.0941524 -0.16538014 -0.18922773 -0.10730971 0.07069352 -0.019110851
0.15210013 -0.4291835 0.048087418 -0.055079125 -0.38761112 0.16478707 0.13323267 -0.49616334
-0.15886658 0.75942683 -0.8034145 0.29006192 -0.28196824 -0.712334 0.37899268 -0.25000337

blocks.1.dense.weight f4 [1, 87]
00000000: 680d 373e f3ad 123c 1d1f ecbb dc28 9cbd
00000010: e80e 933d 9add c1bb 8dcc d13d 0bd8 b43d
00000020: bdf2 7d3d 3142 2cbc 8203 bc3d d4b0 2ebe
00000030: d42c 003e a593 003e 7f47 59be 74e5 e8bd
00000040: 6566 6dbd 4d8c 793e 9fd4 6c3d 4172 ac3d
00000050: 9331 d63d b335 4b3e d17c 273d 206e 513e
00000060: a0c8 aa3e 4bd2 0b3e 85d3 373e 12d8 043e
00000070: dfc8 c43e 6944 813e 2728 7c3d 354f eebb
00000080: e841 853c 5426 363e 9dc1 073e 54c8 2bbe
00000090: dbec 5c3d 0655 3cbd 18b1 223f 2c32 093f
000000a0: a852 9c3e 0e8d d53e 7d0a 0c3f 9260 873e
000000b0: 0171 a03e 738e 8d3e 6b8b fb3e 59f0 823e
000000c0: 5544 533e bb41 933e 0660 673e dc89 ac3e
000000d0: 8846 2b3e ad88 fa3e c48a c83e ea60 203e
000000e0: e554 543e 9ea0 a93e eb0c c13d 5e44 eb3b
000000f0: 3115 523e b2e9 dd3e 16c2 b73e 10d1 673e
00000100: 3c7d 643d b225 83bc ff35 973e 4cb0 fd3d
00000110: a681 423e 9217 163e f03a 663e 0060 0f3d
00000120: 7700 bd3e 896c 1f3e 0219 253e 0569 e33d
00000130: 60c5 5e3e 2c5d d63d 065a b73d 929f f73d
00000140: 5946 013d f3bb 65bc 1020 c73d c717 4c3e
00000150: 7c56 883d 56b7 883e 5189 64ba
0.17876208 0.008952606 -0.0072058574 -0.07624981 0.071805775 -0.0059163095 0.10244093 0.088302694
0.06199907 -0.010513828 0.091803566 -0.17059642 0.125171 0.12556322 -0.2121868 -0.1137189
-0.05795898 0.24369927 0.05781996 0.0842023 0.10458674 0.19844703 0.04089052 0.20452166
0.3335619 0.13654439 0.17951782 0.1297305 0.38434502 0.25247505 0.06156173 -0.007272626
0.016266778 0.17788059 0.13257451 -0.16775638 0.05393682 -0.045979522 0.63551474 0.5359218
0.30531812 0.4170918 0.54703504 0.26440865 0.31336215 0.27647743 0.49129805 0.25573996
0.20631535 0.28761086 0.22595224 0.33698928 0.16726124 0.489324 0.3916837 0.1566197
0.2073551 0.33130354 0.09426292 0.007179781 0.20515896 0.43342358 0.35890263 0.22638345
0.055783495 -0.016009185 0.29533383 0.123871416 0.1899477 0.14657429 0.2248342 0.035003662
0.36914417 0.15568747 0.16122821 0.11104015 0.2175498 0.1046699 0.089527175 0.120909825
0.03156123 -0.014021861 0.09722912 0.19930945 0.066571206 0.26702374 -0.00087179715

blocks.2.conv.weight f4 [1, 1, 5, 4]
00000000: afbb a2be 444e 9cbe 8fb5 bb3d 0798 4b3e
00000010: 77a7 873d b960 4bbe 1805 4cbe 2900 0e3d
00000020: 62bd 66bd b64a 18be ff97 fcbd 7a41 0ebe
00000030: c6b9 9ebd ff8b 29be f589 9b3e 315e 913d
00000040: 7d8a 603d 9c66 f73e 3d19 d5be 6615 0c3e
-0.31783816 -0.30528462 0.09165489 0.19882213 0.06623738 -0.19861116 -0.19923818 0.03466812
-0.056332953 -0.1487225 -0.123336785 -0.13892165 -0.07750277 -0.1655731 0.3037869 0.07098044
0.054819573 0.48320472 -0.41620818 0.13680038

blocks.2.dense.weight f4 [1, 96]
00000000: 68f3 9d3c c906 efbd a822 febd 62d6 59be
00000010: aa21 90be 75e6 b8be 5d82 61be cbc7 8abe
00000020: 9ea4 15be 0f07 86be 6663 53be c59b 53bd
00000030: 8ded 7abd 16b8 3abd b76a 04be 3f04 15be
00000040: 0470 57be 6675 7cbd 9ff2 64be 30df a0be
00000050: bc72 5abe 6b83 6abe 8525 0bbe 4cd0 b63c
00000060: a943 91be eeab 7cbe 9e0c b0be e019 d1bd
00000070: 5a35 88bd 9787 10be af34 bbbe 9db6 883c
00000080: 30d8 d43c 0bf0 b8bd bb79 85be 218e c3bc
00000090: 870c 903d 024a cc3d ad14 21bc a1a1 8ebe
000000a0: db39 3c3e 0729 8abd 25ab 48bd 494e 22bc
000000b0: ca02 20bf 4205 b1be 62cd c8be ce88 1bbd
000000c0: 1fda a3be 4c68 1ebe 8d79 29bd f0b0 03bf
000000d0: 72f0 a0be 4df5 f2be 402b b6bd 6bf4 88be
000000e0: be1d 9cbe dffc a4be 31cd 94be 53d0 f7bd
000000f0: de0c c1bd eb91 9bbd 82df 71be ae70 81be
00000100: 6e2c e0bd d2f7 38be d65f 6cbe 07ea 47be
00000110: dd2e 27be b4eb 48be 7927 29bd fc2c 8fbe
00000120: 651d 82be 37f8 f7bc 6c5d cc3c 3eef 07be
00000130: f761 55bd 471d 6cbd f490 00be bd61 e9bc
00000140: 8f24 3e3d fa55 823d b77f 65bd 0b98 383e
00000150: aed4 333d e5b5 85bd 7a7f 713e 49be 963c
00000160: c42a 313d 216f 1bbd e859 8a3d c610 883d
00000170: 2c1b aabd a2f9 263e e99e 4b3d 2556 cb3b
0.019281104 -0.11671216 -0.12408954 -0.21273187 -0.28150684 -0.36113325 -0.22022386 -0.27105555
-0.14613578 -0.2617726 -0.20643386 -0.051662225 -0.061261702 -0.045585714 -0.12931333 -0.14552401
-0.21038824 -0.061635397 -0.22358178 -0.3142028 -0.2133283 -0.22901694 -0.13588531 0.02231612
-0.28371933 -0.24674961 -0.34384626 -0.102100134 -0.06650801 -0.14114223 -0.36563632 0.01668864
0.025981992 -0.090301596 -0.26069435 -0.023871483 0.070336394 0.09975053 -0.00983159 -0.27857688
0.18381445 -0.067461066 -0.04899134 -0.00990636 -0.62504256 -0.34574324 -0.39219195 -0.037972264
-0.3200235 -0.15469474 -0.041375685 -0.5144186 -0.31433445 -0.47452775 -0.08894968 -0.26748976
-0.3049144 -0.32224175 -0.290628 -0.121002816 -0.09426282 -0.07596191 -0.23620418 -0.2528128
-0.10945974 -0.18063286 -0.23083434 -0.19522868 -0.1632647 -0.19621164 -0.04129741 -0.27964008
-0.2541305 -0.030269725 0.02494689 -0.13274857 -0.05209538 -0.05764511 -0.12555295 -0.028488988
0.046421584 0.06364055 -0.05603 0.1802675 0.043904 -0.06528834 0.23583785 0.018401282
0.043253675 -0.037947778 0.067554295 0.06643824 -0.08305964 0.16306165 0.049712095 0.0062053376

blocks.3.conv.weight f4 [1, 1, 7, 4]
00000000: 9baf c6bd 2c55 02be 5979 15be c464 a1bc
00000010: 0106 3fbe 0834 0fbe 1ee1 40bd ec01 31be
00000020: 4ab3 e4bd 913e edbc d4fe 2bbe f72d 85be
00000030: ac88 8cbd 7947 9dbe 0c13 2abd 53fa 5abe
00000040: 98bb cabd 3805 b3bb 8cc8 0dbe 2992 c2be
00000050: 1045 5abe ecbf 23be 62d8 52bd af17 adbe
00000060: d08c a1be 4c91 95be b3a5 b2bd 4d1f a8be
-0.09701463 -0.12727803 -0.14597072 -0.01970137 -0.18654634 -0.13984692 -0.04708969 -0.1728589
-0.11167009 -0.028960498 -0.16796428 -0.2601163 -0.068620056 -0.30718592 -0.04152207 -0.21384554
-0.09899062 -0.0054632686 -0.13846034 -0.38002136 -0.21315408 -0.15991181 -0.05147589 -0.33807132
-0.31552744 -0.29212415 -0.08723011 -0.3283638

blocks.3.dense.weight f4 [1, 94]
00000000: 7c85 6a3e 6182 0d3e 0bf1 cb3d ceb1 343e
00000010: 9480 ed3d 7f3d 613e f34b a43d 4e51 003e
00000020: 702d 893d d6e1 6b3e 5461 243e c400 353e
00000030: 60b5 183e b674 3d3e 9206 1c3e 7592 fd3d
00000040: 6c65 403e 227e fa3d e793 643d 1bdf d23d
00000050: d6d8 143e 21c5 1b3e c51b 303e 2d99 ae3d
00000060: 97bb 1c3e c9f4 2c3e 2785 943d 5ad1 803e
00000070: 1045 cf3d f6c2 2e3e d3e8 093e 6bdb ff3d
00000080: 099a 6c3d 322e 243e ed20 5a3e 9f1b ec3d
00000090: 6dcf ce3d 0d2c 6c3e 80ae 7f3e 760e b13d
000000a0: 03f0 983d 2e6f 7d3d 11f0 d53d 90aa 323e
000000b0: 5b0f d73d 268c 363e 96a0 1a3e 7bc2 c73d
000000c0: 8d1c 633e f6d6 b63d be81 413e 6c1c 993d
000000d0: c7b6 ab3d 7f98 e23d 3889 463d c776 cf3d
000000e0: c503 933d 03e8 5d3e f74c 0d3e 44f4 423e
000000f0: 4490 863d 762e eb3d f748 073e ecff 243e
00000100: ac1f 203e f538 293e e07e 6a3d 27cf 103e
00000110: 877d cc3d 81b3 193e 2ea9 5b3e 2298 563e
00000120: 4d3b 033e cc5a 7f3d f905 213e a082 583e
00000130: d98d 2d3e a6f4 433e 4d9c 4e3e cd62 063e
00000140: 5050 2f3e 4618 e93d 284b c03d 0b03 713e
00000150: ea21 363e f7a6 513e 9671 f43d 7bf0 933d
00000160: 7fe2 523e 6a08 993d a57e 2f3e 6034 013e
00000170: 515d 7f3e 35ad 463e
0.22902483 0.13819267 0.09958085 0.17645952 0.1159679 0.21996115 0.08022299 0.12531015
0.0669812 0.23035368 0.16052753 0.17676073 0.14912939 0.18501553 0.15236881 0.1238145
0.1878869 0.12231089 0.055805113 0.1029646 0.14535841 0.15211917 0.17198093 0.0852531
0.15305935 0.16890253 0.07251959 0.25159723 0.101205945 0.17066559 0.13467722 0.124930225
0.057764087 0.16033247 0.21301623 0.11528706 0.10098157 0.23063679 0.2496891 0.08645336
0.074676536 0.061873607 0.1044618 0.17447877 0.10500976 0.178269 0.15100321 0.09753891
0.2217886 0.08927719 0.18897149 0.07476124 0.083844714 0.110642426 0.048470706 0.10130077
0.07178453 0.21670537 0.13798891 0.19038492 0.06570485 0.11483471 0.13211428 0.16113251
0.15637082 0.16525634 0.057249904 0.14141522 0.0998488 0.15009882 0.21451256 0.20956472
0.1281559 0.06234245 0.15724935 0.2114358 0.16948642 0.19136295 0.20176812 0.13123627
0.1712048 0.11381583 0.09389335 0.23536317 0.17786375 0.20473848 0.11935727 0.072236024
0.20594214 0.07472308 0.17138155 0.12617636 0.24937941 0.1940201

linear.weight f4 [1, 5]
00000000: a0fb 1bbe 6dd1 a03c b1ad 383e 507c 81be
00000010: 1b4f 073e
-0.15232706 0.019631112 0.18035008 -0.25290155 0.1321377
