models/100bp_arround_STRends_models/hg38CATT_.pt (torch, 9955 bytes, 13 tensors)

last_block.conv.weight f4 [1, 1, 13, 4]
0	0xbe00148d	-0.1250784
1	0x3dc0d50f	0.09415638
2	0xbe8a8d41	-0.27060893
3	0xbe14f842	-0.14547828
4	0xbd956621	-0.0729487
5	0xbde550a0	-0.111970186
6	0xbdbf3976	-0.09337132
7	0x3c5f92dc	0.013645854
8	0xbe3d3804	-0.184784
9	0xbe3bbd16	-0.1833385
10	0x3de28b9d	0.11061785
11	0xbe26096d	-0.16214533
12	0xbd3901ba	-0.045167662
13	0x3d4faf7d	0.050704468
14	0xbe2ea0bf	-0.17053507
15	0x3de20304	0.110357314
16	0xbe20cf9d	-0.15704198
17	0xbe0835b2	-0.13301733
18	0x3dbd6121	0.092470415
19	0x3cdf117b	0.027230015
20	0x398627ce	0.00025588128
21	0x3e1ae218	0.1512531
22	0xbeaea5e8	-0.3411095
23	0x3d07eaaf	0.033182796
24	0xbe0a8272	-0.13526323
25	0xbe0b4013	-0.13598661
26	0x3d82c0ac	0.063844055
27	0xbc7c89fe	-0.015413759
28	0xbe209940	-0.1568346
29	0x3da3a3c2	0.07990219
30	0xbd8abe9e	-0.067746386
31	0xbe3a0e51	-0.18169524
32	0xbdaf6664	-0.08564451
33	0xbdfebbc6	-0.12438159
34	0xbdf28f63	-0.11843755
35	0x3e409d18	0.18809927
36	0x3e19be54	0.1501401
37	0xbd94beae	-0.07262932
38	0xbd352f37	-0.04423448
39	0xbe2955c5	-0.16536625
40	0xbd6bd787	-0.05757859
41	0xbd32bc10	-0.04363638
42	0x3d4abcc5	0.04949643
43	0xbd2c4c79	-0.042065118
44	0x3dc1a968	0.0945614
45	0x3d7b9350	0.061419785
46	0x3db90b40	0.09035349
47	0xbc9a8a9a	-0.018864919
48	0x3dedc933	0.11610641
49	0xbe599237	-0.21247183
50	0x3d31074a	0.043219842
51	0xbd4e2a7d	-0.05033349

last_block.dense.weight f4 [1, 88]
0	0x3d6889b9	0.056771968
1	0x3dcf853d	0.10132835
2	0xbdb13b92	-0.0865394
3	0x3dc245e7	0.09485989
4	0x3df96ebb	0.12179323
5	0xbcc73e9f	-0.024321852
6	0xbd831af2	-0.06401624
7	0xbd9ca9a4	-0.07649544
8	0xbd2270be	-0.0396583
9	0x3dad48e1	0.08461166
10	0x3d291a67	0.041284945
11	0xbcb34964	-0.021885581
12	0xbd9a6776	-0.07539265
13	0x3c56a251	0.013100223
14	0xbd559c6d	-0.052151132
15	0x3db931f5	0.09042732
16	0x3e10b61c	0.14131969
17	0xbe605b3b	-0.21909802
18	0xbd789a82	-0.060694225
19	0xbd46c28b	-0.048525374
20	0xbe83f498	-0.25772548
21	0xbdfdc19b	-0.12390443
22	0xbd1af855	-0.037834484
23	0xbe26a74c	-0.16274756
24	0x3d21f92b	0.039544266
25	0x3e236d14	0.15959579
26	0x3c3a23bd	0.01136106
27	0xbe05e39e	-0.1307511
28	0x3c29a340	0.010353863
29	0xbd9e29c5	-0.07722811
30	0xbe179397	-0.14802395
31	0x3b300935	0.0026860957
32	0x3d2dae90	0.042402804
33	0x3d103827	0.0352098
34	0xbc4d2df4	-0.012523163
35	0xbb895f98	-0.004192304
36	0x3c804b52	0.015660916
37	0xbde95217	-0.113926105
38	0x3bb026d7	0.005375724
39	0xbd099941	-0.03359342
40	0xbcb1f5ba	-0.021723617
41	0x3c8edb4e	0.017438557
42	0xbc898896	-0.016788762
43	0xbe029341	-0.12751485
44	0x3ca50c09	0.02014734
45	0x3da3d7d6	0.08000152
46	0x3d8cf6aa	0.06882985
47	0xbda04fea	-0.078277424
48	0x3dc74320	0.097296
49	0xbd8f13c9	-0.069861956
50	0x3dbbc81b	0.091690265
51	0xbd575e67	-0.052580263
52	0xbe5b736a	-0.21430746
53	0x3d9d7122	0.07687594
54	0xbceec9ed	-0.02914902
55	0x3e29563b	0.165368
56	0x3d236c27	0.039898064
57	0xbddfd095	-0.10928456
58	0xbdd3133e	-0.103064045
59	0x3de3bdb0	0.111201644
60	0xbdccbb8c	-0.09996709
61	0xbd29d0a8	-0.041458756
62	0xbbb50de3	-0.005525337
63	0xbe858a37	-0.26082012
64	0xbdf63553	-0.120218895
65	0x3e014d71	0.12627198
66	0xbd723736	-0.059134685
67	0xbdec6131	-0.11541975
68	0xbe49e631	-0.19716717
69	0x3db119e9	0.0864752
70	0x3d9ad684	0.07560447
71	0x3bd8c9f3	0.006615871
72	0x3da1c3b4	0.078986555
73	0x3d5f4b08	0.054514915
74	0xbd52d915	-0.051476557
75	0xbea109b4	-0.31452715
76	0xbe5c568c	-0.2151739
77	0xbe2729a3	-0.16324477
78	0xbe2a2692	-0.16616276
79	0x3c87e454	0.016588368
80	0x3d076e31	0.03306407
81	0xbbb8d996	-0.0056411726
82	0x3ac1ee66	0.001479578
83	0x3b54926f	0.0032435914
84	0x3d0e1003	0.03468324
85	0xbd4e714a	-0.05040101
86	0x3e5da7e1	0.21646072
87	0x3b9d0144	0.0047914106

blocks.0.conv.weight f4 [1, 1, 2, 4]
0	0xbee4b5de	-0.44670004
1	0x3dc97c1b	0.09838124
2	0x3e531859	0.20614757
3	0x3c5a06b2	0.01330726
4	0x3e9d0d78	0.30674338
5	0xbdc8a3c0	-0.09796858
6	0xbed23186	-0.41053408
7	0x3e88d686	0.26726168

blocks.0.dense.weight f4 [1, 99]
0	0xbe6e9ae9	-0.23301281
1	0xbd07aed0	-0.0331257
2	0x3dcaa5b7	0.09894889
3	0xbccc9faa	-0.024978478
4	0x3c033cfd	0.008010146
5	0xbceeb393	-0.029138362
6	0x3c81d2b2	0.015847538
7	0xbe26d228	-0.16291106
8	0xbd3c6319	-0.045992944
9	0x3da54fa4	0.08071831
10	0x3dcdc2b5	0.10046903
11	0xbe0eebdc	-0.1395716
12	0xbdf203eb	-0.118171535
13	0x3cf700fe	0.03015184
14	0xbcfaedf3	-0.030631041
15	0xbe1b9a54	-0.1519559
16	0xbe13072d	-0.14358206
17	0xbd0143e9	-0.031558905
18	0xbde92612	-0.113842145
19	0xbd545daa	-0.051847138
20	0x3d69038e	0.056888156
21	0xbe01e2a3	-0.12684111
22	0x3cc68078	0.02423118
23	0xbd67f951	-0.05663425
24	0x3dff4696	0.12464635
25	0xbe52d1aa	-0.20587793
26	0x3e193879	0.14962949
27	0x3e147072	0.1449602
28	0x3d672992	0.05643613
29	0xbcd95533	-0.026529884
30	0xbd843be1	-0.064567335
31	0x3c14e478	0.009087674
32	0x3db94cf0	0.09047878
33	0x3ce774bc	0.028253905
34	0x3e9c7ca9	0.30563858
35	0x3e5d63e5	0.21620138
36	0x3e17393c	0.14767927
37	0x3e01229e	0.12610862
38	0xbd80bfa3	-0.06286552
39	0x3da99d39	0.08281941
40	0x3cc67929	0.024227696
41	0x3d9711b2	0.07376422
42	0x3d182a01	0.037149433
43	0x3d328a0d	0.043588687
44	0x3e3db8bd	0.18527503
45	0x3ddcfde3	0.107906125
46	0x3d85a74c	0.0652605
47	0x3d4d6da4	0.05015339
48	0x3e84e285	0.2595407
49	0x3ddd24ef	0.1079806
50	0x3ecae992	0.39631325
51	0x3e954a58	0.29158282
52	0x3ea6edb9	0.32603243
53	0x3ec0fabc	0.37691295
54	0x3f09c974	0.5382302
55	0x3ed91ab4	0.42403185
56	0x3ef14e49	0.4713004
57	0x3ee5db1b	0.44893727
58	0x3eb6cbb8	0.357023
59	0x3ed638bf	0.4184017
60	0x3ecf0837	0.40435955
61	0x3ec7f76c	0.39055955
62	0x3f0548a1	0.5206395
63	0x3e9c23fa	0.30496198
64	0x3e687b65	0.22703321
65	0x3ec949f1	0.39314225
66	0x3ef61272	0.48060948
67	0x3f097d68	0.5370698
68	0x3eb2a4f4	0.34891474
69	0x3eceaac5	0.40364662
70	0x3eaa8962	0.3330794
71	0x3e8387b3	0.25689468
72	0x3ea944a1	0.33060172
73	0x3e868044	0.26269734
74	0x3e5f87fe	0.2182922
75	0x3e73264e	0.23745081
76	0x3bf54884	0.007485451
77	0x3eab8dfc	0.33506763
78	0x3e7efd91	0.24901415
79	0x3e28b7b9	0.16476335
80	0x3dff987a	0.124802545
81	0x3e107ef3	0.14110927
82	0x3d4fc20e	0.050722174
83	0x3de3837a	0.111090615
84	0x3d89a31c	0.06720564
85	0x3bbbd1e1	0.0057318066
86	0xbcb10d3a	-0.021612752
87	0x3d94b126	0.07260351
88	0x3e618d17	0.22026478
89	0x3d3d0e88	0.046156436
90	0x3de540ec	0.111940235
91	0x3e1adaad	0.1512248
92	0x3dcf1396	0.101111576
93	0x3e361536	0.17781529
94	0x3db07800	0.08616638
95	0x3dad9ed9	0.084775634
96	0x3b72554c	0.003697711
97	0xbd0d1e97	-0.034453
98	0xbd4c9734	-0.049948886

blocks.1.conv.weight f4 [1, 1, 11, 4]
0	0xbd0b8831	-0.03406543
1	0xbac51be2	-0.0015038217
2	0xbdcf14ac	-0.10111365
3	0xbb2ac9ac	-0.0026060147
4	0xbddda756	-0.108229324
5	0xbe30eab6	-0.17277035
6	0xbd335de0	-0.043790698
7	0xbe748153	-0.23877458
8	0xbcf72449	-0.03016867
9	0x3d285da8	0.041104943
10	0xbdcb826b	-0.09936985
11	0xbdbc24ff	-0.09186744
12	0xbe6bc2fe	-0.23023602
13	0xbe07cf5d	-0.13262697
14	0xbddf1dcf	-0.108943574
15	0xbdc8ee54	-0.098110825
16	0xbe3ed97a	-0.18637648
17	0xbdcfd256	-0.1014754
18	0xbc5ca409	-0.013466843
19	0xbde79abc	-0.1130881
20	0xbd296cd3	-0.04136355
21	0xbe4c3fd3	-0.19946222
22	0x3d10c664	0.03534545
23	0xbe013894	-0.12619239
24	0xb9f48c83	-0.00046643996
25	0xbda0fa47	-0.078602366
26	0xbe374a52	-0.17899445
27	0xbdc7e5ed	-0.09760652
28	0xbe0e2504	-0.13881308
29	0xbd28b40d	-0.041187335
30	0xbd212d6e	-0.039349966
31	0x3b509ef2	0.003183302
32	0xbd69e5fd	-0.0571041
33	0xbe8f45af	-0.27982852
34	0x3c194a3c	0.009356078
35	0x3cb648e3	0.022251552
36	0xbe4efc49	-0.20213427
37	0xbe6db21c	-0.23212475
38	0xbda4ab1a	-0.080404475
39	0x3d72e901	0.05930424
40	0xbe8946bf	-0.26811787
41	0xbe27bd9e	-0.16380927
42	0xbe2ac31c	-0.16675991
43	0xbe0ca06b	-0.1373307

blocks.1.dense.weight f4 [1, 90]
0	0x3d2206e5	0.039557356
1	0xbcfa5c96	-0.030561727
2	0x3bd4a948	0.0064899065
3	0x3b707a7b	0.0036694098
4	0xbda67775	-0.08128253
5	0xbcd5af1d	-0.026084477
6	0xbd7f7df8	-0.062375993
7	0xbd06e7ef	-0.032936033
8	0xbd8cfdaf	-0.06884324
9	0x3c852e58	0.01625745
10	0xbd90bca6	-0.07067232
11	0x3d96b5b9	0.073588796
12	0xbc8a8433	-0.01690874
13	0xbdc23b55	-0.09483973
14	0x3d90b594	0.07065883
15	0x3cca83b0	0.024720997
16	0x3d039b7f	0.032130715
17	0x3d484181	0.048890594
18	0x3cac44ee	0.021028962
19	0x3c0a48bf	0.008440196
20	0x3c54d344	0.012989823
21	0x3cff2762	0.031146709
22	0x3d9ee840	0.07759142
23	0x3d9216eb	0.071332775
24	0xbbe3740a	-0.006941323
25	0xbca42cc2	-0.020040873
26	0xbd5dd7f9	-0.054161046
27	0x3bd89e0c	0.0066106375
28	0xbbdf57c5	-0.006815883
29	0x3dc11b5e	0.09429048
30	0x3d8fa223	0.07013347
31	0x3c43f728	0.011960782
32	0xbc6b7252	-0.014370518
33	0x3de4c99b	0.11171266
34	0x3df40b96	0.11916272
35	0x3be76db0	0.0070626363
36	0x3deb31b0	0.114840865
37	0x3dd4835e	0.10376619
38	0x3d85086e	0.064957485
39	0x3daa0979	0.08302588
40	0x3c1cf493	0.009579795
41	0x3dfc2cb6	0.123132154
42	0xbc5bcbd5	-0.013415297
43	0xbcaffdfb	-0.021483412
44	0x3dcbfbb7	0.0996012
45	0x3ce31b95	0.027723113
46	0x3d3d3153	0.046189617
47	0x3c9acf43	0.018897658
48	0x3d87533d	0.06607673
49	0x3dba88a5	0.09108094
50	0xbca5a8c9	-0.020222085
51	0xbda6d51a	-0.08146115
52	0x3cc9a623	0.024615353
53	0x3c989baa	0.018628914
54	0x3b804507	0.0039144787
55	0x3d9a0102	0.075197235
56	0xbd076a83	-0.033060562
57	0x3d21ec41	0.03953195
58	0x3bb168ee	0.00541412
59	0x3cc844bc	0.024446838
60	0x3d4def1e	0.050276868
61	0x3d95ff18	0.07324046
62	0xbd5260e8	-0.05136195
63	0x3d889802	0.06669618
64	0x3aa4213a	0.0012522109
65	0x3d1c17a0	0.038108468
66	0x3d7b42ec	0.06134312
67	0xbd42172e	-0.047385387
68	0x3c6f3031	0.014598892
69	0xbdd0b3da	-0.10190554
70	0x3d7d7f86	0.061889194
71	0x3d660295	0.056154806
72	0x3b4f32d5	0.0031615992
73	0xbca980ae	-0.020691242
74	0x3d8c4197	0.06848448
75	0xbb68d511	-0.0035527388
76	0x3d3ac73f	0.045600172
77	0x3ceb5315	0.02872614
78	0x3da84185	0.08215622
79	0x3c3eca67	0.011644936
80	0x3d53fc9d	0.051754583
81	0xbd63ad5e	-0.055585258
82	0x3b61da7e	0.0034462507
83	0xba3ca881	-0.000719674
84	0x3daa959f	0.08329319
85	0x3df41664	0.11918333
86	0x3d623b94	0.0552326
87	0x3d743ddc	0.059629306
88	0x3db1edb3	0.08687916
89	0x3c9a632a	0.018846113

blocks.2.conv.weight f4 [1, 1, 7, 4]
0	0xbe56d8ab	-0.2098109
1	0x3d66c150	0.0563367
2	0xbebb9518	-0.36637187
3	0x3e3b1bb7	0.18272291
4	0x3dc95246	0.098301455
5	0x3e00ae9e	0.12566611
6	0x3bce843d	0.006302385
7	0x3dc51766	0.096236035
8	0x3dc9b0f9	0.09848208
9	0xbe998f39	-0.29992083
10	0x3e91460c	0.28373754
11	0xbefe4029	-0.49658325
12	0x3d8f9b7a	0.07012077
13	0xbe03ef60	-0.12884283
14	0xbe44a19c	-0.19202274
15	0xbef49f50	-0.47777796
16	0xbe36b7e0	-0.1784358
17	0x3d765f68	0.06014958
18	0x3c34874d	0.011018586
19	0xbe74aa52	-0.23893097
20	0x3e5c7a7b	0.21531098
21	0xbea9b20e	-0.33143657
22	0xbe31bc25	-0.17356928
23	0xbeed319a	-0.46326905
24	0xbe434284	-0.19068342
25	0xbe23390c	-0.1593973
26	0xbed0e77e	-0.40801615
27	0x3e1cf752	0.1532872

blocks.2.dense.weight f4 [1, 94]
0	0x3cde2153	0.0271155
1	0x3d88719b	0.066622935
2	0xbd241fef	-0.040069517
3	0xbe3c9646	-0.184167
4	0x3da8728c	0.08224973
5	0xbd454ba8	-0.048167855
6	0xbe625703	-0.22103505
7	0x3e038326	0.12842998
8	0xbe6ca3eb	-0.23109405
9	0x3e6be8d4	0.23038036
10	0xbe62028e	-0.22071287
11	0x3e2c598d	0.16831036
12	0x3e831a2c	0.25605905
13	0x3e0c5ba3	0.13706832
14	0xbe3c66a9	-0.18398537
15	0x3e134af6	0.14384064
16	0x3d3cd269	0.0460991
17	0xbd927a55	-0.07152239
18	0xbd42be03	-0.04754449
19	0xbe51ea0a	-0.20499435
20	0xbdb855df	-0.090007536
21	0x3dac8934	0.08424607
22	0xbe35b0ae	-0.17743179
23	0xbe3547a3	-0.17703108
24	0xbe95a7a7	-0.2922947
25	0xbe004343	-0.12525658
26	0xbe033dfa	-0.12816611
27	0xbe1dde20	-0.15416765
28	0x3e394017	0.18090855
29	0xbe636aec	-0.22208756
30	0xbc5b2a56	-0.013376793
31	0xbd101a55	-0.035181362
32	0xbe7832c8	-0.24238122
33	0xbe062815	-0.13101228
34	0xbef6a379	-0.48171595
35	0x3ebddec7	0.37084028
36	0xbe8f10e8	-0.27942586
37	0xbf0219bb	-0.5082051
38	0x3a9cdca7	0.0011967615
39	0xbf319d49	-0.69380623
40	0xbe3f49f1	-0.1868055
41	0xbe4b583f	-0.19857882
42	0x3d5f88e0	0.054573894
43	0xbdf07b4c	-0.11742267
44	0xbe772d50	-0.24138379
45	0x3bba9dfc	0.0056951027
46	0xbe0d123b	-0.13776486
47	0x3df0b675	0.11753551
48	0x3e05b294	0.13056403
49	0xbd3e2fd5	-0.046432335
50	0x3d0abdf9	0.03387258
51	0x3e48659d	0.19570012
52	0x3e918b6e	0.2842669
53	0x3efda435	0.49539343
54	0x3e839678	0.25700736
55	0x3db2637c	0.087103814
56	0x3e16c2d6	0.14722762
57	0x3d9a7498	0.0754177
58	0x3ea7cc98	0.3277328
59	0x3d85eda1	0.06539465
60	0x3e8d9c63	0.27658376
61	0x3e4f8619	0.20265998
62	0x3e963918	0.29340434
63	0x3e829249	0.25502232
64	0x3e5a48f6	0.21316895
65	0x3e5480fa	0.20752326
66	0x3eb672cf	0.35634467
67	0x3e8b1f47	0.271723
68	0x3e7ef4a7	0.24898015
69	0x3ee44067	0.44580385
70	0x3e6d1c39	0.23155297
71	0x3ce96035	0.028488258
72	0x3e03c95c	0.12869781
73	0x3bc402ec	0.0059817936
74	0x3e63d733	0.2225006
75	0xbe2b35b6	-0.16719708
76	0xbe052798	-0.13003385
77	0xbdce4bb9	-0.10073037
78	0xbebe657f	-0.3718681
79	0x3d89a14d	0.06720219
80	0x3d55fb8c	0.052241847
81	0x3cac4f5f	0.02103394
82	0xbd0d735b	-0.03453384
83	0xbc9ac4a3	-0.018892592
84	0xbd95d8f1	-0.07316769
85	0xbd5357ed	-0.051597524
86	0xbe236d53	-0.15959673
87	0x3c60184c	0.013677668
88	0xbdfcf6f8	-0.12351793
89	0x3bcf8faf	0.006334267
90	0x3df67b9d	0.12035296
91	0x3dfdb708	0.12388426
92	0xbea3c589	-0.31986645
93	0xbd7619a0	-0.06008303

blocks.3.conv.weight f4 [1, 1, 15, 4]
0	0x3c916e89	0.017752903
1	0x3e267075	0.16253836
2	0xbd341b0e	-0.043971114
3	0xbdff351a	-0.124613
4	0xbdeb3e82	-0.11486532
5	0x3d0b6a1f	0.03403675
6	0x3e79c1a0	0.24390268
7	0xbe168161	-0.14697792
8	0xbe441e0c	-0.19152087
9	0x3e0ba413	0.13636808
10	0xbda0b753	-0.07847466
11	0xbbc792e4	-0.006090509
12	0xbd3f83ae	-0.04675644
13	0xbd8576c2	-0.06516792
14	0x3ce2a2ce	0.027665522
15	0x3d56fffe	0.052490227
16	0x3d57a841	0.052650694
17	0x3d168da3	0.03675617
18	0xbd9797ee	-0.07402025
19	0xbd9e6f2a	-0.077360466
20	0xb9867a04	-0.0002564938
21	0x3cf0cd08	0.029394642
22	0x3e61d651	0.22054411
23	0xbd247719	-0.040152643
24	0xbdf9247b	-0.12165161
25	0x3e0e8ef9	0.13921727
26	0xbd69e89c	-0.0571066
27	0x3d3da669	0.04630128
28	0xbe0f714b	-0.14008062
29	0xbdaf582e	-0.08561741
30	0xbd5546d4	-0.0520695
31	0x3d114697	0.03546771
32	0x3df95653	0.12174668
33	0x3e6400ea	0.22265974
34	0xbdf89933	-0.121385954
35	0xbe9a08e2	-0.30084902
36	0xbeb51374	-0.35366404
37	0xbef2ed82	-0.4744683
38	0x3ebfd242	0.374651
39	0x3e1dff03	0.1542931
40	0xbe11f735	-0.14254458
41	0x3eee2cab	0.46518454
42	0xbec4c742	-0.38433272
43	0xbecb6948	-0.3972876
44	0xbe321d7f	-0.17394064
45	0xbe28a667	-0.16469727
46	0x3da607ca	0.081069544
47	0x3cf9db15	0.030499974
48	0xbda2f2c7	-0.07956462
49	0xbe598fa2	-0.21246198
50	0x3e8e83be	0.27834886
51	0xbe1ef19a	-0.15521851
52	0xbe79d947	-0.24399291
53	0x3e01d4dd	0.12678857
54	0xbebcb5fb	-0.3685759
55	0x3cda2175	0.026627282
56	0x3ca136dc	0.01967948
57	0xbd2b6340	-0.0418427
58	0xbd47a387	-0.048739936
59	0xbd8fa990	-0.07014763

blocks.3.dense.weight f4 [1, 86]
0	0xbcb6a50d	-0.0222955
1	0x3aa0b588	0.0012261132
2	0x3e5a61da	0.2132639
3	0xbc4ed5d1	-0.01262422
4	0xbdd3f0d9	-0.103486724
5	0xbd993af2	-0.07481946
6	0x3def8425	0.116951264
7	0x3e01086c	0.12600869
8	0x3d963209	0.07333762
9	0xbd42db5c	-0.04757248
10	0x3d48afb5	0.048995692
11	0x3cb58a96	0.02216081
12	0x3c95b0a1	0.0182727
13	0xbd249ddd	-0.040189613
14	0x3c2498ef	0.010046228
15	0x3dcaf743	0.09910443
16	0x3e099956	0.134374
17	0x3da4df76	0.08050434
18	0x3dfd8d39	0.12380452
19	0x3cc64e90	0.024207383
20	0xbd246416	-0.040134512
21	0xbe00c2ac	-0.12574261
22	0xbcbef94d	-0.023312235
23	0xbb7e218f	-0.0038777327
24	0x3e700589	0.23439611
25	0x3e493aaf	0.19651292
26	0x3d4ca36c	0.04996054
27	0x3e9cb91d	0.3060998
28	0xbdbdfeb3	-0.09277096
29	0x3e17327e	0.14765355
30	0xbd0113b3	-0.031512927
31	0x3da52e57	0.08065479
32	0x3def5e23	0.11687877
33	0x3e66ce74	0.22539693
34	0x3e4a7a6b	0.19773261
35	0x3e0744ac	0.1320979
36	0x3dba71bc	0.09103724
37	0xbdc63262	-0.096775785
38	0xbefc9a75	-0.4933659
39	0x3e795f4e	0.24352762
40	0xbe86a869	-0.26300362
41	0x3e22438f	0.15846084
42	0x3e81e95a	0.25373346
43	0x3e9da5c5	0.30790535
44	0x3e049b78	0.12949932
45	0x3ea563f3	0.32302818
46	0x3f2aa6fe	0.6666106
47	0x3e82d34f	0.2555184
48	0x3eb64ef8	0.35607123
49	0x3ebd5cf2	0.36984974
50	0x3e83d0fc	0.2574538
51	0x3eb2e389	0.3493922
52	0x3ee24814	0.44195616
53	0x3ee07898	0.43842006
54	0x3e601b08	0.21885312
55	0x3e7de56d	0.2479455
56	0x3e746a1d	0.23868604
57	0x3e3b5a76	0.18296227
58	0x3e4fb9b8	0.2028569
59	0x3e5cd1df	0.21564434
60	0x3e5d5737	0.21615301
61	0x3e868dd4	0.2628008
62	0x3db1e72d	0.086866714
63	0x3e0771b2	0.13226965
64	0x3e36f4d6	0.17866835
65	0x3da2afe0	0.07943702
66	0x3e1d7474	0.15376455
67	0x3e104fab	0.14092891
68	0x3d81ae92	0.06332125
69	0x3d645a32	0.05575008
70	0x3d9306c5	0.071790256
71	0x3e135dfb	0.1439132
72	0x3e28e260	0.16492605
73	0x3c1877bc	0.009305891
74	0x3d35231d	0.04422294
75	0x3e4e8476	0.20167717
76	0x3cf6e834	0.03014002
77	0x3da8b8ed	0.08238397
78	0xbc19345e	-0.009350864
79	0x3c531a50	0.012884691
80	0xbce0cb4f	-0.027440695
81	0x3e064ce5	0.1311527
82	0x3dbe73ed	0.09299455
83	0x3e1520c7	0.14563285
84	0x3e02452f	0.12721704
85	0x3d8bc45f	0.06824564

blocks.4.conv.weight f4 [1, 1, 4, 4]
0	0xbd09b3cc	-0.033618733
1	0x3e5033c9	0.20332254
2	0x3cb51373	0.022104
3	0xbe7e01fb	-0.24805443
4	0xbeb87702	-0.36028296
5	0x3d6da699	0.058020208
6	0xbe291b2a	-0.16514269
7	0x3eac3050	0.3363061
8	0x3e83a7e8	0.2571404
9	0xbe668c84	-0.2251454
10	0xbf2dfa26	-0.6795982
11	0xbf09e0ab	-0.5385844
12	0xbe96c946	-0.29450434
13	0xbdae25ec	-0.08503327
14	0x3dedf39c	0.116187304
15	0xbe768f51	-0.24078108

blocks.4.dense.weight f4 [1, 97]
0	0x3b42bdcf	0.0029715186
1	0xbd10d44a	-0.035358705
2	0xbd8ab334	-0.067724615
3	0xbc15567b	-0.009114857
4	0x3d8afc18	0.06786364
5	0xbdb36d57	-0.08761089
6	0x3d925e4f	0.07146894
7	0x3d25f7dc	0.04051958
8	0xbd752f49	-0.059859548
9	0x3c12c3d8	0.008957826
10	0x3d2e914d	0.04261904
11	0x3dfa745f	0.12229227
12	0x3e71a969	0.23599781
13	0x3b89201b	0.0041847355
14	0xbd05f952	-0.032708474
15	0xbd734373	-0.059390496
16	0x3c7f057d	0.015565273
17	0xbdde5e29	-0.108578034
18	0xbc352f9c	-0.011058714
19	0x3baf71a3	0.0053541227
20	0x3d8da50c	0.06916246
21	0x3dc0a211	0.09405912
22	0x3e068e78	0.13140285
23	0x3de959d6	0.11394088
24	0x3c00cee4	0.007861827
25	0xbd59e95a	-0.053201057
26	0x3d7b59d7	0.061364975
27	0x3e4849c5	0.19559391
28	0x3df0499e	0.11732791
29	0xbd8357ba	-0.06413217
30	0x3d9e5dbc	0.07732722
31	0x3e8f78c0	0.28021812
32	0x3e58bfac	0.21166867
33	0x3ea9727b	0.33095154
34	0x3d255325	0.040362496
35	0x3e4ec46d	0.20192118
36	0xbdd4352b	-0.103617035
37	0xbe0fd0ab	-0.14044444
38	0x3e9ac959	0.3023174
39	0x3c0ca770	0.008584842
40	0xbdf01fe4	-0.11724833
41	0xbda429bd	-0.080157734
42	0x3deb8123	0.1149924
43	0x3ccae36f	0.024766652
44	0x3ed1f446	0.41006678
45	0x3ec57e09	0.3857272
46	0xbea6a302	-0.3254624
47	0xbf2a55d4	-0.66537213
48	0x3edfa83b	0.43683037
49	0x3eb4325e	0.35194677
50	0x3e0ec9d3	0.13944177
51	0x3dea03f3	0.114265345
52	0x3e140072	0.14453295
53	0x3e00f5e0	0.12593794
54	0x3e33f1b2	0.17572668
55	0x3e428a74	0.18998128
56	0x3e23c0f2	0.15991572
57	0x3e572b3b	0.21012585
58	0x3e99bac1	0.30025294
59	0x3e8cd74a	0.27508003
60	0x3ef8a5d2	0.4856401
61	0x3eb31ab2	0.34981304
62	0x3edef0aa	0.43542987
63	0x3ed0bf8b	0.40771136
64	0x3ea60386	0.32424563
65	0x3e8b5de6	0.27220076
66	0x3e601348	0.21882355
67	0x3e57e612	0.21083859
68	0x3e832da9	0.25620773
69	0x3e9ee60b	0.31034884
70	0x3e073824	0.1320501
71	0x3c30d09a	0.010791922
72	0x3dabcf38	0.08389133
73	0x3dd19867	0.102341466
74	0x3e3fd072	0.1873186
75	0x3e041434	0.12898332
76	0x3d3791f6	0.044816934
77	0x3dcedbad	0.101004936
78	0x3dcf4530	0.10120618
79	0x3d64657a	0.055760838
80	0x3d717b04	0.058955207
81	0x3cbd6f03	0.023124224
82	0x3d36a44d	0.044590283
83	0x3d8aa18d	0.067690946
84	0x3e0009eb	0.12503783
85	0x3dbf62f1	0.093450435
86	0x3d9db921	0.07701326
87	0x3dc28d82	0.09499647
88	0x3dfdb987	0.12388902
89	0xbd6ea780	-0.05826521
90	0x3ac0af0b	0.0014700604
91	0x3da80a61	0.082051046
92	0x3d3db6dc	0.046316966
93	0x3cf6c01f	0.030120907
94	0x3ae1f5c7	0.0017239385
95	0xbceb4b38	-0.02872239
96	0x3c701746	0.014653986

linear.weight f4 [1, 6]
0	0xbdd9d4e0	-0.10636306
1	0x3db4f9c8	0.088367045
2	0x3e1cd4bb	0.15315525
3	0xbe19a851	-0.15005614
4	0x3e7ab2d2	0.24482277
5	0x3e84ba5b	0.25923428
