models/100bp_arround_STRends_models/hg38AATG_.pt (torch, 8520 bytes, 11 tensors)

last_block.conv.weight f4 [1, 1, 2, 4]
0	0xbb00ce83	-0.001965434
1	0x3e96d733	0.2946106
2	0x3d4a07bc	0.049323782
3	0x3d364fa7	0.044509556
4	0xbe97f420	-0.2967844
5	0xbe15f615	-0.14644654
6	0xbe8e301f	-0.27771088
7	0xbd818f8d	-0.06326208

last_block.dense.weight f4 [1, 99]
0	0x3d4dbe94	0.050230578
1	0x3bb70bc7	0.0055861208
2	0xbdaeabe8	-0.08528882
3	0x3c09510e	0.008381141
4	0x3d6ff491	0.058582846
5	0xbd4f78e0	-0.050652385
6	0xbd6cb468	-0.057789236
7	0xbdda069b	-0.10645791
8	0x3d2a591e	0.041588895
9	0x3d4b1a7c	0.049585804
10	0x3bb29f35	0.005451108
11	0x3d05e4c5	0.032688875
12	0xbcd0c51f	-0.02548462
13	0xbc5b9d24	-0.013404164
14	0xbcc3ec8c	-0.023916505
15	0xbd5df033	-0.05418415
16	0xbd5f25dc	-0.054479465
17	0x3b42cd27	0.002972433
18	0xbd5577b1	-0.0521161
19	0x3ca124a0	0.019670784
20	0x3c6ea406	0.014565473
21	0x3d57aac2	0.05265308
22	0x3e4a2279	0.19739713
23	0x3c80b594	0.015711583
24	0xbbd340a6	-0.0064469157
25	0x3e0148bd	0.12625404
26	0xba5bc9c5	-0.0008384253
27	0x3ddecffc	0.108795136
28	0xbbc5e1cb	-0.0060388795
29	0x37c94329	2.3992341e-05
30	0x3dd7db8a	0.10539921
31	0x3dd4d914	0.10392967
32	0xbd86b4bb	-0.0657744
33	0xbd33d877	-0.04390761
34	0xbd2fc85b	-0.042915683
35	0xbdd041f7	-0.10168832
36	0x3de7a3cd	0.113105394
37	0xbdcfa2f2	-0.10138501
38	0x3d075432	0.03303928
39	0xbc8f78a4	-0.01751358
40	0xbd7f8dad	-0.062390972
41	0x3d4a6afe	0.049418442
42	0x3d6a2931	0.05716819
43	0x3d9faaec	0.07796273
44	0x3c67910e	0.014133705
45	0x3d16842e	0.03674715
46	0xbda13e39	-0.07873196
47	0xbb8c31e6	-0.0042784093
48	0x3d4b3b37	0.04961702
49	0x3c7eeca5	0.01555935
50	0xbd6f3f9b	-0.05841027
51	0xbe0ba0ec	-0.13635606
52	0xbd4e1f7c	-0.050322995
53	0x3db1ea26	0.086872384
54	0xbd5a171c	-0.053244695
55	0x3d1681da	0.03674493
56	0xbda0ee13	-0.07857909
57	0xbd84f462	-0.06491925
58	0xbc9826a6	-0.018573117
59	0xbd7c1446	-0.06154277
60	0xbcfbac45	-0.030721793
61	0xbda64f86	-0.08120637
62	0xbd82979c	-0.063765734
63	0xbd964ded	-0.07339082
64	0xbe0901a1	-0.13379528
65	0x3d1fac38	0.0389826
66	0xbd3de480	-0.046360493
67	0xbd343374	-0.043994382
68	0xbdaf3ddb	-0.0855672
69	0xbd5845e5	-0.05280103
70	0xbd5413b5	-0.051776607
71	0x3d57c03a	0.052673556
72	0x3d057489	0.03258184
73	0x3df77f14	0.12084785
74	0x3db9e187	0.09076219
75	0xbd97d4c6	-0.0741363
76	0xbd0ebd96	-0.034848772
77	0x3dc87b8b	0.09789189
78	0xbd496223	-0.049165856
79	0xbd22623b	-0.03964446
80	0x3d97bb8d	0.07408819
81	0x3cc786b4	0.024356224
82	0x3ca21ffe	0.019790646
83	0xbd172f7e	-0.036910526
84	0x3dd4b9c5	0.10386995
85	0x3d6cbb2b	0.057795685
86	0x3c40ffeb	0.011779766
87	0x3cee9b80	0.029126883
88	0x3d039f06	0.03213408
89	0xbd542a65	-0.051798243
90	0x3d5ea96a	0.054360785
91	0x3d2901c1	0.04126144
92	0xbd7c9bd9	-0.061672065
93	0x3d3cfee6	0.046141528
94	0xbdc41704	-0.095747024
95	0xbdcbd54a	-0.09952791
96	0x3c9072d6	0.017632883
97	0xbdbfff15	-0.09374825
98	0xbccaf501	-0.02477503

blocks.0.conv.weight f4 [1, 1, 10, 4]
0	0xbe2faae1	-0.17155029
1	0xbcf96d05	-0.030447492
2	0x3e4d7311	0.20063426
3	0xbe456c0b	-0.19279496
4	0xbedbec19	-0.42953566
5	0x3dd04acd	0.10170517
6	0xbe0de0d5	-0.13855298
7	0x3ec6e620	0.38847446
8	0x3ec4c837	0.38434002
9	0x3d361aeb	0.044459265
10	0xbf540313	-0.8281719
11	0xbe2d5386	-0.16926393
12	0xbf2d32f9	-0.67655903
13	0xbe8e0eea	-0.27745754
14	0x3eae8659	0.34086874
15	0xbe1680ed	-0.14697619
16	0xbdc9560c	-0.09830865
17	0x3ecf2533	0.40458068
18	0xbf08f3f3	-0.53497237
19	0xbe8679e1	-0.2626486
20	0xbeafb6b8	-0.3431909
21	0xbf253228	-0.6452966
22	0x3e34c104	0.17651755
23	0xbda464b3	-0.08027019
24	0x3ca2ce3c	0.01987373
25	0x3db89490	0.09012711
26	0xbe1fe789	-0.15615667
27	0xbeb09749	-0.3449042
28	0xbe8f91fc	-0.28041065
29	0xbdc6632e	-0.09686886
30	0xbc76a73d	-0.015054521
31	0xbd19af27	-0.037520554
32	0xbdc0ea32	-0.09419669
33	0xbb98a3a8	-0.004658181
34	0xbd1391b2	-0.036027618
35	0xbd6d05ca	-0.05786685
36	0xbdded436	-0.1088032
37	0xbd597653	-0.05309136
38	0xbd9ec6ae	-0.07752739
39	0xbd63202d	-0.055450607

blocks.0.dense.weight f4 [1, 91]
0	0xbb2a8c43	-0.0026023544
1	0x3d462aa4	0.04838051
2	0x3c90829e	0.017640408
3	0xbc34af0d	-0.0110280635
4	0x3d6d4294	0.057924822
5	0x3d5e58fd	0.054284085
6	0x3cd1f329	0.025628643
7	0x3c8e2228	0.017350271
8	0x3da64dbd	0.08120296
9	0xbc68a0c5	-0.014198487
10	0xbc147ac0	-0.009062469
11	0x3dd26508	0.102731764
12	0xbce88849	-0.028385298
13	0x3e19ed04	0.1503182
14	0xbd80df83	-0.062926315
15	0x3d8fa280	0.07013416
16	0xbe1ea9f9	-0.15494527
17	0xbc95c6ea	-0.018283326
18	0xbd57cb9a	-0.052684404
19	0x3ccc9c65	0.024976918
20	0x3e85db83	0.26144037
21	0x3cf1b382	0.029504541
22	0xbdabf50b	-0.083963476
23	0x3c74e010	0.014945999
24	0x3d1f7dbf	0.03893828
25	0xbcb3a93d	-0.021931285
26	0xbe35c76c	-0.17751855
27	0x3e992cc6	0.29916972
28	0xbe31e7fa	-0.17373648
29	0xbd8961f0	-0.06708133
30	0x3e20fb47	0.15720855
31	0xbda55f90	-0.08074868
32	0x3f01ca28	0.5069909
33	0xbe46728f	-0.19379638
34	0x3b8188f2	0.0039530927
35	0x3d06042f	0.032718834
36	0x3c74dc63	0.014945122
37	0xbf57be98	-0.842752
38	0xbf397a29	-0.72452027
39	0x3d887237	0.0666241
40	0xbe0ce8e9	-0.13760723
41	0xbf64fca3	-0.89447993
42	0x3eeeccb7	0.4664056
43	0xbead6f25	-0.3387386
44	0x3fa457d0	1.2839298
45	0x3e8a501b	0.2701424
46	0x3ef333dd	0.47500506
47	0x3f0ed850	0.55798817
48	0x3ec2fa61	0.3808165
49	0x3ea66dd8	0.3250568
50	0x3ea84bdf	0.32870385
51	0x3e8a1274	0.26967204
52	0x3e92b2dc	0.28652084
53	0x3ed7c733	0.42144164
54	0x3f0d3976	0.55165803
55	0x3f15a854	0.58459973
56	0x3ec7cedc	0.3902501
57	0x3ee276db	0.44231305
58	0x3ea0ce37	0.3140733
59	0x3efb31b5	0.4906136
60	0x3ea8d406	0.3297426
61	0x3ec2fc8f	0.38083312
62	0x3edb0f8a	0.42785293
63	0x3e533ac8	0.20627892
64	0x3e3a02e0	0.18165159
65	0x3eb3cf44	0.3511907
66	0x3eba123e	0.36342043
67	0x3e905bb7	0.28194973
68	0x3ead03e0	0.3379202
69	0x3e71db3e	0.2361879
70	0x3d0be50e	0.03415399
71	0x3e0ff71b	0.14059107
72	0x3d14f617	0.036367502
73	0x3e80331b	0.2503899
74	0x3df371c0	0.118869305
75	0x3d97de1d	0.074154116
76	0x3e05328b	0.13007562
77	0x3dc2771a	0.09495373
78	0x3d52420a	0.05133251
79	0x3cd93015	0.026512185
80	0x3c2c5642	0.010518612
81	0x3c3bcb42	0.011462035
82	0x3cd9d503	0.02659083
83	0x3e1f39bb	0.15549366
84	0x3dae6633	0.08515587
85	0x3da1604a	0.07879694
86	0xbccfb632	-0.025355432
87	0x3bca2dbb	0.0061700023
88	0xbcd7dded	-0.02635094
89	0x3e0e73f3	0.13911419
90	0x3e169f35	0.1470917

blocks.1.conv.weight f4 [1, 1, 13, 4]
0	0xbcdcef08	-0.026969448
1	0xbdc86717	-0.09785288
2	0xbe35df87	-0.1776105
3	0xbce82cb3	-0.028341627
4	0xbe3db6c2	-0.18526748
5	0xbe2a1a74	-0.16611654
6	0xbe2fade2	-0.17156175
7	0xbe4e0522	-0.20119146
8	0xbd449a58	-0.047998756
9	0xbe50ae44	-0.20378977
10	0xbe11775b	-0.14205687
11	0xbdc6d200	-0.09708023
12	0xbcac77dd	-0.021053249
13	0xbe4fe254	-0.20301181
14	0xbe711c2d	-0.23545904
15	0xbe1da075	-0.15393241
16	0xbd3b9c1e	-0.04580318
17	0xbe956a1f	-0.29182526
18	0xbe479005	-0.19488533
19	0xbe4986aa	-0.19680277
20	0x3cb4cdcc	0.022070788
21	0xbe1d6d4f	-0.15373729
22	0xbd26f9a0	-0.040765405
23	0xbd88e8ad	-0.066850044
24	0xbe3e4922	-0.18582585
25	0xbd98107a	-0.07425018
26	0xbcc731ad	-0.02431568
27	0xbe5e37f8	-0.21701038
28	0xbe3945bf	-0.18093012
29	0xbe3dc42c	-0.18531865
30	0xbe86a124	-0.26294816
31	0xbdb7ee0c	-0.08980951
32	0xbe12760e	-0.14302847
33	0xbe856056	-0.2605006
34	0xbe4b1a38	-0.1983422
35	0xbdb2fe90	-0.0873996
36	0xbe201490	-0.15632844
37	0xbe57c80e	-0.21072409
38	0xbd9b5e08	-0.075862944
39	0xbe25e57b	-0.16200821
40	0xbd64dc80	-0.055874348
41	0xbe7e10c3	-0.24811082
42	0xbb87c325	-0.004143136
43	0xbe158ee3	-0.14605288
44	0x3d24b014	0.040206984
45	0xbdf71721	-0.12064958
46	0xbe7c94c9	-0.24666132
47	0xbe9fe70b	-0.3123096
48	0xbe20aef4	-0.1569174
49	0xbe4d041a	-0.20021096
50	0xbdc76f83	-0.09738066
51	0xbe27369b	-0.16329424

blocks.1.dense.weight f4 [1, 88]
0	0x3c9dd56f	0.019266812
1	0x3e3c67a9	0.18398918
2	0x3de9b84b	0.11412104
3	0x3e7b2609	0.24526228
4	0x3d86816a	0.065676525
5	0x3e2b47db	0.1672663
6	0x3d5d5ba5	0.054042477
7	0x3d9c16d6	0.07621543
8	0x3ccd3a6d	0.025052274
9	0x3d3cd010	0.04609686
10	0x3e6e442a	0.2326819
11	0x3e110353	0.14161424
12	0x3e2c7bc5	0.1684409
13	0x3d7b19ce	0.061303906
14	0x3c836df3	0.016043639
15	0x3e3e4836	0.18582234
16	0x3dcbbf7f	0.09948634
17	0x3ca54fa6	0.02017958
18	0x3d462a18	0.048379987
19	0x3e0260fb	0.12732308
20	0x3e21d325	0.15803201
21	0x3d80d7cc	0.0629116
22	0x3d454b7a	0.048167683
23	0x3d299125	0.041398186
24	0xbbcf91ea	-0.006334533
25	0xbcf40455	-0.029787222
26	0xbcbaf74a	-0.022822995
27	0x3d58fc19	0.052974794
28	0x3d2a5699	0.041586492
29	0x3b2f90a6	0.0026789098
30	0xbd78820a	-0.06067089
31	0x3d0f0c34	0.034923747
32	0x3d9ab961	0.075548895
33	0x3df42cee	0.11922632
34	0x3dcc66f8	0.09980577
35	0x3c16187d	0.009161112
36	0xbc1d4a43	-0.009600225
37	0x3d11cbd0	0.03559476
38	0x3d8ecd8f	0.06972801
39	0x3dfdee17	0.12398928
40	0x3db0e5d7	0.086375885
41	0x3d033bba	0.03203938
42	0x3d392820	0.04520428
43	0x3ba4b69e	0.0050266525
44	0x3d01c4f3	0.031681966
45	0x3d11be78	0.035582036
46	0x3d91c9e9	0.071185894
47	0x3d554e6b	0.05207674
48	0xbc1a50a1	-0.0094186375
49	0x3db0c04d	0.086304285
50	0x3e02734c	0.12739295
51	0x3d68076f	0.056647714
52	0x3db43afb	0.08800312
53	0xbd846cc3	-0.06466057
54	0x3c7cffe9	0.015441873
55	0x3d83e4c0	0.06440115
56	0x3e341d3a	0.17589274
57	0x3cf5756a	0.029963214
58	0x3d9467e3	0.07246377
59	0x3e337723	0.17525916
60	0x3e32be74	0.17455465
61	0x3dbe9402	0.09305574
62	0x3e345c18	0.17613256
63	0x3dba4fe2	0.09097268
64	0x3da1ed08	0.07906538
65	0x3db6166d	0.08890996
66	0x3e192831	0.14956738
67	0x3ddf7cd1	0.10912479
68	0x3e268843	0.16262917
69	0x3de3b21e	0.111179575
70	0x3e29eae7	0.16593514
71	0x3e1fdf93	0.1561263
72	0x3e354908	0.1770364
73	0x3e22c79b	0.15896456
74	0x3e44912d	0.19196005
75	0x3e494ef0	0.19659019
76	0x3e092133	0.13391571
77	0x3e440d67	0.19145738
78	0x3dd045c5	0.101695575
79	0x3e3815d0	0.17977071
80	0x3df86198	0.121279895
81	0x3e2567f1	0.16152932
82	0x3e20334b	0.15644567
83	0x3dfdf513	0.1240026
84	0x3e8e3c3a	0.27780324
85	0x3db0a80f	0.08625805
86	0x3e0ee6fc	0.13955301
87	0x3d08e3c9	0.033420358

blocks.2.conv.weight f4 [1, 1, 3, 4]
0	0x3e2b6059	0.16735972
1	0xbf32ac98	-0.6979461
2	0x3d74f8f6	0.05980774
3	0xbe16b7a8	-0.14718497
4	0xbf1128b8	-0.56702757
5	0x3ea1bd39	0.31589678
6	0x3dcb19da	0.0991704
7	0xbeb2b355	-0.34902444
8	0xbdd8dd1f	-0.105890505
9	0xbd3087ca	-0.04309825
10	0xbdf2c557	-0.11854046
11	0x3e939a53	0.28828678

blocks.2.dense.weight f4 [1, 98]
0	0x3cf9cea2	0.030494038
1	0xbdb0c8a3	-0.086320184
2	0xbe1edff7	-0.15515123
3	0xbd76ca83	-0.060251724
4	0x3d938fa1	0.072051294
5	0x3aff799d	0.00194912
6	0x3d396fec	0.045272753
7	0x3d414453	0.0471843
8	0xba781170	-0.00094630476
9	0xbe1be309	-0.15223326
10	0xbd5ed27a	-0.054399945
11	0xbd97aa61	-0.07405544
12	0x3bb6a8d8	0.005574327
13	0xbdbf111f	-0.093294375
14	0xbe199c17	-0.1500095
15	0xbe183c70	-0.14866805
16	0xbe183797	-0.14864956
17	0xbdb8357f	-0.089945786
18	0xbcd438b6	-0.025905948
19	0xbe0222d5	-0.127086
20	0xbe2734d1	-0.16328742
21	0xbe2b3658	-0.16719949
22	0x3e2f2f5c	0.1710791
23	0xbdad15d3	-0.08451428
24	0xbe40d9cb	-0.18833081
25	0xbe0e92fe	-0.1392326
26	0xbe3ff930	-0.18747401
27	0xbe4fcfa6	-0.20294055
28	0xbe1f3c9c	-0.15550464
29	0xbe575198	-0.2102722
30	0xbea626da	-0.32451516
31	0xbec20a11	-0.37898305
32	0xbe17cb1c	-0.14823574
33	0xbe1af564	-0.15132672
34	0xbeaaf381	-0.33388904
35	0x3e9e0f38	0.30870986
36	0xbcf37dac	-0.029723011
37	0xbdb53755	-0.08848444
38	0xbe3ead9d	-0.18620916
39	0xbe505a71	-0.20347
40	0xbe572c8f	-0.21013092
41	0xbe9dba85	-0.30806366
42	0xbe95fe4a	-0.2929557
43	0xbf4b96a6	-0.79526746
44	0xbdcd747c	-0.10031983
45	0xbef8d66e	-0.48601097
46	0x3e09d0cd	0.13458557
47	0x3eeae736	0.45879525
48	0xbe3a1f20	-0.18175936
49	0xbe8dca05	-0.2769319
50	0xbecf4a6c	-0.40486467
51	0xbed923db	-0.42410168
52	0xbee11f01	-0.43968967
53	0xbe981a2a	-0.29707462
54	0xbedd406c	-0.43213212
55	0xbece388a	-0.4027751
56	0xbea81fca	-0.32836753
57	0xbec441b3	-0.38331375
58	0xbe25166e	-0.16121837
59	0xbebdd965	-0.3707992
60	0xbea8d35c	-0.32973754
61	0xbed6db09	-0.41963986
62	0xbeabce41	-0.33555797
63	0xbea768c2	-0.3269711
64	0xbea156c3	-0.31511506
65	0xbe6a815c	-0.22900909
66	0xbe95b6b4	-0.29240954
67	0xbe85738d	-0.2606472
68	0xbe172dfe	-0.14763638
69	0xbdfdb0ab	-0.12387212
70	0xbe2d6b47	-0.16935454
71	0xbe6f2abd	-0.23356147
72	0xbe38cce2	-0.18046907
73	0xbe44f773	-0.1923502
74	0xbe03111e	-0.12799498
75	0x3d08c5ac	0.03339164
76	0xbe0e5583	-0.13899808
77	0xbe0e1c02	-0.13877872
78	0xbdece98e	-0.115679845
79	0xbda7030a	-0.081548765
80	0xbe03f54a	-0.12886539
81	0xbde663ec	-0.11249527
82	0xbe2f9a11	-0.17148615
83	0xbd784abd	-0.06061815
84	0xbd2b163c	-0.04176925
85	0xbdd20e1b	-0.10256597
86	0xbd2cba04	-0.042169586
87	0xbd24aacb	-0.040201943
88	0x3da4b437	0.08042186
89	0x3d7206d7	0.059088554
90	0x3d94cdc1	0.07265807
91	0x3c7ffc31	0.015624092
92	0x3e2ad6db	0.16683523
93	0x3dd3010b	0.10302933
94	0x3dcb2d67	0.09920769
95	0x3c33ec5a	0.010981644
96	0x3d326857	0.043556537
97	0x3c96cd38	0.018408403

blocks.3.conv.weight f4 [1, 1, 16, 4]
0	0xbe5b0e6b	-0.21392219
1	0xbdb47383	-0.088110946
2	0x3c99da8b	0.018780967
3	0xbc9249a8	-0.017857388
4	0xbe2f332e	-0.17109367
5	0xbdbbd678	-0.09171766
6	0xbe888ad8	-0.2666843
7	0xbe2486f1	-0.16067101
8	0xbc13d449	-0.009022781
9	0xbca607f4	-0.020267464
10	0xbe3613e7	-0.1778103
11	0xbc966ba3	-0.018361872
12	0xbd539821	-0.051658753
13	0xbe33f2fd	-0.17573161
14	0xbdb6299e	-0.088946566
15	0xbe3670ec	-0.17816514
16	0xbe110904	-0.14163595
17	0xbde14c75	-0.11000911
18	0xbe3b2efe	-0.18279645
19	0xbda08247	-0.078373484
20	0x3cc5572a	0.024089415
21	0xbe4d3125	-0.20038278
22	0x3d07887c	0.033089146
23	0xbd7b0c33	-0.06129093
24	0xbe04492c	-0.12918538
25	0xbe63b4b0	-0.22236896
26	0xbd63f613	-0.055654597
27	0xbade7f46	-0.0016975186
28	0xbe48ff8c	-0.19628733
29	0xbd66c97c	-0.056344494
30	0xbd07fbc1	-0.033199076
31	0xbdb70bfc	-0.08937833
32	0xbe5d2ec6	-0.21599874
33	0xbe3b0689	-0.18264212
34	0xbdec8b09	-0.11549956
35	0xbe02dbe8	-0.127792
36	0xbd7c2ddb	-0.06156717
37	0xbd2669b8	-0.040628165
38	0xbdd4d351	-0.10391868
39	0xbe197942	-0.14987662
40	0xbd8ee5aa	-0.06977399
41	0xbdeeb97e	-0.116564736
42	0x3d6b0ec4	0.05738713
43	0xbde8ec08	-0.113731444
44	0xbe38cfd9	-0.18048038
45	0xbe194a80	-0.14969826
46	0xbe128157	-0.14307152
47	0xbd7a009f	-0.06103575
48	0xbda75ee3	-0.08172395
49	0xbe3df053	-0.18548708
50	0xbddaba12	-0.10680021
51	0xbe0c9586	-0.13728914
52	0x3d91cbbc	0.071189374
53	0xbdefc054	-0.117066056
54	0xbe98128b	-0.29701647
55	0x3d26fce6	0.040768526
56	0xbdbce1e9	-0.092227764
57	0xbd00d045	-0.03144862
58	0x3ca0eb9f	0.019643603
59	0xbe1bc1d0	-0.15210652
60	0xbc9efc0b	-0.019407293
61	0xbe3c6d73	-0.18401127
62	0x3c686296	0.014183661
63	0xbd3c2f7e	-0.04594373

blocks.3.dense.weight f4 [1, 85]
0	0x3cd6337e	0.0261476
1	0xbd822fc2	-0.06356765
2	0x3db1b07c	0.0867624
3	0xbcbcca38	-0.023045644
4	0x3db71b01	0.089406975
5	0x3d396316	0.04526051
6	0xbd643872	-0.055717893
7	0xbe0ded0e	-0.1385996
8	0xbb443806	-0.002994062
9	0xbe17ad41	-0.14812185
10	0xbd7da8a0	-0.06192839
11	0xbdebed1b	-0.11519834
12	0xbd5aa0de	-0.05337607
13	0xbd55e8b0	-0.05222386
14	0xbd0e15b6	-0.034688674
15	0xbb198cd1	-0.002342988
16	0x3d4a0967	0.049325373
17	0xbda236bb	-0.07920595
18	0x3a683525	0.0008858017
19	0x3b5cbc59	0.00336816
20	0xbd13482a	-0.035957493
21	0xbe1d864a	-0.15383258
22	0x3b272af3	0.0025507777
23	0xbdcbb000	-0.09945679
24	0xbd8cc2a8	-0.06873065
25	0xbdf643dd	-0.12024663
26	0xbe2b0bae	-0.16703674
27	0x3d1c7add	0.03820311
28	0xbd83da7c	-0.06438157
29	0xbda2fc4a	-0.079582766
30	0xbdc7b85a	-0.09751959
31	0xbcf5d852	-0.030010376
32	0xbe34c866	-0.17654571
33	0xbdd43124	-0.10360935
34	0xbd6780b0	-0.05651921
35	0x3d32b486	0.04362919
36	0xbdc41e07	-0.0957604
37	0x3cbed85a	0.023296524
38	0x3dcee107	0.10101514
39	0xbc894455	-0.016756216
40	0xbd421d65	-0.047391314
41	0x3d2751ce	0.0408495
42	0xbdad976c	-0.08476147
43	0xbdd0183b	-0.101608716
44	0xbd991a95	-0.07475773
45	0x3d3fe3f1	0.04684824
46	0xbb7224d2	-0.0036948216
47	0xbdd7f76b	-0.10545238
48	0xbe1ee2a2	-0.15516141
49	0x3d655f4f	0.055999096
50	0xbe0228ec	-0.12710923
51	0x3d813859	0.063095756
52	0x3d6cbb80	0.057796
53	0x3dcaaa79	0.09895796
54	0x3d8dc3e9	0.069221325
55	0xbdb3f392	-0.08786692
56	0x3cf8b121	0.0303579
57	0xbd29500c	-0.041336104
58	0xbd4b7fa0	-0.04968226
59	0x3d097619	0.033559892
60	0xbda66f19	-0.08126659
61	0x3c5ee09e	0.013603358
62	0xbda6a2ee	-0.08136545
63	0xbd4bc630	-0.049749553
64	0xbe0e6b40	-0.139081
65	0xbdc34434	-0.09534493
66	0x3d83273d	0.064039685
67	0xbe00669f	-0.12539147
68	0x3c5836d7	0.013196669
69	0xbe0be787	-0.1366254
70	0xbd8fc432	-0.07019843
71	0x3a30baf9	0.0006741728
72	0xbdbd7422	-0.09250666
73	0x3d1e35cd	0.038625527
74	0xbd980845	-0.07423452
75	0xbc645080	-0.013935208
76	0xbe22af4e	-0.15887186
77	0xbe125d4c	-0.14293402
78	0xbd82bc91	-0.063836224
79	0xbe448bed	-0.19194002
80	0xbe140a47	-0.14457045
81	0xbe053b4f	-0.13010906
82	0xbd4088b8	-0.047005385
83	0x3cfd3d09	0.030912893
84	0xbdcee38d	-0.101019956

linear.weight f4 [1, 5]
0	0xbe1929f2	-0.14957407
1	0x3ea0f4e0	0.31436825
2	0xbe919a28	-0.28437924
3	0xbe563ba3	-0.20921187
4	0xbdeb8a65	-0.11501006
