models/100bp_arround_STRends_models/hg38AAAAAC_.pt (torch, 7085 bytes, 9 tensors)

last_block.conv.weight f4 [1, 1, 3, 4]
-0.051144905 0.14645086 0.14452793 0.3753107 0.15275994 -0.2121616 0.20339902 0.11008555
0.04267947 -0.12973258 0.14248258 0.038137723
00000000: 527d 51bd 37f7 153e 21ff 133e b928 c03e
00000010: 1a6d 1c3e e440 59be d547 503e 8874 e13d
00000020: abd0 2e3d 9ed8 04be f4e6 113e 4d36 1c3d

last_block.dense.weight f4 [1, 98]
-0.034443077 -0.06467546 -0.09443698 0.004239287 -0.052635524 -0.05112189 -0.024248395 -0.085498914
-0.14016087 0.048063915 -0.1219951 -0.14437222 -0.059989538 -0.06564626 -0.016965859 -0.1680366
-0.11042652 -0.11453096 -0.15838717 -0.10847196 -0.07216536 -0.040356513 -0.1068859 -0.07656721
-0.28324625 -0.1641611 -0.15194671 -0.11020638 -0.22010645 -0.0795657 -0.10059688 -0.12852496
-0.15473685 -0.09649377 -0.14974779 0.0054140645 0.0059001013 -0.1981243 -0.18228607 -0.18523607
0.025595777 -0.04951948 -0.003624336 -0.17606358 -0.16719887 -0.09874907 0.049602643 -0.08521264
-0.08749015 -0.05841535 -0.3302347 0.07103665 0.0054207095 -0.096673526 -0.12838525 -0.08209924
0.0033890633 -0.114179246 -0.034222443 -0.06867733 -0.10692197 -0.0023082986 0.039710525 -0.018011067
-0.071169205 -0.09951009 -0.07973335 -0.048206154 -0.04090984 -0.08919965 -0.15942813 -0.054178484
-0.05003604 -0.021348746 -0.032407273 -0.02926039 0.029853897 -0.036276307 0.004113224 -0.097595006
-0.049475245 -0.0070966682 -0.05317879 -0.08559834 -0.09691442 -0.014817851 -0.09260884 -0.03396484
0.026679149 -0.016221805 0.0036668156 0.022253096 0.053754486 0.07604594 -0.010288839 0.09259887
6.169522e-06 0.057883985
00000000: 2f14 0dbd 9174 84bd 2d68 c1bd b8e9 8a3b
00000010: 5998 57bd 3065 51bd 92a4 c6bc 0e1a afbd
00000020: 5586 0fbe abde 443d 91d8 f9bd 50d6 13be
00000030: 97b7 75bd 8c71 86bd fcfb 8abc c911 2cbe
00000040: 4d27 e2bd 358f eabd 3f30 22be 8c26 debd
00000050: 6fcb 93bd df4c 25bd ffe6 dabd 45cf 9cbd
00000060: a705 91be d919 28be eb97 1bbe e2b3 e1bd
00000070: 9663 61be 57f3 a2bd bd05 cebd 0c9c 03be
00000080: 5673 1ebe 879e c5bd 7c57 19be 7768 b13b
00000090: a355 c13b 19e1 4abe 33a9 3abe 86ae 3dbe
000000a0: 3cae d13c f0d4 4abd 4586 6dbb 034a 34be
000000b0: 2e36 2bbe f43c cabd 242c 4b3d f783 aebd
000000c0: 092e b3bd ef44 6fbd 8614 a9be aa7b 913d
000000d0: 35a0 b13b c5fc c5bd 6c77 03be a523 a8bd
000000e0: 0c1b 5e3b cfd6 e9bd d52c 0cbd b3a6 8cbd
000000f0: e8f9 dabd d346 17bb 81a7 223d f28b 93bc
00000100: 29c1 91bd f2cb cbbd 3d4b a3bd d173 45bd
00000110: 1491 27bd 4eae b6bd 2141 23be 42ea 5dbd
00000120: 97f2 4cbd 91e3 aebc 7dbd 04bd 7cb3 efbc
00000130: 2990 f43c 7796 14bd 39c8 863b e4df c7bd
00000140: 8ea6 4abd 2b8b e8bb 01d2 59bd 2f4e afbd
00000150: 117b c6bd 92c6 72bc b4a9 bdbd b71e 0bbd
00000160: 3b8e da3c 97e3 84bc f54e 703b 204c b63c
00000170: aa2d 5c3d f9bd 9b3d 8592 28bc 7aa4 bd3d
00000180: ca03 cf36 c217 6d3d

blocks.0.conv.weight f4 [1, 1, 17, 4]
-0.024572827 0.029036507 -0.14464499 -0.04258795 -0.032670427 0.15781611 -0.005779717 -0.0068150237
-0.116289176 -0.0359577 -0.03880351 -0.049441673 0.08368772 0.1641582 -0.03528247 -0.014142596
-0.0034050979 -0.028344192 -0.063215666 -0.27013686 0.00041207494 -0.018204598 0.14468697 -0.092208944
-0.1280274 0.20862533 0.036398094 -0.021970809 -0.04118516 0.080141634 -0.26842818 -0.037665326
-0.05430728 0.1241744 0.3308594 -0.39157042 -0.6801994 0.19217658 -0.27521098 0.57886225
0.73604405 -0.40029183 -1.9981169 -0.9433291 -0.5521865 0.066514656 0.6925196 -0.19602127
-0.072006874 0.21392058 -0.42485765 0.0037305185 -0.028200544 0.14387177 0.09404446 0.15764168
0.07246637 -0.032857824 -0.05068164 0.065442495 0.11402903 -0.121339016 -0.04932965 -0.10166543
0.039772473 0.08811188 -0.056910217 -0.0261096
00000000: f44c c9bc f8dd ed3c d11d 14be b470 2ebd
00000010: 6dd1 05bd 8c9a 213e c863 bdbb 9050 dfbb
00000020: 0529 eebd 6248 13bd 6ef0 1ebd 5a83 4abd
00000030: 7864 ab3d 1619 283e 5a84 10bd 59b6 67bc
00000040: 1028 5fbb 1432 e8bc 3777 81bd 614f 8abe
00000050: c30b d839 cf21 95bc d228 143e 0bd8 bcbd
00000060: 9d19 03be e1a1 553e 2b16 153d 20fc b3bc
00000070: c5b1 28bd 4c21 a43d 6b6f 89be f546 1abd
00000080: 4f71 5ebd 264f fe3d 6766 a93e eb7b c8be
00000090: 8c21 2ebf f0c9 443e 74e8 8cbe 5130 143f
000000a0: 626d 3c3f 0df3 ccbe 4bc2 ffbf 047e 71bf
000000b0: 185c 0dbf d638 883d f748 313f cdb9 48be
000000c0: 5778 93bd ff0d 5b3e f186 d9be b77b 743b
000000d0: d404 e7bc 1f53 133e 629a c03d d26c 213e
000000e0: 4069 943d ed95 06bd 8d97 4fbd b706 863d
000000f0: 0d88 e93d 9780 f8bd e30d 4abd f735 d0bd
00000100: 76e8 223d 0074 b43d b01a 69bd cde3 d5bc

blocks.0.dense.weight f4 [1, 84]
-0.16542499 -0.10473418 -0.031854987 -0.0752835 -0.077899806 -0.1315625 -0.065859996 -0.04386139
-0.06718787 -0.07015076 -0.036081705 -0.028973196 -0.15620537 -0.18196747 -0.19399923 -0.08256909
-0.1006988 -0.12703004 -0.24186696 -0.11892771 -0.26996642 0.010995683 -0.111816294 0.045449506
0.02386076 -0.166464 -0.18463083 -0.27572754 0.1530203 -0.09831237 -0.09168903 -0.3294376
-0.17297171 -0.25808072 0.04297383 -0.48221582 0.46624044 -0.5952973 -0.243349 -0.7443755
0.11888188 -0.5843898 -0.4118989 -0.40655395 -0.45485026 -0.48845282 -0.46999902 -0.5665676
-0.5173571 -0.55003124 -0.42357957 -0.49758515 -0.518172 -0.47778064 -0.448223 -0.45661363
-0.5036049 -0.41350758 -0.34027135 -0.33673796 -0.3224911 -0.31533366 -0.15606835 -0.20819354
-0.22238654 -0.27531946 -0.15742573 -0.14813456 -0.1009349 -0.12559605 -0.07495841 -0.05286692
-0.11449436 -0.1261246 -0.0059704576 -0.006822818 -0.021432903 -0.04380778 -0.02002859 -0.032150067
-0.050499137 -0.016447773 -0.050453223 -0.038596157
00000000: 2b65 29be e07e d6bd 607a 02bd 3c2e 9abd
00000010: ef89 9fbd 52b8 06be 9be1 86bd 00a8 33bd
00000020: cb99 89bd 34ab 8fbd 69ca 13bd 3259 edbc
00000030: 4df4 1fbe ae55 3abe bca7 46be fc19 a9bd
00000040: 2c3b cebd 2a14 02be f9ab 77be 5f90 f3bd
00000050: 0a39 8abe 3d27 343c f1ff e4bd 4329 3a3d
00000060: a477 c33c 8a75 2abe dd0f 3dbe 292c 8dbe
00000070: 5bb1 1c3e ff57 c9bd 75c7 bbbd 0cac a8be
00000080: 7f1f 31be 2823 84be 5405 303d fee4 f6be
00000090: 11b7 ee3e 6765 18bf 7b30 79be 658f 3ebf
000000a0: 5878 f33d 929a 15bf 6ae4 d2be d727 d0be
000000b0: 22e2 e8be 7d16 fabe b6a3 f0be 930a 11bf
000000c0: 8471 04bf d9ce 0cbf 6cdf d8be 7bc3 febe
000000d0: eca6 04bf aa9f f4be 7c7d e5be 43c9 e9be
000000e0: 40ec 00bf 44b7 d3be 0c38 aebe eb68 acbe
000000f0: 8e1d a5be 6a73 a1be 62d0 1fbe b030 55be
00000100: 4cb9 63be acf6 8cbe 3634 21be 96b0 17be
00000110: f5b6 cebd 409c 00be cb83 99bd fc8a 58bd
00000120: 057c eabd cf26 01be d4a3 c3bb f291 dfbb
00000130: 0e94 afbc c96f 33bd ff12 a4bc caaf 03bd
00000140: 2fd8 4ebd 7bbd 86bc 0aa8 4ebd 0117 1ebd

blocks.1.conv.weight f4 [1, 1, 10, 4]
-0.12867092 -0.13539484 -0.058399275 -0.06876862 -0.024308996 0.15786871 -0.07612807 -0.08872886
-0.0025976042 0.08093675 -0.26953724 0.17438895 -0.1257323 -0.45429152 0.2701603 -0.33991122
-0.32465777 0.70025086 -1.0531185 -0.10656021 -0.45094192 -0.72786164 0.16697311 0.16543026
0.0664789 0.05187285 -0.1120766 -0.2056503 -0.07453099 -0.017497933 0.051507782 -0.032396175
-0.16480958 0.13990413 -0.07333798 0.007097124 -0.01833528 -0.051177595 -0.018049605 0.04699054
00000000: 4fc2 03be f2a4 0abe 1434 6fbd 90d6 8cbd
00000010: a923 c7bc 56a8 213e 09e9 9bbd 7ab7 b5bd
00000020: 913c 2abb 2bc2 a53d c900 8abe 0493 323e
00000030: f8bf 00be e698 e8be 7352 8a3e d808 aebe
00000040: 8b39 a6be a443 333f 96cc 86bf 3d3c dabd
00000050: dce1 e6be 2455 3abf 00fb 2a3e 8d66 293e
00000060: 1726 883d a078 543d 6b88 e5bd fe95 52be
00000070: b4a3 98bd d357 8fbc d3f9 523d dab1 04bd
00000080: d8c3 28be 0743 0f3e 3932 96bd fe8e e83b
00000090: de33 96bc 999f 51bd c4dc 93bc 2779 403d

blocks.1.dense.weight f4 [1, 91]
0.04951294 -0.0653983 -0.027249316 -0.009369883 -0.006734631 -0.053789124 -0.02392324 -0.017703451
-0.036821805 -0.03328895 -0.06467747 -0.03925972 -0.00039949344 -0.04735687 -0.04271675 -0.108519204
0.010780232 -0.016404986 -0.03315316 -0.031455126 -0.03381968 -0.11329787 -0.036423333 -0.116601065
-0.028945941 0.010453447 -0.21622944 0.001673067 -0.121168345 -0.38008127 -0.040603016 -0.061084457
-0.09681601 0.11348626 -0.15051427 -0.40339702 -0.30229598 -0.27338728 0.3467524 0.21351635
0.367717 0.017719502 -0.5528372 -0.13556299 -0.31334087 -0.38443914 -0.263269 -0.30182245
-0.37230965 -0.26522473 -0.30373183 -0.279024 -0.3061195 -0.31436172 -0.32860702 -0.27857405
-0.2993095 -0.28949913 -0.30746627 -0.24533722 -0.14143223 -0.17592387 -0.2106656 -0.23745753
-0.15761574 -0.15976052 -0.17891818 -0.16025157 -0.14046463 -0.1322791 -0.12691844 -0.11891969
-0.09658279 -0.087089576 -0.11148524 -0.13119645 -0.048207704 -0.09634258 -0.081947215 -0.08617831
-0.10582158 -0.060184028 -0.061105352 -0.015753886 -0.021376101 0.027701069 -0.03424598 -0.0094595365
-0.075117335 -0.076460965 -0.04295829
00000000: 15ce 4a3d 8bef 85bd f539 dfbc 2384 19bc
00000010: 2eae dcbb fc51 5cbd acfa c3bc d406 91bc
00000020: 76d2 16bd fe59 08bd 9f75 84bd cdce 20bd
00000030: 1a73 d1b9 47f9 41bd c2f7 2ebd 513f debd
00000040: 929f 303c c063 86bc 9ccb 07bd 17d7 00bd
00000050: 8186 0abd b708 e8bd a230 15bd 8acc eebd
00000060: 0a20 edbc ef44 2b3c 406b 5dbe d04a db3a
00000070: 1c27 f8bd 039a c2be 594f 26bd b233 7abd
00000080: 7947 c6bd 7c6b e83d 6a20 1abe 0e8a cebe
00000090: 8ac6 9abe 6bf9 8bbe 8889 b13e 08a4 5a3e
000000a0: 6745 bc3e 7d28 913c bd86 0dbf 06d1 0abe
000000b0: 376e a0be 35d5 c4be 32cb 86be 7988 9abe
000000c0: 5f9f bebe 89cb 87be bd82 9bbe 3cdc 8ebe
000000d0: b2bb 9cbe 05f4 a0be 2e3f a8be 42a1 8ebe
000000e0: 183f 99be 3b39 94be 386c 9dbe ae39 7bbe
000000f0: 9cd3 10be 6325 34be b9b8 57be 1128 73be
00000100: 0566 21be 4398 23be 5436 37be fd18 24be
00000110: f6d5 0fbe 2c74 07be e8f6 01be 2b8c f3bd
00000120: 33cd c5bd 055c b2bd 6052 e4bd 5d58 06be
00000130: 7175 45bd 424f c5bd f1d3 a7bd 417e b0bd
00000140: fcb8 d8bd 8783 76bd 9b49 7abd 4b0e 81bc
00000150: ef1c afbc 5aed e23c 8345 0cbd 2cfc 1abc
00000160: 1ed7 99bd 9197 9cbd 08f5 2fbd

blocks.2.conv.weight f4 [1, 1, 10, 4]
0.044865225 0.0714047 -0.07241267 -0.057210077 0.03939291 0.012967787 -0.17887893 -0.06456296
-0.030198598 -0.073611304 -0.15335162 -0.13640063 -0.012230769 -0.014472685 0.0027559472 -0.06857686
-0.028965281 -0.065983534 0.046649303 -0.19527765 0.024664294 -0.102186024 -0.043006245 -0.14144544
0.08429286 -0.07190092 -0.019528752 0.03601444 0.044586908 -0.15147464 -0.005612668 0.0442481
-0.14295784 -0.14066137 -0.05168434 -0.1208553 -0.070074715 -0.05295471 -0.0005631531 -0.122827135
00000000: 99c4 373d a13c 923d 184d 94bd 1d55 6abd
00000010: 765a 213d d776 543c 0a2c 37be 9639 84bd
00000020: 0d63 f7bc 86c1 96bd 3508 1dbe 9bac 0bbe
00000030: 9063 48bc d71e 6dbc 1f9d 343b 0672 8cbd
00000040: 9948 edbc 6022 87bd 5713 3f3d ddf6 47be
00000050: c60c ca3c e846 d1bd 5127 30bd 13d7 10be
00000060: bca1 ac3d ca40 93bd c3fa 9fbc e183 133d
00000070: c3a0 363d 2b1c 1bbe 79ea b7bb 7f3d 353d
00000080: 8a63 12be 8909 10be f5b2 53bd fc82 f7bd
00000090: 5583 8fbd 0ae7 58bd 91a0 13ba cb8c fbbd

blocks.2.dense.weight f4 [1, 91]
0.03818714 0.03278713 0.005415773 0.0047618942 0.06506535 0.075365156 -0.023028934 0.048427228
0.051614515 0.03295125 0.017705346 0.09940343 0.027926195 -0.019792367 0.08545445 -0.034852058
0.011673413 0.06838219 -0.060997415 0.040823158 0.060110297 -0.0067113014 -0.006982937 -0.0049432768
0.06639606 0.02358449 -0.0325269 0.06408707 0.060348168 0.095440514 0.00015523766 0.031920485
0.0030336687 0.009556788 0.063879825 0.06490031 -0.046837978 0.03139679 0.10017326 0.022204138
0.095436715 -0.042767093 0.0081551215 0.00028176926 0.057132233 0.091248125 -0.01962631 0.13610576
0.010081754 -0.022122802 0.06407936 -0.015618572 0.0169259 -0.024107017 0.0680666 -0.023290988
-0.006181368 -0.0019007388 0.05611945 -0.03965275 0.0797747 0.0012730935 0.07321604 0.0589826
0.05684057 0.029311694 0.035939623 0.026049025 0.0204518 0.10254084 -0.004510475 0.044758614
0.082159474 0.0151542295 -0.013471621 0.13980356 0.00785194 0.045770865 0.07730135 0.050115217
0.021887219 0.004364953 0.017862435 0.08047161 0.008904692 0.046229325 0.06297286 -0.025967043
0.10589179 -0.044001233 0.041098397
00000000: 1e6a 1c3d cc4b 063d cc76 b13b aa09 9c3b
00000010: fb40 853d 0c59 9a3d 2da7 bcbc a15b 463d
00000020: be69 533d e4f7 063d cd0a 913c 0794 cb3d
00000030: 7ac5 e43c 9a23 a2bc be02 af3d 08c1 0ebd
00000040: d841 3f3c f60b 8c3d 6dd8 79bd 2f36 273d
00000050: 3736 763d 7aea dbbb 1fd1 e4bb 36fb a1bb
00000060: a8fa 873d 4334 c13c ed3a 05bd 1540 833d
00000070: a42f 773d 5176 c33d 4bc7 2239 0ebf 023d
00000080: 84d0 463b 1394 1c3c 6dd3 823d 74ea 843d
00000090: 2ed9 3fbd ec99 003d a327 cd3d 74e5 b53c
000000a0: 5374 c33d 8c2c 2fbd 0f9d 053c 6eba 9339
000000b0: 7d03 6a3d 4ce0 ba3d 5bc7 a0bc 4f5f 0b3e
000000c0: f12d 253c e13a b5bc 0a3c 833d 0ae5 7fbc
000000d0: 2fa8 8a3c 147c c5bc 8066 8b3d becc bebc
000000e0: 138d cabb 3622 f9ba 82dd 653d ec6a 22bd
000000f0: eb60 a33d eedd a63a 4bf2 953d bd97 713d
00000100: a8d1 683d 141f f03c 6d35 133d c464 d53c
00000110: 898a a73c ef00 d23d 9bcc 93bb cf54 373d
00000120: 3a43 a83d 7249 783c 13b8 5cbc aa28 0f3e
00000130: 6ca5 003c 3b7a 3b3d 2c50 9e3d 9d45 4d3d
00000140: d34c b33c e107 8f3b 3e54 923c 4dce a43d
00000150: fce4 113c f65a 3d3d eaf7 803d d6b8 d4bc
00000160: cbdd d83d a33a 34bd cb56 283d

linear.weight f4 [1, 4]
-0.12298182 -0.06936696 -0.24898991 0.022567008
00000000: e4dd fbbd 4410 8ebd 36f7 7ebe 72de b83c
