models/100bp_arround_STRends_models/hg38CCCT_.pt (torch, 8584 bytes, 11 tensors)

last_block.conv.weight f4 [1, 1, 3, 4]
0.35009724 -0.2917611 0.27877817 0.049471304 0.2971226 0.1849143 0.1395445 -0.1451054
0.25402853 -0.035517562 -0.05482757 -0.015204887
00000000: f23f b33e b661 95be 03bc 8e3e 6ca2 4a3d
00000010: 7420 983e 2d5a 3d3e c1e4 0e3e 8396 14be
00000020: 0710 823e dd7a 11bd e092 60bd eb1d 79bc

last_block.dense.weight f4 [1, 98]
0.029072003 -0.09751149 -0.013216698 -0.018531403 -0.06665756 -0.14467603 -0.06679917 -0.060193583
-0.046325114 -0.13847783 -0.106415816 0.036366347 -0.032876823 0.01000103 0.053378105 0.027771221
0.04179232 0.001729386 -0.03718125 -0.121728316 -0.14470609 -0.054345626 -0.065845944 0.03125786
-0.07088624 0.02172296 -0.012147455 -0.070000306 -0.155722 0.0024178769 -0.08743406 0.018558191
0.021026682 0.11115769 -0.038769457 0.0040783477 -0.13796352 -0.08031658 -0.026674429 -0.1344185
-0.06651055 -0.051995136 -0.026140194 0.020473953 -0.05275536 -0.08770951 0.043721817 0.102847576
-0.15845793 0.059483543 -0.27912503 0.020399686 -0.12901978 -0.06667752 -0.062756136 -0.08785651
0.020296745 -0.1365294 0.12000937 0.009394157 -0.049132727 0.12747079 0.049546152 0.020419799
-0.08284813 0.023907488 -0.08612806 -0.010548161 0.05111257 -0.0225421 -0.050115142 -0.057793707
0.008270218 -0.104258336 -0.09524991 -0.060390256 -0.05630508 -0.052289512 -0.007349585 -0.11708112
-0.085532136 -0.07820469 -0.04732783 -0.006479872 0.003828386 -0.035798617 -0.10287833 -0.0083326055
-0.082190424 -0.023650268 0.066261955 0.10377178 -0.09381553 -0.029128507 0.005275885 0.031548988
0.045757573 0.0139662605
00000000: 6928 ee3c 1bb4 c7bd d98a 58bc 2bcf 97bc
00000010: c283 88bd f425 14be 01ce 88bd 8c8d 76bd
00000020: 67bf 3dbd 22cd 0dbe 89f0 d9bd e1f4 143d
00000030: d9a9 06bd 5cdb 233c 00a3 5a3d 7980 e33c
00000040: 6c2e 2b3d 91ac e23a 5e4b 18bd b24c f9bd
00000050: d52d 14be 8599 5ebd 3dda 86bd 3e08 003d
00000060: ce2c 91bd 59f4 b13c 1e06 47bc 525c 8fbd
00000070: 9775 1fbe 3e75 1e3b a110 b3bd 5907 983c
00000080: 2640 ac3c a5a6 e33d b9cc 1ebd a9a3 853b
00000090: 4f46 0dbe 057d a4bd 5584 dabc 01a5 09be
000000a0: af36 88bd daf8 54bd f623 d6bc feb8 a73c
000000b0: 0116 58bd 0ba1 b3bd a615 333d c0a1 d23d
000000c0: cc42 22be 04a5 733d 7ae9 8ebe 3e1d a73c
000000d0: c31d 04be 398e 88bd 4a86 80bd 1dee b3bd
000000e0: 5c45 a63c 5dce 0bbe 79c7 f53d f3e9 193c
000000f0: 663f 49bd b487 023e e8f0 4a3d 6c47 a73c
00000100: 48ac a9bd a3d9 c33c e963 b0bd 32d2 2cbc
00000110: 6a5b 513d 36aa b8bc 8945 4dbd 18b9 6cbd
00000120: cf7f 073c 6585 d5bd 6312 c3bd c65b 77bd
00000130: 28a0 66bd 872d 56bd cad4 f0bb 3ac8 efbd
00000140: 792b afbd c829 a0bd d4da 41bd 1b55 d4bb
00000150: a9e5 7a3b 92a1 12bd e0b1 d2bd 7b85 08bc
00000160: 7453 a8bd 35be c1bc 59b4 873d 4d86 d43d
00000170: 5b22 c0bd e89e eebc 55e1 ac3b 8339 013d
00000180: 4b6c 3b3d bed2 643c

blocks.0.conv.weight f4 [1, 1, 15, 4]
-0.11237125 -0.25018308 0.39700255 0.15040241 -0.52251565 0.3793121 -0.7064891 -0.77172387
-0.15653774 -0.30593967 0.27855605 0.24286954 -0.25552553 0.09994196 0.086277895 -0.3276134
0.039570898 0.21007712 -1.6648647 0.100312054 -0.17531715 -0.12115312 0.22052805 0.14878854
-0.10045152 0.068405904 -0.0186538 -0.038840514 -0.039014924 0.16483773 -0.038853906 0.032638587
0.11237805 -0.07418705 0.24520354 -0.15815596 -0.29982767 -0.087897316 0.09589741 -0.027397785
-0.046375502 0.083304204 -0.4110277 0.064554445 0.06472156 0.00038946373 -0.034163278 -0.14506607
-0.021628411 0.07620794 0.37977102 -0.0213852 -0.29316396 -0.030826254 0.058078874 -0.055695776
-0.038189277 -0.025151137 -0.061208233 -0.029593285
00000000: e622 e6bd ff17 80be eb43 cb3e 1703 1a3e
00000010: 96c3 05bf 3235 c23e 78dc 34bf b28f 45bf
00000020: 6e4b 20be 20a4 9cbe e69e 8e3e cbb2 783e
00000030: 3ed4 82be 5fae cc3d 77b2 b03d f2bc a7be
00000040: 1815 223d 751e 573e 491a d5bf 6870 cd3d
00000050: 5786 33be 211f f8bd 1bd2 613e 065c 183e
00000060: 87b9 cdbd 6518 8c3d dbcf 98bc 3b17 1fbd
00000070: 1dce 1fbd 39cb 283e 4625 1fbd 0ab0 053d
00000080: 7726 e63d 61ef 97bd a316 7b3e a3f3 21be
00000090: 0383 99be 8203 b4bd dc65 c43d 5271 e0bc
000000a0: 3df4 3dbd 659b aa3d 3972 d2be 1f35 843d
000000b0: bd8c 843d f030 cc39 cbee 0bbd 338c 14be
000000c0: 112e b1bc e912 9c3d 5971 c23e 0430 afbc
000000d0: 9619 96be 5787 fcbc 1de4 6d3d 4121 64bd
000000e0: 5c6c 1cbd c209 cebc 7cb5 7abd 9e6d f2bc

blocks.0.dense.weight f4 [1, 86]
-0.12101525 -0.16372404 -0.12649998 -0.033256497 0.041646745 -0.11202062 -0.16318433 -0.19938359
-0.098785624 -0.10225294 -0.069780156 -0.18768704 -0.22304738 -0.23155351 -0.18072799 -0.08115688
-0.1768085 -0.12888338 -0.28180087 0.084348425 0.085543185 -0.14629942 -0.019375386 -0.066252634
-0.07857069 -0.31092077 -0.20229179 -0.16252004 -0.01883308 -0.23315126 -0.2944717 -0.14901377
-0.1513591 -0.12277313 -0.27717495 -0.274596 -0.010171769 -0.26998067 -0.30040312 -0.6004631
-0.6599127 -0.26039913 -0.51353556 -0.5920525 -0.54923666 -0.5807677 -0.08921613 -0.38571814
-0.6615042 -0.49030298 -0.92151815 -0.87492174 -0.4982591 -0.44826618 -0.5984436 -0.5664512
-0.65782905 -0.5730815 -0.5022257 -0.44085678 -0.43847975 -0.48302373 -0.5241021 -0.3706516
-0.5998283 -0.33375862 -0.42858422 -0.25955415 -0.38072762 -0.3866619 -0.15428685 -0.37560833
-0.41087645 -0.077461086 -0.041574255 -0.17765647 -0.19313504 -0.35776252 -0.24154541 -0.10770597
-0.11279631 -0.14074723 -0.19421487 -0.14709593 -0.08958011 -0.1101901
00000000: d8d6 f7bd 46a7 27be 3689 01be f737 08bd
00000010: c795 2a3d 116b e5bd cb19 27be 362b 4cbe
00000020: 1e50 cabd fd69 d1bd e6e8 8ebd 0831 40be
00000030: 8866 64be 5d1c 6dbe c210 39be 9435 a6bd
00000040: 4a0d 35be 01fa 03be 3448 90be debe ac3d
00000050: 4431 af3d 84cf 15be 21b9 9ebc 76af 87bd
00000060: abe9 a0bd 0231 9fbe 9425 4fbe a76b 26be
00000070: d547 9abc 34bf 6ebe ffc4 96be 1197 18be
00000080: e1fd 1abe 7b70 fbbd e0e9 8dbe d997 8cbe
00000090: 7ea7 26bc e83a 8abe 70ce 99be f3b7 19bf
000000a0: 0af0 28bf 0953 85be 1177 03bf c190 17bf
000000b0: c69a 0cbf 31ad 14bf f2b6 b6bd d97c c5be
000000c0: 5758 29bf fe08 fbbe 9de8 6bbf dffa 5fbf
000000d0: d11b ffbe 2583 e5be 9a33 19bf f202 11bf
000000e0: 7c67 28bf 78b5 12bf dd91 00bf fbb7 e1be
000000f0: 6b80 e0be e34e f7be 8e2b 06bf 0cc6 bdbe
00000100: 598e 19bf 69e2 aabe 646f dbbe 48e4 84be
00000110: bbee c2be 8cf8 c5be 5ffd 1dbe bc4f c0be
00000120: 665e d2be eba3 9ebd c449 2abd 94eb 35be
00000130: 31c5 45be a62c b7be ae57 77be f394 dcbd
00000140: c001 e7bd 0b20 10be 43e0 46be 51a0 16be
00000150: c775 b7bd 59ab e1bd

blocks.1.conv.weight f4 [1, 1, 14, 4]
0.07555278 -0.14649534 -0.0638536 -0.09794756 -0.15619972 -0.006680477 -0.020258514 -0.06039123
-0.121357806 -0.15401615 -0.32445702 -0.08055417 -0.15997323 -0.048608005 0.032568485 -0.18065533
-0.22172517 -0.02764685 -0.1137238 -0.08876931 -0.18542841 -0.079128884 -0.18334708 -0.13643596
-0.13081363 -0.029223118 -0.12747256 0.04024309 -0.23141302 -0.14595658 -0.10500225 -0.06259092
-0.14901711 -0.11883825 0.008165143 -0.16668063 -0.10151792 -0.042920634 -0.073909014 0.02052508
-0.19458029 -0.09855421 -0.02416609 0.05642052 0.0031303565 0.069546245 -0.13343996 -0.17869642
-0.17127173 0.031899944 -0.031562306 -0.1661978 -0.10797864 -0.08653811 0.07192461 -0.14291018
00000000: 6abb 9a3d e002 16be adc5 82bd bb98 c8bd
00000010: d2f2 1fbe e7e7 dabb 2ff5 a5bc cb5c 77bd
00000020: 718a f8bd 69b6 1dbe 3b1f a6be 96f9 a4bd
00000030: 06d0 23be 3019 47bd 8866 053d b6fd 38be
00000040: ec0b 63be a67b e2bc 06e8 e8bd afcc b5bd
00000050: f2e0 3dbe 530e a2bd 56bf 3bbe deb5 0bbe
00000060: 02f4 05be 5265 efbc 2b88 02be f0d5 243d
00000070: 89f7 6cbe a475 15be 6b0b d7bd ab2f 80bd
00000080: f197 18be 7861 f3bd 18c7 053c 54ae 2abe
00000090: a1e8 cfbd 8ccd 2fbd 9c5d 97bd 3624 a83c
000000a0: 0e40 47be cad6 c9bd f7f7 c5bc 3419 673d
000000b0: ab26 4d3b 436e 8e3d 7ca4 08be 32fc 36be
000000c0: db61 2fbe 84a9 023d 7a47 01bd c22f 2abe
000000d0: e823 ddbd e53a b1bd 364d 933d 0c57 12be

blocks.1.dense.weight f4 [1, 87]
-0.023059255 0.0479004 -0.0020745238 -0.12364238 -0.013980263 -0.104468755 -0.07967792 -0.10446821
0.002520505 0.004910545 0.030650575 -0.062302932 -0.00016996081 -0.042489383 -0.12115909 -0.028119443
0.049928512 -0.12771375 -0.020082396 0.06259518 0.0093272105 -0.03670659 -0.09964391 0.04039358
0.07279822 0.015435864 0.033565864 -0.110747956 -0.016848559 -0.017910995 -0.034614094 -0.057958037
-0.058005136 -0.04191248 -0.008198338 -0.0940725 -0.08218751 -0.05911349 -0.08003471 0.040979717
0.085211 0.049147673 -0.031081263 0.025427345 -0.0021457504 -0.061608173 -0.060348272 0.057961553
-0.066611454 0.011446193 -0.073156126 -0.11681296 0.037255432 -0.10962015 -0.03788578 0.02462243
-0.08884803 -0.089838795 -0.10643821 -0.113396235 0.015377355 -0.11940545 -0.1253185 -0.12722655
-0.0044632372 -0.005516914 -0.13036269 -0.03832495 -0.0009599745 -0.07953666 -0.05315994 0.018707162
-0.0043311594 0.023941858 0.0053752665 -0.06341301 -0.11666345 0.04570022 0.042675823 -0.024582315
-0.0784122 0.021926653 0.012957715 0.006380574 0.053664517 -0.034026597 -0.08656492
00000000: c3e6 bcbc 3633 443d bcf4 07bb 3738 fdbd
00000010: 790d 65bc b7f3 d5bd 2d2e a3bd 6ef3 d5bd
00000020: 0f2f 253b a3e8 a03b ea16 fb3c 5c31 7fbd
00000030: 8237 32b9 5909 2ebd 4222 f8bd bf5a e6bc
00000040: d781 4c3d 65c7 02be d683 a4bc e731 803d
00000050: 28d1 183c a659 16bd 1b12 ccbd bd73 253d
00000060: 3c17 953d b5e6 7c3c 5c7c 093d d3cf e2bd
00000070: fd05 8abc 14ba 92bc 82c7 0dbd 6865 6dbd
00000080: cb96 6dbd 6cac 2bbd 5252 06bc 15a9 c0bd
00000090: ed51 a8bd fd20 72bd 3de9 a3bd 59da 273d
000000a0: 1b83 ae3d 124f 493d 229e febc 024d d03c
000000b0: b89f 0cbb da58 7cbd c02f 77bd 1869 6d3d
000000c0: 966b 88bd d088 3b3c e1d2 95bd a23b efbd
000000d0: 2799 183d 8780 e0bd 1f2e 1bbd fab4 c93c
000000e0: f5f5 b5bd 67fd b7bd 47fc d9bd 493c e8bd
000000f0: 4df1 7b3c d88a f4bd 7e53 00be ad47 02be
00000100: 5940 92bb 3bc7 b4bb cc7d 05be 9ffa 1cbd
00000110: cca6 7bba 1ee4 a2bd 3dbe 59bd c33f 993c
00000120: 66ec 8dbb b721 c43c 0123 b03b aede 81bd
00000130: 3fed eebd 2730 3b3d d8cc 2e3d da60 c9bc
00000140: 9396 a0bd 869f b33c 994c 543c 2214 d13b
00000150: 53cf 5b3d 795f 0bbd f348 b1bd

blocks.2.conv.weight f4 [1, 1, 11, 4]
0.04272438 0.017932268 0.06389466 0.039554447 0.16048047 -0.0009594626 0.09736899 0.03938555
0.15441252 0.03585427 0.033956878 0.070105515 0.12509699 -0.09838194 -0.0062247324 -0.11925122
0.06263709 -0.19263327 -0.11693407 -0.014694548 0.026078133 -0.00215314 -0.07850834 -0.0698786
0.18406218 -0.104235165 0.10901435 0.0630805 -0.031631045 -0.11695961 0.08649664 0.07197685
0.2042249 0.03291729 -0.07649776 0.026307229 -0.02230385 -0.20435739 -0.06370275 -0.1120637
-0.01204456 0.030547319 0.064082205 -0.083735436
00000000: c2ff 2e3d b1e6 923c 34db 823d d803 223d
00000010: fe54 243e 7284 7bba 6569 c73d be52 213d
00000020: 511e 1e3e eddb 123d 5e16 0b3d 7b93 8f3d
00000030: 6d19 003e 787c c9bd d7f8 cbbb fc39 f4bd
00000040: e047 803d a841 45be 217b efbd 67c1 70bc
00000050: cfa1 d53c b21b 0dbb fbc8 a0bd 831c 8fbd
00000060: cc7a 3c3e 3f79 d5bd ea42 df3d 5930 813d
00000070: 8e8f 01bd 8588 efbd 2725 b13d 9968 933d
00000080: 5520 513e 48d4 063d dcaa 9cbd 4282 d73c
00000090: 90b6 b6bc 1043 51be 9676 82bd a781 e5bd
000000a0: 8c56 45bc 5f3e fa3c 883d 833d 7c7d abbd

blocks.2.dense.weight f4 [1, 90]
0.09077727 -0.03184563 0.041345283 0.056305293 0.046487063 0.07140124 0.042156737 -0.039188568
0.08062333 -0.041965764 0.038060494 -0.046061777 -0.021439124 -0.0080893105 0.055564534 0.04302958
-0.055357046 -0.021830764 0.08755327 -0.078311324 0.04868788 -0.100069374 -0.087790765 -0.0021062566
-0.039871994 0.044279944 -0.08603007 -0.01127691 0.049488287 -0.13660477 -0.10135913 -0.037577443
-0.1377404 -0.105577335 -0.04192156 -0.03061648 0.016018447 -0.1095477 -0.05176832 0.041738305
-0.100846194 -0.082460225 -0.12044272 -0.1267285 -0.037403908 0.023418363 -0.11024448 0.085718244
0.03356212 0.08489837 -0.006508899 0.0681919 0.07754503 -0.011473598 -0.0016289912 -0.030852413
0.093336396 -0.025269091 -0.008568238 0.081351005 0.055258505 -0.042705543 0.0074831955 -0.032833204
0.038718756 -0.023277888 -0.0071108257 -0.052149042 0.08486947 0.07486334 0.087231845 0.111707345
-0.019271614 0.04394992 0.020947017 0.04376503 0.022017464 0.029190136 -0.027892243 -0.041206785
0.054108474 0.03672756 -0.00063239614 -0.11882411 -0.024287378 -0.047053564 -0.051409677 0.054032702
0.020936439 -0.110188805
00000000: 6fe9 b93d 9070 02bd ac59 293d 61a0 663d
00000010: 3869 3e3d d03a 923d 8bac 2c3d 3184 20bd
00000020: d81d a53d 4be4 2bbd 52e5 1b3d 46ab 3cbd
00000030: 1aa1 afbc 0789 04bc a397 633d c93f 303d
00000040: 12be 62bd 6ed6 b2bc 214f b33d b061 a0bd
00000050: f16c 473d 2cf1 ccbd a5cb b3bd 1f09 0abb
00000060: d150 23bd e35e 353d 8930 b0bd cac2 38bc
00000070: 3bb4 4a3d 1fe2 0bbe 6095 cfbd ceea 19bd
00000080: d20b 0dbe ee38 d8bd f1b5 2bbd 6acf fabc
00000090: 1e39 833c 8b5a e0bd 050b 54bd c9f5 2a3d
000000a0: 7388 cebd e8e0 a8bd acaa f6bd 1ec5 01be
000000b0: d734 19bd ded7 bf3c dcc7 e1bd 0c8d af3d
000000c0: 6f78 093d 32df ad3d 9a48 d5bb 32a8 8b3d
000000d0: eecf 9e3d c2fb 3bbc e083 d5ba 33be fcbc
000000e0: 2727 bf3d 2001 cfbc cb61 0cbc 5b9b a63d
000000f0: be56 623d 02ec 2ebd 9835 f53b 1c7c 06bd
00000100: 8f97 1e3d 45b1 bebc ee01 e9bb 3c9a 55bd
00000110: 0bd0 ad3d f351 993d 9ca6 b23d d2c6 e43d
00000120: 81df 9dbc d504 343d 1499 ab3c f642 333d
00000130: f85d b43c 2720 ef3c 467e e4bc 72c8 28bd
00000140: d9a0 5d3d a36f 163d 63c7 25ba 0e5a f3bd
00000150: 53f6 c6bc 3dbb 40bd f492 52bd 6551 5d3d
00000160: e582 ab3c abaa e1bd

blocks.3.conv.weight f4 [1, 1, 15, 4]
0.12182814 -0.044869766 0.085800126 -0.17168269 0.057166252 -0.18382637 0.07091865 -0.0049114944
-0.3811481 0.06772364 0.036097635 -0.07551835 -0.33288163 -0.06841249 -0.09598923 -0.0522477
0.014911035 -0.14760025 0.2462025 -0.061608493 0.120454974 -0.24791947 0.13756956 0.16111152
-0.1617846 -0.21936463 0.19514091 0.17472045 -0.14442168 0.07754518 0.044973012 0.003000927
0.20843108 0.08067986 -0.1230174 -0.026950527 -0.1454575 -0.12775956 0.24407402 -0.21505836
0.115717486 -0.124583334 0.011431164 0.0035419427 -0.13294843 0.14789358 -0.09082083 -0.023369802
-0.2227407 0.06341173 0.16070406 -0.079805516 -0.13449061 0.084176645 0.1322109 -0.0579936
-0.29779223 0.19558202 -0.07137079 -0.2620639
00000000: 0881 f93d 5cc9 37bd fab7 af3d 96cd 2fbe
00000010: 2927 6a3d fb3c 3cbe cc3d 913d 9af0 a0bb
00000020: d825 c3be b1b2 8a3d 1ddb 133d 5da9 9abd
00000030: 766f aabe d91b 8cbd 0096 c4bd af01 56bd
00000040: 6a4d 743c 8524 17be 821c 7c3e 3059 7cbd
00000050: 19b1 f63d 9ade 7dbe 09df 0c3e 6bfa 243e
00000060: ddaa 25be 1fa1 60be 05d3 473e ebe9 323e
00000070: 47e3 13be 02d0 9e3d 9f35 383d 33ab 443b
00000080: f56e 553e 7c3b a53d 8cf0 fbbd 5ac7 dcbc
00000090: d0f2 14be 67d3 02be 8aee 793e 4238 5cbe
000000a0: 4afd ec3d 8c25 ffbd c749 3b3c f01f 683b
000000b0: a223 08be 6a71 173e 4500 babd 0772 bfbc
000000c0: 2316 64be 02de 813d 9b8f 243e 1371 a3bd
000000d0: e8b7 09be ce64 ac3d 4b62 073e b28a 6dbd
000000e0: 3978 98be a746 483e d92a 92bd 3d2d 86be

blocks.3.dense.weight f4 [1, 86]
-0.04825154 0.17578815 -0.017519502 0.04940962 -0.05029127 0.0074909674 0.17255083 0.06295811
-0.07705676 -0.16793466 -0.12527868 0.050376963 0.19411723 -0.059576012 0.116080314 -0.038473446
-0.01565332 -0.045651305 0.019283464 0.060699478 0.1220313 -0.124241546 -0.14898929 0.048696604
-0.012695336 0.070389345 -0.07355765 -0.070456676 -0.19943003 -0.13110507 -0.06193113 -0.1263172
-0.32124725 0.023091707 -0.29608378 -0.16895564 -0.22480856 -0.22170706 -0.19476514 -0.12903856
-0.111801684 0.06619281 -0.033920076 -0.11083482 0.15044653 -0.25199738 0.14371252 -0.13905174
-0.17856999 -0.10030901 0.06394681 -0.1049199 -0.08171254 -0.10131056 0.08408459 -0.10478591
-0.04221173 0.07204017 -0.0007432543 -0.0760553 -0.14442515 0.17262204 0.14849925 -0.008483681
0.07587706 0.11217215 0.091478236 -0.04299709 -0.17574114 -0.17179702 -0.17802408 -0.047774903
-0.2649753 0.06161098 0.22688405 -0.028026368 -0.106534176 -0.10662078 0.004719674 0.033555042
0.18079695 -0.0007658005 0.18077977 0.017212857 -0.048481435 -0.019159231
00000000: 68a3 45bd cf01 343e 0f85 8fbc be61 4a3d
00000010: 38fe 4dbd ca76 f53b 2ab1 303e 2ef0 803d
00000020: efcf 9dbd 10f7 2bbe 0e49 00be 1358 4e3d
00000030: abc6 463e fa05 74bd 84bb ed3d 5596 1dbd
00000040: 643b 80bc ddfc 3abd 5bf8 9d3c 04a0 783d
00000050: 8ceb f93d 5a72 febd a690 18be 1776 473d
00000060: 1900 50bc 4a28 903d 65a5 96bd 974b 90bd
00000070: 6337 4cbe 6840 06be 7fab 7dbd 4c59 01be
00000080: 857a a4be d22a bd3c 4b98 97be b502 2dbe
00000090: 3734 66be 2d07 63be 8370 47be af22 04be
000000a0: 48f8 e4bd 1990 873d c7ef 0abd 5efd e2bd
000000b0: a80e 1a3e cd05 81be 6029 133e 9463 0ebe
000000c0: 0ddb 36be cf6e cdbd 8cf6 823d 3fe0 d6bd
000000d0: e758 a7bd e97b cfbd 8b34 ac3d ff99 d6bd
000000e0: 35e6 2cbd cc89 933d f4d6 42ba e2c2 9bbd
000000f0: 30e4 13be d5c3 303e 3010 183e 23ff 0abc
00000100: 6f65 9b3d 83ba e53d f158 bb3d b71d 30bd
00000110: 7cf5 33be 8feb 2fbe f24b 36be 9eaf 43bd
00000120: d8aa 87be cc5b 7c3d 4b54 683e 8e97 e5bc
00000130: 972e dabd ff5b dabd 7fa7 9a3b 0371 093d
00000140: d622 393e 00c0 48ba 551e 393e fa01 8d3c
00000150: 7894 46bd d2f3 9cbc

linear.weight f4 [1, 5]
-0.20618981 -0.13984956 -0.116322085 -0.068237685 0.20636404
00000000: 6c23 53be b934 0fbe 463a eebd 33c0 8bbd
00000010: 1851 533e
