models/100bp_arround_STRends_models/hg38AAAAAT_.pt (torch, 7021 bytes, 9 tensors)

last_block.conv.weight f4 [1, 1, 9, 4]
00000000: 9677 b9be 8b59 abbd 7cb4 de3d 3180 2abe
00000010: c466 b0bd 9571 02bd a4a1 723d 0395 bebe
00000020: c30f e9bd f2ff 8f3e 4e95 9dbe 2805 c9bd
00000030: 9ad7 b3bd 77b1 abbc 4eff d23b d862 8ebe
00000040: 2401 f6bd 7088 1f3e 87a0 90be 0398 2bbe
00000050: d2a3 823d 4fc2 d1bd 1f8e 20bf e260 57be
00000060: c38f 433d 355f 2abe 7dfe fcbe 6c3c e33d
00000070: 6bc3 f6bd 8b8a 1cbf 1761 4c3e cc1d ecbc
00000080: aaf0 45be ab3e 64be d30a 2c3e bd32 5a3e
-0.3622405 -0.08366688 0.108742684 -0.16650464 -0.08613351 -0.0318466 0.059236184 -0.37223062
-0.113799594 0.28124958 -0.30777973 -0.098154366 -0.08781357 -0.020958645 0.006439126 -0.27809787
-0.12011936 0.1557939 -0.28247473 -0.16757207 0.063789025 -0.102421395 -0.6271686 -0.21033052
0.047744524 -0.16637881 -0.4941291 0.11095509 -0.12048992 -0.611489 0.19958912 -0.028822802
-0.19330087 -0.22289531 0.16801004 0.21308418

last_block.dense.weight f4 [1, 92]
00000000: 7ce9 a1bd 7785 bc3d fb18 d73d 0674 543e
00000010: 5240 6f3d 26ea 893b 3385 823e 7267 523e
00000020: 7f8b 1e3e d894 89bd 42d4 0e3e 6db3 983d
00000030: 6d8f d03e eaec 903e e866 d03d 80ca a83e
00000040: f2a4 a93d 288b af3d 08e7 893e 0e17 b83e
00000050: 7217 3ebc 124c ea3e 3655 6d3d efe6 0c3e
00000060: 0442 333d a95e cbbd 4b7e e8bd ab1b 923d
00000070: ca2d 3ebe 2313 3a3d 276e 973d 1da0 3abe
00000080: 9669 ee3e c241 fabe 91b4 0b3f dd14 eabe
00000090: 206d a23e 2037 75bd 5969 b93d 4a4a 843e
000000a0: 12e2 cbbd e277 35bd 9315 fbbd 9abd dfbd
000000b0: 5188 283e ba67 c0be 84c5 2fba af97 233e
000000c0: 8731 80be 5b97 ea3d dd95 953d 7891 823e
000000d0: f111 a2bd a4ab 253d 991d d1bc 8251 64be
000000e0: 80c5 97bd 37a3 9cbd e3dd 29be d8e3 19bc
000000f0: f937 bcbc 25ea 873d e71f edbd f40f 183e
00000100: b9cd 10bd 182c 85bd 51b9 4fbe a1e3 87bd
00000110: 72ac 40be 99d7 95be 362e 7dbe 5226 9dbe
00000120: ca9d 2ebe d7c4 723d 12d1 08be 9957 fcbc
00000130: 0832 edbc 8847 0ebe 3e12 163d a88e fdbc
00000140: 3be6 efba f07c 68bd c3aa 433d b0aa fd3b
00000150: bcc6 27bd 1a36 013e e7e2 09be ec63 7ebd
00000160: 7550 a83d 9fea a6bd e72b ee3b 5319 8abc
-0.07905862 0.09205144 0.105028115 0.20747384 0.05841095 0.004208821 0.25492248 0.20547274
0.15482901 -0.06717843 0.13948157 0.07456098 0.40734425 0.2830575 0.10175878 0.32966995
0.08283414 0.08571464 0.26934075 0.3595509 -0.0116022695 0.45761162 0.05794259 0.13759969
0.04376413 -0.09930164 -0.113522135 0.071341835 -0.18572155 0.045428406 0.07394057 -0.18225141
0.4656493 -0.48878294 0.545724 -0.45719042 0.3172388 -0.059867024 0.090532966 0.25837928
-0.09955229 -0.044303782 -0.12259974 -0.109248355 0.1645825 -0.37579137 -0.00067051523 0.15975831
-0.25037786 0.1145465 0.07303975 0.2550161 -0.07913578 0.040446892 -0.025526809 -0.22296718
-0.07410717 -0.07648318 -0.1658855 -0.009392701 -0.022975909 0.066364564 -0.115783505 0.14849836
-0.035352442 -0.06502551 -0.20285536 -0.06635214 -0.18815783 -0.2926605 -0.2472466 -0.306933
-0.17052379 0.059269752 -0.13361004 -0.030803489 -0.02895452 -0.13894475 0.03663849 -0.030951813
-0.0018302867 -0.056759775 0.047770273 0.007741295 -0.040961012 0.12618294 -0.13465463 -0.06210701
0.08218471 -0.08150219 0.007268417 -0.016857779

blocks.0.conv.weight f4 [1, 1, 9, 4]
00000000: 2753 1bbe ebe6 26be a63f 95bd 1324 c9bd
00000010: f87d 12be 07d2 11bd 2075 19be 4fa3 08be
00000020: e3c4 34bd c88b 22be 96b3 1dbe 466e b3be
00000030: 6d21 5bbd fa8e 01bf cf51 b6be 13b1 44be
00000040: b44e 9cbd 00f4 82be d609 92be ce03 803c
00000050: 9d3f 18be feeb 2ebf e062 01bf ffaa 50bd
00000060: 0396 72bd 1edb 9d3c 524e 05bd 3092 943c
00000070: 72f7 83bd 02a1 92bd 5868 9a3d a862 c239
00000080: 5540 b73c ccb0 1cbe f9c4 1abe ef64 f6bd
-0.15168439 -0.16299026 -0.072875306 -0.09821334 -0.14305866 -0.03560069 -0.14986086 -0.13343547
-0.04413308 -0.15873635 -0.15400538 -0.3504507 -0.053498674 -0.5060879 -0.3560929 -0.19208173
-0.07632199 -0.25576782 -0.2852313 0.015626814 -0.14868017 -0.68328846 -0.50541496 -0.050944325
-0.059225094 0.019269522 -0.032545395 0.018136114 -0.06443681 -0.07159616 0.07539433 0.00037076068
0.022369543 -0.15301818 -0.15114202 -0.1203097

blocks.0.dense.weight f4 [1, 92]
00000000: 0eee 793c e847 14bd 8639 82bd ae02 39be
00000010: 1914 a93d 1b89 c83d 00d6 b0bd d14b 043e
00000020: 431d c4bd fa5b a53d 6903 923d 56ba abbc
00000030: 7028 52bd 910d 97bb 50bb 5c3d 22bb 08bd
00000040: c293 273e 3471 583d 1fbf 043d 2512 553e
00000050: 1f60 4a3c 3a3a 193e c712 bf3a c4b8 883c
00000060: 3652 b63c 486e f73c 0723 c33d 8f0a 86bb
00000070: 758e 283b 1b73 513d 527d 04bd 20c0 26bd
00000080: 0b0a afbd 9114 a23c d7f7 023e 55bf b2bd
00000090: 3be3 5d3d acf1 8e3b 88fd 003e 4839 bc3c
000000a0: 7a50 94bd 1750 953c 9fd2 bd3e 393c 7fbe
000000b0: 3fb6 09bd b41f 8b3e 8134 183e 22dc 693e
000000c0: 404b 483d 63f8 473e 979b 523e d50d 273e
000000d0: 7425 fd3d 7699 143e 0f91 293e 6208 d93d
000000e0: e3bc 173e c7a4 ad3d 7736 97bd cdf1 073d
000000f0: fa52 af3c dfc5 3c3e 7d9c b0bc 1bef 563d
00000100: 3f19 babd 85c7 8c3b 27e8 c83c ba24 733d
00000110: a026 0cbe d8ec ce3c dda1 59bd c035 433c
00000120: d68d 76bb 7de7 6cbc 4898 903c b243 14be
00000130: 8fc4 9c3d 5775 1dbd eb78 b4bd 3753 6d3d
00000140: 3175 1b3d 5ba9 8abd 43b5 7fbd 2886 623d
00000150: bdb1 c93d 274d 2d3d 8479 d33d 50a5 5ebd
00000160: 7725 3dbc 8bd7 f03c 146c 093d 3123 65bd
0.015254511 -0.036201388 -0.06358628 -0.18067428 0.082557864 0.09791776 -0.08634567 0.12919547
-0.09575894 0.08074184 0.07129557 -0.020962875 -0.051308095 -0.0046097715 0.053889573 -0.03338159
0.16364959 0.052842334 0.03240883 0.20807703 0.012352019 0.14963618 0.001457774 0.016689666
0.022255998 0.030203953 0.09528165 -0.004090614 0.0025719677 0.051135164 -0.032346077 -0.04071057
-0.085468374 0.019785197 0.12789856 -0.087279 0.054171782 0.0043623056 0.12596714 0.022976533
-0.07241912 0.018226666 0.37074754 -0.24925317 -0.03362107 0.27172625 0.14863779 0.2283788
0.04889989 0.19528346 0.20567165 0.1631387 0.12360659 0.14511666 0.16559242 0.10597302
0.14818148 0.084786944 -0.07383435 0.033189584 0.021401871 0.18434857 -0.021558994 0.052474122
-0.090868466 0.0042962455 0.024524761 0.059361197 -0.1368661 0.02525942 -0.05313288 0.0119146705
-0.0037621162 -0.014459488 0.017650738 -0.14478949 0.07654678 -0.038441982 -0.08812126 0.057940688
0.03795356 -0.06770583 -0.062428724 0.055303723 0.09848354 0.042309906 0.10325912 -0.054356873
-0.011544577 0.029399654 0.033550337 -0.055941764

blocks.1.conv.weight f4 [1, 1, 5, 4]
00000000: 92a0 37be eedd 2abe 1fbc 4dbe ec7d 31be
00000010: e0ad 4cbd 147c 3e3e 877b b3bc 2627 08be
00000020: 7a4e 33be 097a fabd 334a a7bd 7a23 8f3e
00000030: 5d9d d53e 2ba6 d7bd e80c 70be d8c7 95be
00000040: 867c 99be f207 093e 951e 033e a389 01be
-0.17932346 -0.16686222 -0.20091294 -0.17333192 -0.049970508 0.1860202 -0.021909488 -0.13296184
-0.17510405 -0.122303076 -0.08168449 0.27956754 0.4172162 -0.10529741 -0.23442423 -0.2925403
-0.29977816 0.13381937 0.12804635 -0.1265016

blocks.1.dense.weight f4 [1, 96]
00000000: d39c 673d 6e4d 61bb fbbb 00bd fdbe 6dbc
00000010: 2e46 a93c 52dd 6b3d 9661 633d 9c84 823d
00000020: b24d 9c3d d3a2 9e3b 1178 cdbc 2b3b 233c
00000030: 13a7 983c 7aa6 823c 6c45 ebba cad0 663a
00000040: 6960 1ebd eace 51bd 5dc0 013d de8b 963c
00000050: 4243 3f3b e78c 753c c0ad a43c 3166 dfbc
00000060: 451c 073d 075b f6bb f89e 653d 78b0 a1bd
00000070: 088a a6bd 7739 ebbd cf51 32bc 0399 8f3d
00000080: 4c0c d3bc 9d6e 7bbd a701 1ebe 5071 d3bc
00000090: f2ab b23d 8a4a 8c3d 1303 023d 6430 6bbd
000000a0: 9705 dabd 98e0 87bd 3108 8bbd 23fd a1be
000000b0: 509b 4ebe 845b fabc 66d7 e53e 97a3 733d
000000c0: ec34 ce3e 1070 4f3e 3436 3b3e 6e74 a43e
000000d0: 267a 863e b793 9b3e 20dc a13e 6e41 aa3e
000000e0: 1943 b73e 3b94 ad3e 3feb 913e 4e6a a93e
000000f0: b046 a13e a0f3 9e3e d4f8 6d3e 04e1 823e
00000100: 6728 5f3e a5a6 553e d41f 3e3e 4628 153e
00000110: 5f5e db3d b0fc 373e 4e86 233e 767c 3d3e
00000120: 4b87 083e a298 ff3d cdf4 f43d 0b7b 8a3d
00000130: cc84 883d a674 c23d 9390 2d3d 4733 6e3d
00000140: 238a 0a3d e9f1 bfbb 2aa5 613c 5bef c03b
00000150: baf7 60bc 59c3 97bc 936f 38bd 38d5 fd3b
00000160: 920f 3bbd f3c4 29bc 72d0 f3bb 9f02 883c
00000170: 0131 723b 7946 ce3c 89fa d5bc 41bc df3c
0.056546044 -0.0034378427 -0.031429272 -0.014510867 0.020663347 0.057584114 0.055512987 0.063729495
0.07632007 0.0048411875 -0.025081666 0.009962837 0.018634355 0.015948523 -0.0017949766 0.00088049157
-0.038666163 -0.05122272 0.031677593 0.01837724 0.0029184376 0.014987207 0.020102382 -0.027270408
0.032985944 -0.0075181755 0.056059808 -0.07894987 -0.08131796 -0.1148557 -0.0108837625 0.070116065
-0.0257627 -0.061384786 -0.15430318 -0.025810868 0.08724202 0.06850155 0.031741213 -0.057419196
-0.106455974 -0.06634635 -0.06788672 -0.3163844 -0.20176435 -0.030561216 0.44890898 0.059482183
0.4027475 0.20257592 0.18282396 0.3212008 0.26265067 0.30386135 0.31613255 0.33253044
0.3579338 0.33902153 0.2849979 0.33088917 0.31499243 0.31045246 0.23239452 0.25562298
0.21792756 0.20864351 0.18566829 0.14566144 0.10711359 0.17967486 0.15969202 0.1850451
0.1333286 0.12480284 0.119607545 0.0676175 0.06665954 0.09494905 0.042374205 0.05815437
0.033823144 -0.0058576954 0.013772288 0.0058879084 -0.013730938 -0.018525766 -0.04502828 0.007746365
-0.045669146 -0.010361898 -0.00744062 0.016602812 0.0036955478 0.025180088 -0.026120441 0.027311446

blocks.2.conv.weight f4 [1, 1, 5, 4]
00000000: 99ab 3d3e af16 453e aead 1fbf ea7a a73d
00000010: 6cbb cbbd 12cb d9be ad61 023f 57ac 0fbe
00000020: df78 c1be ae51 be3e e920 66bf e454 98bd
00000030: 7786 4ebe 45bf 0ebe fc0d 60bd e4ba 143d
00000040: 2214 5bbd 4339 923d f6f2 043e e54f 89bc
0.1852249 0.19246934 -0.6237439 0.08177741 -0.09947857 -0.42537743 0.5093029 -0.14030586
-0.3778753 0.37171692 -0.89893967 -0.074380666 -0.20168482 -0.13940151 -0.054700837 0.036311045
-0.053485997 0.07139828 0.12983307 -0.01676173

blocks.2.dense.weight f4 [1, 96]
00000000: 13c8 c83c 8492 ce3b 0911 213d 75a0 423d
00000010: 2f60 763c d76b c7bd b1e0 89bd 18eb a83b
00000020: baf9 62bc f403 cbbd 4efa 0bbd 2674 e3bd
00000030: 4b92 59bc a687 89bd fca7 67be c407 75bd
00000040: b585 e3bd ac26 b0bd f6a6 93bd d355 7abe
00000050: 176b 90be 0d5c 3ebe 5a16 20be 1eaa 4bbe
00000060: 6f4c 10be f1b9 acbc 5c36 7dbe 6d63 57be
00000070: 5039 8dbc e888 89be 969c 523d ac17 353c
00000080: cd69 eebc 6172 cfbd 410d b73e 6ffa 61be
00000090: 3e7d 30bd c69b 003e 5566 b9bd d488 8dba
000000a0: 5540 6dbd 14c3 7bbe 6d12 3fbf 81cd 09bf
000000b0: d3d6 88be 2f7f 8e3d 93db 6fbe 5033 73bf
000000c0: 8a07 3cbf 9ef9 e4be 5b9e a8be 5add bebe
000000d0: 072d 01bf a0bb 03bf 8f6c 0cbf d11e 19bf
000000e0: 2a38 e2be 8b82 03bf c808 babe a438 d6be
000000f0: 4f21 c6be 6c1f c9be 8c2b cabe ec41 99be
00000100: f34b a6be 4145 9ebe be00 93be e936 51be
00000110: 7da4 7bbe 23d1 0ebe 8e87 efbd 053f 4ebe
00000120: ea12 23be a4c8 00be d48c c2bd 80d1 4ebd
00000130: 52a1 29be 57c7 2fbe 5a9b e8bd 9a8c e1bd
00000140: e2ad 0fbe 36d8 b6bd d851 b1bd 960d 6ebd
00000150: 8baa d2bd e5ba 573b 9b05 93bd edc0 a23b
00000160: 7522 82bd c4fc 64bd 437a c93c 3787 7ebd
00000170: cc91 58bd 1676 10be dc83 99bd cb20 c2bd
0.024509465 0.006304087 0.039322887 0.047516305 0.01503758 -0.09737366 -0.067323096 0.0051549785
-0.013853485 -0.099128634 -0.034174256 -0.11106138 -0.013279508 -0.06715326 -0.22622675 -0.05982186
-0.11109487 -0.08601126 -0.0720958 -0.24446802 -0.28206703 -0.18589802 -0.15633526 -0.19889113
-0.14091657 -0.021084758 -0.24727768 -0.21034022 -0.017239243 -0.26862264 0.051418863 0.011053007
-0.029103184 -0.10129238 0.357523 -0.22068189 -0.04308819 0.12559423 -0.090527214 -0.0010798224
-0.05792268 -0.24586135 -0.7463749 -0.538292 -0.26726398 0.06957852 -0.23423605 -0.9500017
-0.73449004 -0.44721693 -0.32933316 -0.37278253 -0.5045933 -0.5145817 -0.5485315 -0.5981265
-0.44183475 -0.5137107 -0.36334825 -0.41840088 -0.38697287 -0.39281785 -0.3948635 -0.29933107
-0.3247982 -0.30912212 -0.28711504 -0.20431103 -0.24574466 -0.13946967 -0.11695777 -0.20141228
-0.15925184 -0.12576538 -0.09499517 -0.050492764 -0.16565445 -0.17165886 -0.11357756 -0.11013146
-0.14031175 -0.08927958 -0.086581886 -0.058118425 -0.10286435 0.0032917794 -0.071788035 0.004966846
-0.063542284 -0.05590512 0.024594432 -0.06214067 -0.052873418 -0.14107546 -0.07495853 -0.09478911

linear.weight f4 [1, 4]
00000000: 8c7d 4e3e 9b04 b63e a554 a23e 3b6a 0ebe
0.2016508 0.3555039 0.31705204 -0.13907711
