models/100bp_arround_STRends_models/hg38A_.pt (torch, 8968 bytes, 11 tensors)

last_block.conv.weight f4 [1, 1, 15, 4]
00000000: 1904 7cbc 0d61 85bc 1df6 b8bd ec63 27be
00000010: b614 47bd 8b49 363e 40d7 35bd 8c72 64be
00000020: 2c3a 14bd fa60 783e 5c0a 02bf 2137 1cbe
00000030: e793 cabc 5829 783c 3182 aabd bcfa c5bd
00000040: 3077 2b3d 1d7a c8bd 1868 d13d 920a 3bbe
00000050: 099d e9bc 7049 e9bd 0d30 263d 335d afbc
00000060: a1d3 4bbd 794a d33c c728 f2bd f5b4 c93d
00000070: eada 963d f7d5 423c 5ea8 5fbd 5b47 9d3c
00000080: 47e0 8abc 7697 e9bd 6852 0b3d a78d 383c
00000090: 338b b3bd d475 d63c f9f8 203c 430b d93b
000000a0: bc6b abbe 93c3 b73d cb41 313e e905 a0bd
000000b0: 43a6 3fbc c0d3 443e d801 183d 5720 8abd
000000c0: b1bd 83be e1a5 fcbd ec67 453e 7552 98be
000000d0: 34d2 24bd 25d3 f9be ec78 563e b30d 12bf
000000e0: 853d 1abe 73f6 ab3c 45a8 df3d 69a2 4dbe
-0.015381836 -0.016281629 -0.090313174 -0.16346711 -0.048603736 0.17801492 -0.04439473 -0.22309321
-0.03618829 0.24255744 -0.5079706 -0.15255405 -0.024728728 0.015146576 -0.08325613 -0.096669644
0.041861713 -0.09788916 0.102249324 -0.18265751 -0.028517263 -0.1139096 0.04057317 -0.021406746
-0.049762372 0.025792347 -0.11824184 0.09848968 0.07365973 0.0118918335 -0.054603927 0.019199064
-0.016952647 -0.11405842 0.034014136 0.011264241 -0.087667845 0.026179232 0.009824985 0.006623657
-0.33480632 0.0897285 0.17310254 -0.07813627 -0.011697355 0.19221401 0.037111133 -0.067444496
-0.2573066 -0.123363264 0.19277924 -0.2975041 -0.040239528 -0.48793903 0.20944566 -0.57052153
-0.1506253 0.02099154 0.10920767 -0.20081486

last_block.dense.weight f4 [1, 86]
00000000: 6440 53bd 5802 46bc 9ecf 69bc e291 87bd
00000010: e17d b6bb 6442 b8bc 8f5a 17bd a6e8 20bd
00000020: d391 36bc 2ed3 0cbd 8954 c4bc cbf1 0ebd
00000030: 8782 103d 5f42 cd3c af32 abbc 35b8 acbb
00000040: a9f1 34bc cec9 b5bc 2fbc 1e3a 938c 85bd
00000050: ee86 823c 96f6 edbb 0619 b0bb 021d 603d
00000060: bc81 0f3a 5d6c 48bd 9b6c f9bc 613c 04be
00000070: b644 29bd bdad 95bd 5613 e1bc 926c 663d
00000080: 5a4b debc e1e2 1cbd e271 373d 41c9 81bd
00000090: 3786 9cbd 888e 05bc fcd1 0ebd e15e e4bd
000000a0: c570 d5be d255 bdbe ed91 acbe 9196 9cbe
000000b0: 3f6b b0be 01a4 9fbe 8f2c 42be 66e7 30be
000000c0: b038 e2bd c11f 79bd 39f4 2fbe 26ec 7dbe
000000d0: ffcc a1be 90f9 abbe fc14 80be db39 4dbe
000000e0: fcf5 45be 1dc5 18be 9cf2 0cbe 8b04 18be
000000f0: 6d70 0dbe 6ea0 27be bf7d c4bd 88ab d5bd
00000100: ee5f 22bd 6d6b 7ebd 6108 e5bc cd22 50bd
00000110: 0157 b2bd 4da5 09be 43ff 06be 9828 efbd
00000120: f13c 48be a9f9 36be c4ce 1ebe fe32 21be
00000130: 194c c3bd d104 25be 6168 40be 4a0a 1ebe
00000140: 98c0 1fbe 6a62 43be ab24 6bbe 4c1b 14be
00000150: 4294 d9bd f679 19be
-0.05157508 -0.01208552 -0.014270691 -0.06619622 -0.005569205 -0.022492595 -0.036951598 -0.03928437
-0.011143166 -0.034381084 -0.02396609 -0.03489856 0.03528073 0.025056062 -0.020898191 -0.0052709826
-0.011043944 -0.022190955 0.0006055263 -0.06520953 0.01593348 -0.0072620614 -0.005374077 0.054715164
0.0005474349 -0.04893147 -0.030447295 -0.12913658 -0.041325293 -0.073085286 -0.02747504 0.056255884
-0.02713554 -0.038302306 0.04478634 -0.06337214 -0.07642787 -0.008151658 -0.034868225 -0.11150909
-0.416876 -0.36979538 -0.33705083 -0.30583623 -0.34456822 -0.31179813 -0.1896231 -0.17275771
-0.110459685 -0.0608213 -0.17183007 -0.24797115 -0.31601712 -0.3358884 -0.2501601 -0.20041601
-0.19332117 -0.14918943 -0.13764423 -0.14845483 -0.13812418 -0.16369793 -0.09594297 -0.104331076
-0.039642267 -0.062114168 -0.027958097 -0.05081444 -0.08708001 -0.13441963 -0.13183312 -0.116776645
-0.19554497 -0.17868675 -0.15508562 -0.15742108 -0.09535999 -0.16115119 -0.18789817 -0.15433612
-0.15600812 -0.1908051 -0.22963206 -0.14463538 -0.10623981 -0.1498793

blocks.0.conv.weight f4 [1, 1, 18, 4]
00000000: b2b2 c93c ca62 68bb b98f 78bd 881f 9f3c
00000010: 15be 4b3e 9217 83bf 5c3a 29be 28a0 30be
00000020: 4ffb 70bf 3ca9 743f 5543 663e 6485 35bf
00000030: e808 8fbe bc2d bf3e 2f2e 67be 6182 4a3e
00000040: 28a8 1a3d 2fc6 a4bc e386 563d f622 8dbd
00000050: bb17 033d 592e 4d3d c78b b13d a6f8 2d3d
00000060: 51dc e23d b2de d83d ef1b 6c3d a2ed 9f3d
00000070: f4ae 9b3d 6402 a03d 092f 8c3c 331b 493d
00000080: 14d6 213c b492 37bc 6907 e6bc bec1 b0bc
00000090: 7bce de3c cd3f 6e3c 6adf 733c bf9d ee3c
000000a0: ea1f b53c 4653 6dbc 8488 cb3c 0215 5fba
000000b0: b436 4fbd 2428 e3bc 2687 a9bd 036b 1ebd
000000c0: d279 77bb 6cc1 9fbc 7d5d 333c 1efc 8c3b
000000d0: 40f8 fa3b a20a d93b ce42 5e3c e22d 613c
000000e0: cb4e 993c 8df7 213d acc3 dd3c 5762 3d3d
000000f0: 785b 87bd 116c 7bbd 4285 65bd 39c8 39bd
00000100: 357f 59bd 5bc7 54bd b281 1cbd ac99 8abd
00000110: cc57 cc3b b4b3 753b eab8 023d fc18 183d
0.024621341 -0.0035459273 -0.06068394 0.019424215 0.1989673 -1.0241568 -0.16526169 -0.17248595
-0.94133466 0.9557073 0.22486623 -0.7090666 -0.27936482 0.3733958 -0.22576211 0.19776298
0.037758023 -0.020114033 0.05237473 -0.06891434 0.032005053 0.05009303 0.086692385 0.042473458
0.11077178 0.10589351 0.057643827 0.07808997 0.07601729 0.07812956 0.017112272 0.049098205
0.0098777 -0.01120441 -0.028079705 -0.021576758 0.027198067 0.0145415785 0.014884809 0.029127954
0.022109944 -0.014485186 0.02484537 -0.00085099053 -0.05058928 -0.027729101 -0.08277731 -0.038676273
-0.003776182 -0.01950141 0.010947582 0.0043025156 0.0076589882 0.006623582 0.013565732 0.0137438495
0.01871433 0.039542723 0.027070843 0.046236362 -0.06609243 -0.061382357 -0.056035288 -0.045356963
-0.05309983 -0.051947933 -0.038209625 -0.06767592 0.006236052 0.0037491145 0.03191463 0.037133202

blocks.0.dense.weight f4 [1, 83]
00000000: 57c6 1a3c 4421 373c d727 383c 51d1 253c
00000010: e13e 353c a45d 6b3c 37d7 653c 6b4e 733c
00000020: b554 a13c e6a4 a73c 9a31 953c d3aa ab3c
00000030: 3d54 0e3c c417 6a3c 6f46 873c a62c 483c
00000040: 4501 323c 6245 933c 2f5c b63c 5596 8d3c
00000050: 0a6c b33c 610b 993c 1029 983c 421f cb3c
00000060: a009 e43c 16c6 be3c d9f1 d53c f2f1 963c
00000070: 88d2 c33c 8baf 8c3c b7e1 593c e9ae b83c
00000080: f64b c63c 6f5a 703c 9d1c 913c e6f8 d73c
00000090: f669 583d 1a52 fc3d a0ba 253e 8953 533e
000000a0: 0fa9 5d3e 7c07 a03e 20d6 893e 1383 853e
000000b0: 2a65 993e dc94 8ebc 070c f2bd c07f 8c3c
000000c0: 3663 a5be d323 9cbe 930b b1be c39d bbbe
000000d0: 5455 bfbe ded2 cdbe 14f8 cdbe 74cb d2be
000000e0: dd6b cabe c167 c8be cd23 c2be 6cd0 b7be
000000f0: 6574 afbe 1b3b a8be f9a8 a2be c77b 95be
00000100: f764 8dbe 5849 89be 5d95 7dbe 4f31 6fbe
00000110: 0736 5bbe edbe 41be f5f6 35be 091d 24be
00000120: 6473 1bbe ec01 13be 0ba4 01be a1c1 00be
00000130: d289 e1bd aa34 d1bd 9354 b3bd 26c9 a3bd
00000140: 9409 85bd 487a 61bd 16f4 1fbd
0.009446702 0.011177365 0.011239967 0.010120706 0.011062355 0.014365587 0.014028362 0.014850239
0.019693712 0.020464372 0.018212128 0.020955479 0.008687076 0.014287893 0.016513078 0.012217676
0.0108645605 0.01797742 0.022260753 0.017283598 0.021902103 0.018682184 0.018574268 0.024795178
0.02783662 0.023287814 0.026116299 0.018425915 0.0239041 0.01717355 0.0132984435 0.022544341
0.024206143 0.014669999 0.01771384 0.026363801 0.052835427 0.12320347 0.16184473 0.20637335
0.21646522 0.3125571 0.26921177 0.26076564 0.29959995 -0.017404966 -0.118187 0.01715076
-0.32302254 -0.30496082 -0.34579143 -0.366438 -0.37369788 -0.4019994 -0.4022833 -0.41170847
-0.39535418 -0.39141658 -0.3791794 -0.359012 -0.3426849 -0.32857594 -0.3176954 -0.29195997
-0.27616093 -0.2681377 -0.24764009 -0.23358653 -0.21407329 -0.18920489 -0.17769988 -0.16026701
-0.15180737 -0.14356202 -0.12660234 -0.12573864 -0.11012615 -0.10215123 -0.087563656 -0.079973504
-0.064959675 -0.055048257 -0.039051138

blocks.1.conv.weight f4 [1, 1, 13, 4]
00000000: 472c 1e3c 2adc e8bd 4940 543c 3e61 c7bd
00000010: e215 1e3b d66e 85bd 5e1b 84bd fa31 53bb
00000020: 051b e03c 0061 f0bd 68b0 f1bc b2ca 37bd
00000030: 8073 adbc 9e3d 583c 1f66 b8bd 4c61 5f3d
00000040: 95e2 6c3c f883 21be 0ee9 563c 3925 1d3e
00000050: 6f30 963d cb1f 6e3d 6d2e abbd 778c b4bf
00000060: 906c d33e 2216 e7be 7394 b1bf 0168 c2be
00000070: beb7 293e 4cae e6bd 822a dcbe c043 0cbe
00000080: dce4 fe3d 2f58 e0bd bc1b 293d 1f19 8ebd
00000090: b52e f93b 3bda d13c 5608 303c cf2e 37bd
000000a0: ba6d ef3a 5600 33bd 8940 acbc 9bbb 39bd
000000b0: ab65 f9bc 9d81 2fbd 262b a0bd 34a7 c7bd
000000c0: 0ee0 a4bc d2d0 00be 110d eebc 4887 90bd
0.009654111 -0.11370118 0.01295478 -0.09735344 0.002412193 -0.06515281 -0.064505324 -0.0032225833
0.027356634 -0.11737251 -0.029503062 -0.04487104 -0.021173239 0.013198284 -0.09003853 0.05453615
0.014458318 -0.15772998 0.013117088 0.1534623 0.07333457 0.05813579 -0.083584644 -1.4105366
0.41293764 -0.45134073 -1.3873428 -0.37969974 0.16573998 -0.11263713 -0.4300118 -0.1369772
0.12445995 -0.1095432 0.041286215 -0.06938385 0.007604445 0.025616756 0.010744175 -0.044722375
0.0018266954 -0.043701492 -0.021026867 -0.04534493 -0.030443987 -0.04284822 -0.0782073 -0.09748688
-0.020126369 -0.12579659 -0.029058965 -0.07057053

blocks.1.dense.weight f4 [1, 88]
00000000: b4fd 27bd 30f5 a3bc fd08 e8bc 8fdc 06bd
00000010: c551 5fbd 6ba6 22bd 3e6b 4bbd 5ecd 46bd
00000020: 3e9c 3fbd 26fa 59bd 682b f9bc aa3b 1abd
00000030: 9944 32bd 2563 72bd a1b0 5fbd 7f6d 51bd
00000040: a2ac 7cbd 554c 59bd 3399 40bd 62e6 90bd
00000050: bf03 62bd 585a 64bd 4b72 8fbd 5477 89bd
00000060: b7df a2bd 6147 afbd 3dbc b2bd 73dd d1bd
00000070: ffcd adbd 0f53 82bd 01f3 94bd 7411 16bd
00000080: ecee b8bc 950b 7fbd 5e06 7fbd d024 d2bd
00000090: cfb7 c9bd 01c1 70be f848 56be 6a68 acbe
000000a0: 1759 47be 473f 42bd 0ad4 e0be dc81 b03d
000000b0: d2ec c43d a7cb 443e 3329 4c3e e1d9 063e
000000c0: 4817 163e 427e ec3d 9199 eb3d bd98 0e3e
000000d0: 2e50 1b3e 723c 183e e4c5 143e fb64 403e
000000e0: 30ce 5e3e 365d 633e 62df 543e 9197 583e
000000f0: ad03 653e e018 593e 7db0 5c3e 78a9 443e
00000100: ca1e 453e 5b74 433e 5b13 303e 42c1 253e
00000110: 5fc7 1c3e d05e f13d f84f ec3d ffbd e93d
00000120: 2936 b43d ab33 bf3d 88f0 ba3d 98e0 863d
00000130: 9451 953d 5748 a23d 00dc f33c a425 7dbc
00000140: 2ea8 a3bb 5754 0fbd 420e dfbc bbf1 b3bc
00000150: 8805 18bd 331d 13bd 4ada 24bd db22 86bd
-0.041013435 -0.020014375 -0.028324598 -0.032925185 -0.05452134 -0.03970949 -0.04966282 -0.048535697
-0.046779864 -0.053217076 -0.030416206 -0.037654556 -0.04352245 -0.059176583 -0.054611806 -0.051129814
-0.061688073 -0.05305131 -0.047021102 -0.07075192 -0.055179354 -0.05575022 -0.070042215 -0.06712213
-0.079528265 -0.08558536 -0.0872731 -0.10247316 -0.08486556 -0.063634984 -0.07272912 -0.03663774
-0.022574864 -0.062266905 -0.06226193 -0.10260928 -0.09849512 -0.23511125 -0.20926273 -0.33673412
-0.19467579 -0.047423627 -0.43911773 0.08618519 0.096154824 0.19218312 0.19937591 0.13169052
0.14657319 0.11547519 0.115039 0.13925453 0.15167305 0.14866808 0.14528614 0.18788521
0.21758342 0.22203526 0.20788339 0.21151568 0.22364683 0.21200895 0.215517 0.19205272
0.19250026 0.19087355 0.17194884 0.16187003 0.15310429 0.11785662 0.1153869 0.11413192
0.08799393 0.09336027 0.09127909 0.065858066 0.072909504 0.07923954 0.02976799 -0.015450869
-0.004994414 -0.034992542 -0.027228478 -0.021965852 -0.03711465 -0.03591652 -0.04024724 -0.06549617

blocks.2.conv.weight f4 [1, 1, 18, 4]
00000000: 019d 953d 44d7 a7bd 9b17 dd3d 0fb5 673a
00000010: ec0e 203c 894d 683e fb5c e13c 4a1d 293d
00000020: bfdb 81bd 29f7 ff3c 7377 c53d ed78 44be
00000030: b931 bebd 11f3 2f3e c7ae a7be 3a98 4cbd
00000040: e819 62bd 43a3 2dbd b152 de3d f5e7 10be
00000050: 1ea8 82bd 139b 1e3e 3e22 0c3d 7e0e 37be
00000060: 2c09 0b3c 3cf8 f5bd f4ee 893e e6dc 7dbd
00000070: 6f3b bdbd 7e47 013e 63a7 1dbe b313 9b3b
00000080: 34d9 94bc 7d84 32be 900b d13d b62d e5bd
00000090: 0083 6fbd fc13 f73d bea6 78bd 9f70 ec3c
000000a0: 355c a73c 214c 16bd c519 083d bbe0 42bd
000000b0: 1c90 5dbe 0244 7bbe fd4f e03d 474d 82be
000000c0: 790c 0ebe cc0e e83e 0299 66be 8d49 eabf
000000d0: bc5b 72bd aa9f 71bd 05c0 1d3f c371 85bc
000000e0: 177b 80bd c200 41bc 3070 a83d ca8a aebd
000000f0: d501 e6bb 1cd7 ea3d 2b07 d7bd ec3c 71bd
00000100: 43cb 01bd 713c 1ebe d643 213d 89fa abbd
00000110: c393 2cbd 092b 0fbe ce92 94bd 9d10 3ebe
0.07305337 -0.081953555 0.10795518 0.00088389305 0.009769183 0.22685827 0.027510157 0.041287698
-0.06340741 0.031245785 0.09641924 -0.19186755 -0.092868276 0.17182566 -0.32750532 -0.049949862
-0.055200487 -0.042392027 0.10855616 -0.14150985 -0.06379722 0.15488844 0.034212343 -0.17876622
0.008486073 -0.120102376 0.2694012 -0.061978243 -0.09239852 0.12624928 -0.15395884 0.004732573
-0.018169977 -0.17433353 0.102072835 -0.11190359 -0.05847454 0.120643586 -0.060705893 0.028862296
0.02042971 -0.036693696 0.0332277 -0.0475776 -0.21637005 -0.24537662 0.109527566 -0.25449583
-0.13871945 0.4532379 -0.22519305 -1.8303696 -0.059169516 -0.05899016 0.61621124 -0.016289597
-0.062734775 -0.011779966 0.08224523 -0.08522566 -0.0070192614 0.1146681 -0.10499414 -0.05889599
-0.031687986 -0.15452744 0.039371334 -0.08397395 -0.042133104 -0.1398126 -0.07254563 -0.18561025

blocks.2.dense.weight f4 [1, 83]
00000000: bd26 a1bc 9e2f 9bbb a710 a03b 20ab 9dbc
00000010: 1a6c ae3b 4981 c4bb 8bfd ddbc 9e06 2dbc
00000020: 1078 7f3c 83e4 2fbc 59e5 60bc b6b9 bbbc
00000030: 2f6e d5b8 64ea f03b 9cee 473b 5942 80bb
00000040: 7137 6fbc 7f2b 5ebc 2b25 7c3c 5501 673c
00000050: ed62 ae3c 6fe9 1d3c 844f afbb 7a55 93bc
00000060: c3a6 833d ad6f 933d daef 983d c37d c5bc
00000070: c2ed c83d 69bb 5d3e 91f9 2a3e 9879 4cbe
00000080: 5302 77bf b770 7dbf d36a 13be 782e 343e
00000090: 5712 4b3e 827c 8b3e 11f7 e53e 0fcc 013f
000000a0: 914c 153f d2f3 283f 1c46 0c3f 1fb2 1f3f
000000b0: a2f0 f03e 9c70 b73e 3a2f 923e 8e2c 633e
000000c0: 5a90 6d3e e1f1 983e f298 ad3e 7d56 b73e
000000d0: d0a4 c83e 0204 b93e 0284 b93e 8017 a13e
000000e0: 6eb7 883e 9350 863e 9c55 8e3e 6611 8c3e
000000f0: d1c6 863e 9416 653e 9ff8 413e 2d80 153e
00000100: efe0 3a3e b0c7 143e 8a9c b13d da52 013e
00000110: 4ded 213e cc2b f73d 0ebe e93d d6da dd3d
00000120: 29f7 d03d 3d58 f23d f654 f53d fbf1 a13d
00000130: e516 e73d 5fe9 c13d 915e c23d 7513 7e3d
00000140: 993b cb3c 8bee 443d 624f 9f3d
-0.019671792 -0.004735901 0.0048847976 -0.019246638 0.0053229453 -0.0059968573 -0.027098438 -0.01056066
0.01559259 -0.010735634 -0.013726556 -0.022915702 -0.00010177155 0.0073521603 0.0030507213 -0.0039141593
-0.014600621 -0.013560175 0.015389721 0.014099439 0.021287406 0.009638174 -0.005350055 -0.017985094
0.06428292 0.07199035 0.07467623 -0.02410782 0.09810974 0.21653523 0.16696765 -0.1996826
-0.9648792 -0.99000114 -0.14396219 0.17595851 0.19831215 0.2724343 0.4491506 0.50701994
0.58319956 0.6599704 0.5479448 0.62381166 0.47058588 0.35828102 0.28551656 0.22184965
0.23199597 0.2987204 0.3390575 0.35808173 0.39188242 0.3613587 0.36233526 0.31463242
0.26702446 0.26233348 0.2779969 0.27357024 0.2632356 0.22371894 0.18942498 0.14599676
0.18249868 0.145293 0.086724356 0.12629262 0.1581318 0.120689005 0.11413203 0.10832755
0.10203392 0.11833236 0.11979096 0.07907482 0.11283664 0.0946834 0.09490693 0.062030274
0.024808692 0.048079055 0.07778813

blocks.3.conv.weight f4 [1, 1, 18, 4]
00000000: 47ea 853b 2d37 903c 0077 853d 0491 933c
00000010: 8ecf b63c eb10 793d 53de 113d 12d1 133d
00000020: 80d1 423c 4fa1 acbc 47b3 8a3c 50ca d2ba
00000030: 3894 7bba 6b51 b4bc 416b 41bd 247f 653b
00000040: 0db9 c33c 9ad5 efbd d21a c03c aab3 aabc
00000050: d8f7 e3bb ee55 61be 8752 413d a60b 95bc
00000060: 9a5e 00bf 33eb 9fbe 2c3e 933d ff69 c73e
00000070: 22f6 b13e 5f90 29be 6e94 44be 180b 9bbe
00000080: a2f7 25bd 309d c5bb 11be 193e 4850 d13d
00000090: 5a74 eebc 2ea6 e7bb 03da 75bc 9b23 323c
000000a0: e1fb 383d 585e 0e3d e1fa 8f3d f786 913d
000000b0: 1207 823c 1b77 183c 9e96 48bc 7926 923a
000000c0: 02fd c7bc e154 79bd 1828 87bc 07a9 ecbc
000000d0: b55c 05bd 85ac efbb f6f6 b6bc 8a0e a7bb
000000e0: 18c6 f0bb 0bef 05bc d53b cabb dfd4 ca3b
000000f0: 0344 20bb 6863 603b cd1e 8c3c a993 0d3c
00000100: 3d57 003d 94ad 453d 4e3a 113d 5f6b 693d
00000110: 047e 4d3c daea 793c 6231 073d 0b40 f23c
0.004086766 0.017604435 0.06516838 0.018013485 0.022315767 0.06080715 0.035612416 0.036088057
0.011890769 -0.021073012 0.01693119 -0.0016082022 -0.00095969765 -0.02201148 -0.047221426 0.0035018409
0.02389195 -0.11710663 0.023450289 -0.020837624 -0.0069570355 -0.22005436 0.047197845 -0.018194031
-0.5014435 -0.3123413 0.07189593 0.38948056 0.34758097 -0.1655898 -0.19197246 -0.302819
-0.040519364 -0.006030701 0.15013911 0.102203906 -0.029108215 -0.0070693707 -0.015005591 0.010872747
0.045162085 0.034757942 0.07030273 0.071058206 0.015872512 0.009305741 -0.012242941 0.0011150382
-0.024412636 -0.060871962 -0.01649861 -0.028889192 -0.032559115 -0.007314267 -0.022334557 -0.0050981687
-0.0073478334 -0.008174668 -0.0061716833 0.006189927 -0.00244546 0.0034238938 0.01710453 0.008641162
0.031333197 0.04826124 0.035455994 0.056987163 0.0125422515 0.015253747 0.03300608 0.029571554

blocks.3.dense.weight f4 [1, 83]
00000000: c93d bfba 7465 49bb 6bbf a13a c1e8 13bc
00000010: 7c46 8bbb 6e13 2dbc c65d a6bc 5f8f 64bc
00000020: 0815 4abb 2424 26bc 5ff1 adbb 9519 d3bb
00000030: 848a 84bb 9fbd 15bc fed5 19bc 4271 16bc
00000040: 774e 2bbb f3ae 22bc 94e3 f739 b6e5 b6ba
00000050: 5e0a f2bb ba87 13bc 3cec 21bc b3e8 09bc
00000060: bef5 63bb 9377 b0ba 2d90 ebbb 7452 95bc
00000070: 1f60 57bb 8fea 38bb 9207 3d3c c9fd ba3c
00000080: 8f28 eb3c d117 30bd 4b85 03be 9b57 1dbe
00000090: 5b9e 83be cad7 9bbe adcd c0be cede c6be
000000a0: d6a1 90be dda3 fdbe 2675 af3e 7fea 623d
000000b0: a3ee 623e ce05 553e 5721 693e e341 663e
000000c0: e323 673e a5f2 7f3e 57ca 803e d889 803e
000000d0: e70d 813e 41dd 763e 2933 733e f241 6c3e
000000e0: 0b0f 6a3e 22a6 633e d296 593e c949 523e
000000f0: 9eb1 4a3e f978 3e3e 90a2 303e ecea 2c3e
00000100: 8ecd 203e f3f9 133e 23c1 063e c66c f23d
00000110: 551c d93d 2ab5 c73d 9fe4 bf3d 68c6 9f3d
00000120: bbcb af3d 06d1 9f3d a4b3 863d cb0f 783d
00000130: 3883 733d 35a7 653d a899 f53c 0648 323c
00000140: e55a 8b3b aabf 85bb 079a 9237
-0.0014590557 -0.0030730637 0.0012340372 -0.009027661 -0.0042503458 -0.010563714 -0.020308387 -0.013950198
-0.003083529 -0.0101404525 -0.0053083147 -0.0064422586 -0.0040448327 -0.0091394475 -0.009389399 -0.009182276
-0.0026139298 -0.009929406 0.0004728107 -0.0013953957 -0.00738649 -0.009004528 -0.009882983 -0.008417296
-0.0034783925 -0.001346337 -0.007188818 -0.018227793 -0.003286369 -0.002821598 0.011537449 0.022826092
0.028705863 -0.042991463 -0.12843816 -0.1536545 -0.25706753 -0.3043807 -0.37656918 -0.3884186
-0.2824847 -0.4953908 0.34269065 0.055399414 0.22161345 0.20802996 0.22766624 0.22486071
0.22572283 0.24994905 0.25154373 0.25105166 0.2520592 0.24107839 0.23749985 0.23072031
0.22857301 0.22231343 0.2124894 0.2053596 0.19794318 0.18600835 0.17249513 0.1688649
0.15703413 0.14450817 0.13159613 0.11837153 0.10601107 0.09751351 0.09369778 0.07801515
0.085837804 0.0780354 0.065772325 0.060561936 0.05945131 0.056067664 0.029980496 0.01088143
0.004252779 -0.004081686 1.747628e-05

linear.weight f4 [1, 5]
00000000: 3a55 2a3e 1a3b 85be 9edc 503e a665 223e
00000010: 7b3e e63e
0.16634074 -0.26021653 0.20396659 0.15859088 0.44969544
