models/100bp_arround_STRends_models/hg38AC_.pt (torch, 10211 bytes, 13 tensors)

last_block.conv.weight f4 [1, 1, 8, 4]
0.038590964 -0.20473796 -0.0013625259 0.11263785 -0.11724416 0.110781945 -0.084562324 -0.05263113
0.16768806 -0.04003738 0.16301084 0.08989651 0.08314795 0.07818872 0.01381109 0.11774155
0.032808382 0.0017417538 0.09900219 -0.043907963 0.14678596 0.093939885 0.07833488 0.02500322
-0.0030894233 0.0053669973 0.059210394 0.034938186 -0.042841192 -0.09529148 0.09939028 -0.026965544
00000000: 8f11 1e3d d4a6 51be c896 b2ba acae e63d
00000010: b51d f0bd a5e1 e23d 032f adbd bd93 57bd
00000020: 6bb6 2b3e 3cfe 23bd 50ec 263e a91b b83d
00000030: 7949 aa3d 6821 a03d e947 623c 7b22 f13d
00000040: 1562 063d 8f4b e43a a9c1 ca3d d6d8 33bd
00000050: 0f4f 163e 8e63 c03d 0a6e a03d 8ed3 cc3c
00000060: ec77 4abb a3dd af3b 9986 723d 581b 0f3d
00000070: 3f7a 2fbd 2e28 c3bd 228d cb3d d8e6 dcbc

last_block.dense.weight f4 [1, 93]
-0.030580375 -0.0653702 -0.07659883 -0.05513387 -0.017631914 -0.043011483 -0.044146933 -0.049925517
-0.022101546 -0.030607954 -0.087542415 -0.06442473 -0.03300676 -0.0267755 -0.03118465 -0.0794254
-0.114498496 -0.08754441 -0.029083693 -0.016137041 -0.061842345 -0.055265717 -0.015659818 0.009901834
-0.05004294 -0.074053645 -0.06824243 -0.06773934 -0.09278554 -0.096999735 -0.065718725 -0.0705089
-0.113880165 -0.12497439 -0.09952755 -0.061764356 -0.01599165 -0.016273724 -0.028095149 -0.028594472
-0.10985423 -0.073300965 0.025158508 0.02738466 0.016018523 -0.018703299 -0.10378438 -0.06714224
0.01241005 -0.019529091 0.09277617 -0.05107981 -0.082160294 -0.03918037 -0.06266294 -0.046431072
-0.04287311 -0.079822175 -0.09964578 -0.058928113 -0.030293172 -0.07041474 -0.06645109 -0.06534301
-0.05637051 -0.030569602 -0.07235242 -0.072481684 -0.036539257 -0.03801421 -0.07730192 -0.04611708
-0.09391714 -0.027607173 -0.03885758 -0.07189068 -0.06337078 -0.061427426 -0.053000193 -0.04912646
-0.026335299 -0.048700217 -0.019284422 -0.060944937 -0.04890091 -0.041674588 -0.028334914 -0.07022702
-0.04031632 -0.004999818 0.033129472 0.02769773 -0.003098596
00000000: b283 fabc d0e0 85bd d9df 9cbd 0ed4 61bd
00000010: ce70 90bc cf2c 30bd 6ad3 34bd b37e 4cbd
00000020: 4d0e b5bc 88bd fabc 7049 b3bd 1df1 83bd
00000030: 1932 07bd 4b58 dbbc f376 ffbc c9a9 a2bd
00000040: 307e eabd 7c4a b3bd ed40 eebc d431 84bc
00000050: 664e 7dbd 4e5e 62bd 0549 80bc 4d3b 223c
00000060: d3f9 4cbd 70a9 97bd b0c2 8bbd ecba 8abd
00000070: 5806 bebd cca7 c6bd 8a97 86bd f866 90bd
00000080: 013a e9bd 93f2 ffbd 1ad5 cbbd 9ffc 7cbd
00000090: ec00 83bc 7950 85bc cc27 e6bc f43e eabc
000000a0: 41fb e0bd d11e 96bd 3719 ce3c cb55 e03c
000000b0: 4739 833c a937 99bc e88c d4bd df81 89bd
000000c0: 8653 4b3c 79fb 9fbc 6f01 be3d 1039 51bd
000000d0: a843 a8bd 987b 20bd 6d55 80bd 822e 3ebd
000000e0: b79b 2fbd cf79 a3bd 1613 ccbd 9b5e 71bd
000000f0: 6329 f8bc 9a35 90bd 8217 88bd 8ed2 85bd
00000100: c4e4 66bd 1a6d fabc 812d 94bd 4771 94bd
00000110: 30aa 15bd cab4 1bbd 7850 9ebd 43e5 3cbd
00000120: a157 c0bd 7028 e2bc 2029 1fbd 6c3b 93bd
00000130: 8ac8 81bd 539b 7bbd bb16 59bd d438 49bd
00000140: 20bd d7bc e179 47bd 5dfa 9dbc 66a1 79bd
00000150: 524c 48bd f9b2 2abd 9f1e e8bc 2fd3 8fbd
00000160: ba22 25bd 83d5 a3bb c5b2 073d 5ae6 e23c
00000170: d011 4bbb

blocks.0.conv.weight f4 [1, 1, 6, 4]
-0.12676205 -0.23794858 -0.2804632 -0.19742338 -0.10940718 -0.1619573 -0.16091225 0.09475221
0.14045219 0.10598913 -0.20026606 0.26231793 -0.13612106 -1.8696938 -0.4496802 0.7056967
-1.7497234 0.18915774 0.7206118 -1.9299588 -0.5358985 -0.36114526 0.47987428 -0.57882345
00000000: e9cd 01be cba8 73be df98 8fbe 5b29 4abe
00000010: df10 e0bd 22d8 25be 2ec6 24be 720d c23d
00000020: b3d2 0f3e d410 d93d 8c12 4dbe 894e 863e
00000030: 5263 0bbe 2052 efbf 7c3c e6be 8aa8 343f
00000040: f0f6 dfbf 91b2 413e 047a 383f e408 f7bf
00000050: a530 09bf 08e8 b8be 15b2 f53e c62d 14bf

blocks.0.dense.weight f4 [1, 95]
0.026371045 -0.07523443 -0.04964951 -0.051337104 -0.054276675 0.0021526862 -0.06764921 -0.02148089
-0.071366355 -0.049168088 -0.05208311 -0.08553998 -0.042975746 0.0015689455 -0.06793315 -0.06739022
-0.0030872342 0.10023262 0.047409117 -0.031289954 0.031023106 -0.046634477 0.025452534 0.07976559
0.14120337 0.14170648 0.06640657 0.05763177 0.18573238 0.23673353 0.0844768 0.087598726
0.20960942 0.051841315 0.26766568 0.13490029 0.3428378 0.16362356 0.01846738 0.16626783
-1.5445212 1.4753915 1.1929276 1.0806224 1.4873425 0.9563988 1.4033475 1.1414479
1.0712858 0.95891654 1.0206441 0.987016 0.9185335 0.94154406 0.935317 0.9126087
0.8573695 0.77206564 0.75310355 0.7283501 0.69749933 0.61014265 0.6305139 0.62113094
0.5737569 0.4580505 0.46844703 0.4380732 0.3425197 0.4526322 0.3477681 0.30279964
0.36618045 0.30148754 0.30093312 0.28184718 0.20886473 0.2045261 0.19278881 0.17489508
0.14738639 0.139621 0.12157399 0.10417106 0.117723435 0.13915552 0.14029428 0.089462735
0.06734459 0.093584 0.12763564 0.12615085 0.066465475 0.064002484 0.021581002
00000000: 1708 d83c 8214 9abd 495d 4bbd db46 52bd
00000010: 3851 5ebd 1514 0d3b ab8b 8abd b1f8 afbc
00000020: 8628 92bd 7a64 49bd 1955 55bd 962f afbd
00000030: 5607 30bd 13a5 cd3a 8920 8bbd e203 8abd
00000040: 3253 4abb c346 cd3d 1030 423d e529 00bd
00000050: 2b24 fe3c cb03 3fbd d581 d03c 245c a33d
00000060: 9e97 103e 811b 113e 2b00 883d 4a0f 6c3d
00000070: a130 3e3e 466a 723e 2c02 ad3d f666 b33d
00000080: daa3 563e 8f57 543d 7a0b 893e 4d23 0a3e
00000090: 7088 af3e ef8c 273e e748 973c 1d42 2a3e
000000a0: dfb2 c5bf a1d9 bc3f dab1 983f d651 8a3f
000000b0: 3d61 be3f 8dd6 743f e4a0 b33f f71a 923f
000000c0: e51f 893f 8e7b 753f 77a4 823f 15ad 7c3f
000000d0: 0325 6b3f 0809 713f ef70 6f3f b9a0 693f
000000e0: 917c 5b3f 18a6 453f 65cb 403f 2775 3a3f
000000f0: 518f 323f 4f32 1c3f 5c69 213f 7002 1f3f
00000100: bbe1 123f 9885 ea3e 4ad8 ef3e 214b e03e
00000110: be5e af3e 68bf e73e a90e b23e 8e08 9b3e
00000120: 017c bb3e 935c 9a3e e813 9a3e 464e 903e
00000130: a3e0 553e 4a6f 513e 6e6a 453e b217 333e
00000140: 75ec 163e cff8 0e3e c9fb f83d a357 d53d
00000150: fc18 f13d c97e 0e3e 4ea9 0f3e 3d38 b73d
00000160: f6eb 893d f8a8 bf3d ebb2 023e b02d 013e
00000170: 0d1f 883d bc13 833d a4ca b03c

blocks.1.conv.weight f4 [1, 1, 13, 4]
-0.09073465 0.010209505 -0.16638908 -0.08425798 0.17156531 0.12685081 -0.005275856 -0.118305005
0.025014078 -0.112398095 0.30164278 0.11169561 -0.04016927 0.31057942 -0.81858814 -0.511035
0.34785247 -1.3872163 1.2260481 -0.5239109 -2.6457682 0.75204176 -2.2346804 -3.2989788
-0.120589025 -1.3842247 -0.14764504 1.2830627 0.4669996 -0.27658617 0.21240523 -1.2690564
-0.71742344 0.38360327 -0.05647467 -0.028975666 0.073267475 -0.023402244 -0.29243577 0.106936
-0.06257818 -0.16400976 -0.030389203 -0.1258305 -0.053587426 -0.14786576 0.038830765 -0.06309049
-0.22660261 -0.0069093336 -0.1896612 -0.15945803
00000000: 17d3 b9bd c545 273c e661 2abe 738f acbd
00000010: d1ae 2f3e 2ee5 013e 16e1 acbb e549 f2bd
00000020: 53ea cc3c f930 e6bd ec70 9a3e abc0 e43d
00000030: 8888 24bd 4404 9f3e fe8e 51bf 31d3 02bf
00000040: b819 b23e 4e90 b1bf 25ef 9c3f 061f 06bf
00000050: 4454 29c0 cf85 403f 0105 0fc0 7822 53c0
00000060: 61f7 f6bd 462e b1bf 4330 17be 663b a43f
00000070: 921a ef3e b49c 8dbe c280 593e 7170 a2bf
00000080: 10a9 37bf a667 c43e fc51 67bd 605e edbc
00000090: 420d 963d 10b6 bfbc 24ba 95be 4301 db3d
000000a0: fd28 80bd 2df2 27be c7f2 f8bc b6d9 00be
000000b0: 7d7e 5bbd 1f6a 17be 020d 1f3d 9635 81bd
000000c0: 840a 68be b167 e2bb 8c36 42be f748 23be

blocks.1.dense.weight f4 [1, 88]
0.043223415 0.04178412 0.08970368 0.07850581 0.09302423 0.11452446 0.07632674 0.11995803
0.1518117 0.047967292 0.16056909 0.12172822 0.13676246 0.11380095 0.15509833 0.1142256
0.1169956 0.123120904 0.060321216 0.23578264 0.11324028 0.16518281 0.08352641 0.12877123
0.14221483 0.18127117 0.23005518 0.18230778 0.2996858 0.21634907 0.30575684 0.3307443
0.41881782 0.5678903 0.53599536 0.65344495 0.58702874 0.50867915 0.86845803 0.87545615
0.7817777 0.8562113 1.9099126 0.8323285 0.98154813 0.85293305 0.7114454 0.8144027
0.8027268 0.8017676 0.75847155 0.75095356 0.68492514 0.6966814 0.60111064 0.64348054
0.64737594 0.5717402 0.57243645 0.5299347 0.5332713 0.49743402 0.45461825 0.43221542
0.40988785 0.35527384 0.35256928 0.3851057 0.3099565 0.24448092 0.21462668 0.23865873
0.22830504 0.22442773 0.17908108 0.14616229 0.07902434 0.10166163 0.0947647 0.09914022
0.16584855 0.057600714 0.10486956 0.0069570066 0.049542066 0.0017915448 0.03614531 0.049684696
00000000: 090b 313d d325 2b3d 90b6 b73d a7c7 a03d
00000010: 7d83 be3d cd8b ea3d 3251 9c3d 8eac f53d
00000020: 8774 1b3e 5a79 443d 396c 243e a54c f93d
00000030: 750b 0c3e 7910 e93d 19d2 1e3e 1def e93d
00000040: 649b ef3d d026 fc3d 6113 773d 0171 713e
00000050: 85ea e73d af25 293e e50f ab3d 9bdc 033e
00000060: c4a0 113e 269f 393e 9693 6b3e e4ae 3a3e
00000070: 6b70 993e 9c8a 5d3e 298c 9c3e 5157 a93e
00000080: 4a6f d63e 4261 113f fe36 093f 2b48 273f
00000090: 8447 163f cc38 023f 4453 5e3f e51d 603f
000000a0: 9522 483f aa30 5b3f 0478 f43f 7b13 553f
000000b0: bd46 7b3f d259 5a3f 4921 363f b27c 503f
000000c0: 817f 4d3f a440 4d3f 312b 423f 7e3e 403f
000000d0: 4157 2f3f b659 323f 63e2 193f 24bb 243f
000000e0: 6eba 253f 915d 123f 328b 123f cda9 073f
000000f0: 7884 083f acaf fe3e b9c3 e83e 574b dd3e
00000100: d2dc d13e 74e6 b53e f683 b43e 932c c53e
00000110: 9eb2 9e3e 3559 7a3e 19c7 5b3e f462 743e
00000120: ccc8 693e 62d0 653e 0861 373e 91ab 153e
00000130: 83d7 a13d f933 d03d ff13 c23d 070a cb3d
00000140: 34d4 293e baee 6b3d dac5 d63d 9af7 e33b
00000150: 9fec 4a3d 45d2 ea3a 1b0d 143d 2e82 4b3d

blocks.2.conv.weight f4 [1, 1, 11, 4]
-0.2399469 -0.09075284 -0.16078436 0.081773125 -0.09368972 0.03708286 -0.10569545 0.2677822
-0.4932653 0.06399719 -0.10397905 0.19375755 -0.07061317 -0.31082103 -0.34120208 0.24522015
-0.81407297 -0.3869691 -0.41424003 0.5458285 -0.30422938 -0.036297455 -0.39615074 0.46037924
-0.13686076 0.40232244 -0.1501087 -0.16007237 0.3907003 -0.08685893 0.06627457 -2.553292
0.06313808 -0.33307147 0.09271768 0.038333695 0.0015019301 -0.05322206 0.27301335 0.0014430488
0.10967616 0.21435 -0.034004655 -0.11875943
00000000: a4b4 75be a0dc b9bd a8a4 24be ab78 a73d
00000010: 65e0 bfbd 32e4 173d db76 d8bd c01a 893e
00000020: 458d fcbe f510 833d f8f2 d4bd 6168 463e
00000030: a39d 90bd ef23 9fbe 0ab2 aebe fe1a 7b3e
00000040: 1667 50bf d020 c6be 4517 d4be 6bbb 0b3f
00000050: f4c3 9bbe a4ac 14bd 45d4 cabe d4b6 eb3e
00000060: 3a25 0cbe 35fd cd3e 18b6 19be 03ea 23be
00000070: df09 c83e 18e3 b1bd f6ba 873d 2369 23c0
00000080: 8a4e 813d 5888 aabe c4e2 bd3d cb03 1d3d
00000090: 69dc c43a 60ff 59bd 68c8 8b3e af24 bd3a
000000a0: e59d e03d 917e 5b3e 7748 0bbd 2538 f3bd

blocks.2.dense.weight f4 [1, 90]
-0.036683653 0.014181045 -0.014530227 -0.065462686 -0.06078673 -0.03542104 -0.025326483 -0.051676936
-0.044150054 -0.07356264 -0.06404206 -0.11039636 -0.0359455 -0.058437157 -0.08514998 -0.09793353
-0.055117376 -0.039243944 -0.11601331 -0.02373241 -0.04927285 -0.053901743 -0.113703325 0.056157712
-0.0616847 -0.06866895 -0.007708194 -0.066902615 -0.022364583 0.05995349 -0.09659455 -0.07288878
0.061509594 0.042771194 -0.14853093 -0.1837925 -0.21642405 -0.16709502 -0.018854199 -0.099641204
-0.33084252 -1.5263056 -1.2684942 0.6074294 0.052809756 0.686738 0.41428164 0.3229356
0.45562592 0.51990366 0.4864515 0.46809697 0.4581771 0.44549328 0.4213512 0.44209346
0.41854742 0.37562013 0.40272623 0.31884605 0.30172238 0.3256641 0.3183869 0.30757296
0.2936682 0.26969865 0.2857239 0.2591335 0.17680304 0.19203062 0.22219762 0.12334223
0.15647 0.121440224 0.1248346 0.13971022 0.11250344 0.11330503 0.13430645 0.102016
0.10195701 0.047140826 0.076000586 0.105944 0.006739093 0.034797307 0.07064813 0.013675743
0.04006799 0.077468775
00000000: 9941 16bd 9d57 683c 3010 6ebc 4d11 86bd
00000010: 82fb 78bd a715 11bd 7c79 cfbc 32ab 53bd
00000020: b0d6 34bd 02a8 96bd 7c28 83bd 7d17 e2bd
00000030: 973b 13bd cd5b 6fbd 1d63 aebd 6091 c8bd
00000040: c2c2 61bd 42be 20bd 6398 edbd 796a c2bc
00000050: 54d2 49bd 13c8 5cbd 4add e8bd a105 663d
00000060: 19a9 7cbd 4ea2 8cbd 0595 fcbb 3d04 89bd
00000070: ee35 b7bc ca91 753d 5dd3 c5bd b646 95bd
00000080: 7cf1 7b3d d930 2f3d 7e18 18be 1a34 3cbe
00000090: 449e 5dbe f51a 2bbe 1f74 9abc b010 ccbd
000000a0: 3164 a9be fb5d c3bf 055e a2bf 7e80 1b3f
000000b0: 0b4f 583d 10ce 2f3f b91c d43e d157 a53e
000000c0: cd47 e93e 6818 053f 2c10 f93e 68aa ef3e
000000d0: 3096 ea3e b217 e43e 58bb d73e 135a e23e
000000e0: d94b d63e 4851 c03e 2232 ce3e ca3f a33e
000000f0: 5b7b 9a3e 72bd a63e 9c03 a33e 347a 9d3e
00000100: ae5b 963e f115 8a3e 674a 923e 25ad 843e
00000110: db0b 353e ada3 443e c687 633e da9a fc3d
00000120: ac39 203e a7b5 f83d 48a9 ff3d 3210 0f3e
00000130: 3468 e63d 780c e83d a187 093e c4ed d03d
00000140: d6ce d03d bd16 413d 32a6 9b3d 2bf9 d83d
00000150: 9cd3 dc3b 9f87 0e3d f7af 903d 3910 603c
00000160: 551e 243d f3a7 9e3d

blocks.3.conv.weight f4 [1, 1, 8, 4]
0.19408919 0.14280933 -0.87858796 -0.32385388 -0.3043486 0.35134324 -0.6324531 -1.8293048
0.10476742 0.32879072 -0.6018401 -0.66780967 -0.14314596 -0.048223346 0.3018567 -0.19830903
-0.063060515 -0.42872906 -0.050928406 -0.2813636 -0.04338186 -0.28981104 0.24048713 0.51056397
0.025040297 0.2533718 -0.115526065 -0.004811246 0.18087396 -0.2819222 0.1523137 0.032703005
00000000: 51bf 463e 9c3c 123e 24eb 60bf 2dd0 a5be
00000010: 94d3 9bbe 43e3 b33e 72e8 21bf a926 eabf
00000020: 4d90 d63d 4257 a83e 3112 1abf 93f5 2abf
00000030: db94 12be d885 45bd f68c 9a3e 8611 4bbe
00000040: df25 81bd 6082 dbbe 4e9a 50bd e40e 90be
00000050: 2db1 31bd 1d62 94be 4242 763e 52b4 023f
00000060: 4f21 cd3c f3b9 813e ee98 ecbd a8a7 9dbb
00000070: 0637 393e 1b58 90be 1ff8 1b3e 96f3 053d

blocks.3.dense.weight f4 [1, 93]
-0.21071532 -0.123948544 -0.10330429 -0.1382397 -0.18566622 -0.09975214 -0.2115068 -0.19602786
-0.24199776 -0.1772153 -0.17091434 -0.26954597 -0.21090549 -0.25347078 -0.34075302 -0.27019748
-0.34569347 -0.31072304 -0.2935111 -0.27410164 -0.13296296 -0.26266107 -0.38758758 -0.39543337
-0.31940374 -0.34063056 -0.35179597 -0.24971513 -0.3663542 -0.2173817 -0.35515323 -0.3569665
-0.38646236 -0.24889255 -0.3963872 -0.27501932 -0.30324298 -0.31772825 -0.6122037 -0.5323292
-0.59340125 -0.38723138 -0.5790388 -0.5678039 -0.9733629 -1.1641245 -0.06393278 0.17815232
0.3317207 0.4328521 0.4944226 0.4921442 0.53641516 0.4583425 0.3548029 0.34496263
0.32350755 0.2973634 0.24344867 0.29398832 0.1918575 0.27037668 0.25225773 0.13151863
0.18699315 0.25464705 0.23911238 0.20032565 0.23177627 0.15955152 0.13524707 0.12501943
0.1336093 0.13019358 0.17876436 0.12323454 0.11561435 0.09362729 0.13030909 0.13234562
0.0812461 0.10045611 0.08611629 0.06421455 0.06656549 0.123856805 0.011657467 0.013795363
0.050788213 -0.0015771177 0.006359169 0.020394612 -0.056173842
00000000: c2c5 57be bcd8 fdbd 3391 d3bd b58e 0dbe
00000010: 491f 3ebe da4a ccbd 3d95 58be 87bb 48be
00000020: 43ce 77be ed77 35be 2b04 2fbe ee01 8abe
00000030: 9cf7 57be ecc6 81be 2e77 aebe 5357 8abe
00000040: bcfe b0be 1717 9fbe 1647 96be 0d57 8cbe
00000050: 7127 08be 837b 86be e171 c6be 3e76 cabe
00000060: e388 a3be 2167 aebe 9a1e b4be 53b5 7fbe
00000070: c792 bbbe 4f99 5ebe a5d6 b5be 50c4 b6be
00000080: 65de c5be b0dd 7ebe 43f3 cabe 55cf 8cbe
00000090: aa42 9bbe 47ad a2be 62b9 1cbf ba46 08bf
000000a0: 25e9 17bf 3143 c6be e33b 14bf 995b 11bf
000000b0: 502e 79bf 0802 95bf 30ef 82bd 906d 363e
000000c0: 4cd7 a93e ca9e dd3e f624 fd3e 53fa fb3e
000000d0: 8152 093f deab ea3e baa8 b53e f19e b03e
000000e0: c8a2 a53e 0440 983e 9c4a 793e a385 963e
000000f0: 4b76 443e d06e 8a3e ed27 813e d2ac 063e
00000100: 227b 3f3e 1961 823e e0d9 743e 2b22 4d3e
00000110: c256 6d3e 7961 233e 357e 0a3e 1805 003e
00000120: e0d0 083e 7751 053e 010e 373e 6462 fc3d
00000130: 37c7 ec3d aabf bf3d bf6f 053e 9c85 073e
00000140: 5b64 a63d efbb cd3d bd5d b03d eb82 833d
00000150: 7d53 883d a3a8 fd3d f6fe 3e3c f205 623c
00000160: 4d07 503d 4ab7 ceba 9360 d03b 9a12 a73c
00000170: 8b16 66bd

blocks.4.conv.weight f4 [1, 1, 16, 4]
-0.16912358 0.025801007 -0.084757425 -0.04403571 0.06485172 0.040281914 0.15002888 -0.0054107523
-0.08333712 0.022788113 -0.081676744 -0.0071386313 -0.030076733 0.03354666 -0.05250239 0.029470839
-0.26680434 0.15576324 -0.06098225 0.06243977 -0.022918355 -0.18967627 0.14004411 0.01284824
-0.33194596 0.13252252 -0.093995884 0.3440676 0.5673267 -0.6444181 -0.11015405 -0.94619054
0.86805826 -1.7583236 -2.261793 -1.0517824 0.021520818 0.13234936 -0.47003084 0.41453028
-0.3381901 -0.13805547 0.2243739 0.22337316 0.19187772 -0.07323335 -0.008156132 -0.12045683
-0.049427077 0.054298703 -0.022677401 0.11330105 0.062374674 0.014101407 0.043490503 -0.14792588
-0.075364396 0.12170676 -0.021395374 0.059342567 0.024979375 0.021884417 0.11163193 -0.024640447
00000000: bb2e 2dbe a25c d33c 4d95 adbd ca5e 34bd
00000010: fbd0 843d a6fe 243d 2ca1 193e ae4c b1bb
00000020: a7ac aabd 23ae ba3c 2346 a7bd 2eeb e9bb
00000030: 7b63 f6bc 3968 093d bf0c 57bd d46c f13c
00000040: 949a 88be 6680 1f3e 86c8 79bd d8c0 7f3d
00000050: 46bf bbbc 7f3a 42be b967 0f3e 6d81 523c
00000060: d2f4 a9be fcb3 073e ea80 c0bd a129 b03e
00000070: 533c 113f 96f8 24bf 7298 e1bd 8b39 72bf
00000080: 1139 5e3f bf10 e1bf 37c1 10c0 cea0 86bf
00000090: 6d4c b03c 9786 073e e2a7 f0be 503d d43e
000000a0: 4127 adbe 6a5e 0dbe 46c2 653e efbb 643e
000000b0: 987b 443e 5efb 95bd 4ca1 05bc 12b2 f6bd
000000c0: 0c74 4abd 5168 5e3d f5c5 b9bc 620a e83d
000000d0: 967c 7f3d 9609 673c 1923 323d e279 17be
000000e0: a658 9abd 6541 f93d 5a45 afbc 3111 733d
000000f0: 8ca1 cc3c f346 b33c 489f e43d c3da c9bc

blocks.4.dense.weight f4 [1, 85]
0.0055723726 -0.03824431 0.028789967 -0.003261706 -0.0005124393 0.0107498355 0.008267943 -0.0010619978
-0.019430945 -0.028853577 0.0046270797 -3.3442257e-06 0.009046311 0.0588452 -0.00073736795 0.023327773
-0.03483536 0.047350038 -0.0018549191 0.028716322 0.045572624 0.06783145 0.043939836 0.06642561
0.093900956 0.14575164 0.05169785 0.10810411 0.062452268 0.09743798 0.16678266 0.06625827
0.14889069 0.15529919 0.31751412 0.38421035 0.29833966 0.43361202 0.49890366 0.49964204
0.019667987 -0.2077846 0.40135774 0.6618901 0.6034253 0.5566211 0.52119666 0.47780403
0.4917977 0.45269457 0.438767 0.42550585 0.42252406 0.37731162 0.37685087 0.3717136
0.32933736 0.2847285 0.31464985 0.30048445 0.26831633 0.26376364 0.2112343 0.2078311
0.22830065 0.1908185 0.16793253 0.18447585 0.19171157 0.14344585 0.1763064 0.13869964
0.15110093 0.15407509 0.1427077 0.12261421 0.101402044 0.0868471 0.096919775 0.07019296
0.052605297 0.07146751 0.05740995 0.066186406 0.057593666
00000000: 7398 b63b 11a6 1cbd f0d8 eb3c 59c2 55bb
00000010: 3855 06ba 1420 303c 4476 073c bc32 8bba
00000020: a52d 9fbc 565e ecbc c29e 973b 5c6d 60b6
00000030: fa36 143c aa07 713d ed4b 41ba e319 bf3c
00000040: 86af 0ebd 1df2 413d c220 f3ba 7e3e eb3c
00000050: 5caa 3a3d 37eb 8a3d 42fa 333d 260a 883d
00000060: 254f c03d eb3f 153e 20c1 533d b065 dd3d
00000070: f3cd 7f3d 908d c73d 13c9 2a3e 6ab2 873d
00000080: cd76 183e c006 1f3e 3691 a23e 38b7 c43e
00000090: fabf 983e 6502 de3e 4d70 ff3e 15d1 ff3e
000000a0: c21e a13c 7cc5 54be c37e cd3e a171 293f
000000b0: 157a 1a3f b87e 0e3f 256d 053f bba2 f43e
000000c0: e8cc fb3e 95c7 e73e 11a6 e03e e7db d93e
000000d0: 1355 d83e fd2e c13e 99f2 c03e 3f51 be3e
000000e0: e89e a83e efc7 913e c919 a13e 19d9 993e
000000f0: c260 893e 070c 873e ce4d 583e add1 543e
00000100: a5c7 693e ed65 433e 81f6 2b3e 3de7 3c3e
00000110: 0a50 443e 78e3 123e aa89 343e 4707 0e3e
00000120: 34ba 1a3e dcc5 1d3e f821 123e 291d fb3d
00000130: e0ab cf3d e4dc b13d e07d c63d 54c1 8f3d
00000140: a778 573d 8f5d 923d b226 6b3d bd8c 873d
00000150: 56e7 6b3d

linear.weight f4 [1, 6]
-0.24584149 -0.08534609 0.06484778 -0.085671075 -0.07443228 -0.09743393
00000000: dfbd 7bbe eec9 aebd eace 843d 5174 afbd
00000010: f46f 98bd 718b c7bd
