models/100bp_arround_STRends_models/hg38CTTTTT_.pt (torch, 4215 bytes, 5 tensors)

last_block.conv.weight f4 [1, 1, 7, 4]
000000 8f d8 d0 3d 42 da 56 bd 65 f3 10 3e 4d 03 f7 bd
       0.10197555 -0.05245424 0.14155348 -0.120611764
000010 40 7c 64 be cf 8e cf 3d 51 59 a9 bd 41 5b f6 3d
       -0.22313023 0.101346605 -0.08268989 0.12029124
000020 bd d3 12 be 7b 6c 3c 3e 2a a4 ac bd d3 e6 45 3d
       -0.14338584 0.18400757 -0.08429749 0.048315834
000030 7a 2c 87 bd a6 09 83 be 24 8a 4f 3d c7 fc df 3d
       -0.0660028 -0.255933 0.05066885 0.10936885
000040 a9 68 5a 3d d2 e9 f5 3d 4f 0e b5 3e c0 0a 97 be
       0.053322468 0.12007488 0.3536248 -0.2950039
000050 63 d8 11 bf 18 1f 22 3e be 63 d9 be 49 2a 46 3e
       -0.56970805 0.15832174 -0.4245891 0.19352068
000060 a9 91 9f 3d 3a e9 ad be 19 0c 40 3d 3e 0d 34 be
       0.07791454 -0.33967 0.046886537 -0.17583176

last_block.dense.weight f4 [1, 94]
000000 3b c0 43 3c 27 bb 89 3c a1 93 65 bc 5c c2 a0 3c
       0.011947687 0.016812874 -0.014012248 0.019623928
000010 d6 a5 85 bd 58 3c 55 3d 05 a5 b8 bc e1 47 65 3c
       -0.06525771 0.0520595 -0.022539625 0.013994188
000020 6f ab 16 3c 33 70 ea bb 56 03 60 bc 65 d1 04 3d
       0.009196146 -0.0071544885 -0.01367267 0.032426257
000030 fd d3 3e bb 0e ea 7f bd 47 d9 9d bc 09 dd 33 bd
       -0.0029118054 -0.06247907 -0.019268645 -0.043911967
000040 92 ee c7 bc 8e 66 7a bc 0b 7b 16 3d cb 04 6c bd
       -0.024405751 -0.01528324 0.036738437 -0.05762176
000050 1d 2a db 3c 2a 57 45 bd b1 ef a5 bd c1 5e 97 bd
       0.02675348 -0.04817883 -0.08102358 -0.0739112
000060 a3 d1 b4 bd a4 7b 4c 3b ad dd 75 bd 58 ea 84 bd
       -0.088290475 0.0031201625 -0.06002586 -0.0649001
000070 d9 df ff bc 8b d9 8a bc 49 01 ed bc 49 f0 b7 bd
       -0.031234669 -0.016949436 -0.028931277 -0.08981378
000080 94 6d d4 3c 16 e9 25 bd 39 52 33 bc 7a ae 6b bd
       0.025931157 -0.04050549 -0.010944896 -0.05753944
000090 fe 4d 31 be 6a 12 a3 bd 8a ae 75 bd b8 4a d8 bd
       -0.17314908 -0.079624966 -0.059980907 -0.105611265
0000a0 d2 1f 0b be 26 d0 08 be 1e a7 16 be bf b9 92 bd
       -0.13586357 -0.13360652 -0.14712188 -0.071643345
0000b0 1a 7c c9 bd 17 91 12 be c1 13 c6 be 3f 4c c6 be
       -0.098381236 -0.1431316 -0.38686946 -0.38730046
0000c0 14 c8 d1 be c0 19 fa be 25 3d 13 bf 02 02 d8 be
       -0.4097296 -0.4884777 -0.57515174 -0.42189032
0000d0 ef 3c a9 be 08 2d af be 5b 4c ff be 2f 95 cf be
       -0.330543 -0.34214044 -0.49862942 -0.40543506
0000e0 58 2e d9 be 64 ee 86 be 22 aa 90 be 4c 4c 7b be
       -0.4241817 -0.26353753 -0.282548 -0.24540824
0000f0 3b 17 3a be 6b e7 65 be 25 64 d4 bd 16 34 30 bc
       -0.18172924 -0.2245156 -0.103706636 -0.010754606
000100 ee 1d 5f bc 70 90 cf bc 7c 95 48 be cc 0a fd bd
       -0.013617976 -0.025337428 -0.19588274 -0.12355575
000110 58 ed d8 bd c7 a0 a0 bd 77 7f d3 bd 19 39 18 be
       -0.10592145 -0.07843166 -0.10327046 -0.14865531
000120 63 90 2f bd 29 dd d5 bd 04 5c 44 bd a0 b5 7c 3d
       -0.042862307 -0.104425736 -0.047939315 0.06169665
000130 f4 ee 06 bc 74 e7 40 3b da 88 65 3d 4c 91 57 3d
       -0.008235682 0.0029434832 0.056038715 0.0526288
000140 da d2 0f 3d 86 61 a8 3d ba 99 ce 3d ef 3f 1d 3e
       0.035113193 0.08221726 0.10087915 0.1535642
000150 96 9a 68 bb 38 9a b8 3c 35 80 4e bd 1c 58 35 3c
       -0.003549253 0.022534475 -0.050415237 0.01106837
000160 ab 0a 27 3c 35 cf 4b 3d ed 4e 2e 3c de 34 88 3d
       0.010195415 0.049758155 0.010638935 0.066507086
000170 dc 62 1e bd b6 13 c6 3b
       -0.0386685 0.00604483

blocks.0.conv.weight f4 [1, 1, 16, 4]
000000 3b 57 02 3e 52 18 64 be ae fe a7 3e a9 91 0a bd
       0.12728588 -0.22274902 0.32811493 -0.03383032
000010 22 0c 26 bd c9 80 16 3d 67 f8 af be 88 a9 01 3e
       -0.040538915 0.036743913 -0.34369203 0.12662327
000020 93 db 0e bf c5 7f 1f 3e e7 a0 e4 bd 5c a8 2f 3e
       -0.55803794 0.15576084 -0.11163502 0.17154068
000030 a0 93 a1 3e e8 02 ff 3d 38 0b 8d 3e a1 9c 4c be
       0.3155794 0.12451726 0.27547622 -0.19981624
000040 57 fd aa 3e 6f 3f c9 be 6d c1 c7 bd dd 8a 08 3d
       0.33396408 -0.39306208 -0.0975369 0.033335555
000050 49 68 dd 3d 63 81 15 be 9e de ab 3d 45 dd 09 3d
       0.108109064 -0.14600138 0.0839207 0.033658285
000060 5a 8a 93 3d 8a 5b ad be 90 23 a8 be 39 72 2d 3e
       0.07204123 -0.338589 -0.32839632 0.16938104
000070 01 ff 71 3e b2 17 df bd 1f b3 92 3e b4 f5 88 be
       0.23632433 -0.108931914 0.28652284 -0.26749957
000080 e4 18 d9 be 57 b0 23 3e 64 3a 6f be a8 f9 0a 3e
       -0.42401803 0.15985237 -0.23362118 0.13571799
000090 79 bd e2 3e 87 57 b4 3c 88 ff 3e be 0e 0a a5 bc
       0.4428518 0.022014393 -0.18652165 -0.020146396
0000a0 db 66 d6 bd 8a e4 e3 3d 9b 88 ef 3e 9a 46 aa be
       -0.10468837 0.11127575 0.4678391 -0.3325699
0000b0 32 12 4c bf fc d5 9e 3e fd ef 14 3e 0d 34 38 3e
       -0.79715264 0.31022632 0.14544673 0.17988606
0000c0 07 15 a5 bc 91 d1 98 3d 17 07 82 be c4 5c 3a 3e
       -0.020151628 0.074618466 -0.25396034 0.1819945
0000d0 8f f7 9d bd fa 04 23 be 9f c1 ad bd e6 ac 0e 3e
       -0.07713234 -0.15919867 -0.08484196 0.13933143
0000e0 0a 18 2f 3e ca 33 00 3f e3 96 fd bc e6 10 ae be
       0.17099014 0.50079024 -0.030955737 -0.33997267
0000f0 fb 4e 62 3d 62 4e 8d bd ad a1 dc 3b b3 62 f8 3d
       0.055251103 -0.06899716 0.0067331404 0.121282004

blocks.0.dense.weight f4 [1, 85]
000000 86 fd 5f 3d ce ca 87 bd 21 08 0b bc 42 82 8c bd
       0.05468514 -0.06630479 -0.008485825 -0.06860782
000010 96 57 13 3c 0a e9 35 bc a1 6f 9d bc eb f7 a6 bd
       0.00899305 -0.011102924 -0.019218268 -0.08152755
000020 23 45 e0 bc d2 45 26 be b0 f0 d0 bd f4 df 0a bd
       -0.027376717 -0.16237572 -0.102021575 -0.033904985
000030 17 6a c9 bd 5c d7 b1 bd 43 f4 00 be a1 fc 87 be
       -0.09834688 -0.08683655 -0.12593178 -0.26559928
000040 0f fd da bd c0 c3 0d be 26 9f 10 be ae 1b 4a be
       -0.10692798 -0.13844204 -0.1412321 -0.19737121
000050 7a 45 1b be c3 2c db be 2f d6 70 be 31 20 00 be
       -0.15163222 -0.42807588 -0.23519205 -0.1251228
000060 4a 57 68 bc d0 dc 4d be 3e f9 ff bd c5 cc fe bd
       -0.014180968 -0.20103765 -0.12498711 -0.124414004
000070 ed 02 ae 3e 28 df 9d 3e c8 58 5d 3d da b7 63 be
       0.33986607 0.30834317 0.054039747 -0.22238103
000080 f3 54 82 3d 5b 60 90 3e 22 39 04 3f 44 e0 9a 3e
       0.06363859 0.28198513 0.5164968 0.30249226
000090 b6 d1 86 3d c1 aa de be f7 1c 8e 3e cd df 62 3f
       0.06582968 -0.4348965 0.27756473 0.8862274
0000a0 5b 5b a3 3f 1d 31 6b 3f 2e 2f 32 3f 3e 48 89 3f
       1.2762254 0.91871816 0.6960324 1.0725172
0000b0 b3 ef 16 3f 03 25 6d 3f 97 04 05 3f 2f b2 a7 3e
       0.589595 0.926346 0.5196013 0.3275313
0000c0 a7 21 74 3e 9d 78 14 3e ac 7a 73 3e 89 cd ed 3c
       0.23840962 0.14499135 0.23777264 0.02902867
0000d0 27 14 14 3d 5a 70 ad bd b8 95 92 bd df 71 fe bc
       0.03615203 -0.08468695 -0.07157463 -0.031060157
0000e0 25 d0 01 be 54 e5 2d 3e 3e bd 19 be 81 02 ca bd
       -0.12677057 0.16982013 -0.15013596 -0.09863759
0000f0 67 64 1d be e3 14 47 be 10 26 2f bd c7 2c 30 bd
       -0.15370332 -0.19441561 -0.04276091 -0.043011453
000100 ba c1 16 3e b9 0e 04 be 43 92 0a 3e 15 55 3f 3e
       0.14722338 -0.12896241 0.13532357 0.186848
000110 90 94 9e 3e 38 08 dc 3e 15 71 60 3e 41 41 05 3f
       0.3097272 0.4297502 0.21918137 0.52052695
000120 19 99 aa 3e 32 08 1f 3f 2f f7 ac 3e 5a 37 43 3e
       0.3331993 0.6212188 0.33782336 0.19064084
000130 ed f7 19 3e a3 66 a2 3e 02 ea 8a 3c 78 f6 6d 3d
       0.15035982 0.3171893 0.016957287 0.05809638
000140 f8 46 1f 3c e4 f1 b1 bd fe b0 fd 3d 3d d3 6d 3d
       0.00972151 -0.08688715 0.12387274 0.05806278
000150 d1 92 4a 3d
       0.04945642

linear.weight f4 [1, 2]
000000 cb ea c6 be 18 30 9b 3d
       -0.38851008 0.075775325
