models/100bp_arround_STRends_models/hg38CT_.pt (torch, 8776 bytes, 11 tensors)

last_block.conv.weight f4 [1, 1, 7, 4]
000000 aa 47 59 be 0a eb ae bd dc b7 62 be 5b a1 17 be
       -0.21218744 -0.08540924 -0.2214045 -0.14807646
000010 df f2 24 be 59 07 a0 bd 2b 46 7c bd 4f 8c d5 bb
       -0.16108273 -0.078139015 -0.061590355 -0.00651697
000020 d6 3a 6b 3d 63 bc 4d bd f9 97 d4 3d f4 41 3b 3d
       0.057429157 -0.050228488 0.10380549 0.045717195
000030 93 91 37 be d7 19 78 3e 4e 71 e2 bd 8b 48 f4 be
       -0.17926626 0.24228607 -0.110567674 -0.47711596
000040 f4 81 28 bf 46 2a 85 bf bb 4e a7 be 52 1c ad 3e
       -0.6582329 -1.0403526 -0.32677254 0.3381067
000050 08 b1 d6 3e 99 c2 0b 3e d2 0a 42 bf 32 68 45 bf
       0.4193194 0.13648452 -0.7579776 -0.77112114
000060 5b 3a 6f be 6f bf 52 3d 25 b1 b3 3e fb c6 b3 3d
       -0.23362105 0.051452097 0.35096088 0.08778187

last_block.dense.weight f4 [1, 94]
000000 12 3e 40 39 28 0b 84 bd 75 9b 2c 3c b0 eb 67 bd
       0.0001833367 -0.064474404 0.010535111 -0.056621253
000010 93 be 95 bc 7e 9c 6e bd fa 9f b1 bb e0 d2 cb bc
       -0.01827935 -0.05825471 -0.005420682 -0.024880826
000020 ce 4b 12 bd 31 0a ef bd 3c 09 da bc 0d cb ef bc
       -0.035716824 -0.11671866 -0.026615731 -0.029271627
000030 6d 0a 04 bd 37 47 69 bc 35 fc 19 be 9a b1 8a bd
       -0.032236505 -0.01423817 -0.15037616 -0.06772156
000040 e5 4f 94 bd e4 7f b6 bd ac 65 92 bd 18 b1 ba bd
       -0.07241801 -0.08911112 -0.071482986 -0.09115809
000050 ee 57 c7 bd 49 14 b6 bd a1 75 d7 bd 71 d6 06 be
       -0.09733568 -0.08890588 -0.10520483 -0.1316774
000060 4c 16 b0 bd c7 f2 e0 bd 15 c2 db bd 74 04 07 be
       -0.08598003 -0.10983806 -0.107303776 -0.13185292
000070 ae 36 a9 bd c5 33 16 be 97 d8 1c be f3 ff 00 be
       -0.082623824 -0.14668186 -0.15316997 -0.12597637
000080 e4 25 19 bd 1c 81 d7 bd a0 23 16 be f1 12 6a bd
       -0.03738965 -0.105226725 -0.14662027 -0.05714697
000090 68 a4 34 3c 02 e3 4e bd d9 1a 43 bd d1 8f cb bd
       0.011025526 -0.05050946 -0.047633026 -0.0993954
0000a0 21 7c 0c be 35 b8 c5 bd 26 b1 2d be 1a be 81 3d
       -0.13719226 -0.09654275 -0.16962108 0.06335087
0000b0 7d ad 39 bd ae 2f 6d be 8d ab e0 be cc b3 14 bf
       -0.045331467 -0.2316272 -0.43880883 -0.5808685
0000c0 e7 96 07 bf 60 4f f0 be 8f 08 eb be e7 c2 e2 be
       -0.52964634 -0.46935558 -0.45904967 -0.44289324
0000d0 21 38 ee be f7 c3 d8 be 83 da e9 be fc f7 e1 be
       -0.46527198 -0.4233701 -0.45674524 -0.4413451
0000e0 f2 6a db be da 14 f0 be ca 09 ef be 6d 4c c6 be
       -0.4285503 -0.46890908 -0.46687156 -0.38730183
0000f0 9d e4 b3 be df 0e dc be e0 aa c5 be bd 7c 9a be
       -0.35135356 -0.42980096 -0.3860693 -0.30173293
000100 27 fe 8c be d0 5e 91 be f8 af ad be 2a ac 77 be
       -0.27537653 -0.2839265 -0.33923316 -0.24186769
000110 15 25 73 be 54 13 18 be 2f 26 22 be de 1c 44 be
       -0.23744614 -0.14851123 -0.15834878 -0.19151637
000120 28 ba 1d be 3b cc 33 be c4 f2 fd bd 6e e0 4d be
       -0.15403044 -0.17558376 -0.123998195 -0.20105144
000130 16 d4 25 be 18 cf f4 bd 18 bc 63 bd 2b 58 c8 bd
       -0.16194186 -0.119535625 -0.055599302 -0.09782442
000140 58 22 b9 bd ac fc 18 bd 80 9c 10 bd c9 05 16 bd
       -0.09039754 -0.03735034 -0.0353055 -0.03662661
000150 4f aa b7 bd 58 fe 98 bd e4 94 78 bd 32 c2 2d 3c
       -0.08968031 -0.07470387 -0.06068887 0.010605382
000160 dc 63 18 bd e5 43 bb bb d4 42 66 3b 26 96 29 3c
       -0.03720461 -0.005714881 0.0035135048 0.01035074
000170 d0 56 45 bc 04 7a 31 3c
       -0.0120446235 0.010832313

blocks.0.conv.weight f4 [1, 1, 15, 4]
000000 fd 40 91 be 58 1d 17 3e 84 af 4b be 7e 30 f2 3d
       -0.28369895 0.14757288 -0.19891173 0.118256554
000010 fc 4a d1 be 56 c9 52 3e 32 fa 10 be bb 13 8d 3d
       -0.4087752 0.20584616 -0.14157942 0.06888529
000020 c3 69 4a be 42 bb f2 3d a4 82 95 be ff 2d b1 3c
       -0.19766907 0.11852123 -0.29201233 0.021628378
000030 3f e2 40 be fa aa 00 be a5 a8 aa 3e fa cb b6 39
       -0.18836306 -0.12565222 0.3333179 0.0003486572
000040 af 75 9e be 24 90 c8 bd 8c 65 1f 3e ee f6 b4 3c
       -0.3094916 -0.09793118 0.15566081 0.022090402
000050 29 62 c6 be ff 79 9b 3d 40 27 74 be 98 a6 58 3d
       -0.38746765 0.07591628 -0.23843098 0.05289325
000060 06 b3 8e be 21 92 80 bd b3 8e a8 be 09 52 79 3e
       -0.2787096 -0.06277872 -0.3292137 0.243477
000070 e0 79 9e be 49 ee cf 3d 7d 3c a0 3e 76 0c 47 be
       -0.30952358 0.10152871 0.3129615 -0.19438347
000080 0b dc 06 3c 00 70 c9 b9 1a b2 d6 3e f3 f0 9b bd
       0.008231173 -0.00038421154 0.41932756 -0.07614317
000090 22 b9 b5 3e ac c5 74 3d 14 cb 11 bf 55 b2 b7 be
       0.35492808 0.059758827 -0.569505 -0.35878244
0000a0 f1 16 0a 3f c7 e7 b8 be 38 a2 3f bf b1 af a5 3d
       0.53941256 -0.36114332 -0.748569 0.08090151
0000b0 87 18 c5 3d 0a 58 6d be bf bf 81 be 52 d6 22 3e
       0.09623819 -0.23178115 -0.25341603 0.15902069
0000c0 5b d6 c5 be 2e 12 e1 3d e7 a9 1b 3e 4f 0d 31 3d
       -0.38640103 0.109897956 0.15201531 0.043225583
0000d0 ec 81 03 bb 40 73 ae be 55 76 c1 3e e1 31 e7 bd
       -0.0020066453 -0.34072304 0.37785593 -0.112888105
0000e0 eb 44 3a 3e 7d eb 84 3e a7 36 51 bd 46 0c fa bd
       0.18190353 0.25960913 -0.05107751 -0.12209372

blocks.0.dense.weight f4 [1, 86]
000000 52 11 8f 3d 65 2f ce 3d eb de 91 3c fd 8f f1 3d
       0.069857255 0.100676335 0.01780649 0.11795042
000010 6a f4 75 bc d1 3a 06 3e 86 bd e9 3d d7 61 95 3d
       -0.015011886 0.13108374 0.11413102 0.07294052
000020 bd ae 90 3d 91 10 90 3d 09 64 0b 3e e7 05 b5 3d
       0.07064579 0.0703441 0.13612379 0.088390164
000030 02 a4 be bc fc 33 b3 3d 4a ca 42 3e f2 a9 38 3e
       -0.023271564 0.087501496 0.1902248 0.18033579
000040 6c 54 99 3d 06 13 4c 3e 1e be 6a 3d e5 b9 05 3e
       0.07486805 0.19929132 0.057310216 0.13059194
000050 39 0f d1 3d 44 46 92 3d 55 70 30 3e d2 b4 05 3e
       0.102079816 0.07142308 0.17230351 0.13057259
000060 c6 af b2 3d 3b 27 77 bb a1 57 72 3d 4c 2a 42 3d
       0.087249324 -0.0037712592 0.0591656 0.04740362
000070 70 0f f3 3d 16 96 98 3e 06 aa 96 3e 22 ca be 3e
       0.11868179 0.29802006 0.29426593 0.3726359
000080 17 e2 b8 3e 19 60 c1 3e 3a f3 c6 3e 8e 05 85 3e
       0.36109993 0.3776863 0.38857442 0.259808
000090 40 37 c1 3e 7d 2d e4 3e 8c 1b 7c 3e 5b 84 58 3e
       0.37737465 0.44565955 0.24619883 0.2114424
0000a0 f4 a1 f9 bd a5 77 62 be 6e 81 07 bf 99 e4 db be
       -0.12189093 -0.22115953 -0.5293187 -0.42947844
0000b0 cd 4c bf be 3e 09 bb be b0 2e 95 be 42 f0 49 be
       -0.37363282 -0.3653049 -0.29137182 -0.19720557
0000c0 7f da 55 be 2f e1 8f be 11 17 bb be ac 52 56 be
       -0.20884131 -0.2810149 -0.36541036 -0.20929974
0000d0 d5 ec a3 be 5d 26 48 be 54 8a 32 be 8d 9c 12 be
       -0.32016626 -0.19545884 -0.1743558 -0.14317532
0000e0 95 07 80 be ec 98 8a be 3b 86 c9 bd 32 d7 80 bc
       -0.25005785 -0.27069795 -0.098400556 -0.015727613
0000f0 25 4b 1d be 53 8e 15 be 9b f9 3f 3c 60 8e bb bd
       -0.15360697 -0.14605074 0.011717225 -0.09158015
000100 73 04 27 be 80 4e 49 bc 13 1a 3d bd 0a f6 cc bc
       -0.16310291 -0.012286782 -0.046167444 -0.025019664
000110 08 8a 9e bd 1c ab 87 bb 6d 36 b0 bc 34 69 8e bd
       -0.07741171 -0.004140271 -0.021510327 -0.0695366
000120 ff ba 06 3b 28 f5 c0 bd 71 fd e4 bd 58 a3 09 bd
       0.0020558236 -0.0942176 -0.111811526 -0.033603042
000130 b2 e4 10 be f2 d4 09 bd cc 9b 92 bd 04 3d 90 bd
       -0.1414974 -0.033650346 -0.07158622 -0.07042888
000140 a9 9e ab bd c3 c8 2d bd 2f 98 45 be c9 72 1d bd
       -0.083798714 -0.04242779 -0.19296335 -0.038439546
000150 4f ac 0b bd 9f d4 db bd
       -0.034099873 -0.10733914

blocks.1.conv.weight f4 [1, 1, 17, 4]
000000 58 41 3f 3d 8f f6 92 3d 51 b8 d1 3d a7 66 a8 3d
       0.046693176 0.071759336 0.10240234 0.082227044
000010 ad 46 15 bd e4 35 b7 bd c0 5a 0f 3d a0 5f fc 3c
       -0.036444355 -0.08945826 0.034998655 0.030807316
000020 97 ad ea bd 07 5c 24 bd 50 6e 91 bd 26 60 4b 3d
       -0.11458891 -0.040126827 -0.071011186 0.04965224
000030 77 cb ef bd 8b 82 72 3c 7b 00 30 be d1 ed 1e 3d
       -0.1170873 0.014801632 -0.17187683 0.03880102
000040 ce 4b 34 be 71 d9 70 bd dc a3 43 be 3b 89 e2 3c
       -0.17607042 -0.05880112 -0.19105476 0.027653327
000050 a2 98 1d be fb 37 c2 bd e4 ff 11 bd c4 fb 1e 3b
       -0.15390256 -0.09483334 -0.035644427 0.002425895
000060 a0 cd d9 bd c9 3f f2 3c 13 c9 5f bd 9c 21 2d 3e
       -0.10634923 0.02957143 -0.05463512 0.16907352
000070 56 de 27 be 2e 81 3b be 88 92 ae bd 34 27 6b bc
       -0.16393408 -0.18310997 -0.08524042 -0.0143526085
000080 42 b4 8b bc e6 dd 5b bd a4 9d 0b 3e 43 bf 52 3c
       -0.017053727 -0.053678416 0.13634354 0.012862983
000090 82 e6 7e bd e6 f6 aa bc 39 c9 69 bd 9a f9 d0 3d
       -0.062231548 -0.020869683 -0.057076667 0.10203858
0000a0 60 ef bd be 8e 3e c5 3d 91 fb 5f bb 06 e5 4c 3d
       -0.3709669 0.09631072 -0.0034177045 0.0500231
0000b0 f2 2d d7 bc 33 a6 b5 bd 76 5a 10 bf d3 22 76 3d
       -0.026267026 -0.088695906 -0.5638803 0.060091805
0000c0 3e 49 e4 3d e5 da 7b bf 76 98 3a 3f 30 dc 40 be
       0.11146782 -0.9838088 0.72888887 -0.18833995
0000d0 ff e4 90 bf 7c 4e c7 3e 41 10 4a bf 87 90 8b bd
       -1.1319884 0.38927066 -0.7893105 -0.06814676
0000e0 84 1b d1 3d 50 f0 0b be dc 14 ea bd 23 85 35 3e
       0.10210326 -0.1366589 -0.1142976 0.17726569
0000f0 12 07 79 bd 5b 63 e6 bc 74 b8 7d 3d 4a 91 54 3d
       -0.06079776 -0.028123548 0.061943486 0.05189637
000100 a3 37 af bc 07 d4 98 3d 47 04 87 3d aa ae 70 3d
       -0.021388834 0.07462316 0.06592613 0.058760323

blocks.1.dense.weight f4 [1, 84]
000000 d0 b1 9a 3c c5 06 68 bd b0 7c 8c 3c 0b 4a 81 3d
       0.018883616 -0.05664708 0.0171493 0.06312951
000010 38 f3 09 3b a9 91 d8 ba cb 9b a3 3c 5f cd 6a bd
       0.002104951 -0.0016522902 0.019971749 -0.057324763
000020 36 2c 31 3d 06 6d 7f 3c e1 c4 83 bd 33 be bc bb
       0.043255053 0.015589958 -0.06434036 -0.005759978
000030 cc 5f 21 bd e0 64 ac bb fe e4 a1 bc 2f 53 a4 bb
       -0.039398 -0.0052610487 -0.019762512 -0.005014799
000040 04 72 36 3d d4 cd b8 3d 00 51 33 3d e9 42 8d 3d
       0.044542328 0.090236336 0.04377842 0.06897528
000050 11 98 54 3d ba 1f c9 3a cd db ab 3d 69 ec 08 3d
       0.051902834 0.0015344538 0.08391533 0.033428583
000060 97 97 55 3d e6 e4 ee 3d 81 a6 f2 3d 24 1d 67 3d
       0.05214652 0.11664753 0.11848164 0.056424275
000070 f4 d0 76 3d 39 95 a1 3d 81 7d f7 3d ee 1c 1f 3e
       0.060257867 0.0788979 0.12084485 0.1553838
000080 c6 2a e8 3d a7 56 97 3d 08 eb db bd 14 37 de be
       0.113362834 0.073895745 -0.10738188 -0.43401396
000090 6a ab 22 bf 29 74 14 bf 0d 32 ab 3e 70 54 b0 3e
       -0.6354281 -0.57989746 0.33436623 0.3443942
0000a0 b8 ed 86 3e ff 83 9c 3e a3 75 bd 3e 16 17 b9 3e
       0.2635324 0.30569455 0.37003812 0.36150426
0000b0 c9 a4 bc 3e b0 35 97 3e 50 70 99 3e 7f 64 96 3e
       0.3684447 0.29533148 0.299685 0.29373547
0000c0 89 45 b1 3e 72 73 b7 3e ec bd ac 3e 93 1e cd 3e
       0.34623364 0.35830265 0.3373865 0.4006239
0000d0 f3 c5 9c 3e e2 1e a1 3e 31 e4 79 3e 4f bb 6a 3e
       0.30619773 0.31468874 0.24403454 0.22923015
0000e0 f0 b7 3a 3e 81 33 5a 3e 6f b8 61 3e 48 09 64 3e
       0.18234229 0.2130871 0.22043012 0.22269166
0000f0 49 72 7f 3e 55 12 2b 3e 0d 0a 19 3e ff bd d8 3d
       0.2494594 0.16706212 0.1494524 0.10583114
000100 7e ae e1 3d 32 ef e0 3d 13 f9 d5 3d 13 db bc 3d
       0.1101961 0.10983123 0.10447898 0.092214726
000110 37 e3 b6 3d 6f bb 17 3e d2 e9 6d 3d 17 af 5f 3d
       0.089300565 0.14817594 0.058084317 0.054610338
000120 64 de ec 3d 17 b6 3e 3d 64 81 e3 3c d2 50 7a 3d
       0.11565855 0.046560373 0.02777166 0.061112233
000130 76 2c 2d 3d fb 47 6d 3d 38 1b 1f 3d 34 ce e1 3c
       0.04227873 0.057929974 0.038844317 0.027564146
000140 fd 92 08 bd 42 c8 6c bc 30 35 59 3d c5 3b 08 bc
       -0.033343304 -0.014452042 0.05302924 -0.008315031

blocks.2.conv.weight f4 [1, 1, 10, 4]
000000 9d 74 17 3e 35 c3 05 3e 9c f9 dd 3d 44 d3 4e be
       0.14790578 0.13062747 0.10838625 -0.20197779
000010 0c bf 80 bd 88 ec b0 3d a6 f6 d4 bd 16 71 62 be
       -0.06286439 0.08638865 -0.10398607 -0.22113451
000020 7e b0 c1 3d ef 3c 40 3e d4 76 d3 bc 24 c2 43 be
       0.09457491 0.18773244 -0.025813498 -0.19117028
000030 90 e7 20 bd d8 01 5c 3e 2d 18 59 3e 89 d6 81 be
       -0.039283335 0.21485078 0.21200629 -0.2535899
000040 3c f4 55 bd 9f bc 8e 3c d5 a3 71 bd 93 21 10 be
       -0.052234873 0.017423926 -0.058994133 -0.14075308
000050 95 99 a9 bc d4 64 89 3e 40 7c 07 3e 42 34 bf be
       -0.020703116 0.26834738 0.13230991 -0.37344557
000060 04 e8 84 3d d1 13 58 be 4e 00 c5 3e dc 6d ae bd
       0.06489566 -0.2110131 0.38476795 -0.08517048
000070 72 5e 89 be 73 5a 45 3e c3 08 6d 3d fa 52 06 be
       -0.2682987 0.19272785 0.057869684 -0.1311759
000080 1b b8 d4 3e ef 31 ef 3a 2b 9b 26 bf 83 0c 10 be
       0.4154671 0.0018249134 -0.6508052 -0.14067273
000090 05 ef 91 be 5c f1 a7 bb be 56 dc 3e a3 c8 ea be
       -0.2850267 -0.005125208 0.4303493 -0.458562

blocks.2.dense.weight f4 [1, 91]
000000 de b7 6e 3d 07 4e 1d 3d ec e4 7b 3d 97 d4 e7 3a
       0.05828082 0.03840449 0.061497614 0.0017687258
000010 8d fa b1 3c e8 aa a8 3d 1a a1 0e bd e6 1e 8d 3d
       0.021725917 0.08235723 -0.034821607 0.06890659
000020 0f 22 0e 3b 38 79 ac bd 20 97 f8 3d ac 21 41 bd
       0.002168778 -0.08421558 0.121382 -0.047151253
000030 5b b9 b0 bd 36 70 e1 3d 0a f6 58 bd c6 85 b5 3d
       -0.08629104 0.11007731 -0.052969016 0.08863406
000040 d9 d5 cb 3d 27 f7 9a 3d 45 9c 1e 3d 77 d8 20 3d
       0.099528976 0.07566672 0.03872325 0.039268937
000050 2a 1e d5 3d c0 cf b9 3d fe 7a 91 3a 82 0e 6f 3d
       0.10406144 0.09072828 0.0011099277 0.058363445
000060 0a 10 ea 3d ec 4a f2 bc 6c 92 10 3e 7a 11 c7 bc
       0.114288405 -0.029576741 0.14118356 -0.024300326
000070 25 ff 0d bd 13 0a dd 3d a8 5b 00 3e 6a 12 e9 3d
       -0.034667153 0.10792937 0.12534964 0.11380465
000080 b5 a4 e7 bd af bd e1 bd 89 3f 48 be 51 da 82 be
       -0.11310712 -0.110225074 -0.19555487 -0.25557187
000090 ec 97 aa be 8c 9d 67 be c5 9b b3 be dd 0b aa bd
       -0.33319032 -0.22618693 -0.3507978 -0.08303044
0000a0 e2 ea ce bd a6 f0 32 be 04 37 0c 3e c8 79 fd 3d
       -0.10103394 -0.17474613 0.13692862 0.123767436
0000b0 d1 9d 63 3e e0 79 b4 3e 73 e4 a1 3e d9 19 fc 3d
       0.22228171 0.35249233 0.31619605 0.123096175
0000c0 5f 9f 6d 3e 3f 2a 76 3e 5a 8f 47 3e d9 f9 8f 3e
       0.23205326 0.24039553 0.19488278 0.28120306
0000d0 26 8b b0 3e c7 69 8a 3e af 2b 82 3e ba e4 9e 3e
       0.34481162 0.27033827 0.25423953 0.3103388
0000e0 b5 75 9f 3e 80 84 a1 3e 39 75 98 3e a1 60 81 3e
       0.3114449 0.31546402 0.29776934 0.25269035
0000f0 f7 6c c5 3e 0c ee b0 3e 6e b2 59 3e 3f df 88 3b
       0.38559696 0.34556615 0.21259472 0.0041770036
000100 4b 4e c3 3c 33 36 46 3e 77 b5 8f 3e 94 e4 a5 3e
       0.023841044 0.19356613 0.28068134 0.32400954
000110 45 ce 3c 3e bb 7c e2 3d f2 d9 f6 3d 39 02 72 3e
       0.1843806 0.11058947 0.120532885 0.2363366
000120 67 6d 72 3d 95 4d 9b 3d 36 64 d3 3d 73 ed 69 3d
       0.059186365 0.07583157 0.10321848 0.057111215
000130 5d f9 b0 3d f5 8c d0 bc 34 8b 74 3d e8 c3 06 3d
       0.08641312 -0.025457839 0.059703067 0.032901675
000140 d3 cd 24 3b d2 22 1b 3c c1 15 b5 bd c8 00 ab bd
       0.0025147095 0.009468751 -0.0884204 -0.083497584
000150 af 61 04 bc 48 b5 8f 3c d1 26 1c 3e a9 a3 8c 3d
       -0.00807993 0.017542496 0.15249182 0.06867153
000160 a1 32 47 3d c3 3a e0 bc f3 6c 9e 3c
       0.048632268 -0.02737177 0.01933906

blocks.3.conv.weight f4 [1, 1, 17, 4]
000000 58 20 1a be 1e 5a 1d be c3 2e ad bd 21 b6 e5 bd
       -0.150514 -0.15366408 -0.08456185 -0.11216379
000010 b9 cb 66 bd 38 cd 08 3b c6 66 25 be fa c9 1d be
       -0.05634663 0.0020874273 -0.16152486 -0.15409079
000020 cf 17 95 be 22 eb f6 bd 82 51 89 bd 6f b7 07 be
       -0.29119727 -0.12056567 -0.067049995 -0.13253568
000030 d7 54 68 bd 39 d1 3c bd 15 6a 33 be aa cd 33 bc
       -0.056721535 -0.046097968 -0.17520936 -0.010974327
000040 44 62 60 3d 54 98 b5 3d 05 72 e9 3d 40 ee 8b be
       0.054781213 0.08866945 0.113987006 -0.27330208
000050 62 93 cd be 87 a8 81 be ff ff 46 be 9e f5 51 3e
       -0.40151507 -0.2532389 -0.19433592 0.20503852
000060 bc b8 97 3e 2d 2a b8 3d 5d 03 cf be 62 e6 fb be
       0.2963313 0.089924194 -0.40432253 -0.49199206
000070 2c 41 74 be 3a 9f 00 be 37 3a 68 3e aa 4f 87 bc
       -0.23852986 -0.1256074 0.22678457 -0.016517479
000080 ee 90 15 be a6 fb 18 3d 27 bd 2e be c5 97 02 be
       -0.14606068 0.037349366 -0.17064343 -0.12753208
000090 e4 86 7b bd 63 46 28 bb 10 6d 68 be bc 02 b0 bc
       -0.06140794 -0.002567672 -0.22697854 -0.021485679
0000a0 76 c8 0b bb 93 d3 3e be a2 61 8c 3d c4 18 5d be
       -0.00213292 -0.18635397 0.068545595 -0.21591479
0000b0 ae 69 58 be bf 3b fe 3a a3 a0 fc bd c5 9b e4 bd
       -0.21134064 0.0019396468 -0.123353265 -0.11162523
0000c0 52 04 ff bd 88 ad 6f bd aa c2 5c be af cf 95 bd
       -0.12451996 -0.0585151 -0.21558633 -0.07315003
0000d0 85 43 64 3d 80 36 eb bc 2d 2a 0e 3d 0e 76 59 bd
       0.055728454 -0.028712511 0.03470819 -0.0530911
0000e0 df 5c cf bd 8e 4a 95 bd c8 41 0f bd 6e f1 26 be
       -0.10125136 -0.07289611 -0.034974843 -0.16303036
0000f0 ad af 08 be 3e 97 f1 bc 50 7b cd bd f6 92 05 be
       -0.13348265 -0.029491063 -0.100332856 -0.13044342
000100 8f 5c 04 be 9b ba bc bd 52 ae a7 bd 71 7a c1 bd
       -0.12925933 -0.0921528 -0.08187546 -0.09447182

blocks.3.dense.weight f4 [1, 84]
000000 53 9d ab 3c 22 8c c4 3c 6d 65 02 3c 0d 3a 9b 3c
       0.020949041 0.023992602 0.007958752 0.01894858
000010 6d a4 ac 3c b0 a7 bd bc 90 09 e9 3a 1c 1d 3d 3c
       0.021074498 -0.023151249 0.0017779339 0.011542585
000020 10 29 fe 38 60 3b 3e ba 3f d5 ed 3c 1c 3a bb 3c
       0.00012119312 -0.00072567724 0.029032348 0.022854857
000030 7e 8c bf bc 99 3d ae bc 21 88 29 3d e5 5d d4 3c
       -0.023382422 -0.021269606 0.04138959 0.025923679
000040 52 17 02 3c 62 5c 68 3d 07 15 4b bd cf 2e 0c bc
       0.00794013 0.056728728 -0.0495806 -0.008556082
000050 e0 8e 67 bd 16 e8 ab 3c 07 06 30 bd a5 ac df ba
       -0.05653274 0.02098469 -0.042974498 -0.0017065002
000060 25 11 05 3c e4 1c 2f bc c2 75 6f bd 4f d7 44 3c
       0.008121763 -0.01068804 -0.058461912 0.012014224
000070 48 ee c9 bc 6d aa db bc 5f ea 50 bc 02 28 32 3c
       -0.024649754 -0.026814664 -0.012751191 0.010873796
000080 28 ac cd bc 34 ea 3d bd e4 88 c9 3c 9d 47 ec 3d
       -0.025106505 -0.04636593 0.024601407 0.11537097
000090 dc f7 3b 3d 8c c9 a7 bd a8 10 81 bd 2a eb 39 bd
       0.045890674 -0.08192739 -0.06302005 -0.045390286
0000a0 07 07 0e bd 31 aa d9 bd e3 0c d6 3c f2 29 f3 bd
       -0.03467467 -0.106281646 0.026129192 -0.11873235
0000b0 03 af 0e be 38 bf 8f be 61 38 69 be d2 89 56 be
       -0.13933949 -0.28075576 -0.22775413 -0.20951012
0000c0 47 f9 83 be 5d 9b 78 be e5 0a 27 be d9 43 2e be
       -0.2577612 -0.24278016 -0.1631275 -0.1701807
0000d0 b7 71 0a be 22 70 4c be fd ae 53 be ad 1e 2e be
       -0.13519941 -0.1996465 -0.20672221 -0.1700389
0000e0 d5 11 18 be 53 12 08 be 56 cf 02 be 81 ac e3 bd
       -0.14850552 -0.1328824 -0.12774405 -0.11116887
0000f0 58 da 11 be b4 8e df bd 91 f9 a5 bd 6d 46 c9 bd
       -0.14243448 -0.1091589 -0.08104242 -0.09827886
000100 48 60 a3 bd e8 72 1b bd 16 a5 c6 bd ce fd 22 bd
       -0.079773486 -0.03795138 -0.096994564 -0.03979283
000110 e7 f6 27 bd 57 ad 80 bd 71 4f a6 bd 35 3a d1 ba
       -0.04100695 -0.06283062 -0.08120621 -0.0015962782
000120 87 cf 5e 3c 30 76 27 bd ca 49 82 bc 91 db 0f 3c
       0.013599283 -0.040884197 -0.015904326 0.008780376
000130 c0 71 80 bc cb d4 af 3a b7 7a 03 ba 52 85 2b 3d
       -0.01567924 0.0013414858 -0.00050155394 0.04187519
000140 d2 95 c6 3b 02 03 65 3c 13 3e e6 3c b5 05 a9 3b
       0.0060603404 0.013977768 0.028105771 0.005158151

linear.weight f4 [1, 5]
000000 57 71 71 be 64 5f a5 3d 48 dd 6a 3e f9 66 ce 3d
       -0.23578392 0.08074835 0.22935975 0.10078234
000010 91 90 02 3b
       0.0019922594
