models/100bp_arround_STRends_models/hg38AT_.pt (torch, 8776 bytes, 11 tensors)

last_block.conv.weight f4 [1, 1, 15, 4]
000000 48 7e 84 bd 47 9c db 3d f6 8e b6 3a 43 f3 b0 3b
       -0.06469399 0.10723167 0.0013928104 0.005400093
000010 87 29 bb bc 1c 55 3f bd b8 e5 59 3c 59 68 98 3b
       -0.02284695 -0.046712026 0.013299398 0.004651111
000020 17 c0 5b bd 27 0a 56 3e 4e a8 18 bd 6e 37 7a bd
       -0.053649988 0.2090231 -0.037269883 -0.061088018
000030 45 fc d2 bd bc b8 93 3d 79 ae 5c bb 93 a4 8f bd
       -0.10302023 0.0721297 -0.003367333 -0.07013812
000040 7b cb c7 bd 21 9d 0c 3e 5d 76 45 be af 7e b1 bd
       -0.09755608 0.13731815 -0.19283433 -0.08666741
000050 8d 72 e5 bc 52 a2 77 3c a2 29 95 3d 82 b8 49 bd
       -0.028008724 0.015114384 0.072833315 -0.049248226
000060 30 77 22 be 7e a4 76 3e 8b d5 98 bd 70 79 ae 3d
       -0.15865779 0.24086186 -0.07462605 0.08519256
000070 45 68 15 3e ab 04 9a be 96 d9 e9 ba 1d 0b 12 3d
       0.14590557 -0.30081686 -0.0017841335 0.03565513
000080 c6 ff cf 3d d1 7a f1 bd c2 1a 8e 3e 42 ed 5a be
       0.10156207 -0.117910035 0.2775479 -0.21379569
000090 f4 45 19 be 80 bf d3 3e 59 2c bc be 14 f5 65 bd
       -0.14968091 0.4135704 -0.36752585 -0.056141928
0000a0 c2 14 aa bd 85 9d c1 be 64 3d 52 3e 2e 6c 90 bd
       -0.083047405 -0.3781549 0.20531231 -0.07051884
0000b0 cb 2c f2 bb c8 0d ae 3d 11 44 bf be 29 5a 30 be
       -0.0073905936 0.08498722 -0.37356618 -0.17221893
0000c0 93 d3 3a 3c 13 c2 27 bd 27 81 56 3e 30 9f f2 bd
       0.011402982 -0.040956568 0.20947705 -0.11846769
0000d0 5e 7d 2a bc 43 f6 45 3e 26 0c ac be 31 f4 27 bd
       -0.010405866 0.19332223 -0.3360302 -0.041004363
0000e0 99 8e 55 3d 0c 87 7e 3d ee 63 c1 bb dd fa 28 be
       0.052137945 0.06214051 -0.005901805 -0.16501947

last_block.dense.weight f4 [1, 86]
000000 b1 97 0e bc 69 ac 97 ba e5 4c a1 bc 8b 49 41 3c
       -0.008703158 -0.0011571768 -0.019689986 0.011797319
000010 25 d1 01 bd c2 f2 87 bc 51 1d 18 3c d5 80 60 bc
       -0.031693596 -0.016595248 0.009284333 -0.013702591
000020 24 cd 90 3c 56 30 6e 3c b4 ec 09 bd e8 ec 7e bd
       0.017675944 0.014537891 -0.033673003 -0.06223765
000030 84 9d 6f 3b 93 ec 6a 3c 6f 86 36 3d 54 1f 1a bd
       0.0036562392 0.01433863 0.0445618 -0.037627533
000040 f3 1f 2d bc b4 f0 6a 3d 9f ee 01 3d f4 1f e8 3c
       -0.010566699 0.05735846 0.031721707 0.028335549
000050 e3 ea 1b bd 6e 36 b8 3c d9 88 45 3c d6 4c 1f 3d
       -0.038065802 0.022486892 0.012056553 0.038891636
000060 66 74 d5 3d 55 2b 03 3d f0 2a 4b 3d 18 30 02 3e
       0.10422592 0.032023747 0.049601495 0.12713659
000070 4d a9 50 3e fc f8 12 3d 1c 1c 81 3e 08 95 85 3e
       0.20377083 0.03588198 0.25216758 0.26090264
000080 19 f5 fa 3d bf 42 dc 3e f2 f8 ea 3e e1 f2 e5 3e
       0.1225378 0.43019673 0.45893055 0.44911864
000090 f5 6b 6b 3f 8e 0a 20 3f 04 c9 13 3f a3 f0 b5 3d
       0.91961604 0.62516105 0.577286 0.088837884
0000a0 e8 93 ff bc d3 7b de 3d d7 cb 27 be 49 3c a5 be
       -0.031198457 0.10863461 -0.16386352 -0.32272556
0000b0 e7 40 a6 be 64 94 a1 be 69 e5 b3 be 3c 1c 84 be
       -0.32471392 -0.31558526 -0.35135964 -0.2580279
0000c0 3e de 6f be 7b 35 2c be 9a 13 63 be e7 ab 46 be
       -0.23424622 -0.16817276 -0.22175446 -0.19401513
0000d0 84 6c 72 be db 8d 44 be ea 82 72 be b9 07 27 be
       -0.23674208 -0.19194739 -0.23682752 -0.1631154
0000e0 60 98 4a be 80 ab 15 be 3c b9 23 be d6 61 ad bd
       -0.19784689 -0.14616203 -0.1598863 -0.08465926
0000f0 0c 61 48 be ad 17 39 be c1 56 df bd ab 43 68 bd
       -0.1956827 -0.18075438 -0.10905219 -0.05670516
000100 b1 41 29 bd 79 bd 87 bd c6 aa ae bd 70 6e a5 bd
       -0.041322414 -0.06627936 -0.08528666 -0.08077705
000110 fe 34 85 bd eb de c2 b9 78 7a 8b bc 2a 60 8c bd
       -0.06504248 -0.0003716865 -0.017026171 -0.06854279
000120 c2 a1 0f bd 3a be 54 bc 6b 0d 20 3c a1 40 28 bd
       -0.035066374 -0.012984807 0.009768824 -0.04107726
000130 e4 c4 06 bd 4d cc 3c bc 41 e5 6c 3c 7e b3 ab 3c
       -0.032902613 -0.0115233185 0.014458955 0.020959612
000140 2e 46 72 3d 27 2f 45 bd 53 07 9b bc 58 a7 bd bc
       0.05914896 -0.04814067 -0.01892439 -0.023151085
000150 c8 eb 43 bd 73 24 9f bd
       -0.04783228 -0.07770624

blocks.0.conv.weight f4 [1, 1, 17, 4]
000000 1d 43 09 3d 20 9f 48 bf 31 14 cb 3e b2 3e 04 3d
       0.03351127 -0.78367805 0.39663842 0.032286353
000010 9a ed 06 bf 5e 10 da 3f ae 9c 1f 3e 3d d5 c8 be
       -0.527063 1.7036245 0.15587112 -0.39225188
000020 59 7b ff bf ac b1 20 c0 1a 2f 9c bf de d8 81 3e
       -1.9959518 -2.5108442 -1.2201874 0.2536077
000030 ef 6b 72 3e 10 e3 6e bd e5 d1 94 3e 93 89 2a bf
       0.23673986 -0.058322012 0.29066387 -0.6661617
000040 7d 87 64 be f4 63 f4 bd 1b 82 d4 bc dd f9 c8 3c
       -0.2231731 -0.11933127 -0.025940945 0.024533207
000050 95 34 9a bd ee 5b 85 bd 31 ca 07 bd e8 1d bd 3d
       -0.075295605 -0.06511675 -0.03315181 0.0923422
000060 fd d2 7c be a1 0d a2 be 46 46 23 be a4 66 86 3d
       -0.2468986 -0.31651023 -0.15944776 0.06562546
000070 63 b8 df 3c c0 cf df bd 87 c2 16 be 70 11 7d 3e
       0.027309602 -0.10928297 -0.14722644 0.24713683
000080 a7 31 d3 bd 73 78 fa bd d1 ff 45 3d 84 c6 45 3d
       -0.10312205 -0.12230005 0.04833967 0.048285022
000090 72 f0 f0 bd 9f f9 62 be 41 ae 8c bc 69 c2 cb 3d
       -0.11764611 -0.22165535 -0.017172934 0.0994919
0000a0 5c e9 ac bd 06 e0 97 be 36 3b 2e 3d a4 73 fd 3d
       -0.08442947 -0.29663104 0.042536937 0.12375572
0000b0 df 4c eb bd 90 f3 02 be 90 38 40 bd 5c 76 20 3d
       -0.114892714 -0.12788224 -0.046928942 0.039175376
0000c0 cc df 6c 3b 4c 8d 98 bd bf 5f 19 3d ab 22 27 3e
       0.0036144136 -0.07448825 0.037444826 0.16321819
0000d0 a4 55 49 bd 1d 21 02 be 48 cb 46 bd b8 70 e6 3d
       -0.04915394 -0.12707944 -0.048533708 0.11251968
0000e0 c4 4d 18 be cb 19 69 bd dc 01 05 bd ba 68 11 3d
       -0.14873415 -0.056909364 -0.032472476 0.035500266
0000f0 98 a8 05 be 9e 4a af bd 32 63 3b bd af 88 3c 3e
       -0.13052595 -0.08559154 -0.045748897 0.18411516
000100 06 cf e4 bd cb cf d7 bd 4b 4d 2d bd a6 e7 32 3c
       -0.11172299 -0.1053768 -0.04231004 0.010919487

blocks.0.dense.weight f4 [1, 84]
000000 ec bf 50 3d bd b6 e6 3d d3 ce 84 3d 70 20 9d 3d
       0.05096428 0.11265323 0.06484761 0.076722026
000010 ae e3 57 3d e6 69 4c 3d 6e d6 91 3d bf 3a d1 3d
       0.052707367 0.04990568 0.07120977 0.10216283
000020 be 2c b2 3d 73 23 dd 3d 68 ee c5 3d b1 48 b7 3d
       0.0869994 0.10797777 0.09664613 0.08949412
000030 ff 80 a9 3d 47 dc f3 3d 0b aa ca 3d 06 4d ce 3d
       0.08276557 0.11907249 0.09895714 0.10073285
000040 ae c2 c1 3d 0c be a8 3d ae 7e b7 3d cf eb b4 3d
       0.0946096 0.082393736 0.08959709 0.088340394
000050 ab f1 94 3d 1a 8f 81 3d 8f 4b 02 3e d9 9f cc 3d
       0.07272657 0.063261226 0.12724136 0.09991426
000060 b3 fe f6 3d 4e da 0a 3e e2 0b da 3d 43 ec d3 3d
       0.12060299 0.13559839 0.10646798 0.10347798
000070 cb 58 23 3e 0b d1 22 3e c3 d2 d1 3d 26 82 05 3e
       0.1595184 0.15900056 0.10245278 0.13037929
000080 e7 7e 26 3e 7a 4f 1f 3e 45 c3 27 3e c3 3c 80 3e
       0.16259347 0.15557662 0.16383083 0.25046358
000090 7c 30 53 3e 1a ed d2 3e 4f d6 04 3f bf 09 00 3f
       0.20623964 0.4119652 0.5188951 0.5001487
0000a0 07 2b f4 3e 1e 83 25 3f cc 91 f6 3e 7a 1e 2d 3f
       0.47689077 0.64653194 0.4815811 0.6762463
0000b0 4b 76 09 3f 79 89 90 3e 13 b9 b0 3e aa 56 3e 3f
       0.53696126 0.28229883 0.345162 0.7435099
0000c0 e5 3b 35 3f 3d 7b 32 3f f5 9d 37 3f 3a 50 3c 3f
       0.70794517 0.69719297 0.717254 0.73559916
0000d0 ab 9d 30 3f 77 dd 22 3f 73 e5 1b 3f d7 91 2e 3f
       0.6899058 0.6361918 0.60896987 0.68191284
0000e0 5e 0a 17 3f 7c ba 11 3f dc fa 0e 3f ec da fd 3e
       0.59000194 0.5692518 0.5585153 0.49581087
0000f0 fb a5 06 3f 54 bf fe 3e 70 92 00 3f a1 95 ea 3e
       0.52597016 0.49755347 0.50223446 0.45817283
000100 bc 16 c8 3e 9f 17 bd 3e 3b d2 b5 3e 7f 06 a0 3e
       0.39079845 0.36932084 0.35511956 0.31254956
000110 01 91 8e 3e 02 db 89 3e 7a d4 7d 3e 70 3a 77 3e
       0.27845004 0.26924902 0.24788085 0.24143386
000120 ee ec 77 3e aa 84 43 3e 26 8e 68 3e cb b7 48 3e
       0.24211475 0.19093576 0.22710475 0.19601361
000130 ff 7a 5e 3e c8 58 4d 3e 9c 52 51 3e 22 ee 2c 3e
       0.21726607 0.20053399 0.20441669 0.16887715
000140 9c 44 30 3e e1 c4 0f 3e 11 62 f5 3d fd ef cc 3d
       0.17213672 0.14039947 0.11981595 0.10006712

blocks.1.conv.weight f4 [1, 1, 10, 4]
000000 37 83 af bd 75 74 3b 3e 88 ec 62 be d8 17 87 3e
       -0.08569949 0.18306144 -0.22160542 0.2638538
000010 95 e7 0f bf 1c a0 f7 3d e2 5a 8b bf cd f3 5f 3e
       -0.5621274 0.12091085 -1.088711 0.21870346
000020 21 71 08 be 0d 9d e3 3e b8 9b be bf f7 c7 3d 3e
       -0.13324405 0.44455758 -1.4891272 0.18533312
000030 a1 f5 29 be 58 65 0e 3e 9b 0f c0 3e 33 c4 85 be
       -0.16597606 0.13905847 0.37511906 -0.2612625
000040 30 5b f8 3d 58 90 e1 be 27 29 db 3e f4 87 be bf
       0.12126768 -0.44055438 0.42804834 -1.488524
000050 a7 ac fb bd d1 1f a4 be e9 80 07 3e 09 6c 0e 3e
       -0.1228879 -0.32055524 0.13232769 0.139084
000060 97 47 ab be 0b 5b df bd e0 74 b7 bd 60 46 fe 3d
       -0.33453056 -0.10906037 -0.08957839 0.12415767
000070 ff 02 a7 3d 51 7b 91 bd 28 1c 05 3e d4 31 b3 bd
       0.08154868 -0.07103599 0.12999022 -0.08749738
000080 f8 38 3b 3d ee 20 80 bd 68 16 2a 3b 52 d7 92 3b
       0.045708627 -0.06256281 0.0025953297 0.0044812346
000090 ed 5c a5 bc 36 2d 19 3c f4 a2 a1 3c ea af 28 bd
       -0.020185912 0.009349158 0.019731022 -0.04118339

blocks.1.dense.weight f4 [1, 91]
000000 09 52 9f bd 81 13 41 bb 92 03 9d bc 1c 0e 5a 3d
       -0.07779319 -0.0029461088 -0.019166742 0.053236112
000010 99 ef fa bd 7b 86 30 bc 07 10 6d bd a8 2d a3 ba
       -0.12252731 -0.01077425 -0.057876613 -0.001244952
000020 95 68 6b 3d cd 83 25 3c 6b 9c 9c 3c 9d 95 0b 3c
       0.057472784 0.010102225 0.019117555 0.008519557
000030 aa a6 0a 3c 7b 2b 2c 3c 09 90 a1 3b 20 44 94 bc
       0.008462587 0.010508413 0.0049305004 -0.01809889
000040 5f da 03 ba 59 15 64 3d 62 66 fd 3c 53 52 48 3d
       -0.0005029793 0.05568442 0.030932609 0.048906635
000050 21 d0 55 3c f5 d9 f7 3c 24 61 a4 3d 76 51 41 3d
       0.01305011 0.030255297 0.080263406 0.047196828
000060 89 18 a2 3d ed 18 4b 3e c9 02 c7 3d 5e 9f cf 3c
       0.07914836 0.19833727 0.09717328 0.025344547
000070 d7 52 31 3e 48 4c 0c 3e 4b 5b 5d 3e 07 1f be 3d
       0.17316757 0.13700974 0.21616857 0.09283262
000080 64 dd 85 3e 01 76 55 3e 63 5e 26 3e 29 12 78 3e
       0.2614547 0.20845796 0.16246943 0.24225678
000090 e0 c0 2e 3e cc 9f 80 3e ee 0b 27 3e 86 c6 1d bd
       0.17065763 0.25121915 0.16313145 -0.038519405
0000a0 a6 50 c1 bd 51 31 8d 3d c6 13 7d 3f f8 ac 31 be
       -0.094392106 0.06894172 0.98858297 -0.17351139
0000b0 e5 6e 89 bf e4 14 4b bf ec 79 14 3e 6b 1f 0c 3f
       -1.0736967 -0.7932875 0.14499635 0.5473544
0000c0 5e 04 da 3e 7c 9f 8c 3e 1e eb b4 3e 73 60 df 3e
       0.42581457 0.27465427 0.3533563 0.43628272
0000d0 8a 0b e7 3e e5 66 d1 3e af 62 f6 3e 02 2e af 3e
       0.4512599 0.40898815 0.48122165 0.3421479
0000e0 b2 87 bb 3e e9 89 95 3e 34 a5 c2 3e f5 7a ca 3e
       0.36626965 0.2920678 0.38016665 0.39546934
0000f0 9d 97 9e 3e dd 3f ba 3e 35 02 ca 3e 13 a0 a5 3e
       0.30975047 0.3637685 0.3945481 0.3234869
000100 9a 43 92 3e ce 07 b7 3e 7b 89 96 3e 8c 15 b4 3e
       0.285672 0.35748142 0.29401764 0.3517269
000110 4f a2 bc 3e 9f f0 9d 3e 2f e3 b0 3e 37 d7 96 3e
       0.36842582 0.30847642 0.34548327 0.2946107
000120 4c b8 5d 3e 4b 86 32 3e f7 39 19 3e aa 87 14 3e
       0.21652335 0.17434041 0.14963518 0.14504877
000130 19 f4 2d 3e ab db 09 3e 65 0b 4f 3e 6e a9 fc 3d
       0.16987647 0.13462703 0.2021919 0.12337004
000140 f5 4d c2 3d 88 86 dd 3d 9e 69 32 3e d1 33 9c 3d
       0.094875254 0.108166754 0.17423102 0.07627071
000150 f2 3c 4f 3d 71 f5 c4 3d 21 ff d2 3d 70 22 c5 3d
       0.05059523 0.09617127 0.10302568 0.09625709
000160 41 37 82 3d fe b9 00 3d 77 80 54 bc
       0.06358195 0.031427376 -0.0129700815

blocks.2.conv.weight f4 [1, 1, 15, 4]
000000 6c d6 8d bc ee 74 db bd ce 35 75 bd 98 78 11 be
       -0.017314158 -0.10715662 -0.059865765 -0.14206159
000010 bd bd 8c 3c 2c 3d a8 3d 5a 75 2b bd f3 6a db bc
       0.017180318 0.082147926 -0.041859962 -0.026784396
000020 00 65 a8 bc 42 4c 8e 3d 12 8e eb bd 0a 1b 06 3d
       -0.020555973 0.06948139 -0.11501707 0.03274063
000030 11 ee e2 3b 08 f7 ab 3c 67 44 83 bc 20 a3 4a bc
       0.0069253524 0.020991817 -0.016023828 -0.012367994
000040 df 42 37 3d 71 7b 15 bd ff 10 8a 3c ee 6e 08 3d
       0.044741508 -0.036494676 0.016853807 0.033308916
000050 d1 06 16 be fb f7 22 3d e8 26 91 bd 97 91 04 3d
       -0.14651038 0.039787274 -0.07087499 0.032365408
000060 b7 26 00 3d b2 1b c1 bc 45 0d de 3b 6c 78 14 3c
       0.03128692 -0.023572776 0.006776484 0.009061914
000070 8e 29 04 be c8 1e 81 3d 95 0d fc 3d 36 a3 9a bc
       -0.12906477 0.06304699 0.12307278 -0.018876653
000080 c0 2e 4d bf a1 33 39 3d 4a fb 62 bf 48 f8 8d 3e
       -0.8014946 0.045215253 -0.88664687 0.27728486
000090 fe 84 09 3f 2d 3f 2b bf 46 86 fd bf 2c 1f 96 bf
       0.53718555 -0.66893274 -1.9806602 -1.1728263
0000a0 91 f5 28 bf 5d bc e9 bd 7f 19 7a 3f 66 41 a0 be
       -0.65999705 -0.114128806 0.97695154 -0.31299895
0000b0 d3 45 8f bb fb 4a 19 3e e4 58 c7 bd 38 74 1d 3e
       -0.0043723374 0.14970009 -0.097337514 0.15376365
0000c0 ae 5c de bd bf 1c af 3d 4b a3 8a 3d 61 df cc 3d
       -0.10857521 0.08550405 0.06769427 0.10003544
0000d0 d9 26 ed bc 0a 55 83 3c 76 7b 4b bd 8e ad 04 3e
       -0.028949188 0.01603176 -0.04967829 0.12956831
0000e0 a2 ec b0 3c 3b 55 f2 3c 14 0c a8 3c 81 2a 3b bd
       0.02159721 0.029581657 0.020513572 -0.04569483

blocks.2.dense.weight f4 [1, 86]
000000 1e af 6a 3d 0a f1 84 3d 13 c8 7f 3d 79 ba 73 3d
       0.05729591 0.06491287 0.062446665 0.059504006
000010 6c d5 9b 3d 7c 58 7a 3d a9 db b6 3d 07 00 53 3d
       0.07609066 0.06111954 0.089286156 0.051513698
000020 53 7e d9 3d 4c 40 6c 3d b4 e8 bf 3d 60 79 fc 3d
       0.106197976 0.057678506 0.093705565 0.12327838
000030 c3 dd 9d 3d c3 11 de 3d 54 f3 08 3e 97 e2 c7 3d
       0.07708313 0.108432315 0.13374072 0.097600155
000040 65 23 bb 3d 17 d4 fc 3d 89 0d e1 3d de 4e 2e 3e
       0.0913761 0.123451404 0.1098891 0.17022273
000050 0a 82 14 3e ca 30 1c 3e a3 34 32 3e a7 e0 2a 3e
       0.14502731 0.15252987 0.17402892 0.1668726
000060 2e 03 62 3e e9 ae 70 3e 85 d3 87 3e 4d b4 84 3e
       0.22071525 0.23504223 0.26528564 0.2591881
000070 0d 54 b2 3e 4b 4a bd 3e bb 7e d9 3e d1 5a a9 3e
       0.3482975 0.36970744 0.424795 0.330771
000080 61 00 c5 3e c0 5a a9 3e d1 2a e0 3e 04 08 c5 3e
       0.38476852 0.3307705 0.43782666 0.38482678
000090 b9 bc ea 3e b2 21 9b be 77 4a 33 3e 49 37 2f be
       0.4584711 -0.30299145 0.17508875 -0.17110933
0000a0 2e 8e f7 3e 62 bf f5 3e c7 b1 01 3f 20 81 f9 3e
       0.48350662 0.47997576 0.5066189 0.48731327
0000b0 19 97 ea 3e bc a6 d9 3e c3 db c8 3e b2 0c c2 3e
       0.45818403 0.4251002 0.39230165 0.3790031
0000c0 fc 3d c3 3e e5 72 ba 3e 21 87 ac 3e 01 3b ac 3e
       0.38133228 0.36415783 0.33696845 0.33638766
0000d0 dd 54 a9 3e 33 7d 9b 3e 2e 6d a8 3e de a5 96 3e
       0.33072558 0.30368957 0.32895797 0.29423422
0000e0 e4 b2 93 3e c2 e7 91 3e 9d 12 81 3e 5b 43 79 3e
       0.2884742 0.2849713 0.25209513 0.243421
0000f0 42 89 74 3e 7a 01 5e 3e b1 46 2b 3e 61 7e 2d 3e
       0.23880485 0.21680251 0.16726185 0.16942741
000100 ff 08 5a 3e 46 91 39 3e 56 97 17 3e cb 1a 1d 3e
       0.21292494 0.18121824 0.14803824 0.15342252
000110 af fa 13 3e 1f 60 15 3e 80 3e 2b 3e 43 26 14 3e
       0.14451097 0.14587449 0.1672306 0.1446772
000120 8f ed d9 3d 41 2c a1 3d 14 62 a8 3d af 63 a1 3d
       0.10641014 0.07869769 0.08221832 0.07880341
000130 0b f4 af 3d df d0 a6 3d 3e ee 9f 3d fb e6 8b 3d
       0.085914694 0.08145308 0.07809113 0.068311654
000140 a6 c3 30 3d be 19 15 3d 3b 45 3e 3c e0 42 f4 3c
       0.043155335 0.036401503 0.0116131855 0.029817045
000150 16 9e 8c bc 62 58 2b ba
       -0.017165225 -0.00065363024

blocks.3.conv.weight f4 [1, 1, 13, 4]
000000 22 e9 88 bb e2 49 e6 bb a8 3d 6a 3d 4b 82 34 bd
       -0.004178182 -0.0070278505 0.057187706 -0.04406957
000010 cf d5 f0 3d 9c 92 f4 3d c2 53 70 3e c5 ab bb bd
       0.11759531 0.11942026 0.23469451 -0.09163622
000020 e0 90 86 bd b0 cf 25 be 69 95 be 3d 62 f9 3d be
       -0.065706015 -0.16192508 0.093058415 -0.18552163
000030 71 8b e0 3d 78 9a 8e bd 80 ef df 3d 27 09 c4 be
       0.10964096 -0.06963056 0.10934353 -0.38288233
000040 59 ee 66 3e 76 64 21 3d 21 93 73 bd 1d 5a 4c be
       0.2255186 0.039402448 -0.059466485 -0.1995625
000050 04 c5 a4 3e 6f bf 27 3e 50 56 65 3d 13 9a cb be
       0.3218156 0.1638162 0.055990517 -0.39765987
000060 92 8f 99 be b7 9c 19 bf 1f 98 e5 be 77 e4 df 3e
       -0.29992348 -0.6000475 -0.44842622 0.43728992
000070 f5 ae 0f bf 9c 03 82 3e cf 1a c9 3d 85 cd d1 3e
       -0.5612634 0.2539338 0.098195665 0.4097711
000080 b8 ec fe bc 14 71 aa 3d 6c 33 e8 3d ec 77 7a 3d
       -0.031118736 0.08322349 0.11337933 0.061149523
000090 d0 e3 fc bd 2b b6 07 be 9d 61 1d be e5 aa 8d bd
       -0.12348139 -0.13253085 -0.15369268 -0.06917361
0000a0 13 0b 0c 3d ce cf 50 3d 3b c6 6c bd 50 65 f8 3c
       0.03419025 0.050979428 -0.057806235 0.030321747
0000b0 9d 57 9f bd 9c 07 dd 3c 46 fa cc bd f1 cc 2d bd
       -0.07780383 0.026981167 -0.10008673 -0.042431775
0000c0 3e cc a6 3d 1f 5c 04 3e f3 a0 b3 3d d0 72 bd 3d
       0.08144425 0.12925766 0.08770933 0.09250414

blocks.3.dense.weight f4 [1, 88]
000000 ea de 93 bd 4d 18 95 bd 8f 17 d9 bd d2 a8 99 bd
       -0.07220252 -0.07280026 -0.106001966 -0.07502903
000010 14 cf a4 bd 79 49 b9 bd e8 ab b2 bd c5 85 00 be
       -0.080473095 -0.09047217 -0.08724195 -0.12551029
000020 65 2a 21 be 61 f6 ea bd 02 4e 1f be 61 fe 08 be
       -0.15738828 -0.11472774 -0.15557101 -0.13378288
000030 d8 52 1e be 0c 68 d8 bd bb 24 0a be 7c b9 0e be
       -0.1546129 -0.1056672 -0.13490574 -0.13937944
000040 4d c7 06 be 7c ee 07 be b1 ee 03 be 40 28 09 be
       -0.13161965 -0.13274568 -0.12884022 -0.1339426
000050 3f 10 8e bd e8 fa 08 be 74 04 ba bd 77 6f fc bd
       -0.069366924 -0.13376963 -0.090828806 -0.12325948
000060 db 26 d9 bd e1 99 74 bd 08 ce a9 bd 16 68 91 bd
       -0.10603114 -0.059717063 -0.082912505 -0.07099931
000070 55 53 d6 bd 76 ba e9 bd 4d 06 5e bd 12 bb 4b bd
       -0.10465113 -0.11412518 -0.054205228 -0.04973895
000080 d8 c8 32 be 16 8a c6 bd d8 ef 3e bd 0c 24 8e bc
       -0.17459428 -0.096943066 -0.04661545 -0.017351173
000090 33 f9 fc 3c 28 57 30 bd 45 9e ff bc 97 f5 2c 3e
       0.030880546 -0.04305187 -0.031203398 0.1689056
0000a0 ce 0f a8 3e 83 d3 69 3f 7f 8e 95 3c 1d ff 23 bf
       0.32824558 0.91338366 0.018256424 -0.64061147
0000b0 93 0f 4f 3f 5c 71 9d 3d 9f cc 1d 3e cb 1a 93 3e
       0.8088314 0.07687637 0.15410088 0.2873138
0000c0 1f 42 67 3e a8 d9 7c 3e 48 1b 7a 3e 59 73 50 3e
       0.22583817 0.24692404 0.2442447 0.20356502
0000d0 e6 62 78 3e 68 8c 5e 3e 72 c1 3a 3e 46 6a 3f 3e
       0.24256477 0.21733248 0.18237856 0.18692884
0000e0 b6 7d 30 3e 43 3b 1b 3e 92 c2 25 3e 60 7f 0d 3e
       0.17235455 0.15159325 0.16187504 0.13818121
0000f0 d0 86 0e 3e c4 5a 09 3e ab b0 6a 3d 29 72 eb 3d
       0.13918614 0.1341353 0.05729739 0.11496384
000100 d4 2f cf 3d 35 70 f9 3d e2 a9 cd 3d 5b d0 8e 3d
       0.10116544 0.12179605 0.10042168 0.069733344
000110 a7 6b b7 3d f3 cc b5 3d ee 28 b9 3d a3 27 86 3d
       0.0895608 0.088769816 0.0904101 0.06550529
000120 dd 04 60 3d 7b a2 44 3d 5a fb 89 3d 04 c3 57 3c
       0.054692138 0.048006516 0.06737395 0.013169054
000130 84 cd 46 3c 53 dc 81 3c 65 b3 56 3c c1 65 ff 3b
       0.01213396 0.01585213 0.013104294 0.0077941124
000140 82 ff 26 3d 0b d2 b1 39 ec 38 11 bb fd 0e e1 3b
       0.040771015 0.00033916565 -0.0022159172 0.006868242
000150 b0 83 97 3c d0 a6 55 bb 79 d7 a8 3c cb fd 89 bb
       0.01849541 -0.0032600649 0.020610558 -0.0042111627

linear.weight f4 [1, 5]
000000 8b 26 9b be 68 bd d7 3d f0 e5 d2 bd 66 7b 39 3e
       -0.30302843 0.10534173 -0.10297763 0.18113479
000010 93 c8 0e be
       -0.139437
