models/100bp_arround_STRends_models/hg38ATT_.pt (torch, 5650 bytes, 7 tensors)

last_block.conv.weight f4 [1, 1, 10, 4]
0	0xbc9563c6	-0.018236052
1	0xbdb0abfc	-0.086265534
2	0x3d1daae4	0.038493052
3	0xbb44b176	-0.0030013002
4	0x3aabf13b	0.0013118157
5	0xbc118f8b	-0.008884321
6	0xbdbd5291	-0.09244264
7	0xbd4d4929	-0.0501186
8	0x3c0c3cf4	0.008559454
9	0x3d4a94ac	0.04945819
10	0xbda61c75	-0.081108965
11	0x3dd0e4a9	0.101998635
12	0x3e0ad28f	0.13556884
13	0xbca1b048	-0.019737378
14	0x3dc5c62c	0.09656939
15	0x3a9e63b8	0.0012084162
16	0xbde4ffb7	-0.11181586
17	0x3d980ebc	0.07424685
18	0xbdf53b05	-0.11974148
19	0xbe7d90bf	-0.24762248
20	0xbcbe6c05	-0.023244867
21	0xbd8cc33b	-0.06873175
22	0xbd1efd1b	-0.0388156
23	0xbc972e60	-0.01845473
24	0xbe9ad3d2	-0.3023973
25	0x3dc0c584	0.09412673
26	0xbe5577a4	-0.2084642
27	0x3e4ab7a6	0.19796619
28	0x3eb25efb	0.3483809
29	0xbe947592	-0.2899595
30	0xbe6464d0	-0.22304082
31	0xbeb4d0de	-0.35315603
32	0xbeafb6c1	-0.34319118
33	0x3ce6cff0	0.028175324
34	0x3e82e743	0.25567064
35	0xbe11c966	-0.14236984
36	0xbe0d52be	-0.13801095
37	0x3e64b68d	0.22335263
38	0xbe0a0753	-0.13479356
39	0xbdcd87dc	-0.10035679

last_block.dense.weight f4 [1, 91]
0	0xbd1207f1	-0.035652105
1	0xbd1f5216	-0.038896643
2	0xbc851364	-0.016244598
3	0x3b59ea2f	0.0033251157
4	0xbdb16d53	-0.0866343
5	0xbd30b502	-0.043141373
6	0xbd50570d	-0.050864268
7	0xbd4e0da5	-0.05030598
8	0x3bd8cd33	0.0066162585
9	0xbd84695a	-0.06465407
10	0xbda79e4e	-0.08184491
11	0xbd10fd7e	-0.035398
12	0xbcfd1c89	-0.030897396
13	0x3c520deb	0.012820701
14	0xbd52a60c	-0.051427886
15	0x3d3a8ab5	0.045542438
16	0xbd15d031	-0.0365755
17	0xbda0dbbd	-0.07854412
18	0xbddd3e00	-0.10802841
19	0xbcb4bf52	-0.022063885
20	0xbd89a105	-0.06720165
21	0xbd834510	-0.06409657
22	0xbda97239	-0.08273739
23	0xba1f3743	-0.0006073603
24	0x3d0224bf	0.031773325
25	0xbca3d4fd	-0.019999022
26	0x3cabb896	0.02096204
27	0xbe07ab9f	-0.13249062
28	0xbd7be6d4	-0.06149943
29	0xbd2fc6eb	-0.042914312
30	0x3e4edcb7	0.20201384
31	0x3bbcb524	0.0057588983
32	0xbdc980f5	-0.0983905
33	0x3d89d5fd	0.06730268
34	0x3c8229a2	0.015888993
35	0xbcbbf538	-0.022944078
36	0x3ceb418c	0.028717779
37	0xbd51d050	-0.051224053
38	0x3c8ef1f9	0.017449366
39	0x3cbfbad2	0.023404513
40	0x3e30b78c	0.17257518
41	0x3e2cd6f2	0.1687887
42	0x3e916675	0.2839848
43	0x3e0377a8	0.12838614
44	0x3ef1c3e0	0.47219753
45	0x3e88cc7d	0.26718512
46	0x3e9c266f	0.30498073
47	0x3ea21e22	0.31663615
48	0x3eadfcf4	0.3398205
49	0x3ec596e3	0.3859168
50	0x3eb90816	0.36138982
51	0x3e974166	0.29542083
52	0x3e7f8447	0.24952804
53	0x3e332b80	0.17497063
54	0x3e52f68e	0.20601866
55	0x3e149eae	0.14513656
56	0x3e4e0c4c	0.20121878
57	0x3e8ca189	0.27466992
58	0x3e730441	0.23732091
59	0x3e44e5d9	0.19228305
60	0x3dbcaefd	0.09213064
61	0x3dd7c96a	0.105364636
62	0x3e3e71cf	0.18598102
63	0x3e6630e2	0.22479585
64	0x3e3f73b7	0.18696485
65	0x3df311e8	0.1186865
66	0x3e1591e2	0.14606431
67	0x3d5a4ba9	0.05329481
68	0x3d6d5517	0.057942476
69	0x3caaafee	0.020835843
70	0x3c7960ec	0.015220862
71	0xbc5f7b19	-0.013640189
72	0x3ce76887	0.028248085
73	0xbd82eb23	-0.06392505
74	0x3cdf7522	0.027277533
75	0x3b9aea97	0.0047276723
76	0xbb73b9ba	-0.003718956
77	0xbc84f0b8	-0.016228065
78	0x3d3589f2	0.044321008
79	0x3d8c7f71	0.06860245
80	0x3d1a2b51	0.037638966
81	0x3d31882c	0.043342754
82	0xbd03512c	-0.032059833
83	0x3ba5cf1a	0.005060089
84	0x3d863c52	0.06554474
85	0x3db3e183	0.08783247
86	0x3c14e8ad	0.009088677
87	0xbd87758b	-0.066142164
88	0xbd155ae0	-0.03646362
89	0x3ce270d5	0.027641693
90	0xbd4d4439	-0.05011389

blocks.0.conv.weight f4 [1, 1, 12, 4]
0	0x3d5feb0b	0.054667514
1	0xbccfde92	-0.025374684
2	0xbee7f14a	-0.45301276
3	0x3d1f443d	0.038883436
4	0xbdc11067	-0.094269566
5	0x3c1865aa	0.009301582
6	0x3cfdef47	0.030997885
7	0x3c281ddf	0.010261028
8	0xbe044b37	-0.12919317
9	0xbe37f5c2	-0.17964843
10	0xbd85c462	-0.06531598
11	0x3d409d69	0.047025118
12	0xbc8953c5	-0.016763577
13	0xbc4e00be	-0.012573419
14	0xbcb98641	-0.022647025
15	0x3de35594	0.11100307
16	0xbe4d50cf	-0.20050357
17	0xbe1a87bf	-0.15090846
18	0x3cae1fbc	0.021255367
19	0x3d91f88d	0.071274854
20	0xbdf1a269	-0.117985554
21	0xbd31013a	-0.04321406
22	0xbdcb90c6	-0.09939723
23	0xbd105ece	-0.035246663
24	0xbe53ebe0	-0.20695448
25	0x3d2b30e7	0.041794684
26	0xbd149524	-0.036275044
27	0x3e1e40a2	0.15454343
28	0x3d313cb0	0.043270767
29	0xbefbce58	-0.49180865
30	0x3ad6d5a5	0.0016390575
31	0x3df81724	0.12113789
32	0xbea3a0d6	-0.31958646
33	0x3eec737f	0.46181867
34	0x3e819557	0.2530925
35	0xbf5610b3	-0.8361923
36	0xbf4fae7e	-0.8112563
37	0xbf44089f	-0.76575655
38	0xbf3361af	-0.7007093
39	0x3ed37489	0.41299847
40	0x3ea78162	0.327159
41	0xbd6fd5c8	-0.058553487
42	0x3dd4aec3	0.10384896
43	0xbec8b9a1	-0.39204124
44	0xbe5baa72	-0.21451738
45	0xbccfc2b5	-0.025361398
46	0x3dfb7c05	0.12279514
47	0x3b9bd8dc	0.0047560763

blocks.0.dense.weight f4 [1, 89]
0	0x3afc28aa	0.0019238193
1	0xbc52d682	-0.012868525
2	0xbc944dc7	-0.018103493
3	0x3cd2cab2	0.025731418
4	0xbc96e143	-0.01841796
5	0x3c981861	0.018566312
6	0x3b80b3f6	0.003927703
7	0x3c3f07ae	0.011659546
8	0xbc98abc4	-0.018636592
9	0xbb1c93f0	-0.0023891889
10	0xbd8be923	-0.06831577
11	0x3cfb1154	0.030647911
12	0xbcd512f8	-0.026010022
13	0x3cc6d453	0.024271166
14	0x3bf72844	0.007542642
15	0x3d179d04	0.037014976
16	0xbc1a4d40	-0.009417832
17	0x3c407121	0.011745722
18	0x3cbdcc04	0.023168571
19	0x3c07c780	0.008287311
20	0x3d0861a6	0.03329625
21	0x3dc35984	0.09538558
22	0xbafc1ab2	-0.001923403
23	0x3d17905b	0.037002902
24	0x3e0b40c1	0.1359892
25	0x3e336489	0.1751882
26	0x3e2f7b52	0.17136887
27	0x3db98b07	0.090597205
28	0x3e874076	0.26416367
29	0x3e58a4ff	0.21156691
30	0x3e323bf8	0.17405689
31	0x3e834077	0.2563512
32	0x3ec63d04	0.38718426
33	0x3ea025f5	0.3127896
34	0x3ef0cd72	0.47031742
35	0x3eadb835	0.339296
36	0x3eded1de	0.4351949
37	0x3ef0bbcf	0.47018287
38	0x3eb271ec	0.3485254
39	0x3f82df14	1.0224328
40	0x3f61c58f	0.88192075
41	0xba2449cd	-0.00062671007
42	0x3f02bf8c	0.5107353
43	0x3ecd5626	0.4010479
44	0x3e9fcf7f	0.31212994
45	0x3ea0829d	0.3134965
46	0x3eb811db	0.35951123
47	0x3ed4b742	0.41546065
48	0x3efd26ea	0.49443752
49	0x3efbd567	0.4918625
50	0x3ef75b55	0.48311868
51	0x3f002a0e	0.5006417
52	0x3e93b106	0.28845996
53	0x3e88caf9	0.26717356
54	0x3eb3046e	0.34964317
55	0x3eb5a780	0.35479355
56	0x3ef00c47	0.46884367
57	0x3ecff472	0.40616184
58	0x3ea73788	0.32659554
59	0x3ea31f7f	0.31859967
60	0x3e8fa271	0.2805362
61	0x3e96c863	0.29449758
62	0x3e70f7a5	0.23531969
63	0x3e71567d	0.23568149
64	0x3e0da00a	0.13830581
65	0x3e41be3d	0.18920226
66	0x3e823936	0.25434273
67	0x3e7931bf	0.24335383
68	0x3e334a34	0.17508775
69	0x3e5a3313	0.21308546
70	0x3e7f44c4	0.24928576
71	0x3e1227c9	0.1427299
72	0x3dedac4d	0.116051294
73	0x3dade34e	0.084906206
74	0x3de99b30	0.11406553
75	0x3db3c538	0.08777851
76	0x3d96ce38	0.07363552
77	0x3d99cbc7	0.075095706
78	0x3c83d824	0.016094275
79	0x3d8de221	0.06927896
80	0x3d503422	0.050830968
81	0x3cf25720	0.02958256
82	0xbd096316	-0.03354176
83	0xbce8b311	-0.028405698
84	0x3cd96699	0.02653818
85	0x3ccbfaad	0.024899805
86	0x3be0ec9e	0.0068641445
87	0x3d18419c	0.037171945
88	0xbbf208ca	-0.0073863016

blocks.1.conv.weight f4 [1, 1, 10, 4]
0	0xbd77e1d9	-0.06051812
1	0x3e83302e	0.25622696
2	0x3d48a534	0.048985675
3	0x3e165a95	0.14682992
4	0xbd06678d	-0.032813597
5	0x3cfb645a	0.0306875
6	0x3e876879	0.26446894
7	0xbe0bba52	-0.13645294
8	0xbdbebccb	-0.09313353
9	0xbe63505e	-0.22198626
10	0xbd079d88	-0.033109218
11	0x3e4be4f6	0.1991156
12	0x3c94ce38	0.018164739
13	0x3db4e506	0.08832745
14	0xbd99d294	-0.07510868
15	0xbda4e6c2	-0.08051826
16	0x3eab57cb	0.33465418
17	0xbdfd99e1	-0.12382866
18	0xbf4bb310	-0.795701
19	0xbf2bdc7b	-0.671333
20	0x3eed51e3	0.46351537
21	0xbe8bb009	-0.27282742
22	0xbf5ef299	-0.87088925
23	0x3d68ea49	0.056864057
24	0xbe7baf28	-0.24578536
25	0x3e019281	0.12653543
26	0x3e468d40	0.1938982
27	0x3dc43ce8	0.095819294
28	0xbdd72b72	-0.105063334
29	0xbeb8c654	-0.36088812
30	0x3edd34f2	0.43204457
31	0xbec2dc83	-0.38058862
32	0xbe5bd80b	-0.21469133
33	0xbf3c1e94	-0.7348416
34	0xbe657f4a	-0.22411838
35	0x3e3d1de3	0.18468432
36	0xbe5ad55e	-0.21370456
37	0xbd1ce434	-0.03830357
38	0x3dc58091	0.09643663
39	0x3e0ab844	0.13546854

blocks.1.dense.weight f4 [1, 91]
0	0xbd6a2b99	-0.057170484
1	0x3dcb571b	0.099287234
2	0x3da19050	0.078888535
3	0x3dcfc935	0.10145799
4	0x3cd61a79	0.02613567
5	0xb9953887	-0.0002846161
6	0x3e0362ea	0.12830701
7	0x3d8e71d7	0.06955307
8	0x3d99efb3	0.07516422
9	0x3e134769	0.1438271
10	0x3d92219e	0.07135318
11	0x3e23c285	0.15992172
12	0x3d3c4dac	0.04597251
13	0x3e42b567	0.19014512
14	0x3da2d506	0.07950787
15	0x3de1d1c7	0.1102634
16	0x3e64dd8b	0.22350137
17	0x3e22cb96	0.15897974
18	0x3da966f1	0.08271588
19	0x3d72d349	0.05928353
20	0x3e1f6c3e	0.15568635
21	0x3d6f5307	0.05842879
22	0x3e559f48	0.20861542
23	0x3e658f1e	0.22417876
24	0x3e2cdae8	0.16880381
25	0x3e996041	0.29956248
26	0x3e22738f	0.15864395
27	0x3deb9554	0.115030915
28	0x3decabbb	0.115561925
29	0x3da31d5b	0.079645835
30	0x3e500bc8	0.20316994
31	0xbdaa406d	-0.083130695
32	0xbd820eda	-0.06350489
33	0x3e976ee4	0.2957679
34	0x3cc480fc	0.023987286
35	0x3d576db1	0.052594844
36	0x3d027de6	0.031858347
37	0x3e022fcc	0.12713546
38	0x3e51e9e3	0.20499377
39	0xbe9c8f1b	-0.3057793
40	0xbdea2c59	-0.1143424
41	0x3efd5e55	0.49486032
42	0x3f3dbf06	0.74119604
43	0x3e882288	0.26588845
44	0x3ea438cc	0.32074583
45	0x3e59e8b1	0.21280171
46	0x3f0bb8e0	0.5457897
47	0x3e72ec22	0.2372289
48	0x3ed5d178	0.41761374
49	0x3ec1182f	0.37713763
50	0x3e84bbb8	0.25924468
51	0x3f100e27	0.56271595
52	0x3ef62923	0.4807826
53	0x3eeebe9e	0.46629804
54	0x3f024ede	0.5090159
55	0x3eeb1027	0.4591076
56	0x3efff697	0.4999282
57	0x3ee578aa	0.44818622
58	0x3eb4f067	0.35339662
59	0x3e628a1a	0.22122994
60	0x3eaae707	0.33379385
61	0x3e7faca8	0.24968207
62	0x3df07375	0.11740772
63	0x3d7fae8b	0.062422317
64	0x3ebf43e3	0.3735648
65	0x3ecd50ac	0.4010061
66	0x3ea24d17	0.3169944
67	0x3e801d2a	0.2502225
68	0x3e64fd49	0.22362246
69	0x3ddd3ecc	0.10802993
70	0x3e4e1c7a	0.2012805
71	0x3e4eb16a	0.20184866
72	0x3e40ebdf	0.18839978
73	0x3e87ba8e	0.26509517
74	0x3eab75b9	0.33488253
75	0x3e376bd3	0.17912225
76	0x3ed9749c	0.42471778
77	0x3e2ee9cc	0.17081374
78	0x3e160d11	0.14653422
79	0x3ed358ad	0.41278592
80	0x3e810b91	0.25204137
81	0x3e97f31f	0.29677674
82	0x3dba5603	0.09098437
83	0x3e0ec5db	0.13942663
84	0xbc1134b3	-0.008862662
85	0x3e4be1dc	0.19910377
86	0x3df7e9d5	0.12105147
87	0x3d9bdc36	0.07610361
88	0xbe0ba988	-0.1363889
89	0xbe017708	-0.12643063
90	0x3dbe4149	0.09289796

linear.weight f4 [1, 3]
0	0x3ecd2b17	0.40071937
1	0x3e7717ab	0.24130122
2	0xbdc9d988	-0.09855944
