models/100bp_arround_STRends_models/hg38T_.pt (torch, 10211 bytes, 13 tensors)

last_block.conv.weight f4 [1, 1, 15, 4]
0	0x3dcc2f4a	0.09969957
1	0x3de9141a	0.11380787
2	0x3da8d884	0.08244422
3	0xbe0d687e	-0.13809392
4	0x3d666075	0.056244332
5	0x3c60ee9e	0.013728766
6	0x3e2baa91	0.16764285
7	0x3cf8d158	0.03037326
8	0xbdfc15d0	-0.12308848
9	0x3e5326fe	0.20620343
10	0xbcca199d	-0.024670416
11	0x3d594c64	0.053051367
12	0x3d274e1b	0.04084597
13	0xbe37ae14	-0.179375
14	0xbe386629	-0.18007721
15	0xbd419f8a	-0.04727129
16	0x3db9a93e	0.090654835
17	0x3dd07ca8	0.10180026
18	0x3dc91664	0.09818724
19	0xbe4e90a2	-0.2017236
20	0x3d9c206f	0.07623374
21	0x3db84ed4	0.0899941
22	0xbdf8670b	-0.12129029
23	0x3df223e8	0.11823255
24	0x3903a4fb	0.00012554594
25	0x3d25f647	0.04051807
26	0x3d953d25	0.07287053
27	0xbd8f99fa	-0.070117906
28	0xbb141c77	-0.0022599974
29	0x3da017f2	0.07817067
30	0x3dc85e5d	0.09783623
31	0xbdab2135	-0.08355943
32	0x3d78a9d6	0.060708843
33	0x3d5e3bad	0.05425613
34	0xbdc9e4d9	-0.09858102
35	0xbd9809c8	-0.074237406
36	0x3d9ae347	0.07562881
37	0xbce4583b	-0.027874103
38	0xbb32c588	-0.0027278382
39	0xbd8130f2	-0.06308164
40	0x3e16a1d9	0.14710177
41	0xbe1f85b1	-0.15578343
42	0x3c1167f6	0.008874884
43	0xbd0a1cd7	-0.03371891
44	0xbd9ba946	-0.07600646
45	0x3e306278	0.17225063
46	0x3d81d01f	0.06338524
47	0xbb4dc5a7	-0.0031398328
48	0x3e1ebf0d	0.15502568
49	0xbdaa6ae7	-0.08321171
50	0xbc0c0c13	-0.008547801
51	0x3dee5a5d	0.11638329
52	0x3e7ee23b	0.24890988
53	0xbdaceac7	-0.08443218
54	0x3be1a404	0.0068860073
55	0xbdc29214	-0.095005184
56	0x3dab0345	0.08350233
57	0xbd021336	-0.031756602
58	0xbdab49eb	-0.08363708
59	0xbc5bb59f	-0.013410001

last_block.dense.weight f4 [1, 86]
0	0x39cce3a5	0.0003907952
1	0x3bae7dca	0.005325054
2	0x3c72ebd4	0.014826734
3	0x3c9eb3d9	0.019372867
4	0x3cc4f4a7	0.02404244
5	0x3c358eaf	0.011081382
6	0x3beb9814	0.00718976
7	0x3c347a1b	0.01101544
8	0xba887160	-0.0010409765
9	0x3c4cd3d9	0.01250168
10	0x3cdd09e0	0.026982248
11	0x3c06a368	0.00821767
12	0x3c38c6aa	0.011277834
13	0x3d0489df	0.032358047
14	0x3c5c4fa9	0.013446727
15	0x3d14999a	0.0362793
16	0x3cea10d8	0.028572485
17	0x3c176736	0.009240916
18	0x3cb0138a	0.021493692
19	0x3cf10f7c	0.029426329
20	0x3c708f43	0.014682594
21	0x3d304cfb	0.043042164
22	0x3d052859	0.03250918
23	0x3c72d87b	0.014822121
24	0x3c35fa69	0.011107066
25	0x3d08fc18	0.03344354
26	0x3d5ee971	0.054421846
27	0x3d8a885b	0.06764289
28	0x3dc24268	0.09485322
29	0x3dd38432	0.10327949
30	0x3dcb3d97	0.09923857
31	0x3dea3547	0.11435943
32	0x3db47584	0.08811477
33	0xbc63f4a2	-0.0139133055
34	0xbd4c37d3	-0.049857926
35	0xbe14098a	-0.14456764
36	0xbe3140ba	-0.17309847
37	0x3f5d4f2b	0.86448926
38	0x3f645756	0.89195764
39	0x3e5ee6b5	0.21767695
40	0x3db5d3be	0.08878277
41	0xbd188804	-0.03723909
42	0xbc2871fe	-0.010281084
43	0x3d2765fd	0.040868748
44	0x3bc4c4d9	0.0060049114
45	0x3c7dd8fd	0.015493629
46	0xbe675904	-0.2259255
47	0xbde1b7c2	-0.11021377
48	0xbdd0f8e8	-0.10203725
49	0xbe0333eb	-0.12812774
50	0xbd961c7c	-0.07329652
51	0xbde83e27	-0.113399796
52	0xbe396c6e	-0.18107769
53	0xbe691f49	-0.2276584
54	0xbe5d7f01	-0.2163048
55	0xbdec27d2	-0.115310326
56	0xbdcf6e93	-0.10128512
57	0xbe36a9ae	-0.17838165
58	0xbe1a1003	-0.1504517
59	0xbdf9e242	-0.122013584
60	0xbe29d727	-0.1658598
61	0xbd9582b9	-0.07300324
62	0x3cbea3b4	0.02327142
63	0xbc7f5957	-0.015585265
64	0xbd840280	-0.06445789
65	0xbdee935c	-0.116492
66	0xbe02a26d	-0.12757273
67	0xbde2fd33	-0.1108345
68	0xbdc2c4bb	-0.095101796
69	0xbd430ac7	-0.0476177
70	0x3b961172	0.0045797164
71	0xbd040292	-0.032229014
72	0xbd531815	-0.05153664
73	0xbd37ef94	-0.044906214
74	0xbd699c94	-0.05703409
75	0xbdbe19f9	-0.09282298
76	0xbdff81b6	-0.12475912
77	0xbda07837	-0.07835429
78	0xbcecbe14	-0.02889923
79	0xbc0de071	-0.008659468
80	0x3b654ffa	0.0034990297
81	0xbc90a53c	-0.017656915
82	0xbcfdf50f	-0.031000642
83	0xbd86f5f3	-0.0658988
84	0xbc4ea073	-0.012611496
85	0x3d195b3e	0.03744053

blocks.0.conv.weight f4 [1, 1, 9, 4]
0	0x3d2dc047	0.042419698
1	0x3d93d8dd	0.07219098
2	0x3dacea23	0.084430955
3	0xbe2190ef	-0.15777944
4	0x3d1b32bf	0.037890192
5	0x3d8b58af	0.068040244
6	0x3d590e83	0.052992355
7	0xbd057b43	-0.032588255
8	0x3d4cbc82	0.049984463
9	0x3e239830	0.15976024
10	0xbcdc731e	-0.02691036
11	0xbd48969d	-0.04897176
12	0xbe486607	-0.1957017
13	0x3d5b2174	0.0534987
14	0x3dbbe2b4	0.091740996
15	0x3d67c644	0.056585565
16	0x3e18cd2b	0.14922015
17	0x3de605b3	0.11231556
18	0xbed2551d	-0.4108056
19	0x3e6d833b	0.23194592
20	0x3ecd3344	0.40078175
21	0xbeb913f9	-0.3614805
22	0x3f2a4284	0.66507745
23	0xbf5ed6e9	-0.87046677
24	0xbf55c40e	-0.8350228
25	0x3ebe123a	0.3712328
26	0xbde90627	-0.113781266
27	0x3f0aac8b	0.5416953
28	0x3df53273	0.11972513
29	0x3e106004	0.14099127
30	0x3d7b4d75	0.061353166
31	0x3e3c540e	0.1839144
32	0x3d2a0208	0.041505843
33	0x3e292206	0.16516885
34	0x3c32c904	0.010912184
35	0x3e209798	0.15682828

blocks.0.dense.weight f4 [1, 92]
0	0x3c4d8392	0.012543576
1	0x3be48034	0.006973291
2	0x3bd3e680	0.0064666867
3	0x3bacb35b	0.0052704043
4	0xbc4a50fe	-0.012348412
5	0x39f27578	0.00046245358
6	0x3a495f0e	0.0007681706
7	0xbba9f365	-0.0051864856
8	0x3b2cc8c3	0.002636478
9	0x3bc6f85d	0.0060720877
10	0x3c1de2ec	0.009636622
11	0x3c658a30	0.014009997
12	0x3c7345bd	0.01484817
13	0x3c49ea0f	0.01232387
14	0x3cc7ceb7	0.024390562
15	0x3c805ec5	0.01567019
16	0x3c3b53d5	0.011433561
17	0x3cbcb490	0.023035318
18	0x3cf151a6	0.029457878
19	0x3ce7edad	0.028311575
20	0x3d05c03d	0.032654036
21	0x3d1d78f4	0.038445428
22	0x3d3c5894	0.045982912
23	0x3d612c1d	0.05497371
24	0x3d53d495	0.051716406
25	0x3d889c15	0.06670395
26	0x3d9c4e25	0.076320924
27	0x3daade8d	0.083432294
28	0x3db64151	0.08899177
29	0x3d4e9e80	0.050444126
30	0x3d362bbd	0.044475306
31	0x3c455108	0.012043245
32	0xbbdf6088	-0.0068169273
33	0xbcc62a77	-0.02419017
34	0xbbb37e19	-0.0054776785
35	0x3cb9309e	0.02260619
36	0x3d995e1b	0.07488652
37	0xbda18e6e	-0.078884944
38	0xbe4a0fbb	-0.19732563
39	0xbeb4ee06	-0.35337847
40	0xbef1697c	-0.4715079
41	0xbf1cacf5	-0.6120141
42	0xbef0ffc2	-0.47070128
43	0xbf9373e5	-1.1519743
44	0xbf92a39c	-1.145618
45	0x3f4262a4	0.75931764
46	0x3f38336f	0.7195348
47	0x3f3cc27a	0.7373425
48	0x3f50c6cc	0.8155334
49	0x3f5ed89f	0.8704929
50	0x3f478d9c	0.77950454
51	0x3f33c337	0.7021975
52	0x3f2a5d1d	0.6654833
53	0x3f2dc699	0.6788116
54	0x3f1c637c	0.610893
55	0x3f0d594f	0.552144
56	0x3f0a8fdf	0.5412578
57	0x3f0c4d0a	0.5480505
58	0x3f06b951	0.5262652
59	0x3ef6d616	0.4821021
60	0x3ef5ad7f	0.4798393
61	0x3ee0e5fb	0.4392546
62	0x3eac51b0	0.33656073
63	0x3e9cf168	0.30652928
64	0x3e991cc1	0.2990475
65	0x3e66feee	0.22558185
66	0x3e3d763b	0.18502133
67	0x3e239889	0.15976156
68	0x3e019a08	0.12656415
69	0x3dd55b1e	0.1041777
70	0x3deb877c	0.11500451
71	0x3df91163	0.121615194
72	0x3dfb5ecb	0.1227394
73	0x3db3674e	0.08759938
74	0x3d8fb881	0.07017613
75	0x3d8152f7	0.063146524
76	0x3d81ea98	0.06343573
77	0x3d7964f1	0.06088728
78	0x3d7d21ab	0.061799686
79	0x3c041028	0.008060493
80	0xbb2e0a3f	-0.00265564
81	0x3cbc6528	0.022997454
82	0x3cf142dd	0.029450828
83	0x3da3d794	0.08000103
84	0x3d9c74e5	0.07639483
85	0x3d1e6df7	0.03867909
86	0x3a25c6d6	0.00063238794
87	0x3c4877bc	0.012235578
88	0x3cb36eab	0.021903357
89	0x3d537ad1	0.0516308
90	0x3d7e9423	0.062152993
91	0x3d3d9a67	0.046289828

blocks.1.conv.weight f4 [1, 1, 16, 4]
0	0xbfac1b6e	-1.3445871
1	0xc002989b	-2.0405643
2	0x3e9f8a62	0.31160265
3	0x3d559c11	0.05215079
4	0xc016a56c	-2.3538465
5	0xbf3ee7e2	-0.74572575
6	0xc0462f3d	-3.0966332
7	0x3e5421d9	0.20716037
8	0xc01f41a9	-2.4883826
9	0x3d8c43c6	0.06848864
10	0xbfbaaf73	-1.4584793
11	0x3e9919d8	0.2990253
12	0xc04ab9fb	-3.1676013
13	0xc018fb48	-2.390337
14	0xc018f8a6	-2.3901763
15	0x3eaa5cd4	0.33273947
16	0xbfdcde98	-1.725543
17	0x3e6ce0eb	0.23132674
18	0xbebd4bf4	-0.3697201
19	0x3e8a96c5	0.27068153
20	0xbe347fb3	-0.17626838
21	0xbf0ac7fc	-0.542114
22	0x3e93c39f	0.28860185
23	0xbea02251	-0.3127618
24	0xbfcae785	-1.5851904
25	0x3e73b84b	0.23800771
26	0xc00a3d47	-2.15999
27	0x3cb82339	0.022477733
28	0xc01fd407	-2.4973161
29	0xbf796ea2	-0.9743444
30	0xc050e083	-3.263703
31	0x3ea07326	0.3133785
32	0x3ebba56e	0.3664965
33	0x3e64cc6a	0.22343603
34	0xbfd44d70	-1.6586132
35	0xbe3e6b5c	-0.18595642
36	0xc01c8374	-2.4455233
37	0xbf0a53c2	-0.54034054
38	0xbffb82b6	-1.9649265
39	0x3e5ac24d	0.21363182
40	0xbee491f5	-0.44642606
41	0xbfa21ca8	-1.2664995
42	0x3e97bca4	0.2963611
43	0xbe759173	-0.23981266
44	0xbf5ba729	-0.8580194
45	0xbfbdab05	-1.4817816
46	0xbeb1054d	-0.34574357
47	0x3e74e730	0.23916316
48	0xc003d6c0	-2.0599823
49	0x3e9cb70a	0.30608398
50	0xbf492617	-0.78573745
51	0x3d759a95	0.059961874
52	0x3cc35311	0.02384332
53	0xbea73bc6	-0.3266279
54	0x3ee865f6	0.4539029
55	0xbea744ce	-0.3266968
56	0x3e2497a8	0.16073477
57	0x3da790a6	0.081818864
58	0x3f690e4b	0.91037434
59	0xbf34252d	-0.70369226
60	0xc007dfc6	-2.123033
61	0x3f3ff47e	0.7498244
62	0xbff262ed	-1.893644
63	0xbe8454af	-0.25845858

blocks.1.dense.weight f4 [1, 85]
0	0x3e0a2c28	0.13493407
1	0xbc384031	-0.011245773
2	0x3e2e0946	0.16995725
3	0x3d33f269	0.043932352
4	0x3d134317	0.035952654
5	0x3c361ea0	0.0111157
6	0x3d2a66f0	0.041602075
7	0x3db5f6e2	0.0888498
8	0x3d94fd95	0.072749294
9	0x3ca11e53	0.01966778
10	0x3d10095c	0.035165176
11	0x3dd66107	0.10467725
12	0x3ae5e126	0.0017538413
13	0x3e38b8c9	0.1803924
14	0x3e25d4a9	0.16194405
15	0x3d9fa69a	0.077954486
16	0x3e5fff33	0.21874695
17	0x3e319b9c	0.17344517
18	0x3e90dd37	0.28293774
19	0x3ea41397	0.32046196
20	0x3e9016f3	0.2814251
21	0x3e9c6a53	0.3054987
22	0x3ee4e917	0.44709083
23	0x3ee7ee8d	0.45299187
24	0x3ee2713a	0.4422701
25	0x3f0eea91	0.5582667
26	0x3f2660fd	0.6499174
27	0x3f1a54c3	0.60285586
28	0x3f120aa2	0.57047474
29	0x3f2a14e5	0.6643813
30	0x3f29c436	0.6631502
31	0x3f370388	0.71489763
32	0x3f822289	1.0166789
33	0x3f8b559d	1.0885502
34	0x3f353842	0.7078897
35	0x3f338259	0.7012077
36	0x3e9da354	0.30788672
37	0x3e9dff42	0.3085881
38	0x3e538065	0.20654447
39	0x3e6e8db5	0.23296244
40	0x3dd18872	0.10231103
41	0x3e0e76fd	0.13912578
42	0xbddc3139	-0.10751576
43	0x3d8a9a13	0.067676686
44	0xbe147e39	-0.14501275
45	0xbd8bb876	-0.068222925
46	0xbdbe8c8d	-0.09304152
47	0xbe5a0ec5	-0.21294697
48	0xbf0c46dc	-0.5479562
49	0xbe0c9257	-0.13727699
50	0xbea7dd0c	-0.32785833
51	0xbe84edf6	-0.259628
52	0xbf18d06e	-0.5969304
53	0xbf15d5b3	-0.58529204
54	0xbf2ea47c	-0.68219733
55	0xbf28b1f2	-0.65896523
56	0xbf720318	-0.9453597
57	0xbf51b73a	-0.81920207
58	0xbf3d8595	-0.74031955
59	0xbf1893d6	-0.5960058
60	0xbf035835	-0.5130647
61	0xbee85f93	-0.45385417
62	0xbec439df	-0.38325402
63	0xbeb3fdc8	-0.35154557
64	0xbe341db2	-0.17589453
65	0xbdd2fcd3	-0.10302129
66	0x3d6ad350	0.05733043
67	0xbd38765e	-0.04503476
68	0xbb9d10e2	-0.0047932724
69	0xbe4afb8a	-0.19822517
70	0xbe99992a	-0.29999667
71	0xbe974ab8	-0.29549193
72	0xbdeaa01f	-0.11456322
73	0x3dc7725f	0.097386114
74	0x3dca524e	0.098789796
75	0x3e5d1a01	0.21591951
76	0x3e33df6c	0.17565697
77	0x3e4cbae9	0.19993176
78	0x3da5fa21	0.08104349
79	0x3c9d61ce	0.019211676
80	0x3d71b705	0.05901243
81	0xbccf5f13	-0.02531389
82	0x3d3c2f8b	0.045943778
83	0x3c5a881a	0.013338113
84	0x3dd1c63c	0.10242888

blocks.2.conv.weight f4 [1, 1, 10, 4]
0	0xbd9fe8a1	-0.07808042
1	0xb9b58f36	-0.0003462971
2	0x3e81e284	0.2536813
3	0xbed1dd4c	-0.4098915
4	0x3eb9b455	0.36270395
5	0xbf259059	-0.6467338
6	0x3eb2a0b0	0.3488822
7	0xbf80071b	-1.0002168
8	0xbe8d3c90	-0.27585268
9	0xbe0f20df	-0.13977383
10	0x3e67fdbe	0.22655389
11	0xbf726078	-0.9467845
12	0xbe8191ba	-0.25306493
13	0xbe58012c	-0.21094197
14	0x3e6cc7ba	0.23123065
15	0xbecfd9be	-0.40595812
16	0x3aee6241	0.0018187241
17	0x3eaab3b9	0.33340243
18	0xbcb62c49	-0.022237914
19	0xbf002114	-0.50050473
20	0xbe8ea73c	-0.27861965
21	0xbebb6aec	-0.36605012
22	0x3f05ec54	0.52313733
23	0xbdc31142	-0.09524776
24	0xbe55e545	-0.2088824
25	0x3ea161e0	0.31519985
26	0xc01223f3	-2.2834442
27	0x3dd2c88a	0.10292156
28	0x3d971bb3	0.0737833
29	0x3c9e41c1	0.019318463
30	0xbc4f944b	-0.012669633
31	0xbdae0344	-0.084967166
32	0x3cdfe08c	0.027328752
33	0xbf5bbf86	-0.85839117
34	0x3ecb159c	0.39664924
35	0xbe86655b	-0.26249203
36	0x3e111190	0.14166856
37	0xbe15275c	-0.14565796
38	0xbdb97a76	-0.09056561
39	0xbe143b5d	-0.1447577

blocks.2.dense.weight f4 [1, 91]
0	0xbcbf89b0	-0.023381084
1	0xbd370517	-0.04468259
2	0xbd039e76	-0.032133542
3	0xbca687b3	-0.020328378
4	0x3b1a2793	0.0023522123
5	0x3a9a9544	0.0011793752
6	0x3c48d259	0.012257182
7	0xbd170772	-0.036872335
8	0x3ae0f446	0.0017162643
9	0xbc037d53	-0.008025485
10	0x3bcdec88	0.0062843002
11	0xbd1693cd	-0.036762048
12	0xbbba1751	-0.005679049
13	0xbd03137e	-0.03200101
14	0xbd9bd8e9	-0.07609732
15	0xbd8985a4	-0.06714943
16	0xbd0824c1	-0.033238176
17	0xbdaaeb73	-0.083456896
18	0xbc26f33e	-0.010189829
19	0xbd435b5a	-0.04769454
20	0xbd831772	-0.06400956
21	0xbd92d666	-0.071697995
22	0x3d64c0ee	0.055848055
23	0xbb882a30	-0.0041554198
24	0xbd396c2d	-0.04526918
25	0xbc3dac19	-0.011576676
26	0xbd7b146b	-0.06129877
27	0xbdc79d36	-0.097467825
28	0xbde5ab37	-0.11214297
29	0xbd59c4c1	-0.053166155
30	0xbd121690	-0.03566605
31	0xbd3b1016	-0.045669638
32	0xbea0874e	-0.3135323
33	0xbe297d2d	-0.16551657
34	0xbe74c383	-0.23902707
35	0xbe41e3a0	-0.18934488
36	0xbd4f6194	-0.050630167
37	0xbe827512	-0.25479943
38	0xbcef2f76	-0.029197436
39	0x3c122d33	0.008921909
40	0x4047c452	3.1213574
41	0xbd5c254e	-0.053746514
42	0x3c19d451	0.009388999
43	0xbdf89d60	-0.12139392
44	0x4054d11a	3.3252625
45	0x406f3156	3.7373862
46	0xbf1a9b03	-0.6039278
47	0xc00524a5	-2.0803616
48	0xc0b94481	-5.7896123
49	0xbf8e0d4f	-1.1097811
50	0xbf67b5d6	-0.90511835
51	0xbf58d7cc	-0.8470428
52	0xbf846f3f	-1.034645
53	0xbf42b583	-0.76058215
54	0xbf2dc502	-0.67878735
55	0xbf15200f	-0.5825204
56	0xbf1eea3a	-0.6207615
57	0xbf1528dc	-0.5826547
58	0xbf0df51c	-0.5545213
59	0xbf082cf6	-0.53193605
60	0xbf2ed0ea	-0.6828753
61	0xbf1b21ec	-0.60598636
62	0xbf1a2883	-0.60218066
63	0xbee2340e	-0.4418034
64	0xbede3c82	-0.4340554
65	0xbf05ad70	-0.5221777
66	0xbef7681f	-0.48321626
67	0xbef49433	-0.47769317
68	0xbed9feaa	-0.42577106
69	0xbeee0554	-0.4648844
70	0xbedf4bba	-0.43612462
71	0xbecd44a2	-0.40091425
72	0xbea9b95a	-0.33149225
73	0xbee97097	-0.45593712
74	0xbef9a0ec	-0.48755586
75	0xbeed5d4f	-0.4636025
76	0xbeee881e	-0.46588224
77	0xbec82475	-0.39090315
78	0xbe6ba1de	-0.23010966
79	0xbda4958d	-0.08036337
80	0x3e5ac224	0.21363121
81	0x3e54d89d	0.20785756
82	0x3d455d77	0.04818484
83	0xbdcb0e79	-0.0991487
84	0xbe1f06f8	-0.15530002
85	0xbe3b3f64	-0.182859
86	0xbda6a4d0	-0.08136904
87	0xbd9009e5	-0.07033137
88	0xbd7bd6dd	-0.061484206
89	0xbdc0dcf2	-0.09417142
90	0xbda94fa8	-0.08267146

blocks.3.conv.weight f4 [1, 1, 13, 4]
0	0x3e4496b4	0.19198114
1	0xbdf65c6c	-0.12029347
2	0xbca3d677	-0.019999726
3	0x3d4675c6	0.04845216
4	0xbe3d8d7a	-0.18511
5	0x3d9afd64	0.07567862
6	0x3e27efe1	0.164001
7	0x3e0af6fb	0.13570778
8	0xbeb53091	-0.35388616
9	0x3f7eee7c	0.9958265
10	0xbfd25f36	-1.6435306
11	0xbeb39f9e	-0.35082716
12	0xc00684d3	-2.101857
13	0xc015cabb	-2.3404987
14	0x3f36a5a2	0.71346486
15	0x3eaa4b26	0.3326046
16	0x3e74bc7c	0.23900026
17	0xbe071add	-0.13193841
18	0xbe394fbc	-0.18096823
19	0x3e17dff2	0.14831522
20	0xbe7c4f56	-0.2463964
21	0xbd42216f	-0.047395166
22	0xbd50b49c	-0.050953493
23	0x3ef04eed	0.46935216
24	0xbdf16082	-0.117859855
25	0xbd5902e7	-0.052981284
26	0xbcf5b9e0	-0.029995859
27	0x3d2fdce3	0.042935263
28	0xbd7819a8	-0.060571343
29	0x3db73d36	0.08947222
30	0xbc98d144	-0.018654473
31	0x3e4694b3	0.19392662
32	0x3db071e0	0.0861547
33	0x3ddb2aea	0.107015446
34	0xbdf6c1ba	-0.12048669
35	0x3dbcfa67	0.09227448
36	0xbe005590	-0.1253264
37	0x3df0cea9	0.11758167
38	0xbe01b07d	-0.12664981
39	0xbd7b7b63	-0.061396968
40	0xbdf92fa9	-0.121672936
41	0xbdb514bf	-0.08841848
42	0x3dab778c	0.08372411
43	0xbd81f162	-0.06344868
44	0xbd9a88d8	-0.07545632
45	0x3c6f9947	0.0146239465
46	0x3cd5cef5	0.026099661
47	0x3de43706	0.111433074
48	0xbdac8e11	-0.084255345
49	0x3cbac7cb	0.022800347
50	0xbd47e65d	-0.048803676
51	0xbd4effff	-0.050537106

blocks.3.dense.weight f4 [1, 88]
0	0xbc41152c	-0.011784833
1	0x38bb59cd	8.9335816e-05
2	0xbc0c01be	-0.008545337
3	0x398c8151	0.0002679923
4	0x3caff27d	0.021477932
5	0x3c84b1cc	0.016198061
6	0x3c73c618	0.014878772
7	0x3c6decd0	0.0145217925
8	0x3c98a1c1	0.018631818
9	0x3cccce26	0.025000643
10	0x3cb8e777	0.022571309
11	0x3bb84ff7	0.005624767
12	0x3c07eaec	0.008295756
13	0x3c491bf4	0.012274731
14	0x3d02559f	0.031819936
15	0x3cee4877	0.029087288
16	0x3d001bd5	0.031276543
17	0x3cd4c7f2	0.025974248
18	0x3d0fc7d0	0.035102665
19	0x3d3db058	0.046310753
20	0x3d3ea40f	0.046543177
21	0x3d3ac5e2	0.045598872
22	0x3ccf4e01	0.02530575
23	0x3d25d368	0.040484816
24	0x3cd42ef6	0.025901299
25	0x3d1f2301	0.03885174
26	0x3d18cc73	0.037304353
27	0x3cfc5a4d	0.030804778
28	0x3cb6898e	0.022282388
29	0x3b51afc6	0.0031995638
30	0xbd0866ee	-0.033301286
31	0xbd8d9154	-0.06912485
32	0xbd547d0c	-0.051877066
33	0xbd100151	-0.035157505
34	0xbbb05c9a	-0.0053821327
35	0xbb4cb4e8	-0.0031235758
36	0x3d0c6f5c	0.034285888
37	0x3db7ddf4	0.08977881
38	0x3e69db1a	0.22837487
39	0x3eb82374	0.3596455
40	0x3eb3b93a	0.35102254
41	0x3eb97d1f	0.36228272
42	0x3efc382b	0.49261603
43	0x3f308618	0.6895461
44	0x3f3fc0dd	0.7490366
45	0x3dcc0073	0.09961023
46	0xbf5963ac	-0.8491771
47	0xbf964266	-1.1739013
48	0xbf80c4ad	-1.0060021
49	0xbf5ed6ab	-0.8704631
50	0xbf4dae86	-0.80344427
51	0xbf574924	-0.8409598
52	0xbf4b34d4	-0.79377484
53	0xbf27c2c1	-0.65531546
54	0xbf23a628	-0.6392541
55	0xbf28a48f	-0.65876096
56	0xbf277afe	-0.65422046
57	0xbf256dd2	-0.646207
58	0xbf0a4ad3	-0.5402042
59	0xbf060fe6	-0.5236801
60	0xbefe11dc	-0.49623
61	0xbee1f03f	-0.44128606
62	0xbef6449b	-0.48099217
63	0xbee7a6f9	-0.45244578
64	0xbed88e97	-0.42296287
65	0xbed06bca	-0.40707237
66	0xbed0c61b	-0.40776142
67	0xbecbc0a6	-0.39795417
68	0xbec83c84	-0.3910867
69	0xbea624d9	-0.32449988
70	0xbead25bb	-0.3381785
71	0xbebc9983	-0.3683587
72	0xbeaeb2d8	-0.34120822
73	0xbe9bd2ec	-0.30434358
74	0xbe8415a7	-0.2579777
75	0xbe3f6813	-0.18692045
76	0xbe711a12	-0.23545101
77	0xbe5be3a4	-0.21473557
78	0xbe204e91	-0.1565497
79	0xbe340254	-0.17579013
80	0xbe069a08	-0.13144696
81	0xbdc43d3c	-0.09581992
82	0xbdd0550e	-0.10172473
83	0xbe2beb7d	-0.1678905
84	0xbe210d86	-0.15727815
85	0xbdfddb3f	-0.123953335
86	0xbdbf3508	-0.09336287
87	0xbd42b45e	-0.047535293

blocks.4.conv.weight f4 [1, 1, 12, 4]
0	0x3e578be6	0.21049461
1	0xbf3cdd81	-0.7377549
2	0xbf23aa04	-0.639313
3	0xbd8e10e1	-0.06936813
4	0xbf75185b	-0.9574029
5	0xbf6eeec1	-0.9333306
6	0x3eb6ffe6	0.3574211
7	0xbf8e3b06	-1.1111763
8	0xbe09d64a	-0.13460651
9	0xbf533bd1	-0.8251315
10	0xbf2345f8	-0.6377864
11	0x3e3c6a4b	0.18399923
12	0xbf23040e	-0.6367806
13	0xbc90f458	-0.017694637
14	0x3e3720f0	0.17883658
15	0xbdceb0f5	-0.100923456
16	0x3e2faabd	0.17154975
17	0xbeb133f2	-0.34609944
18	0x3bd08e9f	0.006364658
19	0xbe8d88e3	-0.276435
20	0xbf815dee	-1.010679
21	0x3ee1da21	0.44111732
22	0xbfa6a373	-1.3018631
23	0x3cc54214	0.02407936
24	0xbafac4ac	-0.0019132099
25	0xbd5a01f5	-0.053224523
26	0x3ec28916	0.37995213
27	0xbf7a4a0c	-0.97769237
28	0xbee4dc9c	-0.44699562
29	0x3df5b9bf	0.11998319
30	0x3ec49e86	0.38402194
31	0xbf8d6185	-1.1045386
32	0x3e8c95aa	0.27457935
33	0xbf162aa9	-0.58658844
34	0x3f1131a2	0.5671636
35	0xbed05b1e	-0.40694517
36	0xbeed07fe	-0.4629516
37	0x3b042411	0.0020163099
38	0x3e8571e5	0.26063457
39	0xbf81352a	-1.0094349
40	0xbf8daaef	-1.106779
41	0xbf2d4283	-0.67679614
42	0x3e061efc	0.13097757
43	0x3de69a2d	0.112598754
44	0xbe1c5acf	-0.15269016
45	0x3e4221d1	0.18958212
46	0xbefbbdcb	-0.49168238
47	0xbdd98914	-0.10621849

blocks.4.dense.weight f4 [1, 89]
0	0x3df46ca9	0.11934788
1	0x3db3e6d7	0.087842636
2	0x3d4179a3	0.047235142
3	0x3d338948	0.043832093
4	0x3cf39e3e	0.029738542
5	0x3d6c0cf4	0.05762954
6	0xbb8807ee	-0.004151336
7	0x3bb26c54	0.0054450426
8	0x3d1415cb	0.036153596
9	0xba998051	-0.0011711215
10	0xbd171da1	-0.03689349
11	0xb9123265	-0.00013942418
12	0x3d5ad440	0.053425074
13	0x3d25d8c2	0.04048992
14	0x3cb29f44	0.02180446
15	0xbc4c9fb0	-0.012489244
16	0x3ddfb16f	0.10922515
17	0x3d899a9c	0.067189425
18	0x3d3b8f44	0.045790926
19	0x3be25f72	0.0069083506
20	0xbd076a92	-0.033060618
21	0xbcdc5d9c	-0.026900105
22	0xbc2adda9	-0.010428824
23	0x3cd25bf8	0.02567862
24	0xbc44ff23	-0.01202372
25	0xbd4e8cf6	-0.0504274
26	0xbd61b133	-0.05510063
27	0xbd9c6ae2	-0.07637574
28	0xbd709813	-0.05873878
29	0xbe5e2201	-0.21692659
30	0xbdd872c2	-0.10568763
31	0xbed47eb7	-0.41502926
32	0x3f0a5850	0.54041004
33	0x3d94718c	0.0724822
34	0x3e1ad35e	0.15119693
35	0x3d89c3a8	0.067267716
36	0x3bec0c92	0.007203647
37	0x3d53791e	0.05162918
38	0xbc040ec6	-0.008060163
39	0xbc514718	-0.012773298
40	0x3d03c51c	0.0321704
41	0xbc447ac7	-0.011992163
42	0xbd08b0a9	-0.0333716
43	0x3f08b1a0	0.53396034
44	0x3f1462da	0.57963336
45	0x3e7a9653	0.24471407
46	0xbdb71270	-0.089390635
47	0xbf84e481	-1.0382234
48	0xbfa47035	-1.2846743
49	0xbf377b00	-0.7167206
50	0xbf19ba80	-0.600502
51	0xbf1eaac0	-0.61979294
52	0xbf299da2	-0.66256154
53	0xbf320b83	-0.69548815
54	0xbf292e8e	-0.6608666
55	0xbee854cd	-0.45377198
56	0xbecea6fe	-0.4036178
57	0xbf1a65b8	-0.6031146
58	0xbf0ed8e8	-0.5579972
59	0xbf02c6a0	-0.5108433
60	0xbee1ba01	-0.44087222
61	0xbf6fe18c	-0.9370353
62	0xbf81a615	-1.0128809
63	0xbf34bc48	-0.70599794
64	0xbf202fa9	-0.62572724
65	0xbf0a6cfe	-0.5407256
66	0xbee53894	-0.44769728
67	0xbef135f1	-0.47111467
68	0xbee5f12a	-0.44910556
69	0xbead1225	-0.33802906
70	0xbe253ada	-0.16135731
71	0xbd6bf0e9	-0.057602797
72	0x3da8fbbc	0.082511395
73	0x3dd693c3	0.10477402
74	0x3df5d584	0.120036155
75	0x3e262c3d	0.16227813
76	0x3de8f028	0.11373931
77	0x3e1fbf95	0.15600426
78	0x3e33aaa8	0.17545569
79	0x3eb87fc2	0.3603497
80	0x3eaf9866	0.34295958
81	0x3e9aea88	0.30257058
82	0x3e555d40	0.20836353
83	0x3def1932	0.116747275
84	0x3d94aa7d	0.072590806
85	0xbd9e16ec	-0.07719216
86	0xbdd073dc	-0.101783484
87	0xbe00ece0	-0.1259036
88	0xbd996275	-0.07489482

linear.weight f4 [1, 6]
0	0xbe7316dc	-0.23739189
1	0x3dfbbaf2	0.12291516
2	0x3d9133ea	0.0708998
3	0xbd9294f4	-0.07157317
4	0xbda9e88e	-0.082963094
5	0x3de8375f	0.11338686
