models/100bp_arround_STRends_models/hg38CTTT_.pt (torch, 8840 bytes, 11 tensors)

last_block.conv.weight f4 [1, 1, 13, 4]
000000 d6 f4 a5 bc 80 f5 fc bd 44 29 1d be 8c f8 36 be
       -0.020258348 -0.12351513 -0.15347773 -0.1786825
000010 d0 03 1f 3d 74 99 12 be 06 94 f0 bd 68 e9 80 be
       0.038821995 -0.1431635 -0.11746983 -0.25178075
000020 8a cd 42 bb c9 b7 cf bd e3 f0 ea bd d0 f8 22 be
       -0.0029724562 -0.10142476 -0.11471727 -0.15915227
000030 2a 53 59 be 3c 74 84 be 7e 84 06 3d 18 e0 af bd
       -0.21223131 -0.2586993 0.0328412 -0.08587664
000040 f0 50 62 bc 80 85 11 bd 85 59 8d bd 89 5d 38 be
       -0.013813242 -0.035527706 -0.0690184 -0.18004431
000050 8c be 23 bd db 54 02 bd 5d f9 d0 bc ae a7 85 3c
       -0.03997664 -0.031819206 -0.02550953 0.016315307
000060 44 09 db bd 40 ae 31 be a1 a5 b5 bd 90 69 21 be
       -0.10695127 -0.17351627 -0.08869482 -0.15762925
000070 e6 2c 6f be de a8 41 be 3d f8 88 be 70 64 31 be
       -0.23356971 -0.18912074 -0.2675189 -0.1732347
000080 83 9d 88 bc 27 8d 30 bd 6a ab b5 bd 71 63 2a 3c
       -0.01667667 -0.043103363 -0.08870585 0.010399685
000090 6f f5 5e 3c d8 25 51 be 26 4b c5 bd 7c 39 00 bd
       0.013608321 -0.20424592 -0.09633474 -0.03130482
0000a0 83 7a 84 be 2e d3 e8 bd d1 27 75 be 84 46 36 be
       -0.2587472 -0.11368404 -0.2394097 -0.17800337
0000b0 5f 09 47 be d9 ec 3b be 52 52 77 be 9c 56 43 be
       -0.19437169 -0.18352069 -0.24152496 -0.19076008
0000c0 84 be 5d be 6b e6 51 be 18 d1 97 be f2 10 81 be
       -0.21654707 -0.20498054 -0.29651713 -0.2520824

last_block.dense.weight f4 [1, 88]
000000 38 0a 93 3c 72 eb 52 bd 78 2c 3a 3b bf ce fb bd
       0.017949209 -0.05149407 0.0028407853 -0.12295293
000010 e1 1b f8 bd 3c 36 56 bd f1 42 c2 3d f5 4f ec 3c
       -0.121146925 -0.052297816 0.09485424 0.02884672
000020 b4 fb 96 3d bc 75 a4 3d 1c 06 84 3d 71 cb 31 3d
       0.07372227 0.080302685 0.06446478 0.043406907
000030 22 9f 36 3d 45 8a ae 3c 3e e8 de bd e2 55 20 bd
       0.044585355 0.021306166 -0.108841404 -0.039144404
000040 ec ae 9e bd 7c 1e c6 bd 94 b2 55 bd 46 93 16 be
       -0.077482074 -0.09673783 -0.05217226 -0.14704618
000050 e3 28 d4 bc ad 88 7c bd b5 33 ea bd e0 ca c7 3c
       -0.025898403 -0.06165378 -0.114356436 0.02438873
000060 f1 07 c9 bb c0 7d 07 be b0 c6 15 bd da b3 e8 bc
       -0.00613498 -0.13231564 -0.036566436 -0.028406072
000070 8d 16 ce 3d 11 3e 3f 3d 32 ec 1f 3d b7 8a bc bd
       0.10062895 0.04669005 0.039043613 -0.09206145
000080 7a ff 4b bd 04 8b 9a 3d 9b dc 00 bc 5a c1 e3 3b
       -0.04980419 0.075460464 -0.007865096 0.0069505395
000090 f7 15 80 bd 26 22 ca 37 43 02 1e bd c6 ca 11 3e
       -0.062541895 2.4096178e-05 -0.038576376 0.14237508
0000a0 c0 18 8d bd e5 82 15 bd 1d 9b 56 3d 3d ea 36 bc
       -0.06889486 -0.036501784 0.05239402 -0.011164245
0000b0 42 36 d3 bd 97 c3 df bc 75 97 cb bc 64 20 a2 3c
       -0.10313083 -0.027314944 -0.024852494 0.019790836
0000c0 ff f6 21 bd 0a 1d f9 3a 73 f2 53 bc a5 28 84 3d
       -0.039542194 0.0019005847 -0.012936222 0.06453065
0000d0 5b 0a 3a bd 19 92 00 be 35 70 d3 3d cc 0a aa ba
       -0.045420032 -0.12555732 0.10324136 -0.0012973188
0000e0 16 d1 a1 bd 2e 2d a2 bd 10 21 fe 3c ce e9 9c bd
       -0.07901208 -0.079187736 0.031021625 -0.07661782
0000f0 df d5 6e 3c aa dd 5d 3d 17 2f 99 bd 9e 6c 89 bd
       0.014577358 0.054166473 -0.07479685 -0.0671017
000100 0e 50 d4 bd 1f e9 8c bc b4 18 d3 bd 31 c4 fb bd
       -0.10366832 -0.017201005 -0.10307446 -0.1229328
000110 44 32 38 ba b5 f7 0e bd d7 a7 fc 3c e3 1e d5 3b
       -0.0007026533 -0.0349042 0.030841751 0.006503926
000120 fd 5f a4 3d c9 f7 80 3d c1 bb 64 3c 81 c8 af 3d
       0.08026121 0.06297261 0.01396078 0.08583165
000130 e1 a5 f6 3d c9 f8 66 bd f6 b5 8c 3b 28 47 00 be
       0.12043358 -0.056389604 0.0042941524 -0.12527144
000140 cc 57 80 3d 4e c3 8e bd bf 32 7c 3c 98 f9 8c bc
       0.06266746 -0.06970845 0.015392958 -0.01720886
000150 f1 03 d0 3c 61 5c e2 bb 68 11 c9 3b a9 f8 7f bd
       0.025392504 -0.006907985 0.006136108 -0.062493

blocks.0.conv.weight f4 [1, 1, 17, 4]
000000 dc f6 bc be 19 52 cc bd ff c6 ce be 20 5b c2 3d
       -0.3690709 -0.099765964 -0.40386197 0.09490037
000010 11 59 b8 be c5 28 84 bd 4f 55 13 c0 97 47 8d 3e
       -0.36005452 -0.06453089 -2.3020818 0.2759368
000020 bc 40 de be 53 a2 8e bd 40 4e a0 bf ef 69 fd 3d
       -0.43408763 -0.06964555 -1.252388 0.12373721
000030 27 b5 dc bd d2 4b d2 3d e8 e0 be bd 8c 5e 4f bd
       -0.107767396 0.10268368 -0.09320241 -0.050627276
000040 1c 69 bc bd 24 9d c8 bd 65 06 ff bd 4b 73 04 3e
       -0.091997355 -0.09795597 -0.124523915 0.12934606
000050 6f 1e fd bc 22 70 17 bf 78 50 80 3e 60 fc 04 3e
       -0.0308983 -0.59155476 0.25061393 0.12986898
000060 db eb cf 3d 78 fe aa bd e2 ec 3c bf dd 6d d2 3d
       0.10152408 -0.08349317 -0.73798954 0.10274861
000070 42 39 1d bf 14 11 7f 3e f5 f8 a1 bd e8 47 0b be
       -0.61415493 0.24908859 -0.07908813 -0.13601649
000080 f3 db 82 3e 46 24 04 bf 21 3b 9e 3e 81 d8 03 be
       0.25558433 -0.5161785 0.30904487 -0.12875558
000090 c3 ad 6b be 42 73 d5 be 24 9f 82 bb 13 47 7e 3e
       -0.23015504 -0.41689497 -0.003986256 0.248318
0000a0 47 da ee 3d aa 80 f6 3d 41 84 a7 3e e1 bb 8e be
       0.11662727 0.120362595 0.3271809 -0.27877715
0000b0 16 93 13 3e 1d c2 fa 3d 11 df d0 3d 3c f2 df bf
       0.14411578 0.122440554 0.101987965 -1.7495799
0000c0 e3 08 15 3f d5 ab a8 be ae e7 55 be c1 10 8b be
       0.58216685 -0.32943597 -0.2088916 -0.2716122
0000d0 c0 88 36 3e 54 81 24 bf ec 28 01 be 5d 44 7d 3e
       0.17825603 -0.6425984 -0.12613267 0.2473311
0000e0 91 85 7e be 17 fd f8 be 04 62 8b be 22 80 8f 3e
       -0.24855639 -0.48630592 -0.27223217 0.28027445
0000f0 d0 98 ed be b8 11 e5 3d 72 14 84 be e4 94 a6 bd
       -0.4640565 0.1118502 -0.2579685 -0.081338674
000100 30 60 0b be d1 37 0a be 56 f0 9f 3d 2c d9 76 bd
       -0.13610911 -0.13497855 0.07809512 -0.060265705

blocks.0.dense.weight f4 [1, 84]
000000 0d 43 9a be da c2 73 be 0e 75 b3 be dd 69 af be
       -0.3012928 -0.23804799 -0.35050243 -0.34260455
000010 3a be bc be 84 39 34 be 27 32 10 be b1 a4 4f be
       -0.3686388 -0.17600065 -0.14081632 -0.20277669
000020 a7 e3 2b be b3 04 88 be 98 6c 01 bd 5d ca 6f be
       -0.16786061 -0.26566085 -0.031597704 -0.23417039
000030 ff 89 c8 bd d5 85 1b be ff 13 3c be 93 3f 15 bd
       -0.09791946 -0.15187772 -0.18367003 -0.036437582
000040 14 31 22 be 30 44 d9 be 92 7e c2 be 42 b9 20 be
       -0.15839034 -0.42434835 -0.3798719 -0.1569567
000050 bc 89 42 be 51 3c 55 bd 38 29 98 3d e9 8e 61 be
       -0.18997854 -0.052059475 0.07429737 -0.22027172
000060 d7 ff 94 bd 4c 3a 04 be 2a 14 57 be 20 da 30 be
       -0.0727536 -0.12912863 -0.21003786 -0.17270708
000070 64 28 35 be 96 a9 90 be e6 bf e6 bd 10 cc 16 be
       -0.17691189 -0.28254384 -0.112670705 -0.14726281
000080 59 c9 21 3d 29 dd df bc bf 5a 59 be 8c 99 62 be
       0.03949866 -0.027327137 -0.21226023 -0.22128886
000090 95 6e 65 bf e4 fd 8d be 01 2a 4c bd 13 7e c9 be
       -0.8962186 -0.27732766 -0.049844746 -0.39354
0000a0 fc 08 8b be 25 50 eb be fe 7f 7d be af e3 3e be
       -0.27155292 -0.45959583 -0.24755856 -0.18641542
0000b0 f5 a2 96 be 68 a8 2f be 9c 04 ba be c2 5d 90 be
       -0.294212 -0.17154086 -0.36331642 -0.28196532
0000c0 b4 da b4 be e5 1e b6 be 7e af bb be ad 28 ea be
       -0.35323107 -0.35570446 -0.36657327 -0.45734158
0000d0 46 16 c8 be 53 27 6b be 77 6d 72 be fe fc 7f be
       -0.39079493 -0.2296422 -0.2367457 -0.24998853
0000e0 65 6c bd be 42 c9 bb be 70 9f e5 be 64 82 83 be
       -0.3699676 -0.36676985 -0.44848204 -0.25685418
0000f0 7a d5 49 be 63 59 74 be 50 3e 2b be 22 5d 88 be
       -0.19710341 -0.23862223 -0.16722989 -0.26633555
000100 f4 b0 a7 be 0d 3d d9 bd cc d6 a9 3c d6 14 7a be
       -0.32752192 -0.10607348 0.020732306 -0.24422011
000110 48 dd 15 be 46 84 a5 bd c9 af 99 3d 7f a1 cd bd
       -0.14635193 -0.0808187 0.075042315 -0.100405686
000120 d8 eb d2 bd 6b 93 f6 bc 1d 6d b6 be be e4 1f 3e
       -0.1029889 -0.030099591 -0.35630122 0.15614602
000130 15 a9 0c bc 78 74 93 3d 80 74 ad bd b0 42 86 3e
       -0.008585234 0.07199949 -0.08469486 0.26222754
000140 c9 54 f8 bd 95 15 c6 bd 06 0e 0e 3f e0 b3 f4 3d
       -0.121255465 -0.09672085 0.5549015 0.11948371

blocks.1.conv.weight f4 [1, 1, 11, 4]
000000 56 b8 1b 3d 9c d0 10 be 77 53 1a bc 88 0e d2 bd
       0.038017593 -0.14142078 -0.009419314 -0.10256678
000010 ba 6a 27 be 8a 86 b8 bd 45 e9 8b 3b 07 22 4c be
       -0.16349307 -0.09010036 0.0042697513 -0.19934855
000020 fe 11 ad 3c 98 f2 c9 bc ec dc 8e bc f0 6e 8b be
       0.021126743 -0.02465181 -0.017439328 -0.27233076
000030 93 b7 5b be 24 8f c4 bd 45 10 6f be e6 67 95 bd
       -0.21456747 -0.095976144 -0.2334605 -0.07295208
000040 1a d6 18 3d 69 c6 1c be 98 dd 7d be 38 28 a8 be
       0.03731356 -0.15310062 -0.24791563 -0.32843184
000050 a2 03 26 be 7a d5 e2 bd 51 60 c5 be 84 da 08 3d
       -0.16212323 -0.11075874 -0.38550046 0.033411518
000060 5f c6 12 be 98 a9 a5 be 0a 75 f1 bc e9 65 64 3d
       -0.14333485 -0.32355952 -0.029474754 0.05576125
000070 0e 96 3b bd d2 d5 1b be 03 6d b1 bd c0 8e fa bd
       -0.0457974 -0.15218285 -0.086633705 -0.12234259
000080 74 b2 11 3d 2d 05 8b be 0f f5 07 be 26 e3 47 be
       0.035570577 -0.27152386 -0.13277076 -0.19520244
000090 6b 0d 58 be 33 65 07 be a9 4f dd bd 74 1e db bd
       -0.21098869 -0.13222198 -0.108062096 -0.10699168
0000a0 3c 9d 84 be e6 1e 0b 3d 37 4f 1a be 28 db 49 be
       -0.2590121 0.033965014 -0.1506928 -0.19712508

blocks.1.dense.weight f4 [1, 90]
000000 f3 d0 23 3d 8c bc 3b 3e 4e b3 3d 3e 02 aa 28 be
       0.03999419 0.18333644 0.1852543 -0.16471103
000010 d1 55 27 3c 46 ab 3c 3d 65 94 0f 3d d5 dd 94 3e
       0.010213331 0.046061777 0.03505363 0.29075494
000020 e1 0d 34 bd cd b8 90 bc 9b b4 f5 bd 8c 68 03 be
       -0.04395855 -0.017666245 -0.119973384 -0.1283285
000030 68 73 a0 3d d6 85 ce bd 14 2a 81 3d 5d 94 cb bc
       0.07834512 -0.10084121 0.06306854 -0.024851019
000040 2d bb 13 be 70 de a9 3d 87 aa 07 3d 72 91 1a bd
       -0.1442687 0.0829438 0.033121612 -0.037736364
000050 f9 e6 c2 3d ce dd 63 3c 2d 1a e4 bc 61 12 9b bd
       0.09516711 0.013907863 -0.027844513 -0.07571865
000060 ee 3b 20 3d 11 df 8e 3c e7 5f 59 3e a6 59 c5 bd
       0.039119653 0.01744035 0.2122799 -0.0963624
000070 0f 91 e2 bb b0 12 d1 bd 00 dc a5 3d fe 31 6f bd
       -0.006914265 -0.102086425 0.08098602 -0.058397286
000080 88 ae 93 3d a6 46 cc 3c 98 7c 76 bd aa 21 8e 3d
       0.072110236 0.024936032 -0.060177416 0.06940015
000090 d9 c3 d0 3d 8d dd 20 bc 76 2a 03 3d 80 3b f1 3d
       0.10193605 -0.009818447 0.032022916 0.11778927
0000a0 2d 97 7e 3d 31 e1 8d bc ae 62 4b 3d 74 a5 50 3d
       0.06215589 -0.017319294 0.049654655 0.05093904
0000b0 cf 7c 3c bc c2 5e 1e 3e f0 15 83 3d ca 80 7f 3b
       -0.011504366 0.15465835 0.064006686 0.0038986676
0000c0 99 92 ee 3d 92 df 74 bd 21 de cd bc c1 98 01 3e
       0.11649055 -0.059783526 -0.025130333 0.12655927
0000d0 2c a8 a3 3d 27 33 f9 3b 9c 8c 56 3e dc ad 0d bb
       0.079910606 0.007604975 0.20952076 -0.002161852
0000e0 10 61 45 3e 6e ce 89 3d 43 7b b9 3c 40 0f 80 3d
       0.19275308 0.067288265 0.022641784 0.06252909
0000f0 a6 c5 f4 3c f7 82 8f 3d 4d 95 3f 3d ca c5 1b bb
       0.029879402 0.070074014 0.046773244 -0.0023769015
000100 88 c9 0c bd 98 bd 3b bb e6 ca 91 3c 4a 19 f5 bc
       -0.034371883 -0.0028646942 0.017796945 -0.029919285
000110 b0 d9 0b bd aa b6 a5 3d c4 0c 5d 3d 12 49 9c 3d
       -0.03414315 0.08091481 0.053967252 0.076311246
000120 11 7a da bd 11 8c a7 3d 79 94 8a 3d 1a b3 2e 3e
       -0.106678136 0.081810124 0.067666 0.1706051
000130 af dc 06 3e 6f 88 b0 3d e2 a1 3b 3e 8b be a7 3d
       0.13170122 0.08619773 0.18323472 0.0819064
000140 ef 47 12 3e 05 0b 10 3d 73 11 5f 3d 1c c2 ef 3d
       0.14285253 0.03516676 0.05446 0.11706945
000150 3a ae 50 3d b8 78 54 3e b8 17 26 3e 8d 70 cb bc
       0.050947405 0.20749176 0.16219985 -0.024833942
000160 59 3c 82 3d 97 1a 02 bd
       0.06359167 -0.03176364

blocks.2.conv.weight f4 [1, 1, 13, 4]
000000 86 b5 97 bd 26 66 c1 bd 93 1e ea be d8 fb 61 3d
       -0.0740767 -0.094433114 -0.4572645 0.055171818
000010 08 b7 b7 be 0b 83 6c be 14 81 20 3e 17 65 15 3e
       -0.3588183 -0.23096864 0.1567424 0.14589344
000020 ca 1c e6 bd 70 7a 69 be 8c 7c 4c bf 9a 18 4c 3e
       -0.1123596 -0.22800612 -0.79877543 0.1993126
000030 00 66 5d 3e 8c 21 a7 be 76 9d c0 3e eb 89 00 be
       0.21620941 -0.32642782 0.37620133 -0.12552612
000040 ab 8d 0d bf 8a 82 38 be e2 3d 7b 3e 03 86 48 3e
       -0.55294293 -0.18018547 0.24535325 0.19582371
000050 60 2f 67 be d2 a2 93 3e 82 30 5a be 27 b5 f5 bd
       -0.22576666 0.2883516 -0.21307567 -0.11997443
000060 91 6e 66 bd 57 16 99 be dd 2b 8a 3b 87 d7 bc 3d
       -0.056257788 -0.29899856 0.0042166547 0.09220796
000070 93 b5 ef bc 84 65 1f bd b1 67 57 3e ef a9 5a be
       -0.029261386 -0.038915172 0.21035649 -0.21353887
000080 79 32 f8 be c6 18 5f 3e 09 ac 8a be 45 54 ac 3d
       -0.48476008 0.21786794 -0.27084377 0.08414511
000090 c7 5a c9 bc 22 e3 43 be 58 19 11 bc 67 15 b1 3d
       -0.024579419 -0.19129613 -0.00885614 0.0864666
0000a0 2e 3a f0 bc ad 37 83 3e 36 5b 74 bd 58 d5 8b be
       -0.029324617 0.25628415 -0.059657298 -0.27311206
0000b0 e4 40 93 be 1c c5 73 3c d2 c8 8a bd 4c d0 8d 3d
       -0.28760445 0.0148785375 -0.06776585 0.06924495
0000c0 7a e2 38 bc e8 66 2a 3e 7c af 4c be 90 be 7d 3d
       -0.011284465 0.16640818 -0.19988817 0.061949313

blocks.2.dense.weight f4 [1, 88]
000000 8d d5 ca 3d 41 db 58 3d b7 e6 ac 3c a1 95 00 3c
       0.09904013 0.05294347 0.021106107 0.007848174
000010 7b 5e b1 3d 33 77 0a bc 2b d9 f6 3c d4 45 0c bd
       0.08660599 -0.008451271 0.03013285 -0.03424628
000020 04 4d 2e 3d 5e f4 ab 3d 7b f4 eb 3c 02 f6 84 3d
       0.042553917 0.08396219 0.0288031 0.06492235
000030 58 9b cb bc 08 e8 05 3d 82 f4 6f 3d 0a 34 55 bd
       -0.024854347 0.032691985 0.05858279 -0.05205158
000040 f7 1f 95 3d 36 ad c8 3d fa 1f 49 3d b2 f1 12 3d
       0.072814874 0.09798662 0.04910276 0.03587503
000050 c0 75 d8 3d b9 b3 25 3e 65 63 1f bb 65 14 14 3d
       0.10569334 0.1618184 -0.0024320718 0.036152262
000060 79 4f ca 3d c7 ae 10 3e b7 2d 50 3b 3f bc aa 3d
       0.098784395 0.14129172 0.003176553 0.08336686
000070 2c 30 77 3d ad f0 82 3c c6 cf e4 3d 33 54 0f 3c
       0.060348675 0.015983904 0.11172442 0.008748102
000080 f7 1c ab 3d 17 3e 19 3e 66 05 37 3e f7 31 c4 3d
       0.08355134 0.14965092 0.17873153 0.095798425
000090 df c3 ec 3d 82 d2 0b 3d 1f 65 08 3d 59 68 4a 3d
       0.11560797 0.034136303 0.03329956 0.04941592
0000a0 d7 c5 a9 3e ec e9 9a 3d c0 c1 9f bd dc e0 6a 3e
       0.33158752 0.07564148 -0.07800627 0.2293734
0000b0 fc 8c 9f 3d 5d f6 64 3e 1f 1f 39 3e d4 35 0e 3f
       0.077905625 0.22359605 0.18078278 0.55550885
0000c0 e7 a2 63 3e 16 c5 cc 3e df 30 31 3e 0f e1 2f 3e
       0.22230111 0.39994115 0.17303799 0.17175697
0000d0 66 47 87 3e da 90 7a 3e c0 38 8b 3e 43 07 c5 3e
       0.2642166 0.24469319 0.27191734 0.38482103
0000e0 f3 55 97 3e bc 4c 3f 3e 94 bf 85 3d c1 af 4a 3e
       0.29557762 0.18681616 0.06530681 0.19793607
0000f0 3b 89 87 3e e4 ab 1b 3e d8 20 68 3e d1 5e 1c 3e
       0.26471886 0.1520229 0.22668779 0.15270545
000100 01 9c fb 3d 3e 2e 1b 3e f2 11 30 3d d6 42 c8 3b
       0.12285615 0.15154359 0.042985864 0.006111483
000110 c3 0e 5e 3a 5c b3 34 3b 54 a5 df 3d ea 95 f1 3c
       0.00084708276 0.0027572727 0.10920206 0.02949043
000120 67 5b fb b9 25 c9 38 bd 7f 61 a0 3d 54 8f 3b 3d
       -0.0004794255 -0.0451137 0.07831096 0.045790985
000130 a9 93 2a 3e 68 b3 83 3d d4 37 18 bd e7 92 aa bd
       0.1665789 0.064307034 -0.037162617 -0.08328801
000140 d5 0f 88 3d 56 61 20 3e ac dc 01 3d b1 0a 77 bd
       0.06643645 0.1566213 0.03170459 -0.06031293
000150 ef cf dd 3d 78 eb 22 3e 0e b4 5e 3d df 61 25 3d
       0.10830676 0.15910137 0.054370932 0.04037654

blocks.3.conv.weight f4 [1, 1, 18, 4]
000000 dc 84 41 bf b8 09 8a be 3e 7c 83 3d 3b 56 05 3e
       -0.7559335 -0.2696054 0.06420182 0.13021176
000010 e8 97 f3 be 0b 70 ec 3e 38 3c 94 bf 26 00 85 bc
       -0.47576833 0.46179232 -1.1580877 -0.016235422
000020 24 ca f9 be 6f 44 9b be ea e8 70 3e e5 88 f5 3a
       -0.48787034 -0.30325648 0.2352635 0.0018732814
000030 0f 8c 11 bf 2c c8 1c 3f f0 0c 94 3e 01 35 3e bf
       -0.5685434 0.6124294 0.2891612 -0.7429963
000040 61 c1 c3 bf 11 17 33 bf bd 74 0c c0 fe 7c 21 3f
       -1.529339 -0.6995707 -2.1946251 0.6308135
000050 ac c2 bc 3f 2d 23 ab bf 92 9f d5 3e 2b d7 b7 bf
       1.4746909 -1.337011 0.41723305 -1.4362539
000060 00 aa bb bf 0e 0a 0a 3f 28 5c da 3d 09 ab 4a be
       -1.4661255 0.5392159 0.10662109 -0.19791807
000070 3b fb 8f bd fd 2a 45 be ba 8c d6 be 30 90 d8 3d
       -0.0703034 -0.1925468 -0.4190424 0.105743766
000080 1c c5 c7 be 4c 86 c6 bd c7 36 a7 3e ad 4b 85 bd
       -0.3901757 -0.09693584 0.3265898 -0.06508575
000090 3b e9 a0 be 3e 5e 03 3e b0 0e 14 3d e9 4c a8 bd
       -0.3142794 0.1282892 0.03614682 -0.082177944
0000a0 ce 5a 26 be 7f 2e 8b be 65 a1 99 3e 10 79 86 bd
       -0.16245577 -0.2718391 0.30005947 -0.065660596
0000b0 2c 55 bd be 4d 05 87 3d 51 c3 68 3e 1c 2a 56 be
       -0.36979043 0.06592808 0.22730757 -0.20914501
0000c0 6b d2 04 bf 83 dc 79 be 1a f2 1a be 8b 38 25 3e
       -0.5188357 -0.24400525 -0.15131417 0.1613485
0000d0 e7 77 cf 3d 92 b0 b4 3d f5 2c b4 bd 24 fa 59 bb
       0.101302914 0.088227406 -0.087976374 -0.0033260668
0000e0 97 fa e3 bd b8 b5 00 bd 95 93 8b be 96 62 f9 3c
       -0.111317806 -0.0314233 -0.27261034 0.030442517
0000f0 97 88 24 be af ac 78 be 8f 34 81 3e 83 08 77 3d
       -0.1606773 -0.24284624 0.25235412 0.06031085
000100 70 88 d1 be 8e 92 07 be 81 ca 8e bd 06 87 31 3e
       -0.40924406 -0.132395 -0.06972218 0.17336664
000110 16 89 82 be 7c b8 73 be 96 fc c9 bd a4 a8 52 3d
       -0.25495213 -0.23800844 -0.0986263 0.05143036

blocks.3.dense.weight f4 [1, 83]
000000 2e eb be 3d 7f 30 4d 3e 46 b2 4c 3e 1c 77 67 3d
       0.09322201 0.20038031 0.19989881 0.056510076
000010 d5 9c 5d 3e 32 75 66 38 ae 80 52 3e 5a ec 71 3e
       0.21641858 5.494542e-05 0.205569 0.23625317
000020 fc 8f e5 bd 30 ec d2 bd 65 72 16 be 9a 1b 82 be
       -0.112091035 -0.102989554 -0.14692076 -0.25411683
000030 3f c5 09 bd 00 e0 fa bc 4a 24 9f 3a 06 88 c6 bd
       -0.033635374 -0.03062439 0.0012141552 -0.09693913
000040 32 98 e1 3c 22 cd f5 bc 97 ab 1d be 86 5c 07 bd
       0.027538393 -0.030005042 -0.15397488 -0.03304722
000050 a6 91 81 be ab ed 9b bd 99 12 35 3e 26 f4 8f 3e
       -0.25306433 -0.07613691 0.17682876 0.28115958
000060 73 81 c8 3c 4e 59 a7 bd 38 c7 59 be 97 51 84 3e
       0.024475789 -0.081713304 -0.21267402 0.25843498
000070 1c 8b b1 3e c8 0c 46 3d 10 29 32 3f 1f cb 36 3f
       0.34676445 0.048352033 0.69593906 0.7140369
000080 f1 d5 a5 3d f2 cc 19 3f 2c dd 5e 3e 0a f7 12 3f
       0.08097447 0.60078347 0.21764058 0.574082
000090 24 36 02 3f 36 b8 87 3f fd 75 85 3e 9d 64 8c 3f
       0.5086386 1.0603092 0.2606658 1.0968205
0000a0 47 44 6b 3f 3f 55 1d 3e ad d5 36 3f 8c 05 06 3f
       0.9190106 0.1536455 0.71419793 0.52352214
0000b0 8e ad 9b 3e 3c a5 90 3f 8a d1 2e 3f 08 9b 44 3f
       0.3040585 1.1300426 0.6828848 0.7679906
0000c0 3e 87 fb 3e be 68 23 3f 9b f2 91 3f 61 ea 27 3f
       0.4912662 0.638317 1.1402162 0.6559201
0000d0 f7 3f 5e 3f be cc 3d 3f ce 8c 3b 3f aa 1c 4b 3f
       0.8681635 0.74140537 0.73261726 0.7934061
0000e0 f4 b3 90 3f bc fb 32 3f 6f ef 18 3f fd d6 bd 3e
       1.1304917 0.69915366 0.59740347 0.37078086
0000f0 8d 56 e2 3e 98 fa 02 3f 6f 22 d9 3e 84 27 df 3e
       0.44206658 0.51163626 0.42409083 0.43584836
000100 f0 5c 6c 3e a8 b4 13 3f 49 cf 5d 3e 5b a3 3f 3e
       0.23082328 0.57697535 0.21661104 0.18714659
000110 f9 e8 c5 3e 67 58 b6 3e 1f d5 52 3e 75 29 70 3b
       0.38654307 0.3561432 0.20589112 0.0036645804
000120 1a ba bc 3e 86 6d 70 3e c3 f3 78 3e df 95 aa 3d
       0.36860734 0.2347928 0.24311738 0.08329367
000130 3f 77 03 3e 71 47 84 3e c0 62 80 3d 00 a1 a1 3d
       0.12838458 0.25835755 0.06268835 0.078920364
000140 9d 4c 0e 3e 4e 21 a5 3d 6c 79 5d bd
       0.13896413 0.08062993 -0.054070875

linear.weight f4 [1, 5]
000000 28 3d e5 3c f4 20 d1 3d 20 17 95 37 09 85 4e 3e
       0.027983263 0.102113634 1.7772953e-05 0.20167936
000010 c5 c3 6d 3d
       0.05804803
