models/100bp_arround_STRends_models/hg38AAAT_.pt (torch, 8584 bytes, 11 tensors)

last_block.conv.weight f4 [1, 1, 13, 4]
0	0x3db8350f	0.08994495
1	0xbd0de427	-0.03464141
2	0x3d87ec79	0.066369005
3	0x3b97922d	0.00462558
4	0x3df79e40	0.12090731
5	0x3e0a188d	0.13485928
6	0x3d1c5717	0.038168993
7	0x3d6ccad4	0.05781062
8	0xbd17b2d5	-0.037035782
9	0x3d0ac7ef	0.033882078
10	0x3d63d2a4	0.055620804
11	0x3cf025ec	0.029314958
12	0x3cfc3a0c	0.030789398
13	0x3ca91389	0.020639198
14	0x3d4f91bb	0.05067609
15	0xbd185565	-0.037190814
16	0x3dea7a0a	0.11449058
17	0xbe417850	-0.18893552
18	0x3d6238b3	0.055229854
19	0x3de95327	0.11392813
20	0x3daed70e	0.08537112
21	0xbd4cbb44	-0.049983278
22	0x3d599797	0.053123083
23	0xbcb4585f	-0.022014795
24	0x3df2c0fe	0.118532166
25	0xbdbe17af	-0.09281861
26	0xbe0a64b9	-0.13514985
27	0x3dca0f93	0.09866252
28	0x3d18b6f9	0.03728387
29	0x3d3a9fbb	0.045562487
30	0xbddd7f02	-0.108152404
31	0xbd9bb248	-0.07602364
32	0xbd0258dd	-0.031823028
33	0x3d66c2aa	0.05633799
34	0x3a244dbf	0.00062676886
35	0xbb9efd92	-0.0048520053
36	0xbdac3ad8	-0.08409661
37	0xbc52229a	-0.0128256325
38	0xbe0ef11e	-0.13959166
39	0xbdbe843e	-0.09302567
40	0x3d904cc9	0.070458956
41	0xbd39fd64	-0.045407668
42	0x3d5a250b	0.053257983
43	0xbb5bfd36	-0.0033567674
44	0xbc533a42	-0.012892308
45	0x3cae1390	0.021249563
46	0x3cb06f1a	0.021537352
47	0x3d0341e8	0.032045275
48	0x3cdb9284	0.026803263
49	0xbdafe5f5	-0.08588783
50	0xbca4e7ba	-0.020130027
51	0xbcdc7089	-0.02690913

last_block.dense.weight f4 [1, 88]
0	0x3c9d5588	0.019205824
1	0x3b821f98	0.0039710514
2	0xbb89015f	-0.0041810717
3	0xbaf51f19	-0.0018701284
4	0x3d1c9e90	0.038237154
5	0x3d00bc2d	0.03142946
6	0x3cf12f96	0.029441636
7	0x3c29bb37	0.010359577
8	0x3d4a3e44	0.049375787
9	0x3cf42122	0.029800955
10	0x3b7e4975	0.0038801108
11	0x3cbad0fd	0.022804732
12	0x3cdd7e29	0.027037697
13	0x3d569fd4	0.052398518
14	0xbc946ec1	-0.018119218
15	0xbc5f074e	-0.013612581
16	0x3d9fcc91	0.0780269
17	0xbc1c167f	-0.009526848
18	0x3cd4203c	0.025894277
19	0x3cc76854	0.02434174
20	0x3d5b64ea	0.053563036
21	0x3d25e629	0.0405027
22	0x3cbe4920	0.023228228
23	0x3d935002	0.07192995
24	0x3d7581ec	0.059938356
25	0xbc639826	-0.0138912555
26	0x3d0e9d01	0.0348177
27	0xbd33adf1	-0.043867055
28	0xbcca9322	-0.024728362
29	0x3cfabadb	0.030606678
30	0xbc84438d	-0.016145492
31	0x3b97d08b	0.0046330146
32	0x3d28b67e	0.041189663
33	0xbccbd112	-0.024879966
34	0x3bf8ca55	0.007592479
35	0x3ba13735	0.0049199113
36	0x3c9b3e10	0.018950492
37	0x3dbae30d	0.09125338
38	0x3de22215	0.11041657
39	0x3dae44d7	0.08509224
40	0x3dd2e4d0	0.10297549
41	0xbc9599a0	-0.01826173
42	0x3bccd139	0.006250527
43	0x3d8a2bd7	0.06746643
44	0x3d9f4b2b	0.07778009
45	0x3d0c444f	0.03424483
46	0x3bac09b7	0.0052501815
47	0x3c57dad9	0.013174736
48	0x3cdba9f8	0.026814446
49	0x3d6f24d4	0.05838473
50	0x3d352e79	0.044233773
51	0x3c115902	0.008871319
52	0x3d59f89e	0.053215615
53	0x3db9a6f1	0.09065045
54	0x3d618348	0.05505684
55	0x3d62bf70	0.05535835
56	0x3d9873cb	0.07443961
57	0x3d93217d	0.07184122
58	0x3d1f3eeb	0.038878363
59	0x3d8ca5b4	0.06867543
60	0x3d42be47	0.047544744
61	0x3d4ab1db	0.049486022
62	0x3cb7c823	0.0224343
63	0xbca126ad	-0.019671762
64	0x3cc7a325	0.024369786
65	0x3d8cddaa	0.068782166
66	0xbbfe2895	-0.0077563026
67	0xbc8324b7	-0.016008718
68	0xbadd560c	-0.0016886606
69	0x3d11b4f1	0.03557295
70	0x3bbc996c	0.005755594
71	0xbcf2319a	-0.029564667
72	0x3d687e0e	0.05676084
73	0x3cf646ec	0.030063115
74	0x3c40e0bb	0.01177233
75	0xbc8d7dcc	-0.017271899
76	0x3cd578d5	0.026058594
77	0x3c294e8f	0.010333671
78	0x3c832e71	0.016013356
79	0xbc5e1ea4	-0.01355711
80	0x3ceaa1ef	0.02864167
81	0x3d17d9a6	0.0370728
82	0xbc8c5f2a	-0.017135222
83	0x3c0276ad	0.007962865
84	0x3c4a3565	0.012341832
85	0xbbde45ab	-0.0067832074
86	0xbcd2c318	-0.025727794
87	0xbc0c15a4	-0.008550081

blocks.0.conv.weight f4 [1, 1, 6, 4]
0	0x3d88299a	0.0664856
1	0xbd5b8d00	-0.053601265
2	0x3e54025e	0.20704028
3	0x3dae506b	0.08511432
4	0xbdfcc003	-0.12341311
5	0x3f0371e2	0.51345646
6	0xbe35c416	-0.17750582
7	0x3e8b8fb4	0.27258074
8	0x3e83481b	0.2564095
9	0xbf442a70	-0.76627254
10	0x3e2a465e	0.16628405
11	0x3bfd4486	0.007729116
12	0xbf0c6e68	-0.54855967
13	0x3e345e96	0.17614207
14	0x3f09460a	0.53622496
15	0xbe4c5f97	-0.1995834
16	0x3d0db682	0.03459788
17	0x3e5be1cc	0.21472853
18	0xbf99555a	-1.1979172
19	0x3e7f0643	0.24904732
20	0xbdfe0c59	-0.12404699
21	0xbe14707f	-0.14496039
22	0xbd0c9683	-0.034323227
23	0xbdac0641	-0.0839963

blocks.0.dense.weight f4 [1, 95]
0	0x3bf43390	0.007452436
1	0x3c412801	0.011789323
2	0x3d02f039	0.031967375
3	0x3d3898ab	0.04506747
4	0x3d2ff9ed	0.042962957
5	0xbd162282	-0.036654003
6	0x3d2a2e3b	0.041547995
7	0xbc452e83	-0.012035015
8	0x3c84af36	0.016196828
9	0xbc56261f	-0.013070612
10	0x3ccaadf6	0.024741154
11	0xbd0b7809	-0.03405002
12	0xbcd35e50	-0.025801808
13	0x3d2f8785	0.04285385
14	0xbc34c89a	-0.011034155
15	0xbd548e3c	-0.051893458
16	0xbb43ac42	-0.0029857312
17	0x3afc8e38	0.0019268459
18	0x3b2ca442	0.0026343022
19	0xbcc72936	-0.024311643
20	0x3c604907	0.013689286
21	0x3dad45a6	0.0846055
22	0x3cf50fe3	0.029914802
23	0x3dbc69a6	0.09199838
24	0x3da6bddb	0.08141681
25	0xbd20320f	-0.03911024
26	0x3c5c2a93	0.013437885
27	0x3d541402	0.051776893
28	0x3e3ea9bb	0.18619435
29	0x3e632ef4	0.2218588
30	0x3e58d066	0.21173248
31	0x3e998ce9	0.29990318
32	0x3db3f378	0.08786672
33	0xbbf15259	-0.007364553
34	0x3e66f986	0.22556123
35	0xbcdcbbfb	-0.026945105
36	0x3e2b2d85	0.16716583
37	0x3e00e17a	0.12586012
38	0x3dfb2c36	0.12264292
39	0x3e6d7fbe	0.23193261
40	0x3e452319	0.1925167
41	0x3edab967	0.42719576
42	0x3e0245d6	0.12721953
43	0x3d111300	0.03541851
44	0x3ec377c8	0.38177323
45	0x3f206e4f	0.6266832
46	0x400cd241	2.2003329
47	0x3f60897d	0.8770979
48	0x3ea36346	0.31911677
49	0x3efe71ec	0.4969629
50	0x3ee9b7e0	0.45648098
51	0x3f0730ed	0.5280903
52	0x3f02b2d5	0.51054126
53	0x3f09404f	0.5361375
54	0x3f01122b	0.5041835
55	0x3f0978fc	0.5370023
56	0x3f045b35	0.5170167
57	0x3f03b55c	0.5144861
58	0x3ee99045	0.4561788
59	0x3ed00142	0.4062596
60	0x3ed0b177	0.40760395
61	0x3ec9690a	0.3933795
62	0x3eb089f2	0.34480244
63	0x3ea4a3c8	0.32156205
64	0x3ea40e00	0.3204193
65	0x3ead6874	0.33868754
66	0x3ea56b57	0.32308456
67	0x3e985032	0.29748684
68	0x3e3c671e	0.18398711
69	0x3e663f59	0.22485103
70	0x3e6477cc	0.22311324
71	0x3e3b1950	0.18271375
72	0x3e4a69be	0.197669
73	0x3e430507	0.19044887
74	0x3e1bff5a	0.15234128
75	0x3dfea4c6	0.12433772
76	0x3e094870	0.13406539
77	0x3e2c9c78	0.16856563
78	0x3e31977f	0.17342947
79	0x3e2225f1	0.15834786
80	0x3de670c2	0.112519756
81	0x3df53eb9	0.11974854
82	0x3e111d7a	0.141714
83	0x3d700600	0.058599472
84	0x3bec0525	0.0072027617
85	0x3cc115c3	0.023569947
86	0x3db96f57	0.090544395
87	0x3d9d4440	0.07679033
88	0x3db9b269	0.09067232
89	0x3d43b568	0.047780424
90	0x3dba4191	0.09094537
91	0x3d652c33	0.055950355
92	0x3ce8a06c	0.028396808
93	0x3cae517c	0.02127909
94	0x3d152de9	0.036420736

blocks.1.conv.weight f4 [1, 1, 6, 4]
0	0xbcc5b1e9	-0.024132686
1	0xbe214711	-0.15749766
2	0x3ddcba8a	0.10777767
3	0x3df8f166	0.12155418
4	0xbe6a3f79	-0.22875775
5	0xbf4deb0a	-0.80436766
6	0xbe31461c	-0.17311901
7	0x3ee95cb7	0.45578548
8	0xbf044847	-0.51672786
9	0x3e55c8b8	0.2087735
10	0x3e82ffdb	0.25585827
11	0xbe049ca0	-0.12950373
12	0x3d9e1253	0.07718339
13	0x3de4fe46	0.11181311
14	0x3e32aeaa	0.17449442
15	0xbe3aa3c7	-0.18226539
16	0x3e41ba49	0.18918718
17	0x3e5795ed	0.21053286
18	0xbe04a215	-0.12952454
19	0x3d357593	0.04430158
20	0x3c5696c7	0.013097472
21	0xbcaafe41	-0.02087319
22	0xbd60df91	-0.05490071
23	0xbe367838	-0.17819297

blocks.1.dense.weight f4 [1, 95]
0	0x3cd71e53	0.026259577
1	0xbbb3ba1e	-0.0054848334
2	0x3ca05c50	0.019575268
3	0x3d606946	0.054787897
4	0x3c1af997	0.009458921
5	0x3ba8697b	0.0051395274
6	0x3d6398da	0.055565692
7	0x3cf5d16f	0.030007092
8	0x3c0914e5	0.008366798
9	0x3cf65c85	0.030073414
10	0x3c7a753d	0.015286741
11	0x3d8114ce	0.06302796
12	0x3d0e3633	0.034719657
13	0x3d8bf9da	0.06834765
14	0x3d1c23d0	0.03812009
15	0x3cbcd602	0.023051266
16	0x3dac89a0	0.084246874
17	0x3d808194	0.06274715
18	0x3db37cfd	0.08764074
19	0x3dc35628	0.095379174
20	0x3d242c2d	0.04008119
21	0x3dcd22aa	0.10016377
22	0x3c14ad6a	0.009074548
23	0x3d9bf7ba	0.076156095
24	0x3cdaba14	0.026700057
25	0x3dc32874	0.095292
26	0x3e02b3a3	0.12763838
27	0x3d93a33b	0.07208868
28	0x3d68bfa0	0.056823373
29	0x3da9279e	0.082595095
30	0x3d53c664	0.051702872
31	0x3c8621ba	0.016373504
32	0x3cdd346b	0.027002534
33	0x3ceb6646	0.028735291
34	0x3c4b4573	0.012406695
35	0xbdafdf00	-0.08587456
36	0xbdb223ff	-0.08698272
37	0x3caaf980	0.020870924
38	0x3cb1822f	0.021668522
39	0xbbd2424d	-0.006416595
40	0xbe39a067	-0.18127595
41	0xbdd3b4f7	-0.10337251
42	0xbe84f0f8	-0.25965095
43	0xbe62f614	-0.22164184
44	0xbeb6776c	-0.35637987
45	0x3f93fa2c	1.1560721
46	0xbf2a2480	-0.66461945
47	0xbf254a0b	-0.64566106
48	0xbe2ecd49	-0.17070498
49	0xbea67d51	-0.32517484
50	0xbec42676	-0.38310593
51	0xbeb4fbd7	-0.3534839
52	0xbecb0688	-0.3965342
53	0xbed5467f	-0.41655347
54	0xbed7800d	-0.42089882
55	0xbedc3cf3	-0.4301525
56	0xbef1ffd5	-0.47265497
57	0xbeea34b8	-0.45743346
58	0xbedc84b2	-0.43069988
59	0xbedfa2b2	-0.43678814
60	0xbee902a9	-0.45509842
61	0xbef5a983	-0.4798089
62	0xbee62217	-0.44947883
63	0xbee32100	-0.44361115
64	0xbedba74a	-0.4290107
65	0xbece1967	-0.40253755
66	0xbec29f50	-0.3801217
67	0xbebaada5	-0.36460605
68	0xbe9a3b97	-0.30123588
69	0xbe9aa68d	-0.30205193
70	0xbe6f6ef9	-0.23382176
71	0xbe834565	-0.2563888
72	0xbe7bb9ce	-0.24582598
73	0xbe55014a	-0.20801273
74	0xbe322a4a	-0.17398944
75	0xbe1a7c6d	-0.15086527
76	0xbe6c058d	-0.23048992
77	0xbe1260f9	-0.14294805
78	0xbe11a7a0	-0.142241
79	0xbe077795	-0.1322921
80	0xbdefd491	-0.11710466
81	0xbd87b12c	-0.0662559
82	0xbe065545	-0.13118465
83	0xbd8146dc	-0.063123435
84	0xbd5367a3	-0.051612508
85	0xbd66f678	-0.056387395
86	0xbd8027e8	-0.062576115
87	0xbd668260	-0.05627668
88	0xbcb0af42	-0.021567944
89	0xbda23557	-0.0792033
90	0xbb12f969	-0.0022426492
91	0xbd49f1cc	-0.04930286
92	0x3aee96e9	0.0018202934
93	0xbcdff903	-0.027340418
94	0xbc565dad	-0.0130838575

blocks.2.conv.weight f4 [1, 1, 12, 4]
0	0xbd81abb7	-0.0633158
1	0x3c71abcb	0.014750431
2	0xbd9cf387	-0.07663637
3	0xbd505e2b	-0.050871056
4	0xbdbea80b	-0.093093954
5	0x3d5eefd4	0.054427937
6	0xbda89da4	-0.082331926
7	0xbd90d9fa	-0.07072826
8	0xbd813576	-0.06309025
9	0x3ccbe1c2	0.024887923
10	0x3d6f53a1	0.058429364
11	0x3cbc67a8	0.022998646
12	0xbc5bff5c	-0.013427582
13	0x3e3bfefb	0.18358986
14	0xbe1c648e	-0.15272734
15	0xbc7faa4b	-0.015604566
16	0xbd48e8b6	-0.049050055
17	0xbec5d414	-0.38638365
18	0x3e1ae67a	0.15126982
19	0x3c031927	0.008001602
20	0xbe0bb21c	-0.13642162
21	0x3f240f42	0.6408578
22	0xbe4dcb42	-0.20097068
23	0xbf304afb	-0.6886441
24	0xbf2518f1	-0.6449118
25	0xbf716d08	-0.94306993
26	0xbda1a8b1	-0.078935035
27	0x3ed806fd	0.42192832
28	0x3ec64165	0.38721767
29	0xbe9bb13b	-0.30408654
30	0xbf1f515b	-0.62233514
31	0xbf2869f6	-0.65786684
32	0xbf04b0f4	-0.5183251
33	0xbd49b214	-0.049242094
34	0x3eaa14d4	0.33219016
35	0xbe2adf27	-0.16686688
36	0xbe456cd1	-0.19279791
37	0x3d852f54	0.06503168
38	0xbec07238	-0.37587142
39	0x3c029362	0.007969709
40	0xbe0e8074	-0.13916188
41	0xbe6367cb	-0.22207563
42	0xbe1c4829	-0.15261902
43	0xbe6b549a	-0.22981492
44	0xbd850bcd	-0.064963914
45	0xbbfe1448	-0.0077538826
46	0x3b00c746	0.0019650026
47	0xbd17b0c1	-0.0370338

blocks.2.dense.weight f4 [1, 89]
0	0x3cd8a231	0.026444526
1	0x3cdd86f2	0.027041886
2	0x3cfa483e	0.030552026
3	0xbb17609b	-0.0023098353
4	0xbce652b0	-0.0281156
5	0x3d113c64	0.035457984
6	0x3d1c4ac2	0.038157232
7	0x3cbf6186	0.023361932
8	0x396bf6fa	0.00022503352
9	0x3d867930	0.065660834
10	0x3cc1ec4c	0.023672245
11	0x3c8a64ed	0.016893828
12	0x3c932bff	0.017965315
13	0x3cc244d0	0.023714453
14	0x38d1991d	9.994416e-05
15	0x3bc36e56	0.005964081
16	0xbbba0bb1	-0.0056776633
17	0xbca7fc66	-0.020506095
18	0x3d8ed803	0.06974795
19	0x3c8f9d10	0.017530948
20	0x3cd84aa8	0.026402786
21	0x3cd1b9db	0.025601318
22	0xbd22f767	-0.039786723
23	0x3d4d76ad	0.050162006
24	0xbda39dd0	-0.07989085
25	0xbd04ca6a	-0.0324196
26	0x3d7da1c3	0.061921846
27	0x3e0978db	0.13425009
28	0x3ca9f8f8	0.0207486
29	0x3d8a89cf	0.06764566
30	0xbbe189b0	-0.0068828687
31	0x3d9c5690	0.07633698
32	0x3f23965d	0.6390131
33	0x3e0cc45d	0.13746782
34	0x3f0282e4	0.50980973
35	0x3e038749	0.12844576
36	0x3e1302c2	0.14356521
37	0x3ea22451	0.31668332
38	0x3e93db8c	0.28878438
39	0x3f12b6ab	0.5730998
40	0x3f1d3dca	0.6142241
41	0x3ec50897	0.38483116
42	0x3ea0e9b4	0.314283
43	0x3e1a991f	0.15097474
44	0x3f696ca3	0.9118139
45	0x3ef0db2e	0.4704222
46	0x3ef9c3a5	0.48782077
47	0x3f0203fa	0.5078732
48	0x3ef98cf0	0.4874034
49	0x3f120417	0.5703749
50	0x3ee24323	0.44191846
51	0x3eddf2f9	0.43349436
52	0x3f04cd37	0.51875633
53	0x3f0615e6	0.52377164
54	0x3eedc8b6	0.46442193
55	0x3ef06a10	0.4695592
56	0x3ee0e493	0.43924388
57	0x3ee2694a	0.44220954
58	0x3ecbd33a	0.3980959
59	0x3ec18557	0.37797043
60	0x3eb02da3	0.34409818
61	0x3ebeee39	0.37291124
62	0x3eb16373	0.34646186
63	0x3ea35cb6	0.3190667
64	0x3e5e5284	0.21711165
65	0x3e953a51	0.29146054
66	0x3e952b24	0.29134476
67	0x3e2d4958	0.1692251
68	0x3df2b8a2	0.11851622
69	0x3e138827	0.14407407
70	0x3e56187d	0.20907779
71	0x3dc61ce9	0.09673483
72	0x3de604dd	0.11231396
73	0x3dcffe10	0.101558805
74	0x3df5f83c	0.120102376
75	0x3dd60fe8	0.104522526
76	0x3dbb5804	0.09147647
77	0x3ddbb912	0.10728659
78	0x3d001d31	0.03127784
79	0x3d5ce71d	0.053931344
80	0x3d1a5c79	0.037685845
81	0x3c90fc25	0.017698357
82	0x3d4f679f	0.05063593
83	0x3d5c866d	0.053839136
84	0x3ccebb10	0.025235683
85	0xbc8689ca	-0.016423125
86	0x3cd0ab88	0.025472417
87	0xbbb650d4	-0.0055638347
88	0x3cac2be4	0.021017022

blocks.3.conv.weight f4 [1, 1, 11, 4]
0	0xbdc97211	-0.098362096
1	0x3d860417	0.06543749
2	0xbcfb00b8	-0.030639991
3	0x3d9b9a6c	0.07597813
4	0xbcf6e680	-0.030139208
5	0xbe026a2f	-0.12735818
6	0xbd8637f8	-0.06553644
7	0xbdea12ed	-0.11429391
8	0x3c53bff7	0.012924186
9	0xbe5c8939	-0.21536721
10	0x3c38bf79	0.011276119
11	0xbe0ad23b	-0.13556759
12	0x3dc340f6	0.09533875
13	0xbe3596d2	-0.17733315
14	0x3d0de5bf	0.03464293
15	0xbd2d1870	-0.042259634
16	0x3e12d050	0.14337277
17	0xbe2531d5	-0.1613229
18	0x3df1a350	0.117987275
19	0xbe55d684	-0.20882612
20	0xbd2f210d	-0.04275613
21	0xbdd1b697	-0.102399044
22	0x3b884bc5	0.004159423
23	0xbe13d4f4	-0.14436704
24	0x3c881b56	0.016614597
25	0x3dc78c62	0.09743573
26	0xbbb94072	-0.0056534344
27	0xbb6cc2e0	-0.0036126897
28	0xbd2e27ea	-0.042518534
29	0xbd8d2082	-0.06890966
30	0xbd1a9d3d	-0.03774761
31	0xbd1a17c8	-0.037620336
32	0x3d7ac021	0.061218385
33	0x3d379128	0.044816166
34	0xbd39caa7	-0.04535928
35	0x3daacc71	0.08339775
36	0xbcb8046c	-0.022463046
37	0x3c6409f6	0.0139183905
38	0xbd0a8079	-0.033813927
39	0x3b533494	0.0032227384
40	0x3cd70476	0.026247244
41	0x3dfe90fe	0.12429999
42	0x3c7ed867	0.015554524
43	0x3d60db01	0.05489636

blocks.3.dense.weight f4 [1, 90]
0	0x3c95933e	0.018258687
1	0x3c8911e2	0.01673216
2	0x3d759927	0.05996051
3	0x3d23b0d5	0.039963562
4	0x3da7198e	0.08159171
5	0x3c74f32d	0.014950556
6	0x3d89c97e	0.06727885
7	0x3da405de	0.080089316
8	0x3d665dc9	0.056241784
9	0x3cc449b9	0.023960935
10	0x3dea94df	0.11454176
11	0x3d74b616	0.059743963
12	0x3d781bfa	0.060573556
13	0x3dc29968	0.09501916
14	0x3d79fbb5	0.061031062
15	0x3de603e2	0.11231209
16	0x3d8fc891	0.07020677
17	0x3debf938	0.11522144
18	0x3d30170b	0.042990725
19	0x3df7302f	0.12069737
20	0x3da202f4	0.079107195
21	0x3e2405b6	0.16017804
22	0x3da7ec27	0.08199339
23	0x3e0feac2	0.14054397
24	0x3de3b5b7	0.11118644
25	0x3dff8626	0.12476759
26	0x3de99cd1	0.114068635
27	0x3dacd463	0.08438947
28	0x3dd04d29	0.10170967
29	0x3d22a0a2	0.039703973
30	0x3dbe6bfb	0.092979394
31	0x3e03faa1	0.12888576
32	0x3d9374ac	0.07199988
33	0x3db3c1b1	0.08777178
34	0x3dc85e25	0.09783582
35	0x3ddaa78c	0.10676488
36	0xbcbb159e	-0.022837456
37	0x3d69ab0b	0.057047885
38	0x3ddbfabd	0.10741184
39	0x3d5548f3	0.052071523
40	0x3d8efb35	0.06981508
41	0x3d28f79a	0.041251756
42	0x3e1070e6	0.14105567
43	0xbd20e50c	-0.039280936
44	0xbdffc67a	-0.12489028
45	0x3c890b38	0.016728982
46	0x3db2b191	0.08725274
47	0xbd3085c3	-0.043096315
48	0xbd740f45	-0.059584875
49	0xbc8aecf6	-0.016958695
50	0x3b9bfeca	0.004760598
51	0xbd1a9574	-0.037740186
52	0xbd5cc80e	-0.053901725
53	0xbd28123a	-0.041033007
54	0xbd47634b	-0.048678678
55	0xbdae1a71	-0.08501137
56	0xbdb9784b	-0.09056147
57	0xbcf97108	-0.030449405
58	0xbd9fa54c	-0.077952
59	0xbe042327	-0.12904035
60	0xbdd64584	-0.10462478
61	0xbd154907	-0.036446597
62	0xbcc8ca86	-0.024510633
63	0xbd5642a7	-0.05230966
64	0xbd4b6dc0	-0.049665213
65	0xbd2ec982	-0.04267264
66	0xbc2472ba	-0.010037119
67	0x3c532b7c	0.012888785
68	0xbd3ad524	-0.045613423
69	0x3c0c674c	0.00856955
70	0xbd1459e1	-0.036218528
71	0xbb356027	-0.002767572
72	0xbcd5f2df	-0.026116787
73	0x3cd10f5f	0.025520025
74	0x3cef8130	0.029236406
75	0x3c54fdc7	0.012999958
76	0x3ab4613b	0.0013761887
77	0xbbd4be56	-0.0064924164
78	0x3d6ae0a9	0.05734316
79	0xbb8d3440	-0.004309207
80	0x3abbf9e3	0.001434144
81	0xb8c286e3	-9.2757655e-05
82	0xbad11e44	-0.0015954454
83	0x3b4bf176	0.0031119264
84	0x3ad98110	0.001659425
85	0xbd1ae4b6	-0.037815772
86	0x3ca2d739	0.019878017
87	0x3d3feb8f	0.046855506
88	0xbd12c321	-0.03583062
89	0xbd5ecb6f	-0.05439323

linear.weight f4 [1, 5]
0	0xbe9fb898	-0.3119552
1	0x3d990d3e	0.07473229
2	0x3df49fda	0.11944552
3	0x3e3d511e	0.18487975
4	0x3e90dc1b	0.28292927
