models/3layer_cnn_models/AAAAG.pt (torch_old, 494335 bytes, 10 tensors)

conv1.weight f4 [30, 1, 5, 4]
00000000: e1d6 223d e097 92bd 10cf d23d 0239 48be
00000010: 2c53 9e3d 06ca ba39 7729 1ebe 6a12 713d
00000020: 1adb 06bd 0866 57bd 1d96 b5bd 44e0 113e
00000030: fe87 c8bd 7a4c 16be 09e2 863c 9248 1e3e
00000040: 82a0 fabc d7cb 1abe 400c 6cbe 48eb 9d3d
00000050: 5ad9 db3d 2257 043e 6a90 9b3d 4f64 3c3c
00000060: d07f b63d b69c ca3d 76cd 6d3d 3b07 68bd
00000070: 90fb 33be 55d8 843e df03 453e fd83 153e
00000080: a2ce 4b3c c2e4 d4bd 09ac 9ebe 9d48 a53d
00000090: b5b1 1fbe 4327 07bd 367a 593c 2e37 8ebd
000000a0: 8a41 0bbd 23e9 9bbd 2584 5d3e 8526 1ebe
000000b0: 1481 d7bd 6a64 84be 4d3d e8bd 3a4c 4f3d
000000c0: 344d 013d 2e74 303d 3fa2 fbbd a226 e83d
000000d0: b01b 55bd 4170 29be 7c04 32be b342 31be
000000e0: 4fd9 dfbd 339e 1c3e 4b0b 303e 4bf2 1d3d
000000f0: 1772 e83d 6428 b7bc e6e5 443e 92b1 a6bd
00000100: ef61 273e de16 f43d 6734 a33d 0f2f 8ebd
00000110: f5d7 853d 1192 2abd 911b 2e3e c3f8 b8bd
00000120: 3146 b83d a71d 1abe 1de6 05bd b317 6ebd
00000130: 8aac 17bd c2fc fd3d 7ccd b0bd e7b9 353e
00000140: 2f2e 843c 5072 d1bd 052b cd3c 4257 efbc
00000150: 1147 3fbe 25b1 60bd 810b d7bd 7edd 0fbe
00000160: 2135 20bd 5a22 063c a685 00be f0bd 2ebe
00000170: 40dc 043e dfe6 04be 6c23 26bb f8da 15be
00000180: 239b 793d 2da5 81bd d152 86bd 9968 02be
00000190: e304 473e 6582 83be d87f 0ebe 0761 1dbe
000001a0: 4aff 933d 7c45 0b3e b590 c53d 728d 163e
000001b0: c489 18be d499 07be 65d0 41bd 711f cc3d
000001c0: 7ded 0fbe 0c00 283e 7cd9 e6bd 5df6 08be
000001d0: f2c6 8ebc 16f8 4e3e c098 0ebe 8cc1 2c3d
000001e0: 2adc 0abe f748 683d 6e0b 933d a687 28bd
000001f0: 1637 ad3c 1144 e0bd 17a3 993d 6c78 193e
00000200: 3931 96be 8777 5abe e747 ebbd 9d21 7d3c
00000210: ea4c 8bbe 7dfc efbd 06a6 20bd ce96 913d
00000220: 3a43 233d e643 003e 362e dc3d bcf9 ee3d
00000230: 6b64 18be 0c36 e93c fd74 b6bd 3f91 d6bd
00000240: a15a 8e3d e83f e43c c928 13bd b8d4 c9bc
00000250: 49e5 4c3e a23f ecbd 773c 9d3d 8e90 ef3d
00000260: 75d4 713d 544b d1bd 7533 f33d c201 62be
00000270: 53c4 f43d ce7d 013e 09af dbbd 554c 93bb
00000280: dad3 95bc 8463 18be f00b 963d 1cd7 7abd
00000290: d74f ae3d aa60 253e 5d47 0bbe d7da 40bd
000002a0: cb19 ffbd b8bc 173c 128d 46be 31ae cb3d
000002b0: 7b86 85bd a5ec 343e 39cf 93be 1886 173e
000002c0: ac15 77bd 195d 373e 5acd e93d dd3d 0ebe
000002d0: dc0e 9abd 7572 f6bd 0d0d 0b3e 16fe 0f3d
000002e0: 53d5 893d ff5b 57be 68f8 c13c 9489 9d3d
000002f0: fa6a 1ebe f604 483d 582d 4e3c ad47 16be
00000300: 3180 0fbe 2a5d 553d abe9 63bd 9d5d 833d
00000310: f003 3b3e 1780 02be 1926 c23d c38e a3bd
00000320: 0b85 d6ba c1c5 133e 7222 ad3d 5ae8 773b
00000330: b9cd a73d 8fd1 f73d 8a4a 553d 3037 3d3e
00000340: f7fe 49be 7561 6fbe ce76 8c3d e681 653d
00000350: ad4a 293e 057d cbbd ebde 30be e192 c3bd
00000360: 5289 09be 36f2 673e d2bb 0c3e 990f 373e
00000370: ab63 02be 24b5 ee3c 4c95 22be db08 8fbd
00000380: b15a 483e c923 adbd 7ee4 cc3d fa8a 1dbe
00000390: e1d7 213e cea5 58bd cb9e a7bd 4bb8 03be
000003a0: 0764 563e 7f81 df3d 15af 5b3e 710a 013e
000003b0: 41e3 79bd 128b 243e eaa2 353e de6c 693e
000003c0: eca9 6cbd 4b42 9ebd d89d 153e 678b 17be
000003d0: be6d 69be dbcd d43d 1567 3abc ac3c d4bd
000003e0: 32ec 1cbe 8a71 a6bd 31ba 5e3e 7499 44be
000003f0: 4e6b 2dbe bf97 003e 9d2e ccbd 5d6d f93d
0.039755706 -0.07157874 0.102934 -0.19552997 0.077307075 0.00035627204 -0.15445505 0.05885545
-0.032923795 -0.05258754 -0.088665225 0.14245707 -0.097915635 -0.14677611 0.016465204 0.15457371
-0.030594114 -0.15116821 -0.23051548 0.07710892 0.10734816 0.12923864 0.07595904 0.011498525
0.08911097 0.098931715 0.05805727 -0.05664752 -0.17576432 0.25946298 0.19239758 0.14601131
0.012439402 -0.103951946 -0.30990627 0.080704905 -0.15595134 -0.032996427 0.013273766 -0.069441184
-0.03399805 -0.07612827 0.2163244 -0.15444382 -0.105226666 -0.2585786 -0.11339817 0.050609805
0.031567767 0.043079548 -0.12286805 0.113354936 -0.052028358 -0.16546728 -0.17384523 -0.173106
-0.1093012 0.15294723 0.17191808 0.038561147 0.11349886 -0.022358127 0.19228324 -0.081393376
0.16345952 0.11918424 0.07968979 -0.069425695 0.06535331 -0.041643206 0.17002703 -0.090318225
0.08997763 -0.15050374 -0.032690156 -0.05812807 -0.03702978 0.12401725 -0.08632943 0.17746697
0.016135303 -0.102268815 0.025044927 -0.029216412 -0.18679453 -0.05485644 -0.10500241 -0.14049336
-0.039113168 0.008186901 -0.12550983 -0.17064643 0.12974644 -0.12978695 -0.0025350703 -0.14634311
0.060938966 -0.06330333 -0.06558765 -0.12735213 0.19435458 -0.2568542 -0.13915956 -0.15369044
0.07226427 0.13600725 0.09646741 0.14702395 -0.14896303 -0.13242275 -0.04731788 0.099669345
-0.14055438 0.16406268 -0.112719506 -0.1337523 -0.017428849 0.20211825 -0.13925457 0.04217677
-0.13560548 0.05671021 0.071799144 -0.04114499 0.021144431 -0.10950483 0.0750181 0.14987344
-0.2933443 -0.21334659 -0.11488324 0.015449909 -0.27207118 -0.1171808 -0.039220832 0.07108842
0.039859034 0.12525901 0.107510015 0.11668727 -0.14882056 0.028468154 -0.089090325 -0.10476922
0.0695088 0.027862504 -0.035927568 -0.024637565 0.2000934 -0.115355745 0.076775484 0.116974935
0.059040505 -0.10219446 0.11875049 -0.22070983 0.119515084 0.12645647 -0.10726745 -0.0044951835
-0.018289495 -0.14881712 0.07326496 -0.0612403 0.08511322 0.16150156 -0.13601442 -0.047083702
-0.124560915 0.009261303 -0.19389752 0.09945334 -0.06519791 0.17668398 -0.28869036 0.14797246
-0.060323402 0.17906608 0.11416121 -0.13890786 -0.075223655 -0.1203355 0.13579197 0.035154425
0.067301415 -0.21031187 0.02367802 0.076922566 -0.15470496 0.048832856 0.012584053 -0.1467578
-0.14013745 0.0520908 -0.055642765 0.0641434 0.18263221 -0.12744175 0.09479923 -0.07986214
-0.0016366554 0.14430906 0.084538355 0.0037827701 0.08193535 0.12100517 0.05207304 0.18478084
-0.19726168 -0.2337702 0.06858598 0.056032084 0.16532393 -0.09935955 -0.17272536 -0.09549499
-0.1343129 0.2265099 0.13743523 0.17877044 -0.12733333 0.029139109 -0.15877265 -0.06984111
0.19565846 -0.08454091 0.10004519 -0.15385047 0.15805008 -0.0528925 -0.08184584 -0.12863271
0.20936595 0.10913371 0.21453507 0.1260164 -0.06100774 0.16068676 0.17737928 0.22795436
-0.057779238 -0.07727488 0.14610994 -0.14799272 -0.2279577 0.10390826 -0.011377116 -0.10363135
-0.15324476 -0.081271246 0.21750714 -0.19199163 -0.16935465 0.12557887 -0.09969828 0.121790625

batch1.weight f4 [30]
00000000: 37a0 6d3f 8a7e 813f ad0a 773f 1cdc 743f
00000010: 033f 7f3f 9ab1 7b3f 9cde 7b3f 5013 7a3f
00000020: 7c51 7d3f 9c22 7e3f fef3 7f3f 6a6e 803f
00000030: fe1d 763f fb43 803f 8ddf 743f 839f 813f
00000040: 4cc4 7a3f 6532 803f 3983 7d3f 541f 7d3f
00000050: 0560 803f f871 793f 7d26 773f 4f4a 7a3f
00000060: 4ad3 823f 71c4 763f 186e 793f ef46 7c3f
00000070: 65e4 753f 7285 7d3f
0.92822593 1.0116742 0.96500665 0.9564836 0.99705523 0.98317873 0.9838655 0.9768572
0.9895246 0.9927156 0.9998168 1.0033696 0.96139514 1.0020746 0.9565361 1.0126804
0.97955775 1.0015379 0.99028355 0.9887593 1.0029303 0.9743953 0.96543103 0.97769636
1.022073 0.96393496 0.97433615 0.98545736 0.9605163 0.99031746

batch1.bias f4 [30]
00000000: 0ebb 85bc 561e c9bc 62e6 7fbd 2014 86bc
00000010: 3680 8e3c 4d8b c5bc e6b2 4d3b 5b08 26bd
00000020: b512 473c ac75 f8bc 5655 17bd 4c1e 913b
00000030: 3844 083c 0f01 62bd f4f7 24bd 6a2c e6bb
00000040: 4588 05bc 2973 c1bc a8d2 e5bc 95f4 ccbc
00000050: 342c 553c 0933 bcbc 1101 4ebd 194f debc
00000060: 5689 8fbc c281 1bbd ac74 0dbd f759 abbc
00000070: a105 133c db9f 393c
-0.016324546 -0.024550598 -0.06247557 -0.016367018 0.01739512 -0.024114275 0.003138715 -0.040535312
0.012150456 -0.030329548 -0.036946617 0.0044286605 0.008317046 -0.05517679 -0.04027553 -0.0070243375
-0.008150165 -0.023614483 -0.02805455 -0.02501897 0.013011027 -0.022973554 -0.050293986 -0.027137326
-0.017521542 -0.037965544 -0.034535095 -0.020916922 0.00897351 0.011329616

conv2.weight f4 [2, 30, 8]
00000000: 1605 863c 5002 a2bc 4454 6f3d f77c 84bc
00000010: 22b2 24bb 902b 2d3d 54e5 32bd 93d6 63bd
00000020: cdd7 9dbc 99c7 e9bc 69ee 5c3c e92e 753d
00000030: b274 ccbc 6ae1 0e3d 7022 a0bd 9992 cfbc
00000040: f269 95bd 9402 1ebd 953b 823d acba a6bc
00000050: 7ce3 15ba bb7d f93c c173 c53b 10da 803d
00000060: 1704 0abd 3ff3 4c3d 1dba 2bbd 6045 5ebd
00000070: 40c1 aabd 262a 4f3d 7af8 04bd 6c7a f5bc
00000080: 60e3 91bc 1ff1 14be 0b91 df3c 4803 b0bb
00000090: c0dc 6b3d 2799 f6bd cd10 36bd de7d 033c
000000a0: 37a8 663d 490c 34bd 5dca 07bc 6f3f 4dbd
000000b0: 8e85 25bc 75ce 5d3d 118a 50bd dd61 2d3d
000000c0: 3f32 083d cc32 233d b81b 99bd acf1 173d
000000d0: 01e0 efbc ce80 39bd 7429 153d acb4 71bd
000000e0: e586 da3c 0550 683d 74e1 2bbd 4c95 b4bc
000000f0: 4eeb ae3c 5330 623d f35d fa3c f468 12bc
00000100: 3e83 acbc b365 55ba 1275 3cbd 1c2c 993c
00000110: 57d1 343b a106 8f3d 8b82 e5bc 01a1 83bd
00000120: d775 623c 4d16 e23b 9ae3 373d e770 b83c
00000130: f016 2abc 6c12 09bc 3187 933c 347b 183d
00000140: 4421 a8bc 8cb8 2c3d c5f3 f7bb dbfd d8bc
00000150: 89b0 d93b 66a0 013c 6890 a33d 522e b3bc
00000160: c22b 9abd b2bc 02bc 32b6 8c3d 4b9b a6bb
00000170: ceef 033d 0f0b b8bd 332c 16bc 856e c7bc
00000180: 86d6 2a3d 6cc7 2e3c ab45 213d 7004 b2ba
00000190: 0dc4 7b3c 7e94 9bbc ca4c 44bd 5af3 cf3c
000001a0: dab4 d73b fe96 833b dc6e 14bd d6bc 453b
000001b0: cdb7 133b 3c08 e8ba fe9d 1dbd 952f debd
000001c0: f0db acbd 662b 24bc 12e5 8a3c 61a0 ae3d
000001d0: cc5c 16bc c407 a1bc 2781 a53c a82c 35bb
000001e0: 4c92 f23c 4dba a23d e3dd 413d 1608 e4bb
000001f0: 2953 8cbc 8447 53bd f816 2b3d d230 8d3d
00000200: cf26 793c 9847 39bc 5698 e0bc 2afa 79bd
00000210: f148 103d 9763 74bc d6a2 04bd 55cc 8abc
00000220: b10a 0ebd 2574 473c 7dd3 b4bd da78 9abd
00000230: ba77 a23c edeb 5dbd 11e4 8d3c 4b41 42bd
00000240: 2852 ccbb f8c3 adbc c49f 6fbd 5a69 563d
00000250: 7463 5abd dca7 853c b0ec 673d 3ac9 87bd
00000260: f8a0 85bd f124 a93c 7678 82bb 2e6e a1bd
00000270: 06cb 07be cf77 063d 606c 4d3d 833f 05bd
00000280: c772 8dbb 24a0 463b 136d 8b3c fef3 d8bc
00000290: 50b0 04bc a380 68bd aea8 773d 04c0 7f3d
000002a0: dc85 58bd 6b89 b4bb 5fb4 00bd d937 3b3d
000002b0: b667 93bd a203 603c 3253 8d3d 66f0 e03c
000002c0: 7694 3d3d 1652 0c3d b03f c8ba 8759 72bd
000002d0: 2de0 c6bc 0c77 96bd 31ff 403c 0816 8a3d
000002e0: 222a 70bd a0fe 34bd d9e8 c0bc feba 75bd
000002f0: e1ba a3bc 9226 0a3d 7648 b93c d882 1a3c
00000300: 95c5 4a3c 166a d9bb fde7 c1bc 973c 10bd
00000310: cf43 7e3c 710b 263c e0b4 aabc 73cf 1bbd
00000320: 8824 493d cf43 c1bc 99ad e9bc a570 663a
00000330: 923a f7bc c052 38bb 0a9a eb3c f206 8e3c
00000340: 0f2f 9b3d 68f3 4dbd 7d04 ba3d f843 a4bd
00000350: 8a77 8b3c 3d1e f3bc d32b 5cbc b835 bdbc
00000360: 5f76 123d 36ce febc 8257 32bd 5694 ed3c
00000370: 2a1d 10bd 1ef8 3dbc c236 9bbc 894a 653d
00000380: ca69 2fbd ad6e 2abd f999 953c 4e78 4fbc
00000390: 7488 2e3d fc01 173c 8877 ca3b b14e 44bd
000003a0: 6070 3a3c c4a8 5cbd 932b 343d 354f 03bd
000003b0: d0d1 7f3d 0853 d4ba 0d5f 143d b386 303c
000003c0: e8df 733c 3a94 5d3c 44e0 50bc 206e 68bd
000003d0: b3cf 83bb 72c3 28bc cd81 b53c dc62 d2bc
000003e0: 5d36 8f3d 1851 603c 2971 8b3d 7f87 883d
000003f0: ca70 8d3b af66 d5bc 9bd3 543c f94d 683d
0.016359847 -0.019776493 0.05842997 -0.01617287 -0.002513059 0.042277873 -0.043675736 -0.055624556
-0.01926794 -0.028537558 0.013484576 0.05985919 -0.024957988 0.03488294 -0.078190684 -0.025338458
-0.07295598 -0.038576677 0.063590206 -0.020352684 -0.0005717797 0.03045546 0.006025762 0.06291592
-0.033695307 0.050036665 -0.04192554 -0.05426538 -0.08337641 0.050577305 -0.03246353 -0.029965602
-0.017808616 -0.14545105 0.027290842 -0.005371485 0.05758357 -0.1204093 -0.044449616 0.008025615
0.056312766 -0.04395703 -0.008287993 -0.050109323 -0.010102643 0.05415197 -0.05091292 0.042329658
0.033251043 0.039843366 -0.0747599 0.03709571 -0.029281618 -0.045288853 0.036416486 -0.059010193
0.02667565 0.056716938 -0.041963056 -0.022043847 0.021352436 0.055221867 0.030562377 -0.008936156
-0.021058675 -0.00081404595 -0.046010084 0.01869779 0.0027590597 0.06983686 -0.02801635 -0.064271934
0.0138220405 0.006899631 0.044894792 0.022514774 -0.010381445 -0.0083662085 0.0180088 0.03722687
-0.020523675 0.042168185 -0.0075669014 -0.026488235 0.006643359 0.007911777 0.07986528 -0.021872673
-0.075278774 -0.007979559 0.068706885 -0.0050844303 0.032211117 -0.08986484 -0.009165811 -0.024344692
0.04170849 0.010667663 0.03937308 -0.0013581645 0.015366566 -0.018991705 -0.047924794 0.025384594
0.0065828385 0.0040158024 -0.036238536 0.003017237 0.0022539974 -0.0017702649 -0.03848075 -0.10848919
-0.08440387 -0.010020113 0.016954932 0.085266836 -0.009177398 -0.019657023 0.020203186 -0.0027645025
0.029610775 0.0794569 0.04733075 -0.0069589717 -0.017129498 -0.051581874 0.04176995 0.06894077
0.015207007 -0.011308573 -0.02741639 -0.06102959 0.035225812 -0.014916322 -0.032381855 -0.016943136
-0.034678165 0.012173687 -0.08829401 -0.07542582 0.01983248 -0.054180074 0.017320665 -0.04742555
-0.0062353797 -0.02121161 -0.058501974 0.052346565 -0.053317502 0.016315393 0.056622207 -0.06630178
-0.06524843 0.020647498 -0.003981645 -0.07882343 -0.13261041 0.032829102 0.050152183 -0.032531273
-0.004316661 0.0030307854 0.017019784 -0.026483532 -0.008098677 -0.056763303 0.0604636 0.06243898
-0.052862033 -0.0055095456 -0.031422015 0.045707557 -0.07197516 0.013672741 0.06900634 0.02745838
0.04628416 0.03425797 -0.0015277769 -0.05916741 -0.024276817 -0.07346925 0.011779592 0.067424834
-0.05863393 -0.04418814 -0.02354853 -0.059992783 -0.019986572 0.03372819 0.02261756 0.00943061
0.012376209 -0.006634961 -0.023670191 -0.035214033 0.0155190965 0.010134564 -0.020838201 -0.038039636
0.049107105 -0.023591904 -0.02852516 0.0008790589 -0.030179296 -0.0028125495 0.028759975 0.017337296
0.07577335 -0.05028096 0.09082887 -0.080207765 0.017024774 -0.029677505 -0.013438183 -0.023096904
0.03575742 -0.031104188 -0.043540485 0.029001396 -0.035184063 -0.0115948 -0.018947009 0.055979285
-0.042825498 -0.041609455 0.018261896 -0.01266296 0.0426106 0.009216782 0.0061788 -0.04792661
0.011379331 -0.053871885 0.043986868 -0.03205796 0.062455952 -0.0016199062 0.03622346 0.010774302
0.014884926 0.0135241095 -0.012748782 -0.05674565 -0.0040225624 -0.010300504 0.02215662 -0.025681905
0.06992791 0.013691209 0.06808693 0.06666469 0.004316424 -0.02604994 0.012989904 0.056714986

conv3.weight f4 [5, 2, 7]
00000000: 2716 5cbe 25c6 603d 515c a6bd ed7e 553b
00000010: 1315 a63d d160 01be ba7b 89bd 3379 03be
00000020: 2cdb 133e b009 473e 47bf 84be 5950 14be
00000030: 38ce 52be b065 ce3d 6fc2 5ebe 2092 fbbd
00000040: fbed 87bc 9f52 a0bb a7ab ebbc 6f29 60be
00000050: 6f8e 18be 46c0 50bd 5cbc 0abd a9d0 433e
00000060: f92d f13d 11ae 7f3c 89e6 5a3d 259f ef3d
00000070: e5cb b33d 37f0 4b3e 00c9 3abe 2782 4dbe
00000080: 3033 603e 29d3 303e 4e86 c5bc e955 09be
00000090: b58e 083e 39e5 813c b52a 033e 3327 b43d
000000a0: d523 0d3d 8024 0f3d 0dff 2c3e 8af8 963d
000000b0: 7ad2 263d 7dc6 d7bc a783 7fbd 256f 1d3d
000000c0: 2efd ab3d aa5e 323e 4158 2b3e cc8e 18bd
000000d0: 0911 cdbd d6ca 6f3d 314e 7fbe c78a 1cbc
000000e0: 405e 13be aaa0 6dbe 1aab 263e 62de a03d
000000f0: be38 703c 4e16 e23d b9fc ab3d a154 5ebe
00000100: 89e5 223e aa72 98be b2a9 9cbe c789 96bd
00000110: 8fb2 a4be 8f23 ea3d
-0.21492825 0.054876465 -0.08123077 0.0032576874 0.08109488 -0.12634589 -0.06713052 -0.12839203
0.14439076 0.19437289 -0.25927183 -0.14483775 -0.20586479 0.10077989 -0.21753858 -0.122837305
-0.01659297 -0.0048926617 -0.028768374 -0.21890806 -0.14898084 -0.050964616 -0.03387104 0.19122566
0.11776347 0.0156054655 0.05344251 0.11700276 0.08779124 0.19915853 -0.18240738 -0.2006918
0.21894526 0.17268051 -0.024111893 -0.13411678 0.13335688 0.015856372 0.1280926 0.08796539
0.034458 0.03494692 0.16894169 0.07371624 0.04072807 -0.026339764 -0.062381413 0.038436074
0.083978996 0.17418924 0.16732885 -0.037245557 -0.10013015 0.05854305 -0.24932171 -0.0095545715
-0.14391422 -0.2320582 0.16276208 0.07854916 0.014661966 0.110394105 0.083978124 -0.21711971
0.15907873 -0.29774982 -0.30598217 -0.07350498 -0.3216748 0.114325635

dense1.weight f4 [364, 175]
00000000: 55dd cebc 714e eebb eba2 9fbc 3145 8b3c
00000010: 30fc dcba b4f9 853d 6378 a33b 7334 293b
00000020: 5c31 403d 3253 733d 83d3 36bd b25f 4e3d
00000030: 9a57 413d 52f9 dabc baad 84bc 530f be3d
00000040: 2022 053d a3d2 b33d de6a b0bd 906f a33d
00000050: 006a a8bc 20f5 97bc 6bc6 1dbd 4bb3 b4bc
00000060: 5365 6abd fa2b 97bd e3bd 19bd 7648 5cbd
00000070: 1f53 58bd c0a0 b53c dd4c 053b f2dc 13bd
00000080: c6cf 34bd d688 12bd 5c36 a93b 5a9b 7dbd
00000090: b3a1 793d d137 7abd 656f 1e3d 8eb2 4c3d
000000a0: 49a1 7fbb f977 363d 7a43 b73c 088c 343d
000000b0: 5e1c e93c a7fb 053c 29cd 8e3d 8c02 533d
000000c0: 4180 583d 0625 193d c628 fd3c b709 c13c
000000d0: e455 43bd f4fd 50bc 138e 7bbc 2336 aa3b
000000e0: 8800 24bd ecec a7bc 8a76 70bd 5b84 9a3d
000000f0: 7f1c 303d ab26 af3c 201b c7bc 4be5 953d
00000100: 9010 bdbc 57fa 2abd 770c 593d b54f 26bd
00000110: f060 413d 2862 373d c393 583d 9db6 b93c
00000120: 7800 423c 65ac ac3d f296 a83b aa14 c938
00000130: 699a d2bb 0e0e ccbc f73a 9c3d ddd1 e7bb
00000140: f975 38bd 25f4 103d 4b17 763d f4d2 8abd
00000150: e295 2c3d e5dc 803b c728 263d 1ac4 bf3d
00000160: c5dd 223d cde1 1c3c 51c6 c13d 0ed4 fd3b
00000170: 739c 4abd 7ebf 103d d722 453d 073f 56bc
00000180: 426e 34bc 927f 8b3d a76e e9bb 2ccb b43d
00000190: 3c2a 56bd cbf9 823d f3fa 8bbc cf91 5e3d
000001a0: 2ada a2bc a2fe 673c 84b9 8a3d f60e 183d
000001b0: 0442 22bd aff3 81bd a13c 4d3d 0b9a 0cbd
000001c0: eb98 3ebd 33fe afbc 3bef a73d 0428 01bd
000001d0: 956a 5fbd 55e0 273d 4d75 86bd 2950 e8bb
000001e0: 55c0 b3bd 0ae7 bcbc 8b17 2b3d b224 263d
000001f0: d93a babc b75e bcbc 7ad5 8fbc dbcb 213d
00000200: f250 943d 1956 a1bc 9777 9f3c aa43 abbc
00000210: 0ce9 6d3d 383a 523d 255b 8bbc 20f7 edbc
00000220: b5d7 113c a261 74bd 7ff2 16bc df24 9bbc
00000230: 43c0 503c 1901 90bd 1784 4cbb 960e 183d
00000240: 16f4 ac3c 8099 9a3d 127c 053d 4450 d83c
00000250: 4774 e53b af1e 083d c13e 523d e618 08bd
00000260: 1670 f6bb 310b 66bc db15 71bd c513 9fbd
00000270: 453f 3ebd dc75 a03b 5b1d 3cbd 9729 22bd
00000280: df7b a53c 4ae3 6bbc 57d3 5c3d 8e4c 413d
00000290: 4e7f 533c 8a27 b4bc 0ed1 423d 9e5b e13b
000002a0: b71c 04bd 99ae 3fbd a808 603d 1695 01bd
000002b0: 6147 46bd e851 50bd 1a17 dcbc a8c5 bf3c
000002c0: 0f7f 713d ed01 4bbd a040 783d 6ab0 c33d
000002d0: 2d39 3c3d 75eb 1cbd 3b0f f9bc 837f 6c3d
000002e0: f896 023d 8a0a 273d 9a6c 023c 7cfd 063d
000002f0: 25ff 253d 359f 5e3c a4d7 c23c 1ac0 a43c
00000300: 9b2d c4bc 8282 0cbd 4273 5b3d 39bf 023d
00000310: 442e 01bd 417a 9cbd d281 2d3d ed6c a3bd
00000320: fb17 32bc 993a 2e3d 6dfd b93c d39a 5cbd
00000330: 9ff9 efbb 0287 f3ba 4e92 0c3d d6a0 1e3d
00000340: 17dc 323c 26f8 5ebc 968c 483d 3fd2 03bd
00000350: cf25 21bc cf87 1ebd 966c 703d f8b2 8e3c
00000360: bd07 58bd 18ab 8abc d31f 523d 6cd1 833d
00000370: c947 33bd b106 393d 17f7 933d 0634 91bd
00000380: 8ced 9b3d a534 afbc 4185 8d3d ec77 22bd
00000390: bec3 5b3c 58c1 943d 6e7e 6f3c d5c1 d6bb
000003a0: cda1 483c 8773 3dbc d0bd 16bd e37b c63c
000003b0: f487 303c db0c 573d 41d8 113c 6118 bdbc
000003c0: df75 3bbd 6991 703d 050e 6bbd 6a88 82bb
000003d0: 3d97 d03c ecad fabb b162 36bd a271 b7bc
000003e0: 3e10 1cbd b95f 893d 3e4e abba 0088 abbc
000003f0: 2ba0 4b3d ec93 1dbd 38e9 4a3d c455 00bd
-0.025252024 -0.0072725345 -0.019486865 0.017000766 -0.0016859826 0.06541768 0.0049887164 0.0025818616
0.046922073 0.059405513 -0.044635307 0.05038423 0.047202684 -0.026730213 -0.01619612 0.092802666
0.032503247 0.0878041 -0.08614133 0.07980263 -0.020558357 -0.018549502 -0.038519304 -0.02205815
-0.057225537 -0.07381435 -0.037534606 -0.05378004 -0.052813645 0.022171378 0.0020340004 -0.03609938
-0.04414346 -0.03577503 0.005163951 -0.061915733 0.060945224 -0.061088387 0.038680453 0.04997497
-0.0039006046 0.04454801 0.022371043 0.044078857 0.02845591 0.008177674 0.06972725 0.0515161
0.052856687 0.037388824 0.030903231 0.023564203 -0.047689334 -0.01275586 -0.015353697 0.005194442
-0.04003957 -0.020498715 -0.058706798 0.07544776 0.042995926 0.021380743 -0.024304926 0.07319125
-0.023079187 -0.04174265 0.052990403 -0.04060336 0.047211587 0.044771343 0.05287529 0.022670085
0.011840932 0.08431319 0.005144947 9.588276e-05 -0.0064270985 -0.024909046 0.07628434 -0.007074578
-0.045034382 0.035389084 0.060080808 -0.06778517 0.042135127 0.0039325827 0.040566232 0.09363575
0.039762277 0.0095753195 0.09461654 0.007746226 -0.049465608 0.03533887 0.04812893 -0.01307655
-0.011012616 0.068114415 -0.0071237865 0.088278145 -0.05228637 0.063953005 -0.017087435 0.054338273
-0.01987942 0.01415983 0.067736655 0.037123643 -0.03961374 -0.06345307 0.05010665 -0.034326594
-0.046532553 -0.021483516 0.081999265 -0.031532302 -0.054545004 0.040985424 -0.06565342 -0.007089634
-0.08776919 -0.023059387 0.0417705 0.04056234 -0.022733139 -0.022994382 -0.017557848 0.039501052
0.072420016 -0.019694375 0.019466205 -0.020906288 0.05808358 0.051325053 -0.017011235 -0.029048502
0.008901526 -0.059663422 -0.009213089 -0.01893848 0.012741151 -0.07031459 -0.0031206661 0.037123285
0.021112483 0.07548809 0.032589026 0.026405461 0.0070023867 0.033232387 0.051329378 -0.03322687
-0.007520686 -0.014040754 -0.058858734 -0.077674426 -0.046447057 0.0048968624 -0.045926433 -0.039590444
0.020200668 -0.014397452 0.053912487 0.04719215 0.01290877 -0.02199151 0.04756265 0.0068773767
-0.032253947 -0.04679737 0.054695755 -0.03163632 -0.048407916 -0.050859362 -0.026866484 0.02340968
0.058959063 -0.049562383 0.060608506 0.09555133 0.045952965 -0.038310487 -0.03040277 0.057738792
0.031882256 0.040781535 0.007960463 0.032956585 0.040526528 0.013587763 0.023784466 0.020111132
-0.023947528 -0.03430415 0.053576715 0.031920645 -0.031538263 -0.076405056 0.042360134 -0.0797976
-0.010869975 0.04253635 0.02270385 -0.05385859 -0.0073234583 -0.0018579664 0.034319215 0.038727604
0.010916731 -0.013608968 0.0489622 -0.03218293 -0.009835674 -0.038703736 0.058697306 0.017419323
-0.052741755 -0.016927287 0.05129988 0.064364284 -0.04376963 0.045172397 0.07224863 -0.07090001
0.07613668 -0.021387408 0.06910182 -0.039665148 0.013413368 0.0726344 0.0146175455 -0.0065538683
0.012245608 -0.011563188 -0.036802113 0.024228996 0.010774601 0.052502494 0.008901657 -0.023082914
-0.045766708 0.058732424 -0.057386417 -0.003983547 0.025462741 -0.0076501276 -0.044527713 -0.022393052
-0.038101427 0.06707711 -0.0013069583 -0.020938873 0.049713295 -0.038471147 0.04953882 -0.031331792

dense1.bias f4 [364]
00000000: 80c7 35bd d9a0 f738 dc99 6c3c f2b2 4bbd
00000010: 0df7 523d f92d c33c 2dbd 243d 4fac 25bd
00000020: 9138 ac3c 0fe7 3fbd f310 a13d e0b9 573d
00000030: 1e2a 1fbd 6885 87bc 480a 513d 1a44 8d3d
00000040: e1d2 0e3d a11f 883c 5616 4cbd 7e9e 0a3d
00000050: d698 3cbd afbe 85bb a7aa 903c be6b 59bd
00000060: 06a2 7b3d 0948 bf3c 4d33 47bc c3cb b6bc
00000070: 4f1c de3c f218 45bd b7dd 66bd 4a67 4f3c
00000080: 3faa 063d 63c8 34bd ee00 03bd 46d0 2abc
00000090: 60c8 6c3c a83b 76bd bfdb 483d 34de 213d
000000a0: feed a93c 7fc1 a7bd 90b1 b33c 594f a23c
000000b0: cae1 06bd 2197 23bc d381 9d3c 282e f9bb
000000c0: b357 56bd 41ce e63b 44c8 0fbd cf9d c33c
000000d0: 3dae 7e38 50be 38bd d141 90bd a89a 013d
000000e0: 5ce6 90bb a777 3f3d ef7e 183c a3d2 5b3d
000000f0: d922 9fbc c435 b73c 7437 49bd 2af9 34bd
00000100: e113 f9bb 35dc 433d 0a20 dc3c 7f6b 053c
00000110: ee0b 9cbd 2a15 8dbd f8bf 6bbd 7924 7cbc
00000120: 7736 323d 4c69 8bbd 8753 a2bc 550f 013d
00000130: 25bd 503d 0454 bfbc d337 1c3d b5f6 25bd
00000140: c8f1 2bbb a72f 743d b317 5bbb ae02 4c3a
00000150: b217 75bd 4210 32bd 468c 28bd 602a a83d
00000160: bb6f 41bc 01d6 803d 0b4b 123d 3b9f e63c
00000170: e0a7 64bc 0efe 2f3d ca79 32bd e374 563d
00000180: b9a6 4e3d 0da0 09bd 2fa2 eabc 1b4b 97bb
00000190: da58 24bd 312e 41bc 6485 443d 690f 273d
000001a0: 6b3f e83c c4fb 6dbb 34a3 423c 33ea 093d
000001b0: 32ac 0a3d 5cf1 ad3d 898e 193d da57 b8bc
000001c0: 3e5b 683c b2cf 44bc fe15 58bd c13f 59bd
000001d0: 3b2b 453d 5fa8 1f3d 7532 153d 992a 203d
000001e0: a32c 12bd 01d3 903d b73a 183d 298b d9ba
000001f0: f8a1 1fbd 8fb5 573d 0392 2cbd 8c3a dc3c
00000200: e4a9 45bd 6370 193c 1a6d 26bd 033e 493d
00000210: 77df 90bd 0c65 e6bc afdf 44bd 462c b8bc
00000220: 4761 34bd 0f74 873d 2bb3 5b3d db4a a3bc
00000230: dc4c 8d3c e5b2 473c 9924 c73c 15a6 063d
00000240: b765 0e3d bf6b 52bd 7805 46bd d049 01bc
00000250: e219 eebc a794 353d 9757 503d c506 2f3d
00000260: cfe4 093d 9ecf 833c 8c5b f3b9 f622 70bd
00000270: c035 6ebd b1ff f53c 167f 36bd d3c2 273d
00000280: 41b9 b43c 4851 2b3d e988 b33c 8584 44bd
00000290: 48a1 863c 8aa3 d2bb 92a2 5f3d 6e3f 5abd
000002a0: 2d63 e83c 64b3 a0bc 32b5 df3b 35b7 b73b
000002b0: c6de 5e3b 3715 493d 7966 20bd 7ffa 42bc
000002c0: 3d37 603d 9114 fabc 51fe 7b3d c979 563d
000002d0: f431 57bd 8ab3 223d 792f 76bd 74a0 70bd
000002e0: 6122 9fbb 2b0e b4bc 3b9a 87bc 2dae 8dbd
000002f0: a532 3f3d 14a9 c23c ee64 36bd 5eb3 603d
00000300: 2f65 ad3c 3804 683d 5923 4abd db71 75bd
00000310: eb72 2cbc 4822 363c 56a6 53bd 5134 7fbd
00000320: 0a09 243c e244 83bc e3b1 16bd 8c05 8a3c
00000330: 58d5 10ba 93f3 093d b71b 403d c84e 52bd
00000340: 3553 553d 3c35 74bd 18bf 483d 082e ad3c
00000350: eec8 4abd 48ba 87bd e5bb 01bc c4e4 99bc
00000360: be3f febc 9b7d a4bd 8f4a 56bd cfca 833d
00000370: 7c12 da3b 3ebd 70bd fa01 12bd f763 f6bc
00000380: 71c6 8f3c e7b6 d2bb 2b60 56bd 6ff8 c13c
00000390: 28d6 053d 9b24 0dbd 1b77 6e3d 77f6 633c
000003a0: 8e29 43bd e27f 3e3c ff09 7d3d 5f47 4c3d
000003b0: 090f 29bd f940 f7bb cc70 f33c 35f0 7a3c
000003c0: 3bbd 92bc 449b 0fbd aefa 833d 885e 42bd
000003d0: 484f b43b 6032 203d 9165 3fbd a0db 913d
000003e0: 9b7b 5ebd 8ced 653d ab62 5d3d 1f23 7bbd
000003f0: 5ffc 79bd 8f4e 5d3d 8438 ee3c 3c1b bebc
-0.04437971 0.00011807838 0.01444098 -0.049731202 0.051505137 0.023825632 0.040219475 -0.04044753
0.021023067 -0.046851214 0.07864561 0.0526675 -0.038858525 -0.016543105 0.051035196 0.06897755
0.03486908 0.016616644 -0.04982599 0.033842556 -0.046044193 -0.004081569 0.017659498 -0.053081267
0.061433814 0.023349779 -0.012158227 -0.022313958 0.027113108 -0.048119493 -0.056363788 0.012658903
0.032877203 -0.044136416 -0.03198331 -0.010425633 0.01445207 -0.060115486 0.04903769 0.03951855
0.020743366 -0.08191203 0.021935254 0.019813227 -0.032930173 -0.009984762 0.019226944 -0.007604379
-0.05232973 0.0070436304 -0.035103098 0.02387896 6.072059e-05 -0.04510337 -0.070438035 0.031641632
-0.004421992 0.04674497 0.009307607 0.053667676 -0.019425796 0.022364505 -0.04912515 -0.044182934
-0.0076012467 0.047817428 0.026870746 0.008143305 -0.07619463 -0.06888802 -0.057556123 -0.015389555
0.043508973 -0.06807193 -0.01981522 0.031508762 0.050961632 -0.023355491 0.038139176 -0.04051848
-0.0026236642 0.059615757 -0.0033430874 0.0007782382 -0.05983705 -0.043472536 -0.0411494 0.082112074
-0.011806424 0.06290818 0.035716098 0.028152099 -0.01395604 0.042966895 -0.04357318 0.052357566
0.050451968 -0.033599902 -0.028641788 -0.0046171076 -0.040123798 -0.011790798 0.047978774 0.04078618
0.028350553 -0.0036313394 0.011879731 0.033670615 0.033855624 0.08493301 0.037489448 -0.022502828
0.01418191 -0.012012409 -0.05275535 -0.053039316 0.04813693 0.03897893 0.036425073 0.039103124
-0.0356871 0.07071496 0.03716537 -0.0016597259 -0.038972825 0.052663382 -0.042131435 0.026883386
-0.048257723 0.009365174 -0.04063139 0.049131405 -0.070738725 -0.028124355 -0.048064884 -0.022482049
-0.044038083 0.06613933 0.053637665 -0.019933155 0.017248563 0.012188648 0.024309443 0.032873232
0.03476497 -0.051372286 -0.04834506 -0.007891133 -0.029065076 0.04433122 0.050864782 0.042731065
0.033665475 0.01609021 -0.0004641678 -0.05862709 -0.05815673 0.03002915 -0.044554792 0.040957283
0.022060992 0.041825563 0.02191587 -0.047977943 0.016434327 -0.006428187 0.0545984 -0.053283148
0.028367603 -0.01961679 0.00682702 0.005606557 0.0034007295 0.049092498 -0.039160226 -0.011900543
0.05474018 -0.030527385 0.061521832 0.052362237 -0.052537873 0.039722003 -0.060103867 -0.05874677
-0.004856393 -0.021979412 -0.016553035 -0.06917987 0.046679158 0.023762263 -0.044529848 0.054858558
0.021166412 0.05664465 -0.049350116 -0.059923034 -0.010525445 0.011116572 -0.051672302 -0.062305752
0.010011921 -0.016024057 -0.03679074 0.016848348 -0.0005524955 0.033679556 0.04690143 -0.051344663
0.052081306 -0.05962108 0.049010366 0.021140113 -0.049508028 -0.06627327 -0.007918333 -0.018785842
-0.031036254 -0.0803177 -0.0523172 0.06435167 0.0066550355 -0.058774225 -0.035646416 -0.030076964
0.017550679 -0.006430495 -0.052337807 0.023678033 0.03267494 -0.034458738 0.058219057 0.013913742
-0.04764705 0.011627169 0.06177711 0.049872752 -0.041274104 -0.007545587 0.029716872 0.015316059
-0.017912498 -0.035060182 0.06444298 -0.047453433 0.005502615 0.03911054 -0.04672772 0.07121968
-0.054317098 0.056134745 0.054049175 -0.06131279 -0.061031695 0.054029997 0.029079683 -0.023206346

dense2.weight f4 [158, 364]
00000000: 6143 533d 93fe 443d 87fd 1d3d 73e5 b2bc
00000010: 09f8 5d3d 3562 bd3c 57d9 47bd 8d5d 563c
00000020: 8e56 343c f3c3 1f3d 0b72 b23b f239 d7bc
00000030: 08f6 363c dd0c 2cbd 726c 25bd 4d07 283d
00000040: c785 7b3c 04ed 303d 1cbc 293d e644 be3c
00000050: 65d1 d5bc e739 b0bc 6d2e fdbc 2f0b 113d
00000060: dc44 153c a9a1 023d b78b 353c 3fc2 4cbc
00000070: cfaf 66bc 2520 f9bc daa8 fabc 01b0 31bd
00000080: dfaa 573c fe4a 8b3c a6b0 513d 34d5 34bd
00000090: d6eb ecbc 58fc a13c 1c01 49bc 2e17 e5bc
000000a0: f0fc 7e3d 41d5 37bd 549b 813c 38b4 78bd
000000b0: af73 15bd 52ee e53c d259 3f3d ecb6 17ba
000000c0: fd8c 413c 1157 ee3a 33af 5abc c53d 31bd
000000d0: e141 ffbc bb0d f0bb 0e87 a4bb 6076 29bd
000000e0: fee8 da3c 5a4e 75bd 4460 3ebd 509e 59bd
000000f0: 3e5f 0b3d 27a4 33bd e6b2 af3b c3db 60bd
00000100: 14cc ff39 25ed 4e3a ac2e 073d 2d13 363d
00000110: 3446 40bc 5225 4b3d 740d 44bd a3c0 f33c
00000120: 48be 3fbd 5009 483b ccda eb3b 7173 02bd
00000130: a45e 9cbc 873d e5bc a328 28bb 9f25 06bd
00000140: f76a 363d 69fa 053d 9a7f 973c 524d 43bd
00000150: 7974 aabc 8f65 c1bc 4c24 21bc f77b 54bd
00000160: 0a0d b83c 5c6c 2abd 1e3f 253d 8e93 c13c
00000170: 2b2f 4f3c b439 943c 2cee 8dbc 9177 403d
00000180: 7500 03bd 8fd5 c73c 49aa 19bd 8a65 293d
00000190: 9bf9 fdba 8878 d5bc 23cc a13c dbb1 8e3c
000001a0: 8449 2cbd 35e3 3dbd 6c32 0abd e418 e33c
000001b0: 9798 933c 8eeb cdbc 501a 67bc 444d bdbc
000001c0: 13e6 fd3c b3c7 283c 82f0 153c f55f fbbc
000001d0: 8535 28bd 32b2 4fbd 3891 7ebd 863e 56bd
000001e0: 134f a7bc 8cd8 32bb 94ef 1a3d 25fe 0ebd
000001f0: 35e3 20bd 332a d73b 1e46 5cbd 31f1 c13b
00000200: 82c8 273d ab77 033d c6ee db3b c588 28bc
00000210: a11b a13c 0ddd 17bd ab37 31bd 1d8b e23c
00000220: 1acd efbc 0594 b53a e02e 24bd 4d34 813c
00000230: 7ff2 85bb 2ee1 ebbb 0709 013d 4220 543d
00000240: 1ce8 96bc aab9 b23c 1bb1 cb3c 5fd0 843c
00000250: 528e 52bc 1fe2 a4bc 6aac 69bd a82d 473d
00000260: 6495 c8bc 4ca8 febc 3697 3fbd dc66 fe3c
00000270: 8460 24bd 60ef 3c3d 1aa6 33bd b04b 2fbd
00000280: 4936 07bc d58c a6bc 0b22 973c bec8 073d
00000290: d834 333d dc65 5c3d 9dcf d1bc 7228 4b3c
000002a0: 919c deb9 891e 87bc a300 a13c 45e1 01bd
000002b0: f7df 30bd 6102 dfbc 8030 ff3c cca4 433d
000002c0: 128e f2ba 8181 3a3d 9d74 c3bc d7ac ab3c
000002d0: 0942 973c 88f3 89bc e337 493d cf97 aa3b
000002e0: 7775 e1bc 2c77 b33c 5ad3 f03a 193e 303a
000002f0: c1b4 d1bc 17e4 e63c 4a6f 0b3d efe7 ee3c
00000300: 465b 4c3d be70 263d 8b86 0e3d 6e7a 54bd
00000310: b804 383d cfff 823c 0f0d ab3b 48b1 26bd
00000320: 2b59 5ebb 0466 e43c cc56 91bb bff8 233d
00000330: 39ce fabc 78f2 863c 3a83 c2bc d158 843b
00000340: 80bf 80ba 0a55 8d3c 7636 57bd eaed 0ebd
00000350: 938e 103c 8556 273d 997a 763c 6830 213d
00000360: 7821 b23c 365c 183d 03eb f0bc def4 31bd
00000370: dea6 da3c 7c8c 38bd 2178 1cbd 7d0d d13b
00000380: 9551 573b a756 0f3c e6fe d83c ab16 03bd
00000390: 1432 073d b7fe 03bd 7067 f1bc 47fa 45bd
000003a0: b4b7 6dbc 9a8a e2bc 48b4 843c a4d5 333d
000003b0: cf9f 01bd 076d 38bc 40b6 a0bc 7b23 103d
000003c0: a772 71bc 4dbe e93c a424 9d3c b9db 90bc
000003d0: c5e0 b33c 7356 38bd 5171 aa3c 836a 87bc
000003e0: 0caa 393d b6d7 b0bc 44de d5bc 0997 86bc
000003f0: 6ede cf3c bc9c 6fbc 366a 5e3d 6977 f7bb
0.05157793 0.048094343 0.03857186 -0.021837926 0.054191623 0.023118118 -0.048791256 0.013083828
0.011006964 0.03900523 0.005445724 -0.026272748 0.011167057 -0.042004455 -0.040386625 0.041022588
0.015351719 0.043194786 0.04143916 0.023226213 -0.026100824 -0.021511985 -0.030905927 0.035411056
0.009110656 0.031892452 0.011080674 -0.012497484 -0.014080002 -0.030410836 -0.030598093 -0.04338074
0.013163297 0.017003532 0.051193856 -0.04414864 -0.02892105 0.019773647 -0.012268331 -0.027965154
0.06225294 -0.04488111 0.015821137 -0.060718745 -0.036487278 0.028067742 0.04671652 -0.00057874504
0.011813399 0.0018183907 -0.013347435 -0.0432718 -0.031159343 -0.0073258555 -0.0050209826 -0.041372657
0.026722427 -0.059889175 -0.046478525 -0.053129494 0.034026377 -0.04385772 0.0053619025 -0.05489708
0.0004878944 0.00078936137 0.033003494 0.04445188 -0.011735488 0.04959614 -0.047864392 0.029754942
-0.046812326 0.0030523129 0.0071977135 -0.031848375 -0.019088097 -0.02798344 -0.0025658987 -0.032750722
0.044535603 0.032709513 0.018493462 -0.04768116 -0.020807492 -0.023607997 -0.009835314 -0.051876035
0.022467155 -0.041607246 0.040343396 0.02362993 0.012645523 0.018093921 -0.017325483 0.046989027
-0.031982858 0.024393825 -0.037515912 0.0413566 -0.0019376756 -0.02605845 0.01975066 0.017418792
-0.042062297 -0.04635926 -0.033739492 0.02772183 0.018017096 -0.025136735 -0.0141053945 -0.023108132
0.030993497 0.010301518 0.00915158 -0.030685404 -0.041066665 -0.05070705 -0.06215021 -0.05230572
-0.020423448 -0.0027289717 0.037826136 -0.03491034 -0.03927918 0.00656631 -0.053777806 0.005918645
0.040962704 0.032096546 0.0067118136 -0.010286515 0.019666495 -0.037076045 -0.04326598 0.027654225
-0.029272605 0.0013853317 -0.040083766 0.01577201 -0.0040877457 -0.0071984744 0.03150275 0.051788576
-0.018421225 0.021817047 0.024864724 0.01621264 -0.012851315 -0.020127354 -0.057049192 0.048627526
-0.024485298 -0.03108611 -0.046775065 0.031054907 -0.040131107 0.046126723 -0.04385958 -0.04279679
-0.008252689 -0.020330826 0.01844885 0.033150427 0.043751568 0.05380808 -0.025611693 0.01239978
-0.0004245979 -0.016494052 0.019653624 -0.031708974 -0.04318234 -0.027222814 0.031151056 0.047764584
-0.0018505475 0.04553366 -0.023859316 0.02095644 0.018464105 -0.016839758 0.049125563 0.0052060853
-0.027521832 0.021907412 0.0018373535 0.00067231205 -0.025598885 0.028184934 0.03404168 0.029163329
0.049891733 0.040634863 0.03479628 -0.05187457 0.044926375 0.01599112 0.0052200626 -0.040696412
-0.003392766 0.027880676 -0.004435396 0.040032145 -0.030615913 0.01647304 -0.023744214 0.004038908
-0.0009822696 0.017252464 -0.052542172 -0.03489486 0.008823055 0.040853996 0.015043878 0.039352804
0.021744475 0.037197314 -0.029408937 -0.043446414 0.026690897 -0.04505585 -0.0382005 0.0063797818
0.0032855023 0.008748687 0.026488733 -0.03200404 0.033006743 -0.032225337 -0.029468268 -0.048334386
-0.01450913 -0.027653981 0.016199246 0.043904915 -0.031646546 -0.011256463 -0.019618154 0.035190087
-0.014736808 0.028533125 0.01918251 -0.017682897 0.021957764 -0.04500432 0.020805987 -0.016530281
0.045328185 -0.021587234 -0.026106961 -0.016429441 0.025374617 -0.014624771 0.05430051 -0.0075520766

dense2.bias f4 [158]
00000000: 0718 2f3d 050f d4bc 100e 3fbc 147f 0c3d
00000010: 2005 043d a2da 38bc 609e a6bc 691a b8b9
00000020: 92e8 d8bc 64a4 8d3c 0da8 193c 682b 9d3c
00000030: 3d37 183d e1d2 eb3b 3dbb 363d 7029 013d
00000040: 5fc7 563d 00d5 b93c 53d3 0a3d 1f37 033d
00000050: ec4a ba3b c444 9ebc c114 1cbd 97a0 b6bc
00000060: 4400 c63b b7f2 f53c 650d b53c f85b 43bd
00000070: dfbb 23bd db54 7a3c 8d74 743d 69d4 17bd
00000080: 6f89 503d 3ca9 5cbd f5b3 ea3c 6ef3 1d3c
00000090: 4551 23bd 4d7a 1dbd 9eab 51bd eb28 c43c
000000a0: 0d80 c0bc 8d12 cbbc 4ff6 d8bc 3f29 b7bc
000000b0: 9638 dbbc 7393 293d e21b 2a3d e770 e5bc
000000c0: 799b d43b 35a3 a53c 29e9 f8ba fcdc b43c
000000d0: 12ad b43c 96b8 e7bc 1e42 063d 0fed 153a
000000e0: fee4 743c e688 1abd dc79 693c 47bc 05bd
000000f0: 822c 7d3d 2ec8 79bc fe06 893c 5ed8 4c3c
00000100: 1dcf 703d 4a97 a93b 3ac6 b73b e706 f9bc
00000110: ce81 5e3d 0b78 75bd 423f f2bb c705 19bd
00000120: a6ef ddb9 4c6b c1bc fca8 14bd c109 043d
00000130: 80ec 01bd 6c3c 53bd 2efe a8bc 0e80 fdbb
00000140: c07c 3a3d 7352 fb3c 6630 af3c 4d32 343d
00000150: e4c2 c8bc 920c 0cbd 719c 2ebd b279 363d
00000160: a33b 383d de54 01bd a75d 85bb 884b 15bd
00000170: ca24 723d fc0b d1bc 0b64 ee3c 0462 af3c
00000180: d9ea 23bd 8f42 303c 9282 28bd 9e16 ecbc
00000190: a8f8 1d3d 862a 1f3b 381c 0fbd b150 f63c
000001a0: 41b1 4c3d d03c f4bc ccef 29bd 3309 2fbd
000001b0: 1f9b 343d ad55 c3bb 3517 c93c cea2 1e3d
000001c0: c2d3 513c 61df cc3c dc3e a13c 4014 153d
000001d0: ac08 1dbd cbdd ce3c 49bb 473d 26ce 11bd
000001e0: c0a3 153d cd6c e4bc 145d e7bc 3de1 54bd
000001f0: 0d15 2ebd ee41 e1bc f4e2 43bb 87c0 0a3d
00000200: 1343 093d fa45 413c 9ae7 7c3c d346 83bb
00000210: 6498 d1bc 4bdd b9bc d042 7d3c 625d 94bb
00000220: 95f7 5cbd 0b6c 64bd b8a1 bd3c 4515 a5bb
00000230: 8ce1 4abb dc69 813c 1af4 833b 931a d33c
00000240: 1c91 55bc 8ece d5bc 1da4 26bc 805c e73c
00000250: ae0c 83bb 1cee cdbc 10a3 03bd a889 713c
00000260: 4808 ccbc 7bd6 2c3d c732 45bb 1add 933c
00000270: 035d b23c d01a bdbb
0.042747524 -0.025886068 -0.011661068 0.03430088 0.03223145 -0.011282595 -0.020339191 -0.00035114892
-0.026478086 0.017290302 0.009378445 0.019185737 0.037162054 0.0071967696 0.044612158 0.03153366
0.05243623 0.022684574 0.03389294 0.03203499 0.005685201 -0.0193199 -0.03810573 -0.022293372
0.006042512 0.030022962 0.022101114 -0.04769513 -0.03997409 0.01527902 0.059681464 -0.037067804
0.050912317 -0.053872332 0.028650263 0.009640558 -0.039872427 -0.038446713 -0.051189058 0.023945292
-0.02349856 -0.02478912 -0.026484637 -0.022358535 -0.02676038 0.041400384 0.041530497 -0.028007938
0.0064882603 0.020219425 -0.0018990386 0.02207803 0.022055183 -0.02828626 0.032777898 0.00057192234
0.014947174 -0.037728213 0.014250245 -0.03265026 0.061810024 -0.01524548 0.016726967 0.012502758
0.05879127 0.0051755058 0.0056083472 -0.0303988 0.05432301 -0.059928935 -0.007392795 -0.037359025
-0.00042330957 -0.023610733 -0.03629397 0.032235865 -0.031719685 -0.051571295 -0.020629015 -0.0077362126
0.045529127 0.030678963 0.021385383 0.043993283 -0.024506994 -0.034191675 -0.042629663 0.04454965
0.04497875 -0.031575076 -0.004070002 -0.036448985 0.059117116 -0.02551841 0.029100439 0.021409042
-0.04001889 0.010758056 -0.041140147 -0.028819378 0.038567215 0.002428682 -0.03493902 0.030067774
0.04997373 -0.029814154 -0.041488454 -0.042733382 0.044093248 -0.005961141 0.024547199 0.03872948
0.012806835 0.02500886 0.019683294 0.036396265 -0.03833835 0.025252244 0.048762593 -0.03559699
0.036533117 -0.027883912 -0.028242625 -0.051972616 -0.042500544 -0.027497258 -0.0029889913 0.033875015
0.033511233 0.011796469 0.0154360775 -0.0040062456 -0.02558536 -0.022688529 0.015457824 -0.0045277337
-0.05394705 -0.0557671 0.023148403 -0.005037936 -0.003095719 0.015797548 0.004026902 0.025769508
-0.013035085 -0.02609947 -0.010170964 0.02824235 -0.0039993143 -0.025137953 -0.03213793 0.014742292
-0.024906293 0.042196732 -0.003009008 0.018049765 0.021772867 -0.0057710186

dense_output.weight f4 [1, 158]
00000000: bf03 b139 6223 1abd a05d c7ba 48ac 31bb
00000010: 1024 f6b9 fddd 9bba fbf9 a7ba 3338 2a39
00000020: 7218 db3c c27e 173a 7db6 21bd 2718 873c
00000030: 13a6 313b 7010 f33c de9f 453c 835d 60ba
00000040: 9a53 2e3d 90ee cebb 53cd 1c3c 3a0d 5e3d
00000050: cfb7 1cbd 1fa8 c2b9 d049 b53c 2022 09bd
00000060: 591e 8b3c 515e 343c 086b 6d3b 209e 28bd
00000070: 8229 9cba 8c6c 99ba e109 163d d4c9 61bb
00000080: 14cb 453c 1fa8 26bd bfd3 c839 f172 63bb
00000090: df97 d13c 92d0 d13b 3ab8 67bc 731c 0e3d
000000a0: 5aea f239 3335 0fbb 372f 4fbd 437a 6dbd
000000b0: 1be1 23bd 91e4 08bd b6ce e93a 0ea4 00bb
000000c0: 9b2e edbc 00be 01bd e5e7 55bb f469 da3c
000000d0: 754c 3abc edc3 ff3c b22d abbc 104d 143c
000000e0: 37b4 e53a e7b2 153b 157d a2bb 2268 bebc
000000f0: 789b 353d 226e 2f3a 2a5c 273b 7bf2 0ebb
00000100: df1c 5d3c 93b7 923c a413 8d3c 8ae2 013c
00000110: b4be 653d 780a 11bd 87f5 93bc 4f61 4d39
00000120: a6fe b0b9 04b7 b2bb d04f 813c b3a6 1f3d
00000130: 120d 53ba bde3 1abd edda 893a 241f 0b3b
00000140: bf72 333b 1442 383d 7b09 80ba d47f bdb9
00000150: ea77 d3bc ecae 163d ef5a 77ba 89db 063c
00000160: 1cb5 e13a 4f38 3fbb 8405 c3ba f4e6 2ebb
00000170: ba9d 253d d693 12bd 1b18 3d3b e6ae 033d
00000180: f27c 86ba 4c80 f63a a38d b13c 88a8 893c
00000190: 43a1 a73b 6021 e03b ed47 fe39 f884 483b
000001a0: 21e8 c23c 49f4 0ebd 58c4 2dbb 29af cdbc
000001b0: 4b84 b3ba 69c7 84ba 1a81 5b3a 9a9e 8dbc
000001c0: e090 c9bb b564 3e3c bad2 053d 9832 dbbc
000001d0: 0d87 29bd 2ef5 363b c0e2 293d f430 a53b
000001e0: 1ed7 e03a 20df 22bb 31c0 8abc df21 64bd
000001f0: 9b87 dcba 33fa 89bb 1271 a43b 7567 ae3c
00000200: 0524 4d3a 9dfe 21ba 6a9e 11bb b5fa 793a
00000210: 9797 8a3c 6e6d 1ebc e0f2 0a3b b0ff b53c
00000220: d2c8 43bd de16 a9bc 7e30 e0bc aba0 0dbc
00000230: 9724 603c b380 e839 26f6 c53c 634a 013b
00000240: f4bf 1cbc e511 1bbb adc8 3dbc c72b 113b
00000250: 61f7 8bbc 925a 96b8 72fb b43b b28c e5bc
00000260: de4f d6bc 4110 6c3a aa57 9db6 09c3 733c
00000270: aa24 523a 048b 39ba
0.00033762862 -0.0376314 -0.0015210398 -0.0027110744 -0.00046947645 -0.0011891719 -0.0012815589 0.00016233399
0.026745055 0.0005779081 -0.039480675 0.016491009 0.0027107045 0.029670924 0.012062041 -0.0008558856
0.042560197 -0.00631506 0.0095704375 0.054211833 -0.03826123 -0.00037127823 0.022129923 -0.03347981
0.016982244 0.011008815 0.0036227126 -0.041166425 -0.0011914226 -0.0011705323 0.036630515 -0.0034452574
0.012072343 -0.040687677 0.00038304736 -0.0034705962 0.025585113 0.0064030373 -0.014143044 0.0346951
0.00046332442 -0.0021851778 -0.050582137 -0.057977926 -0.0400096 -0.033421103 0.0017838094 -0.0019629034
-0.028952887 -0.03167534 -0.003263944 0.02666185 -0.011370768 0.031221354 -0.020895813 0.009051576
0.0017525022 0.002284223 -0.0049587586 -0.023243014 0.04433772 0.0006692131 0.0025537112 -0.002181201
0.013495653 0.0179098 0.01722128 0.007927546 0.05609007 -0.035410374 -0.018061412 0.00019586574
-0.00033759064 -0.005453946 0.015785128 0.038977336 -0.0008050959 -0.037814844 0.0010517515 0.0021228278
0.0027381626 0.044984892 -0.000976845 -0.00036144129 -0.025814015 0.036787912 -0.00094358524 0.008231052
0.0017220112 -0.002917785 -0.0014878963 -0.0026687952 0.040433623 -0.03578552 0.002885348 0.032149218
-0.0010260625 0.0018806546 0.021673983 0.016803995 0.0051156594 0.006839916 0.00048500244 0.0030596834
0.023792328 -0.034900937 -0.0026514735 -0.025107937 -0.0013696043 -0.001013023 0.00083734246 -0.017287541
-0.0061513036 0.01162069 0.032671668 -0.026757523 -0.04138856 0.0027917135 0.04147601 0.005041236
0.0017153954 -0.002485223 -0.016937347 -0.055696364 -0.0016825082 -0.0042107343 0.005018362 0.021289567
0.0007825497 -0.0006179603 -0.0022219666 0.00095359545 0.016917987 -0.009669645 0.0021201894 0.022216648
-0.04779894 -0.020640787 -0.027366873 -0.008644263 0.013680599 0.00044346377 0.024165224 0.0019728176
-0.00956725 -0.002366179 -0.011583489 0.0022151337 -0.017085733 -7.1694274e-05 0.0055231387 -0.02802119
-0.02616113 0.00090051076 -4.68917e-06 0.014878043 0.00080163276 -0.0007077905
