models/3layer_cnn_models/AAAC.pt (torch_old, 409808 bytes, 10 tensors)

conv1.weight f4 [44, 1, 8, 4]
00000000: 6bd5 323d e687 e1bd 46c8 0f3e 3156 6d3d
00000010: 22db d2bd d248 8abc 9a97 083d 2e60 563d
00000020: 5b04 163e 1f23 c03d 94f6 133e 51e6 69bd
00000030: 92cd 8dbd ebc0 8cbb 86a8 423c 9315 64bd
00000040: 9371 fdbc c394 d03d a7b7 4abd c5d7 4ebd
00000050: 5e33 22bc b949 e7bd 2412 35be 73ec a93d
00000060: 9de9 4a3e cf93 00be 2d1f 183e 376c 1bbe
00000070: ad39 2a3d e6a7 403e b1d8 7fbc 5060 bb3c
00000080: bb40 80bd ba93 9f3d 777e 663d 320e ccbd
00000090: 0062 b9bd 56b5 ac3d 1ce9 933b c8a1 1a3c
000000a0: 625d 44bc 2646 c9bd 2953 ecbd a947 8abd
000000b0: e33b 88bd 165f cebd bbc0 bc3d 5b41 bd3b
000000c0: 8245 073e 86e4 2fbc c69c de3c 824e e5bd
000000d0: a070 153e 2ea2 573d 71b0 2dbe 0174 e63d
000000e0: 8841 bdbd 4f09 053e 53e2 72bd 7eef 33be
000000f0: ad50 393e 4892 71bd e9a0 17bd 06a9 d13b
00000100: 2320 3a3d 4d03 df3d 4033 edbd 17a8 2dbd
00000110: d8f7 8abd e00d 02be 00e0 553d a1c9 0dbe
00000120: 34aa 03be 3769 afbc 910a 403d c74f 863d
00000130: 9729 2dbe d235 1e3e 0d63 04be 8e26 e33a
00000140: 022f 0e3e 80b7 dcbd f55a 7b3d 3d0c 263e
00000150: 600b 68bd 19b2 46bd 8389 4f3c e63c 20be
00000160: 642f 2c3e 7759 a93d 0556 8b3d 8e4c 033e
00000170: 3536 e2bd db47 f73d 2be8 d13d 2fbc 843d
00000180: f764 a8bd a5e3 c03d 4edf b1bd bd59 1b3e
00000190: 842b 1c3e 2d8e 363d f86b dabd 4deb d1bd
000001a0: 0db4 db3d 95fe 25be fff9 23be 41f9 aabd
000001b0: ffc4 debc ff45 b8bd 80fa 09be cdbd cb3d
000001c0: fdfb 29be ab07 a93d 3a46 54bd 9f80 e13d
000001d0: c146 4a3d 8001 a83d fba1 85bd b524 1bbe
000001e0: 536d 8f3d 939a 4d3d cb40 e13d 0da7 38be
000001f0: da91 fc3d 1a11 bebd a3f7 a4bc 802a cabc
00000200: a303 243d fa80 a43d 187a 9e3c 68d2 52bd
00000210: eb9e 0bbe b452 be3c a4d1 633d b5d4 17be
00000220: 9ffa 3abc f67f f3ba 1f7c 87bd b002 1abd
00000230: 2265 0dbd 0243 f3bd 16bc e5bd fcb3 c23d
00000240: 950b 42be 4c83 14be 09ac 53bd f339 b73d
00000250: 8e8f 233e a3a4 85bd edbf b8bc ec9e 1d3e
00000260: 6e25 b83d fa1f 003d d57d 163d b5da 07bd
00000270: e88d 823d a9a4 18be a87a f8bc 12fb babd
00000280: fba1 64bd 8a34 e2bd 0d3f 1d3e 6819 10be
00000290: c4c3 95bb 3e52 9dbd 369c 0ebe 03e5 a83c
000002a0: 095e 073e 1814 f4bd a6ac 823d c621 693d
000002b0: 04fa e7bd 7caa 533d 74e0 213e 6111 213e
000002c0: 2e59 22be b3ec 333d 81d3 26bb a28f d0bd
000002d0: ce55 b03d 0a20 a1bc d69c b13d 9765 3bbe
000002e0: c16c 153e 7e75 423d b751 173e f6fe 0abd
000002f0: ce70 94bc 0def 17be 624b 1bbd 71fc df3d
00000300: 7647 38bd 480e e4bc 4805 8dbd 1459 bcbd
00000310: fd20 713d c3d7 16be 448e 1d3e eee6 953c
00000320: a4ce 50bd 58f5 ffbd 3360 d2bd 4845 d93c
00000330: f5d2 0cbe 9961 7cbd d323 c4bd 78bc a7bd
00000340: 9c37 883d 7cc8 febd 48ba 6fbe 483d b2bd
00000350: d913 0f3e 0946 8ebc 20b1 0abd adb4 443b
00000360: 2954 56bc 67b6 003e 6646 09be 9b29 d23d
00000370: 9d91 9ebb 623f 203d 2a4e 86bc 736a 22be
00000380: 073d 123d 3d49 bebd 4f21 c13d a0ca 023e
00000390: 4e19 09be 3250 ac3c 0acd b7bc 0609 a03d
000003a0: f533 fcbd b0ca cc3d cb7d 273e b145 37be
000003b0: 2737 103e 1dc9 9cbd 5f13 d83d 493c 053e
000003c0: 3326 e4bd 8274 35b9 db6f ebbd 80cb c03c
000003d0: f9a9 fe3d 243c bcbb 016c f7bd 4069 21bd
000003e0: 9ccb 4bbd 974b 8a3b a0c3 25be fc5c 02be
000003f0: 1b22 aebd e72e 363d 90ae f7bd be3f ecbd
0.043660562 -0.11012249 0.14041242 0.057943527 -0.102957025 -0.016880427 0.033347704 0.052337818
0.14650099 0.09381699 0.14449531 -0.057104412 -0.06923975 -0.0042954586 0.011880999 -0.055684637
-0.030937945 0.10184624 -0.04949155 -0.050498743 -0.009899942 -0.11293358 -0.17682701 0.08297052
0.19815679 -0.12556385 0.14855643 -0.15178 0.04155891 0.18814048 -0.015615628 0.022873074
-0.06262346 0.077918485 0.05627295 -0.09963645 -0.09051895 0.084330246 0.004513873 0.009437986
-0.011985155 -0.09827833 -0.11539299 -0.06751949 -0.066520475 -0.1007673 0.09216448 0.0057756132
0.13210109 -0.010735637 0.027174365 -0.11196615 0.14593744 0.0526449 -0.16961838 0.11252595
-0.09241015 0.12991832 -0.05929787 -0.17571828 0.18097182 -0.058977395 -0.03701869 0.006398323
0.045440804 0.108893014 -0.11582041 -0.04239663 -0.06785554 -0.12700605 0.052215576 -0.13846447
-0.12857896 -0.021412475 0.046885077 0.06558185 -0.16910397 0.15450218 -0.1292841 0.0017330216
0.1388512 -0.10777187 0.06136604 0.16215606 -0.056651473 -0.04850969 0.012667063 -0.15648231
0.16814953 0.08269017 0.06803516 0.12822172 -0.110454954 0.12074252 0.10249361 0.06481206
-0.082223825 0.0941842 -0.0868517 0.15170951 0.15250975 0.044569183 -0.10665125 -0.10249958
0.10727701 -0.16210397 -0.16013335 -0.08348323 -0.027193544 -0.08997726 -0.13474464 0.09948311
-0.16600032 0.08253416 -0.051824786 0.11010861 0.049383882 0.08203411 -0.06525036 -0.15150721
0.07003274 0.05019624 0.109986864 -0.18032475 0.123325065 -0.092806056 -0.020137614 -0.024678469
0.04004253 0.08032413 0.019345328 -0.05147019 -0.13634841 0.023232795 0.05561985 -0.14827235
-0.011412292 -0.0018577564 -0.06615471 -0.03760022 -0.034520276 -0.11878015 -0.11217515 0.095069855
-0.1894973 -0.14503211 -0.051677737 0.089466 0.1597273 -0.065255426 -0.022552455 0.15392655
0.08991514 0.031280495 0.036741097 -0.03316756 0.06374723 -0.14906563 -0.030331925 -0.09129919
-0.05581854 -0.11045177 0.15356083 -0.14072192 -0.004570456 -0.07681702 -0.13926777 0.020617014
0.13219465 -0.11917895 0.06380586 0.056916974 -0.113269836 0.05167626 0.15808278 0.15729286
-0.15854332 0.043926906 -0.0025455656 -0.10183646 0.08610116 -0.019668598 0.08672492 -0.18300472
0.14592268 0.04747533 0.14777265 -0.033934556 -0.018120196 -0.14837284 -0.037913688 0.10936821
-0.044990025 -0.027838841 -0.06885773 -0.09196678 0.05886935 -0.14730744 0.15386301 0.018298592
-0.050978318 -0.124979675 -0.10272255 0.026522294 -0.13752349 -0.061616514 -0.095771454 -0.081902444
0.06651232 -0.12440583 -0.23410904 -0.08703095 0.13972415 -0.01736738 -0.033860326 0.0030014918
-0.013081589 0.12569581 -0.13405761 0.10261842 -0.004839136 0.039122947 -0.016394693 -0.1586092
0.03570273 -0.09291313 0.09430181 0.12772608 -0.13388559 0.021034334 -0.022436637 0.07814221
-0.123145975 0.09999597 0.1635658 -0.17897679 0.14083539 -0.07655547 0.1055057 0.13011278
-0.111400984 -0.00017304908 -0.11495944 0.023534536 0.124347635 -0.005744474 -0.12081147 -0.039407015
-0.049754724 0.004220437 -0.16187906 -0.12730783 -0.08502599 0.044478323 -0.12093842 -0.11535595

batch1.weight f4 [44]
00000000: f9b7 803f 2784 7c3f 12c3 7c3f 9040 7b3f
00000010: 79e7 813f 699f 803f e9c6 773f b18b 863f
00000020: 455e 7a3f 17ae 7f3f 6866 803f 2a50 7a3f
00000030: bc71 733f ca59 7c3f 58f1 7e3f 3911 803f
00000040: 6b6d 793f c91e 853f 43c3 793f 2914 7f3f
00000050: 814c 813f 18b2 7d3f b234 773f 610e 803f
00000060: f50d 803f cb71 7e3f 7eb9 813f 9e65 7b3f
00000070: 4882 783f ed9b 7d3f 73b6 803f 6c15 7e3f
00000080: b416 803f 8be8 7d3f 372b 7c3f 69ce 7d3f
00000090: c3d7 803f 8e70 883f 7db1 793f dcd1 7e3f
000000a0: 666b 7b3f c803 7d3f 719b 7e3f 5761 7a3f
1.0056144 0.9863915 0.98735154 0.9814539 1.0148765 1.0048648 0.9678789 1.051138
0.97800094 0.99875015 1.0031252 0.9777857 0.9509542 0.9857451 0.9958701 1.0005256
0.97432584 1.040002 0.9756357 0.99640137 1.0101472 0.99099874 0.9656478 1.0004388
1.0004259 0.99392384 1.0134733 0.9820193 0.97073793 0.9906605 1.0055679 0.9925144
1.0006928 0.9918296 0.9850344 0.9914308 1.0065845 1.0659349 0.9753645 0.9953897
0.9821075 0.98833895 0.99455935 0.9780478

batch1.bias f4 [44]
00000000: b1f4 cbbc b512 b7bc 7344 d3bc e2a9 18bb
00000010: 9374 72bc 6a4a a3bc e96a 89ba 69fc 323b
00000020: f63b 70bd b9ae aebc 1569 c5bc c425 aabc
00000030: 93ef c1bd b679 67bb ed7d 0bbd 7060 cbbc
00000040: 01e9 a4bc 200b 00bd 22a7 5dbc c283 a9bc
00000050: b3e4 8fbd de16 b9bc d14a 27bd 30aa abbc
00000060: 487e 21bd 13e9 acbc 4715 753b 04cb 02bd
00000070: ed4d 5cbd 4f83 bdbc 9ca1 f43b 8c91 a03a
00000080: 6630 1ebd e265 06bd 46d3 cabc 5141 94bb
00000090: 346b 59bb 7a0b 253c 2c23 07bd 6c63 0d3b
000000a0: e3de f5bc 9af2 5dbd 9b39 34bd 2476 8cbd
-0.024896951 -0.022347787 -0.025789475 -0.0023294617 -0.014798301 -0.019932944 -0.0010484132 0.0027311093
-0.058650933 -0.021323549 -0.024097959 -0.020769961 -0.09469523 -0.0035320348 -0.03405564 -0.024826258
-0.020130636 -0.03126061 -0.013528617 -0.02069271 -0.07026043 -0.022593912 -0.040842835 -0.020955175
-0.03942707 -0.021107232 0.0037396715 -0.031931892 -0.053785253 -0.023133902 0.0074655544 0.0012250408
-0.038620375 -0.032812007 -0.024758946 -0.004524388 -0.003317547 0.010073537 -0.032992527 0.0021574153
-0.030013507 -0.05418644 -0.04400025 -0.06858471

conv2.weight f4 [75, 44, 6]
00000000: b194 bfbc 76b9 1fbd 6fdd 03bd 3bbd 8f3c
00000010: e405 6dbd 4d78 98bc 3f64 3dbd d3f4 92bc
00000020: 91a5 afbc 0a01 50bd f337 80bd 8ef7 5ebc
00000030: 2b37 e83c c1f9 9ebc f0a1 5abd 236f 643d
00000040: d488 443d 6fce cf3c ac72 81bc 1843 413d
00000050: d154 293d 4e02 aabc 6d23 63bd e45c cfbc
00000060: 012b b7bd 02e2 36bd ab1d 7c3c e5d4 0fbd
00000070: 4df1 793d 58a4 883d ea42 043d 967f 18bd
00000080: 1e19 a93c fccc 90bc ea8b 163d 2f0e e4bc
00000090: 9bc9 a9bd b41d 0a3d 3710 25bd 243c 49bc
000000a0: b44b 963c 8809 733b 0b28 2f3d 96f6 d9bb
000000b0: f050 51bd 357b 5ebd 9184 2c3d 78c2 9fba
000000c0: 9062 8bbd ceee bb3c 83ae dbbc 71d0 b13c
000000d0: 3740 1bbd c437 523d 9e63 503c cb0b 9dbd
000000e0: 523d 243d e693 a6bc 57f3 413c 7e63 063c
000000f0: 111e 6e3d 8b4d d3bc 5dfb 1fbd 7180 583c
00000100: 02ec dfbb 2401 e83b 86a6 943c 6921 48bd
00000110: d2d7 9c3c d802 323c 7b3f 273d bfcf 6abd
00000120: 4623 033d 2f2c 97bb 90ca bbbc d67b 173d
00000130: 73db acbb 2bb0 15bd 02dd cf3c 4c81 89b9
00000140: 70dc 1a3d 567b 79ba bcc5 85bc b409 99bd
00000150: 6fe4 8c3c 8583 9b3c ea97 833c 9fb4 84bc
00000160: 9913 30bd 23da 513d bb03 7cbd 5490 f2bc
00000170: 068f 3c3d 0728 69bd ec7e 60bb 2cfd cfbc
00000180: 11fb e63c da44 50bd b2ff 2b3d fd6b 9cbc
00000190: 1b9c 94bd 7f64 0fbd 071a 3b3c 20f0 99bd
000001a0: 7ebb 0e3d 79a6 2bbd f19b 813c 26a7 f63c
000001b0: cd54 f03c 12f9 b5bb 7065 14bd 9170 07bd
000001c0: 99ab aabc 702c c9bc 4a48 263d 8ef3 bc3a
000001d0: 75b7 a83c 9c6b cebc e0f4 aebc 0367 36bd
000001e0: 6000 97bd 194e e43c b783 b63c bdde 563c
000001f0: 3820 593d 426c 6fbd 047a b23c 7322 36bd
00000200: 2c3a 35bb 74db 173d 402f 8c3b 5992 a43c
00000210: 81c5 13bb 83e2 aebc c00e bcbd 6e7d abbc
00000220: b24b 00bd d739 2bbd 7c99 503d 2e45 c23c
00000230: 3867 593b 1172 03bd 873e c53c 2b97 23bd
00000240: a185 433b 325c a03c 915f 663c f679 a43c
00000250: dcaa 99bd b2ae 51bd 7672 8939 4da5 24bd
00000260: 2164 b6bd 2a50 b6bd 5684 48bd e722 213d
00000270: ff57 d5bb 53f0 613d f64f 15bd 7f22 193d
00000280: 1cf0 993d dc16 cdbc 6c75 d6bc 58b5 52bc
00000290: 6110 663d 95e2 9d3c f684 fa3c efcf b63c
000002a0: 4b9c 2dbc 2347 2fbd be9e 483c f5f4 023d
000002b0: 5591 383d 5ca6 333d 03b3 e7bc 69b0 eabc
000002c0: b3e4 343d 382d 103d bff1 1bbd 831a 1bbd
000002d0: 2938 c03c 52b2 f63b 1f4a 563d 9496 72bc
000002e0: ea48 193d 666c 87bc e391 02bc b034 d13c
000002f0: fa42 6fbd 6e9b 573d 6ee5 b13c fe4b 083d
00000300: 0850 2e3d eeec 6f3c d671 f6bc 546f b13c
00000310: 14cf d5bc 8031 943c 9c31 563c 0c4c c53b
00000320: 4c7d 4b3c f0c3 b03c f99a 833d 5c1e 963c
00000330: fef8 043d cec7 56bd 1140 483d bd87 a33c
00000340: ae20 373d 94c5 853c 17cc 52bc 30ed f93c
00000350: 8cc5 543c 0386 3fbd eaa0 8ebd e084 123d
00000360: 3e39 8c3c f0b3 2a3d 7c96 ddbc 63b2 cb3c
00000370: 53f9 563a 6562 2fbd 24e2 a6bc a941 513c
00000380: cc5f 8cbd a5b8 c53c 36cf 4d3d 6810 21bd
00000390: 40f1 3a3c 7205 93bc 4186 253d a1a3 5cbd
000003a0: ea7c afbb df92 933d b299 7c3d 4b02 483d
000003b0: 1293 39bd 9cde fabc e0e5 d5bc ec46 b43c
000003c0: 9e96 5d3d 149c 21bd cbf6 debc e320 863d
000003d0: 7cde e6bc 1fac 983d 6ff1 43bd 8e36 8dbc
000003e0: 443e 80bc 10d1 183d fa4e 82bc c433 383c
000003f0: bcbb 893c 8be6 4a3c 237d c23b 95ba 363d
-0.023386331 -0.03899523 -0.032193597 0.017546287 -0.057866946 -0.018612051 -0.04623818 -0.017939007
-0.021441253 -0.05078224 -0.062606715 -0.013608826 0.028346619 -0.019406201 -0.053377092 0.05577005
0.047982052 0.02536699 -0.01580175 0.047183126 0.041340653 -0.020753052 -0.055453707 -0.025312848
-0.08943749 -0.04464913 0.015387933 -0.03511514 0.061021138 0.06671971 0.032290377 -0.03723105
0.02064186 -0.01767587 0.036754526 -0.027838795 -0.08290406 0.033719733 -0.040298667 -0.012282405
0.018346645 0.0037084538 0.042762797 -0.00665171 -0.05110258 -0.054316718 0.042118613 -0.0012188694
-0.06805909 0.02294102 -0.026816612 0.021705838 -0.037903037 0.051322713 0.012719063 -0.07668265
0.040097542 -0.020334195 0.011837802 0.008202432 0.058134142 -0.025793811 -0.039058078 0.013214217
-0.0068335542 0.007080214 0.01814581 -0.048859987 0.01914588 0.010864936 0.040832024 -0.05732703
0.03201606 -0.0046134214 -0.022923738 0.036983334 -0.005275184 -0.03654496 0.02537394 -0.0002622701
0.03780788 -0.00095169747 -0.016329639 -0.07472554 0.01719877 0.018983612 0.01606365 -0.016199408
-0.04298744 0.051233422 -0.061526995 -0.029609837 0.046034835 -0.05692294 -0.0034255339 -0.025389276
0.02819589 -0.050846912 0.041991897 -0.019094462 -0.07256337 -0.03500795 0.01141978 -0.07516503
0.034846775 -0.041906808 0.015821429 0.030109 0.029337311 -0.005553373 -0.03622955 -0.033066336
-0.020833777 -0.024557322 0.040596284 0.0014415847 0.020595292 -0.025197797 -0.021357 -0.044531833
-0.073731184 0.027869271 0.022279603 0.013114628 0.05300924 -0.058452852 0.021786697 -0.044466447
-0.0027653081 0.03707452 0.0042780936 0.020089315 -0.0022548141 -0.021348244 -0.09182501 -0.020933833
-0.03132219 -0.041803207 0.050927624 0.023714628 0.0033173095 -0.032091204 0.024077667 -0.039939087
0.0029834288 0.019575212 0.014060871 0.020077687 -0.07503292 -0.051191993 0.00026215956 -0.040196706
-0.08905817 -0.08902009 -0.04895433 0.039339926 -0.006510734 0.05516083 -0.03645321 0.037386414
0.075165 -0.025035314 -0.026179038 -0.0128606185 0.056167964 0.019273082 0.030580979 0.022315947
-0.010596345 -0.04279245 0.012244878 0.03197189 0.045060474 0.043859825 -0.028283602 -0.028648572
0.044163417 0.035199374 -0.038072344 -0.03786708 0.02346428 0.0075285817 0.05231678 -0.014806408
0.037423052 -0.01653118 -0.007969352 0.025537819 -0.058413483 0.052638464 0.021715846 0.033275597
0.042556792 0.014643891 -0.030083578 0.02165953 -0.02609972 0.01809001 0.013073351 0.0060210284
0.01242001 0.021577805 0.06426043 0.018325023 0.03246402 -0.052436642 0.048889223 0.019962186
0.0447089 0.016329564 -0.012866042 0.030508608 0.012986552 -0.046758663 -0.06964286 0.03577125
0.017117139 0.041675508 -0.027049296 0.024865335 0.00082006044 -0.042818446 -0.020371504 0.012772002
-0.06854209 0.024135897 0.05024644 -0.039322287 0.011410058 -0.017946932 0.040411238 -0.053866986
-0.005355467 0.07205748 0.061670013 0.04883031 -0.045306273 -0.030623727 -0.02611059 0.022006474
0.054098718 -0.03945549 -0.02721729 0.065492414 -0.02818226 0.074547045 -0.04783767 -0.017237928
-0.01565469 0.037308753 -0.0159068 0.011242811 0.016813152 0.012384067 0.0059353276 0.044611532

conv3.weight f4 [3, 75, 1]
00000000: 8bf6 d9bd e4eb 8cbc aea6 2f3d 2b5f 70bd
00000010: b723 a5bc 2383 b63d ae7b be3b 3dc0 8f3d
00000020: 28e9 98bd 0a70 4abd b6e7 a83d aa08 873d
00000030: 4da8 febb 41ad 1bbe f184 733d 0b20 83bd
00000040: 098f d23c bee6 e1bd bb52 aabd bee8 8cbd
00000050: 8b6f 533d a129 0a3e 3f8b 79bc 8ba9 bebc
00000060: 6b8a 0cbd 600e 3d3d bfbe 5fbd fc4f c33d
00000070: 0ebb b13c cf96 bf3d f208 cdbd 5538 07bd
00000080: 0598 f33c 8385 a5bd cd2a b53d 00de 98bd
00000090: 21e5 a3bd ad84 d9bb 854f 873d f7a2 d33b
000000a0: 986a 59bd c568 07bc e3a6 c83d 1d5e 92bd
000000b0: 2179 b6bc 2407 9cbc 44b0 48bd 1461 d0bd
000000c0: af65 033d acd2 493d 62cc 833c 2c5c c73c
000000d0: 0cf2 cfbd acfc f7bd 6bfb abbd e731 9a3c
000000e0: 9a47 183d 8741 4a3c abe6 8f3d 9c09 e2bd
000000f0: a8eb c6bb c4c9 0b3d eeb4 703d 3b09 083e
00000100: 4be1 85bd 60f3 843d d67e 8d3d 720c 1abd
00000110: 8852 81bd c269 1fbd fdf0 1cbd 149f ff3b
00000120: 6974 14bd 3654 d43b 6d1b 933d 3e62 50bd
00000130: bf2d a0bd 6132 c03d 5665 cdbd 817f 7f3c
00000140: 23d3 afbd 9715 793d 49f9 4b3d fb44 043d
00000150: 5c1d 9f3c af9a d2bd cc31 323b af3e 8fbd
00000160: c8e2 633d 81f3 8c3d 0bd4 d53d 69ff 91bd
00000170: 4658 85bb 11c0 34bd 9b09 c93c 19f2 5abd
00000180: 0393 54bd 0975 e63c 039b af3d 0d6e 553c
00000190: 3e8d c5bd bc8e ddbd e9c2 da3d bd10 883c
000001a0: acde 073e 6d74 ee3d 8f0e 323d 81c8 cc3d
000001b0: 0dfa 52bd e452 5f3d df3d 43bd a4f6 863d
000001c0: 7ea1 9fbc 932f 1d3d 59af cdbd f6fb 1e3c
000001d0: 5da0 bc3d d060 82bd 06a1 b8bd 3e58 37bd
000001e0: 925c e9bd 5cca e73c d969 c43c c3d7 9a3d
000001f0: bf72 7a3d 5dcf aebd 5208 e8bd ad27 a3bd
00000200: ad53 be3d 9056 94bd d435 e5bd c01d ec3c
00000210: 7b3e 79bd ed95 cf3d 3850 3a3d 7812 553d
00000220: 7e30 62bd acd8 6b3d aab3 48bc 1549 b93d
00000230: 7682 583d 76ee 3b3d 4fa3 23bd 13b2 b93d
00000240: c2c5 98bd f4ab 513d c52f 2dbd 07d4 9cbd
00000250: 89aa 7e3d fa2e c8bd c9ac 3f3c b914 44bd
00000260: 9961 293d 9c60 7f3d f870 a43d 406e 333d
00000270: 9327 c2bd e5a8 3cbd c0eb 82bb 650f cb3d
00000280: da55 193c cf19 ca3d 3964 38bd 00d3 5f3d
00000290: 43c4 93bd dfaf 88bd cb4e d33d 95b1 af3d
000002a0: 894d 1c3d a893 a13d ca4d 5cbd 8d7f f9bc
000002b0: bf51 e5bc 0d7b a53d 701e ea3d e9ab 06bd
000002c0: 87c6 623d 8a34 89bd c331 52b9 ed6b d1bc
000002d0: eeb2 513c a650 01be e64e 713d 9b07 b2bd
000002e0: 1d15 a2bd afb8 afbc c2dc 68bd 2147 d9bd
000002f0: a962 bbbd fca2 c73c ebd2 d6bc 9220 993d
00000300: e1e7 7abd c246 b0bc 1035 1ebe f48c d5bb
00000310: 8c80 cabc 556d 40be 7a6e 773c 7482 9bbc
00000320: a74a b1bd c659 163d 92b5 b83d 1ec5 98bd
00000330: 3c5b 9dbd 9e8b 9fbc 7301 c03d 6919 3f3d
00000340: e2e2 033d 4dd3 a0bc 0e51 76bd d043 d6bd
00000350: 41ec 133d 2418 cc3d 3105 093d 831c 8f3d
00000360: 4a53 9c3d 222b b6b9 8b37 9a3d 56ce a9bd
00000370: b6b6 cb3c 550a d5bd 4fb3 3fbd 9e4d 11bd
00000380: ad43 963d
-0.106427275 -0.017202325 0.042883568 -0.05868451 -0.020158632 0.08911731 0.0058130836 0.070190884
-0.07466346 -0.049423255 0.0824732 0.065934494 -0.007771528 -0.1520281 0.059452955 -0.06402596
0.02570297 -0.11030339 -0.08316561 -0.068803295 0.051620048 0.13492443 -0.015230953 -0.023274204
-0.034311693 0.046156287 -0.05462527 0.0953674 0.02169564 0.09354936 -0.10011472 -0.033012707
0.029735574 -0.08082106 0.08846054 -0.07464218 -0.08002687 -0.0066381306 0.06606964 0.006458636
-0.05308017 -0.008264725 0.09797456 -0.07146857 -0.022274556 -0.019046374 -0.048996225 -0.10174766
0.032079395 0.049273178 0.016088668 0.024335943 -0.10153589 -0.1210874 -0.083975635 0.018822623
0.03717766 0.0123447245 0.07026418 -0.11036989 -0.006070573 0.034127966 0.058766298 0.13284771
-0.06537112 0.064917326 0.06908958 -0.037609525 -0.0631457 -0.038919218 -0.03831576 0.007800946
-0.03624383 0.0064797653 0.071829654 -0.05087494 -0.078212254 0.09384609 -0.10029094 0.015594364
-0.08585193 0.060811605 0.049798284 0.032292347 0.01942318 -0.1028341 0.0027190326 -0.06994378
0.055636197 0.06882382 0.104408346 -0.07128794 -0.004069361 -0.04412848 0.024540713 -0.05345354
-0.051898014 0.028131979 0.08574488 0.013026726 -0.096460804 -0.1081824 0.106817074 0.016609544
0.13268536 0.116433 0.043470915 0.099991806 -0.051508 0.05452241 -0.047666427 0.06590012
-0.019486185 0.03837545 -0.100432105 0.009703627 0.09210274 -0.06366122 -0.09015088 -0.04476189
-0.113946095 0.028294735 0.023976253 0.075606845 0.061144587 -0.08535645 -0.11329712 -0.07966552
0.09293304 -0.07243073 -0.111919075 0.02882278 -0.0608506 0.10136018 0.04548666 0.052019566
-0.055222027 0.05757968 -0.0122498665 0.090471424 0.052858792 0.04588171 -0.039950665 0.09067168
-0.07459594 0.051189378 -0.042281885 -0.076576285 0.062174354 -0.09774585 0.01169891 -0.047871325
0.041352842 0.062347993 0.080293596 0.043806314 -0.094802044 -0.046059508 -0.0039953887 0.09915046
0.0093588475 0.09868204 -0.045017455 0.054644585 -0.07215168 -0.0667417 0.10317763 0.08578793
0.03815988 0.07889491 -0.053785123 -0.030456329 -0.027993081 0.08080111 0.11431587 -0.03287879
0.05536511 -0.06699474 -0.00020045698 -0.025564158 0.012799008 -0.12628421 0.058913134 -0.08692857
-0.07914183 -0.021450369 -0.056851156 -0.1060927 -0.09149677 0.02436971 -0.02622362 0.074769154
-0.061256293 -0.021518115 -0.15449929 -0.006517047 -0.024719499 -0.18791707 0.015102023 -0.018983103
-0.08656817 0.03670671 0.09019007 -0.07459472 -0.07683417 -0.019475754 0.093752764 0.046655092
0.032198794 -0.019632006 -0.060135894 -0.10462153 0.03611398 0.09965542 0.033452217 0.0698786
0.07633074 -0.00034745882 0.07530125 -0.082913086 0.024867397 -0.10402361 -0.04680186 -0.035474412
0.07337127

dense1.weight f4 [425, 126]
00000000: 0788 313d 38bd cfbc 0752 debb 22c7 89bd
00000010: cbbf afbd 1509 1fbd 0223 483b fb34 6b3d
00000020: a65f 0cbd 28a4 edbc 8941 a13d 095a 623d
00000030: 95ee 81bd 01c8 a73c 62f6 103d e48a a4bd
00000040: 847e 3fbd 8e1f c7bc 115b abbc dd3a e5bc
00000050: 1422 e23c 3fba 0e3d 065a be3c 666e b9bc
00000060: a3dc 133d 345f aebc ef81 6c3d 5517 573d
00000070: 743c 92bc b1a3 97bc 0203 39bd 0774 51bc
00000080: 0df8 46bd 5738 713d f0c0 7f3c 0a7e 89bd
00000090: 7894 17bd ea2d 993d ce3e 8a3c 18ca c2bd
000000a0: b515 8ebd 7b54 bcbc d2af 4d3b d88b f6bc
000000b0: 2bd1 c93d 94c0 78bd a1b9 153d 01cd 65bc
000000c0: bf76 45bd d29b 03bd 6980 8abd e1be 033d
000000d0: 3d56 883d 20b4 853d c957 88bd f118 963d
000000e0: 2885 14bc e0a6 a0bb c0a3 7a3d c5d1 5dbd
000000f0: 11ef 14bd ae2d 373d 1e1b 9dbc bea0 a93d
00000100: 47e4 993d b1e1 2e3d db8f 8a3d 922e dfbb
00000110: 39bd 043d 6ebf 853d 414a 6e3d 3381 d03d
00000120: d2e6 ec3d 2ebd 97bc d2fb 14bd d554 0dbd
00000130: 7a5c c33d 3645 6b3d 8c8f e5bb 092a 233d
00000140: e9bf 28bd 5c08 4e3d 5de4 0f3d 8c63 b03d
00000150: fbbb 9bbd 9d5a 753c b3d0 393d 9359 6abd
00000160: 75ce b93d ed43 a93d b849 343d 81a2 6d3c
00000170: e89d 8f3d 3153 b33d 9e8c 80bd 9bf3 963d
00000180: ff96 3dbd e67d 9f3c a308 36bb 3fc4 5fbc
00000190: 172d f1bc 4d16 46bd e73e 83bd b209 7abd
000001a0: 4330 b03d 2352 633d 3cb9 4dbc c753 9c3c
000001b0: d88b fc3c 2b7c bdbd 688a 9abc d51d 993d
000001c0: 4476 b53c e6b7 59bd 95ad be3c ddf9 53bd
000001d0: a55b 41bb b828 303d 1374 ebbc 19cb 1f3d
000001e0: aee0 a3bd d263 97bc b4bd 72bd d193 a2bd
000001f0: f3b8 9e3d ff78 8cbd 78c0 8b3d 09cf 54bd
00000200: b41d 52bd ed42 883d 338d 043d 9818 923d
00000210: e69c 6c3d 2cde 3d3b 7c5b 3dbd 2743 e63c
00000220: 17d2 b7bd efb5 9ebd 6023 9a3d 9898 98bc
00000230: 94fa 4abd 9123 833c d85d dbbd de4f 36bd
00000240: 382f 863d 4111 92bd 2617 463d 8601 6bba
00000250: bc17 7f3d f48f 913c 5be0 c5bc 8c0a 1cbc
00000260: 2ac2 79bd bfd7 46bd cc83 94bd b423 5bbc
00000270: fe8d 04bd 4b90 ae3d 8346 2bbc b5ab b4bc
00000280: 1ca3 a13d 6e22 903d 92ce 27bd c668 26bd
00000290: e5f1 253d f4c2 aabc 613f 3f3d 221e bebd
000002a0: 665b 5a3d 8ec2 8ebd 2bfb 9fbd 67c3 ad3d
000002b0: 831f bbbc daf1 d6bc 135d 80bd 8cee 5b3c
000002c0: 00d8 42bd 54d5 693d 558b 203d 5065 b2bd
000002d0: 0ec7 bf3c 35c3 9ebd 06f0 0dbd b7f4 dbbc
000002e0: cf15 823d 02f0 7ebd 6067 583b 611e fabb
000002f0: a5c5 36bc da97 98bb 7d11 393d e32b 8abd
00000300: 3bfa 87bd 8f1b c43c 958b 4c3a deaa dbbc
00000310: d5ee 85bd 25cd 8bbd 376d 5f3d 6eb1 50bd
00000320: ee07 bdbd 4320 d5bd 2e0a 1cbd a25c 2d3d
00000330: d39a 063d 80bd 303d 98e1 80bb 0415 6a3d
00000340: f4e6 03bd 425d 013c 7fd9 5abb adcb 8dbd
00000350: f416 fc3c a62b 96bd a945 b0bd 64b9 d4bc
00000360: 1ce2 7d3c 6838 dd3c c7a1 8dbd 32c0 823d
00000370: 4f3e 99ba 5934 843d 4893 eebc faf0 a3bd
00000380: 0975 6dbd 30b6 ea3c bdc8 743c 9e0d 8d3d
00000390: f343 3b3d 2d9a 363d 74a7 9fbd 94cb a4bc
000003a0: a0d4 2f3d 3e04 d03c 4ce2 68bc b17a e3bb
000003b0: 5fe8 8e3d f043 853d da6f 3c3d 0588 693d
000003c0: 1a18 af3b 7e37 21bc 98ff 02bd ed50 e3bb
000003d0: c031 b4bc 3a22 dc3c 0085 a03b 2846 a13d
000003e0: d13c 9cbd dc98 3ebd 1c2f 313d d9b6 993d
000003f0: 137b e0bc 5288 73bd 2543 20bb 312a 88bd
0.043342616 -0.025358781 -0.0067846808 -0.06727435 -0.085815035 -0.03882702 0.0030538444 0.057423573
-0.034270905 -0.02900894 0.07873828 0.055261645 -0.06344334 0.020481111 0.03539122 -0.08034304
-0.046751514 -0.024307039 -0.020917447 -0.02798217 0.02760414 0.034845587 0.023236286 -0.02263565
0.036099087 -0.02128563 0.0577411 0.052512486 -0.017851092 -0.018510671 -0.045168884 -0.012784011
-0.048576403 0.05889162 0.015609965 -0.06713493 -0.037006825 0.074794605 0.01687565 -0.095112026
-0.06937734 -0.022989502 0.0031385315 -0.03009598 0.09854349 -0.06073053 0.036553983 -0.0140259275
-0.04820895 -0.032131024 -0.067627735 0.03216446 0.06657074 0.06528497 -0.06657369 0.07328976
-0.00906495 -0.0049027056 0.06119132 -0.05415513 -0.036360804 0.044721298 -0.01917797 0.08282612
0.075142436 0.042695705 0.067657195 -0.0068109715 0.03240702 0.06530653 0.058176283 0.10180893
0.11567463 -0.018522825 -0.036372967 -0.03450473 0.09539123 0.05743905 -0.0070056375 0.03983501
-0.041198645 0.05030094 0.035129894 0.08612737 -0.07604214 0.014975217 0.045365047 -0.05721433
0.09072582 0.08264909 0.044015616 0.014504076 0.0701254 0.08756102 -0.062768206 0.07370683
-0.04628658 0.019469213 -0.0027776144 -0.013657629 -0.029440446 -0.04836111 -0.06408482 -0.061044402
0.08602955 0.055498254 -0.01255637 0.019082917 0.030828401 -0.09252199 -0.018864825 0.07476393
0.02215112 -0.053153895 0.02327613 -0.05175196 -0.0029504087 0.043007582 -0.028741872 0.03901205
-0.080018386 -0.018480215 -0.059262946 -0.0793835 0.0775012 -0.06859016 0.0682382 -0.051955257
-0.05129786 0.0665339 0.03236122 0.07133597 0.057766818 0.0028971536 -0.046229824 0.028108193
-0.08975618 -0.07749545 0.075262785 -0.01862745 -0.049555376 0.01600817 -0.10711259 -0.04450976
0.06551975 -0.07132197 0.04836192 -0.00089647656 0.062278494 0.017768838 -0.024154833 -0.009523999
-0.060976185 -0.048545595 -0.07251701 -0.0133752115 -0.032361977 0.085236154 -0.010453823 -0.022054533
0.07892439 0.07037817 -0.040968485 -0.040627263 0.04051389 -0.020844914 0.046691302 -0.09283091
0.05330982 -0.06970702 -0.07811578 0.08484536 -0.022842174 -0.02623837 -0.062677525 0.013423573
-0.047569275 0.05708821 0.039195377 -0.0871073 0.023410346 -0.077520765 -0.034652732 -0.026850088
0.06351816 -0.062240608 0.00330206 -0.007633016 -0.011155521 -0.004656774 0.045182694 -0.06746652
-0.066395245 0.023938922 0.0007802782 -0.026814874 -0.06539694 -0.068262376 0.054547515 -0.05095046
-0.09230028 -0.10406544 -0.038095646 0.04232467 0.032862496 0.04314947 -0.003933143 0.05714895
-0.032202676 0.00789577 -0.0033393798 -0.06923614 0.030772664 -0.07332544 -0.086070366 -0.025967307
0.015495803 0.027004436 -0.06915622 0.063843146 -0.0011691543 0.06455297 -0.029122964 -0.08004947
-0.05797294 0.028651327 0.014940438 0.06887363 0.0457191 0.044580627 -0.07795611 -0.020116605
0.042927384 0.025392648 -0.01421411 -0.006942116 0.06977915 0.06507099 0.046005107 0.057014484
0.0053434493 -0.0098398905 -0.031982034 -0.0069371373 -0.021996379 0.02687179 0.0048986673 0.07874709
-0.07628787 -0.046532497 0.043257818 0.075055785 -0.027402436 -0.059456177 -0.0024454084 -0.06648672

dense1.bias f4 [425]
00000000: dbe8 4cbc 7a58 41bb e97a 6a3d 3f21 f0bc
00000010: b79d 213d 573f febb 6442 5fbd 7d5f 0a3d
00000020: c97f e6bc 2025 b93c 6f6c 87bd a443 a53c
00000030: 29d7 bebc c065 a43c 4c00 3dbb b3a8 6e3c
00000040: edc4 54bc cdea 8dbc 3fd1 8bbd a618 51ba
00000050: c596 0fbd ddc5 bf3c 111e 023d fedb dbb9
00000060: 462f 463d 27b3 69bc 22a0 c5bc b186 54bc
00000070: 50ae 753d 11cc 04bd 4b66 cd3c f9c0 d23c
00000080: cebf 2abd 12d6 3cbd 653a dd3b 9634 3c3c
00000090: 9fc6 b23c 87c8 56bd 3e68 463d e09a 743d
000000a0: 81ac ba39 0be3 aa3c fdd6 d5bc e105 57bd
000000b0: f30b 3c3d 3209 3b3d 0d7b 27bb 0aa8 963c
000000c0: 9d26 9f3c ff85 3a3d 054d 78bc 7cef 013d
000000d0: e3f1 783d f74f 59bd cede 24bd fd19 a23d
000000e0: 84fe 98bb edd0 a2bc 9ea4 15bc a5f8 0cbd
000000f0: a070 a63c 7417 64bc 990e f7bc a3d8 ddbc
00000100: 1140 46bd a59a 1dbd 10a2 963d 997d cb3c
00000110: 334e 17bd 9ffe 2bbd 702f 0d3c e3f5 6e3d
00000120: c0f3 923c d9c7 703d d188 46bd 4240 473d
00000130: b92b ae3b 1962 4fbd 7d82 053d fe1e e33c
00000140: 3c59 8ebd 06a2 673d 0de4 adbc e89f c13c
00000150: 6931 78bd 36bd 1abd 39ae 5cbd a948 3b3d
00000160: 57fe 683b 8b44 0abd b3f3 0e3d 10ff 183d
00000170: 0c07 babc 2887 eb3c 7995 8f3d 93c3 463d
00000180: c64e 83bd aad3 9e3b 65f0 0bbc 57b4 75bd
00000190: 0967 643d 1cd2 363c 0b1c 893d 183c 7e3d
000001a0: c2d4 103d 0c53 b7bb c9bb 0d3d d7c9 07bd
000001b0: 0cb3 11bc f78a c9bc 3e32 a83c eefe 1dbd
000001c0: 7a29 0d3d 9b43 943c 966a 14ba aa43 84bd
000001d0: 4694 1a3d 8c84 833d 7a5c 19bb c0d0 72bc
000001e0: 2605 843d 659b 1a3d 9141 193d f0d9 4ebd
000001f0: 194c 5c3c 5f08 27bd 9e24 89bd c64c adbb
00000200: 37c9 a9bc 2305 03bd 9596 8ebb b268 223d
00000210: ffcf 103d 01ad 313d 0c1e 9fbd 8b9a 06bb
00000220: 8d9e 3cbc d8fd 91bd 942c ac3c 2994 70bd
00000230: e64a 9a3d f1e6 c8bb 6afa be3c 86bf b43b
00000240: d1e3 3c3b 1e23 7a3c 33a7 13bd 4f1a 93bc
00000250: cab9 4b3d fc64 01bd 1954 4d3c 8260 8d3c
00000260: 13a5 25bb 9a17 86bd 2862 1abd ac6d 80bd
00000270: 062a ccbc ba5a 7dbd 67ee bdbb dc49 8c3c
00000280: ec0b 9d3d 66f9 673d e325 66bd b8b5 183d
00000290: a2c0 0a3d f4f6 25bd a13d 71bd 7b57 4abd
000002a0: a355 813d 8eba 843d 69db aebc 72e9 cb3c
000002b0: 4ff2 913c e754 fe3a 521c e5bc 6ffd 213c
000002c0: 72f3 373d a851 dc3c b77f fabc de66 483d
000002d0: 366b f23c f5c7 443d 1345 24bd 18de 563d
000002e0: 307c 2fbd 35ee 223c 2f1b cc3b 0e3e cfbc
000002f0: 1a2a b23c 0f99 30bc a2a9 193d d746 42bd
00000300: 4cd6 35bd 8c92 693d 36eb 473d c5df 853d
00000310: d3db 003c 60fb 0e3d 84ef fe3c bb4e babb
00000320: 1243 a03c 2873 583c 8686 efbc 0f4c 633d
00000330: 9538 7b3b 6800 95bc a8b7 69bd 666d 6a3d
00000340: 80b2 903a 51ac b8bc ff6a f7bc 4d8d 0d3b
00000350: e117 cc3c abca debb cbc8 7cbd b510 c03b
00000360: 9110 13ba 9d07 7c3d 762c e4bb 82ec 3e3d
00000370: 787c 1cbc 1f4d 6cbd 25e7 24bb f355 5abd
00000380: 273b a53c 152c 73bc f068 4b3d 44b9 35bd
00000390: d6b0 10bc 47d4 1ebc 87b2 37bd 1a86 873c
000003a0: 4345 1cbd 26ea e63c b603 693d 8bbf 703d
000003b0: 0e5f 0b3d d22e 15bc 3ca5 293d b1e9 9ebd
000003c0: fa61 403d e0ac ed3c 3cc1 543a 8bee 233d
000003d0: f835 9dbb b7c0 01bc cbb4 503d f904 72bd
000003e0: 3e5b 97bd 5871 54bd 7756 42bd b0fe 4e3b
000003f0: 9df9 fd3c 3e05 793c 4852 ea3c a7f8 583d
-0.012506689 -0.00295022 0.057246123 -0.029312728 0.03945705 -0.0077590155 -0.054506674 0.03378247
-0.028137105 0.02260071 -0.06612479 0.020173855 -0.023295956 0.02006805 -0.0028839288 0.014566588
-0.012986404 -0.017323876 -0.0682702 -0.000797639 -0.035055894 0.023409778 0.031766955 -0.00041934842
0.048384927 -0.014263905 -0.024124209 -0.012971566 0.05998069 -0.032421175 0.025073191 0.025726782
-0.041686825 -0.04610259 0.006751346 0.011487147 0.021823226 -0.05243733 0.048439257 0.059718013
0.0003560521 0.020860216 -0.026103491 -0.05249584 0.045909833 0.045663066 -0.0025555522 0.018390674
0.019427592 0.045537945 -0.015155082 0.03172253 0.060777556 -0.053054776 -0.040251546 0.07915113
-0.0046690125 -0.019875014 -0.009133486 -0.034416813 0.020317376 -0.013921607 -0.030158328 -0.02708084
-0.048400942 -0.03847756 0.0735513 0.024840163 -0.03693981 -0.041990872 0.008617267 0.058339965
0.017938495 0.05878434 -0.048470322 0.048645265 0.0053152707 -0.050630663 0.032595146 0.02772474
-0.06950614 0.056551002 -0.021226907 0.02363582 -0.060593996 -0.0377781 -0.05387709 0.04572359
0.003555199 -0.033756774 0.03490038 0.03735262 -0.022708438 0.028750971 0.070109315 0.048526358
-0.06411509 0.0048470097 -0.008541201 -0.05998644 0.055762324 0.011158492 0.06694802 0.06206903
0.03535915 -0.0055946168 0.034602914 -0.033151474 -0.008892786 -0.024602396 0.02053177 -0.038573198
0.034463383 0.018098643 -0.00056616345 -0.064582184 0.03773906 0.06421766 -0.0023401068 -0.014820278
0.064462945 0.037745852 0.037416045 -0.05050081 0.0134458775 -0.040779468 -0.06696437 -0.005288693
-0.02072583 -0.03198732 -0.004351447 0.039650626 0.03535461 0.04337788 -0.07769403 -0.0020538892
-0.011512411 -0.07128495 0.02101735 -0.058735047 0.07533817 -0.006131046 0.023312766 0.0055159954
0.0028822313 0.015267162 -0.036048125 -0.01795688 0.04973773 -0.031590447 0.0125322575 0.017257933
-0.0025275394 -0.065474704 -0.037691265 -0.06270918 -0.024922382 -0.0618541 -0.005796242 0.017125063
0.076682895 0.05663433 -0.056188475 0.037282676 0.033875115 -0.040518716 -0.058896665 -0.049399834
0.06315162 0.06480895 -0.021344857 0.024891589 0.017815737 0.0019403965 -0.027967606 0.009887083
0.044909902 0.026894405 -0.030578477 0.048926227 0.029592138 0.048042256 -0.040104937 0.0524579
-0.042843044 0.009944488 0.0062288265 -0.025298145 0.021748591 -0.0107786795 0.03751529 -0.04743084
-0.044393823 0.057024524 0.0488083 0.06536821 0.00786491 0.0349077 0.03112007 -0.005685655
0.019563232 0.013211049 -0.02923895 0.055492457 0.0038333286 -0.01818867 -0.057059914 0.057233237
0.0011039525 -0.022543104 -0.030202387 0.0021599114 0.02491373 -0.0067990622 -0.06171493 0.0058613666
-0.00056100736 0.061530698 -0.006963308 0.04661227 -0.00955116 -0.057690736 -0.0025162187 -0.053304624
0.020169808 -0.014842053 0.049660623 -0.044366136 -0.0088312235 -0.009694166 -0.04484799 0.016543437
-0.03815199 0.028187823 0.056888305 0.05877642 0.034026198 -0.009105401 0.041417345 -0.07759417
0.046968438 0.029013097 0.00081159524 0.040022414 -0.0047976933 -0.007919482 0.050953668 -0.059086774
-0.0739045 -0.051865906 -0.04744574 0.003158491 0.031002814 0.015199004 0.028603688 0.05297151

dense2.weight f4 [62, 425]
00000000: 2fe2 c2bc 765f 113d 0d3f 41bc ce34 26bd
00000010: 7e12 8d3b 0b75 9d3b bff7 213d 302e 153d
00000020: bbe2 21bb f621 0f3d d9c2 c6bc a8e3 cdbc
00000030: 41c9 853c b898 0dbd e2e8 d53c b332 bfbc
00000040: 17f8 373b ea4c bc3c 25dd 44bd 8f3f 2abc
00000050: 72cb 29bd 8a5d 32bc 5183 173d 1d0f afbc
00000060: 77c9 b63c 794e 24bd 50cc 20bd e933 48bd
00000070: 770b d93c 131a 3fbc 4ac8 4bbd af60 e4bb
00000080: 91eb a0bc 7d96 40bd 72a4 423d 1fee f73c
00000090: 482c 8d3c 371f 36bd a335 c7bc 71fb 133b
000000a0: fb82 61bb 7ad3 f1bc 77ce e1bc 0a9d 8a3c
000000b0: b322 8dbc 5f35 f53c b9a7 99bb 4ae2 253d
000000c0: 805c e1bc 15f1 263d 883c 083d 2d77 0cbc
000000d0: 4358 daba b0d1 bbbc 443a 92bc 802c c13c
000000e0: 951d ed3c 87cb 913c 7943 a43c f088 053d
000000f0: d345 a2bc 170e 01bd 9f58 1b3d 1175 033d
00000100: 5ce3 8c3c 2987 383d 1155 02bd 5ef2 523c
00000110: fce3 68bc 3cfa 493d d5c3 06bc 2a90 093d
00000120: 088d 22bc 0795 973c 9c32 fcbb 5d36 a33c
00000130: cc25 1bbd 6bb4 ad3c c56b 04bd fb2b 873c
00000140: 935f 2f3d 7168 ccbc d1d4 1cbd efe7 08bd
00000150: 464e a0bc d5f1 f6bc 3e3a 5c3c e6dd 7dbc
00000160: ea47 823c effd 2bbd 5480 58bc a7aa 1c3d
00000170: b8cb 173d 9931 ae3b 50e0 90bc bbe5 45bd
00000180: bc1c e5bc 78d6 42bc 0c13 3a3d bbe9 45bc
00000190: bd9b f23b 2ff2 d3bc ed1c c33c 2d40 293c
000001a0: ee50 09bd 7ca1 48bc d450 fc3a 4d5c 353c
000001b0: a4e7 c9bc 471a 123d feda 1b3d 4c68 a4bc
000001c0: 900b c93c fa9a 38bd 3bbf b23c 7201 403d
000001d0: 0f98 433d 997a d6bc 8ff4 34bc cfa9 4ebc
000001e0: 049b ce3c 7852 81bc ff5c 153d 09af c33b
000001f0: 4f3b 17bd 6be5 813c cd82 863c 7438 133d
00000200: 2b7c 42bd 8ea4 42bd fc04 0e3b be65 983c
00000210: cf26 203c 1db9 83bc fae7 1bbd 8417 0b3d
00000220: 7020 633c 3f65 c63c be40 d33c 1c45 0d3d
00000230: 4a9a 42bc c5fe 30bd 73a6 87bc 159d 97bc
00000240: 25dc b2bc 18b9 5f3c 8b9b a2bc 5add 2b3d
00000250: 6e33 36bc bc31 c4bc 4b39 50bc b10a bd3c
00000260: 62d8 863b fc56 b4bc 4401 11bc 48f2 783b
00000270: 86ae 203d 566a 75bc a7ad 0f3c d27c 4bbd
00000280: 9c36 ae3c 3a21 9b3c df16 e9bc 8717 283a
00000290: f298 4b3d f674 a43c 9afd 0b3d dd3c 4e3a
000002a0: d84c eebc 733f 2dbd be89 eaba 450d 483d
000002b0: a8c3 afbb ddab ed3c 4d67 c53a 0da4 363d
000002c0: a6be e53c c5f9 16ba 36fd aabc fb46 5c3c
000002d0: ab96 42bd 7998 21bd 65c7 683a 0700 293c
000002e0: c900 143d 3a70 c73c d31f ab3c d11a 0cbd
000002f0: 055f 013b fe1b 6c3c 661c 533d 3f79 043d
00000300: 16c6 3b3c 2f03 513d ebfb 3e3d e311 8a3c
00000310: b6c3 31bd 2ada 5c3c 2cc8 ba3c 354a eebc
00000320: ce0e cbbc 7901 043d 1ac9 74bd b9dc c4bc
00000330: 1807 4dbc adad acbc da7d 34bd a81e 333d
00000340: 9aec 093d 1270 d1bb b42a 163d 8401 5fbd
00000350: 608a 9abc 23d8 37bd a6a3 063c 30d9 353d
00000360: c3f2 7d3b 340d b4bc bb9f f03b 5663 8b3c
00000370: 54b7 eebc aa64 303d 5cfd 4f3d eb76 41bd
00000380: d0d9 0d3d aa13 4dbc 7521 313c 63ff d1ba
00000390: f92e 8bbb c097 05bd 8a1d 093d 415e 613b
000003a0: 14d7 36bd 1277 72bc d4ca 07bd da59 9dbc
000003b0: 5bf1 f63c 34b3 dc3c f595 c9bb b048 fc3c
000003c0: d75b a43c 9e02 643a 6b65 e9bc a765 da3c
000003d0: 6bf2 a5bc fc7c 51bd 3727 f4bb d512 6fbb
000003e0: cad6 403d 6742 2a3d e8d8 e83c 80d5 be3c
000003f0: d0cb 763c 2cc7 0abd 48d8 243d cf8a fdba
-0.023789493 0.03549143 -0.011794818 -0.040577702 0.004305183 0.0048052124 0.03954291 0.036421
-0.0024701792 0.034944497 -0.024262832 -0.025132969 0.016331317 -0.034569472 0.026112024 -0.023339605
0.0028071457 0.022985894 -0.048062462 -0.01039113 -0.041453786 -0.010886559 0.036990467 -0.021369511
0.022312863 -0.0401139 -0.039257348 -0.04887763 0.026494725 -0.011663931 -0.049751557 -0.0069695334
-0.019643577 -0.047018517 0.04752011 0.030264912 0.017233029 -0.044463363 -0.024317568 0.002258029
-0.0034410346 -0.029519785 -0.02756427 0.016920585 -0.01722846 0.029932676 -0.0046891836 0.04049901
-0.027509928 0.040757257 0.033260852 -0.008573336 -0.0016658384 -0.022927135 -0.017850049 0.02358079
0.02894477 0.017797245 0.020051705 0.032601297 -0.019808685 -0.031507578 0.037926313 0.032094065
0.017198257 0.045050774 -0.031819407 0.012875168 -0.014214512 0.049310908 -0.008225401 0.03358475
-0.00992132 0.018503679 -0.007696463 0.019923383 -0.037877843 0.021204194 -0.03232934 0.016500464
0.042815756 -0.024952145 -0.038288895 -0.033424314 -0.019568574 -0.030144611 0.01344162 -0.015494799
0.015903432 -0.041990217 -0.01321419 0.038248684 0.037059516 0.005315971 -0.017685086 -0.04831479
-0.027967803 -0.011891954 0.04542832 -0.0120796515 0.0074038194 -0.025872318 0.023817504 0.010330242
-0.033524446 -0.012245532 0.0019250163 0.0110693695 -0.024646588 0.03566959 0.038050644 -0.020069264
0.024541646 -0.045069672 0.021819701 0.04687638 0.047752436 -0.026181506 -0.011044635 -0.012613728
0.025220402 -0.015786394 0.03646564 0.0059717936 -0.036921795 0.015856465 0.016419793 0.03594251
-0.047481697 -0.047520213 0.0021670451 0.018603202 0.009774878 -0.01607948 -0.038063027 0.033957973
0.013862714 0.0242182 0.025787707 0.034489736 -0.011877606 -0.043211717 -0.016558861 -0.01850752
-0.021833489 0.01365497 -0.01984956 0.041959144 -0.01112066 -0.023949496 -0.012708972 0.023076387
0.0041151503 -0.022014134 -0.008850399 0.0037986208 0.03922894 -0.014978966 0.008769429 -0.049679585
0.021266274 0.018936742 -0.028453289 0.0006412197 0.049706407 0.020075303 0.0341774 0.00078673457
-0.029089376 -0.042296838 -0.0017893834 0.04884078 -0.0053639 0.029012615 0.0015060693 0.044590045
0.02804501 -0.00057592645 -0.020872694 0.013444657 -0.04750697 -0.03945205 0.000887981 0.010314948
0.03613356 0.024345506 0.020889198 -0.03420526 0.0019740474 0.014410971 0.051540755 0.03234219
0.011460802 0.051028427 0.046626966 0.016854232 -0.043399535 0.013479749 0.022800528 -0.029088119
-0.024787333 0.032227967 -0.059762098 -0.02403103 -0.012513898 -0.021078909 -0.044065334 0.043730408
0.033672906 -0.0063915337 0.03666182 -0.054444805 -0.01886481 -0.04488386 0.008217728 0.04439658
0.0038749434 -0.021978952 0.00734326 0.01701514 -0.029140152 0.04306475 0.05077873 -0.04723255
0.03463155 -0.012516895 0.010811199 -0.0016021546 -0.004247543 -0.032615423 0.033475436 0.0034388455
-0.04463871 -0.014798896 -0.033152416 -0.019207884 0.030144384 0.02694092 -0.0061519095 0.030796379
0.020063324 0.00086979 -0.028490743 0.0266598 -0.020257195 -0.051144585 -0.007450964 -0.003647973
0.04707984 0.041567232 0.028423741 0.023295164 0.015063241 -0.03388135 0.040245324 -0.0019343736

dense2.bias f4 [62]
00000000: 5e8d 33bc f72c 7f3c 9b91 8d3c 2f91 97bd
00000010: ec0e 87bd 46ad acbc 3699 bcbc 86e8 0cba
00000020: 5192 e63c 4602 b6bc 413c 7ebc 5cbb 94bd
00000030: 6100 81bb c9fc 533d 8782 cdbc a77b 053d
00000040: e11a 3a3d ee9d 17bd 6c11 0d3d 7f1b 2dbb
00000050: df75 89bd dd10 9d3c 4cb4 883d 56da a0bb
00000060: 341f 08bd 29df b63a aca7 963c 9ad2 7abc
00000070: 5b22 073d 2c71 35bd 9510 d1bc 0061 913d
00000080: 503c c53b 5bd1 75bc 44ec 663d cb16 15ba
00000090: d625 0dbd d89e 8b3c b365 45bc 5501 173d
000000a0: c75f f2bc 11b8 173a 6963 253d e3ac 12bd
000000b0: 9794 7cbc 6599 50bd 862b 92bd d057 133c
000000c0: 034e 48bd 3670 d43c 12d8 82bd af48 2b3d
000000d0: 87ff 5e3c 2aa5 3cbc c8e2 21bd 677c 73bc
000000e0: a7d3 3cbd 7778 153c 5c52 3dbc d275 d7bc
000000f0: ab4a 1abc 7b58 d73c
-0.0109589975 0.015574685 0.017281344 -0.074007384 -0.06594643 -0.021078717 -0.023022275 -0.0005375225
0.028145941 -0.022217881 -0.015517295 -0.072622985 -0.0039368127 0.051754747 -0.025086654 0.032588627
0.04543579 -0.037015848 0.034440443 -0.0026414094 -0.06711935 0.01917308 0.06675014 -0.00490884
-0.033232883 0.0013952005 0.018390499 -0.015309 0.03299175 -0.044297382 -0.025520602 0.070985794
0.0060191527 -0.0150035275 0.056377664 -0.00056872953 -0.03445991 0.017043516 -0.012048173 0.036866505
-0.029586686 0.0005787621 0.040378008 -0.03580941 -0.015416286 -0.05092754 -0.07137208 0.008993104
-0.048902523 0.025932413 -0.063888684 0.041817363 0.013610727 -0.011513988 -0.039522916 -0.014861203
-0.046100285 0.009122959 -0.011555281 -0.026301298 -0.009417216 0.026287308

dense_output.weight f4 [1, 62]
00000000: 305d f4bc 740a e4bb ed76 8e3a 80ed a8bd
00000010: 0d6a debd 0170 b539 cdad a63d 6128 94bd
00000020: d788 c13a c96b 173a 2d4a 88bd 66af bcbd
00000030: 4eb0 cab9 717e 013c 8037 3bbd f928 0e3a
00000040: c797 5d3c d83f c9bd 7f75 083d b83b 563d
00000050: af08 ddbd 4c68 ac3a 9d8c aa3d c469 eebc
00000060: b512 6ebd 1817 563d 6345 a03d ac41 dabb
00000070: 7d7f 913d 9af8 95bc 2b43 e2bd 195d ea3c
00000080: 356c 98bd 15aa 3c3d 90ec e43d 59b1 a9bd
00000090: 419a 1ebd 460c c13c d30f bcbc 711e 3b3d
000000a0: 4550 d539 2e43 d638 9cfe 8d3c 28f8 03bd
000000b0: 41ff c63c ba39 c3bd 9d80 a9bc f66e 20bd
000000c0: aba6 b5bc 2858 a23c 4cb0 0bbc 86de 473c
000000d0: 58da 243d 29e0 88bb 4fed 91bd a4a0 bfbc
000000e0: 4dc9 a8bd b227 953d a243 a6bc c1f8 5dbd
000000f0: 3e96 a7ba c562 0b3d
-0.029829592 -0.006959254 0.0010869183 -0.082484245 -0.10860071 0.0003460646 0.081386186 -0.07234264
0.0014765513 0.0005776254 -0.06654773 -0.09213142 -0.000386598 0.007903681 -0.045707226 0.00054229755
0.013524956 -0.0982663 0.033315178 0.052303046 -0.10792672 0.0013153641 0.08327601 -0.029103167
-0.05812331 0.052268118 0.078257345 -0.0066606607 0.071043946 -0.018307019 -0.110479675 0.028608846
-0.07442514 0.04606064 0.11177933 -0.082857795 -0.038721327 0.023565423 -0.022956764 0.045683328
0.0004068633 0.000102168284 0.017333321 -0.032219082 0.024291636 -0.09532495 -0.02069121 -0.03916832
-0.0221742 0.019817427 -0.008525919 0.01219905 0.04024729 -0.0041771126 -0.07125341 -0.02339203
-0.0824152 0.07282962 -0.020295922 -0.05419231 -0.0012785865 0.03402974
