models/3layer_cnn_models/AATG.pt (torch_old, 371746 bytes, 10 tensors)

conv1.weight f4 [62, 1, 7, 4]
000000 c3 28 a6 3d 85 1c 31 be e6 e2 1d bc a2 5a ca 3d
       0.081132434 -0.17296036 -0.009636616 0.09880568
000010 f1 39 0e 3e 8b 0f 35 3e 19 d3 8b 3d 6f 15 f3 3d
       0.1388929 0.1768171 0.06827373 0.118693225
000020 c6 2f 13 3e ec 47 f7 bd 12 59 0c 3e f9 91 08 be
       0.14373693 -0.12074265 0.13705853 -0.13336934
000030 69 de 0d bd 3b 81 27 3e 63 d9 2d 3e 1a 4f 05 be
       -0.034635935 0.16357891 0.16977458 -0.13018456
000040 6c 73 24 3e fc 74 45 3b 07 6c 07 3e 98 3d 17 be
       0.16059655 0.0030129543 0.13224803 -0.1476959
000050 0c 8d 2f b8 73 b4 a9 bd 70 47 17 bc f4 5d e5 bd
       -4.185461e-05 -0.08286371 -0.009233341 -0.11199561
000060 28 37 3c bd 0c 91 dc bd 97 84 02 be ec f9 7c bd
       -0.04595104 -0.10769853 -0.12745892 -0.06176178
000070 ee de fe bd a7 db 3f 3e 06 97 ca bc 48 ee fa bd
       -0.12444864 0.18736134 -0.024730217 -0.1225248
000080 78 8f 2e bb 9d ce 72 3d d4 11 08 be b7 83 bd bd
       -0.0026635807 0.059279073 -0.13288051 -0.09253638
000090 c1 95 4b 3d 2e 15 c7 3b 57 11 28 bd ce 80 ed 3d
       0.049703363 0.006075523 -0.04103216 0.11596833
0000a0 40 75 45 3e ea 78 d6 3c 8b 77 af bd 23 39 c2 3d
       0.19283009 0.026180703 -0.08567723 0.09483554
0000b0 22 1e ec bc f3 49 08 3e c4 8d 2b be d7 0e 21 3e
       -0.028822962 0.1330946 -0.16753298 0.15728317
0000c0 0f a4 06 3d e9 0d a7 bd 6a 33 15 3e 0a 4f dd 3c
       0.032871302 -0.0815695 0.14570394 0.027015228
0000d0 94 4b f3 3d 76 42 07 be 2e 15 25 3d e9 24 e0 bd
       0.1187965 -0.13208947 0.0403034 -0.1094454
0000e0 e1 91 13 be e8 bf 80 bc 5f 3d 0e be db 90 5b 3d
       -0.14411117 -0.015716508 -0.13890599 0.05360494
0000f0 43 3e 19 be d1 35 17 3e c4 85 e2 bd a8 69 de bb
       -0.14965157 0.14766623 -0.1106067 -0.0067874976
000100 b4 05 8a bd cf ab d0 bc 58 ab 14 be d6 f4 e4 3d
       -0.06739369 -0.02547255 -0.14518487 0.11179511
000110 94 22 ac bd 5a 62 ef bd b1 63 91 bd 8c 85 08 3d
       -0.08405033 -0.11688681 -0.07099093 0.033330485
000120 2a cc 73 bc 6a 92 12 3e 76 a9 60 3d 82 93 0c be
       -0.0148802195 0.14313665 0.05484911 -0.13728145
000130 b2 78 38 3e 37 10 0e bd 93 65 19 3d 38 86 57 3d
       0.18014792 -0.034683432 0.037450384 0.052618235
000140 b5 f7 ef 3c 12 ea e0 bd d2 8c 19 3d a4 ad 2a 3e
       0.02929292 -0.10982145 0.037487812 0.16667801
000150 1d 6b 16 be 82 80 f5 bc 3f d8 b8 bb 88 03 3f 3e
       -0.14689298 -0.029968504 -0.005641013 0.18653691
000160 10 17 52 3c 35 c1 29 ba f4 ef 30 be 57 9a da 3d
       0.012822881 -0.00064756285 -0.17279035 0.10673969
000170 bb 3b 05 3b 3f 75 ef 3d c9 45 2b be 73 99 06 bd
       0.0020329792 0.11692285 -0.1672584 -0.032861184
000180 40 04 6e 3d 73 ba 45 3d ad d2 90 bd 05 f8 1c bd
       0.058109522 0.048273515 -0.07071433 -0.038322467
000190 51 93 2e be 28 59 11 3e 68 ac 09 be d0 49 04 3e
       -0.17048384 0.14194167 -0.13444674 0.12918782
0001a0 ed f6 b0 3d e4 03 f8 3d e9 fe 77 3d 1a 53 f0 3d
       0.08640847 0.12110117 0.060545836 0.117346
0001b0 30 60 29 be ac e1 38 bc bd 0d 23 3e 47 83 db bd
       -0.16540599 -0.011284273 0.1592321 -0.107183985
0001c0 86 fb d4 bd b9 3e f8 bd 8a 5f 9a 3c d1 56 9d bd
       -0.10399537 -0.121213384 0.018844385 -0.076825745
0001d0 dc 1a fa bc 63 fc 61 bb 33 5f 1c 3e 81 af e6 bc
       -0.030530386 -0.003448271 0.1527069 -0.028159859
0001e0 a0 4d 68 3d ce a0 1f 3e 4c 8a fe bc 52 81 c9 3d
       0.056714654 0.15588686 -0.031071804 0.09839119
0001f0 ea f8 c2 bd 28 46 fd bd 09 87 46 be b9 17 e6 3d
       -0.09520133 -0.12366897 -0.1938745 0.112349935
000200 84 f3 63 bd 3e 1a 3f be 36 dc b1 bd d7 6d 3d bd
       -0.055652156 -0.18662354 -0.0868458 -0.04624733
000210 51 bd 82 3d 06 c7 ac bd 61 37 0f bd b3 16 22 3e
       0.063837655 -0.08436398 -0.034964923 0.15828972
000220 09 fb fe bd cb 64 f1 3d ea ab f9 3d 34 b2 02 3e
       -0.12450225 0.11786803 0.12190993 0.12763292
000230 7c 9b e4 3d 57 42 11 be 2b 2e f7 bd f3 25 e9 3d
       0.11162469 -0.14185463 -0.12069353 0.11384191
000240 42 f5 66 bd 7e 28 28 3e 30 d3 ce 3d 36 ad 06 be
       -0.05638624 0.16421697 0.100988746 -0.13152012
000250 77 d3 ba bd 99 3d 33 bc ac 9f e8 3d b9 f5 6b 3d
       -0.09122365 -0.010939979 0.1135858 0.057607386
000260 8b 87 0f 3e 1f 1e c5 bd 2e b9 81 bd d0 30 a3 bd
       0.1401655 -0.09624886 -0.06334148 -0.079682946
000270 65 b2 a0 bd 86 67 b1 bd 51 96 ee bc 02 68 1d 3e
       -0.07846526 -0.08662324 -0.02912441 0.15371707
000280 67 e1 20 bc 3a 11 e0 3d 5c 2c 29 3e cf 4f 4a 3d
       -0.009819365 0.10940786 0.16520828 0.049392518
000290 a2 08 86 3d ef a5 f7 3d 3a e7 16 be bd 5d 08 3e
       0.06544615 0.12092196 -0.14736643 0.13317008
0002a0 fb a2 1b 3e 2b 76 d9 3b 5e c4 b4 3d ee 9c dc 3c
       0.15198891 0.006636401 0.088265166 0.026930299
0002b0 c3 6a ee bd a2 3c 21 be e7 5d 03 be 5c 74 3c be
       -0.11641457 -0.15745786 -0.1282879 -0.18403763
0002c0 bc 2d 99 bd 9b 6f a9 bd 86 17 73 bd c7 32 49 bd
       -0.07479426 -0.0827324 -0.059348606 -0.04912069
0002d0 d7 f9 be bd 47 b2 15 3e f2 a0 8e 3d 63 b5 35 3e
       -0.09324997 0.14618789 0.06964292 0.17744975
0002e0 64 1d 13 be 64 55 c3 bc 4c 20 08 3e 62 30 36 be
       -0.1436668 -0.023844428 0.1329357 -0.17791894
0002f0 66 75 9b 3d ed 3b 11 3c db d3 25 3d d8 ff 7c 3d
       0.07590751 0.008864385 0.040485244 0.06176743
000300 52 90 ba bd 72 9b 08 3e 54 b3 0b 3e fe 9b 40 3e
       -0.09109558 0.13340548 0.13642627 0.18809506
000310 b5 66 04 3d f3 73 63 3c 4b 8b 7d bd a5 da 11 bb
       0.03232451 0.013882625 -0.06190042 -0.0022255566
000320 c2 cf c2 3c 7f 18 8a 3d 59 cf b7 3d d5 b1 87 3c
       0.023780707 0.067429535 0.08975095 0.01656429
000330 09 18 ec 3c 70 56 2b 3e 01 d9 c2 bc 13 dc 0a bd
       0.028820055 0.16732192 -0.023785116 -0.033901285
000340 d4 ea 9f bd 89 e4 76 3c 7d 9a 3b 3e a8 cc 97 3c
       -0.07808462 0.015069135 0.18320651 0.018530205
000350 6a 60 ff 3c 5a 7f 61 3d fa 9e 02 3e 0d 7d cb 3a
       0.031173903 0.055053093 0.12755957 0.0015524939
000360 08 f2 e3 3d d3 4c 17 be 34 4c 8d 3d ea 94 d2 3d
       0.11130148 -0.147754 0.068993 0.10282309
000370 05 d3 14 3e d4 91 c3 bd 8e 98 50 3c b6 89 4f 3d
       0.14533623 -0.09549299 0.012731684 0.05066844
000380 2c 2f c5 3c c2 2a 06 3d 30 48 18 3d ac 01 86 bd
       0.024070345 0.03275562 0.03717822 -0.06543288
000390 bd 94 8f 3d a3 d5 f0 3d f0 07 46 3e a4 75 36 be
       0.070107915 0.11759498 0.19338965 -0.17818314
0003a0 81 d3 d8 bd e8 26 9f 3d 87 3c 29 3e 8b 83 05 3d
       -0.10587216 0.07771093 0.16526996 0.032596152
0003b0 98 e6 e5 3d ae aa 43 be ff bb 18 be cd f6 ff bd
       0.11225623 -0.19108078 -0.14915465 -0.124982454
0003c0 2c 07 3c be f3 3b 2b be f1 b5 b3 bd 2f fb f5 bd
       -0.18362111 -0.16722088 -0.08774937 -0.120108
0003d0 9e 3f f9 bc c2 81 03 bd 3f 68 86 3d 6f 99 e0 bc
       -0.030425843 -0.03210617 0.06562852 -0.027416913
0003e0 58 9f a1 3b 78 77 ff bd fe 3c 06 3e b0 91 a4 3c
       0.0049323253 -0.12473959 0.13109204 0.020089
0003f0 71 ae a8 3d d6 b6 00 be 4a dd 2f be 46 db 8a 3d
       0.08236397 -0.12569746 -0.17174259 0.06780104

batch1.weight f4 [62]
000000 7e 96 80 3f 87 61 7f 3f 49 f5 7d 3f 7b 11 81 3f
       1.0045927 0.9975819 0.992024 1.008346
000010 fc 02 81 3f 9d 58 7f 3f bc 12 80 3f b5 e1 80 3f
       1.0079036 0.9974459 1.0005717 1.006888
000020 5c 81 80 3f f2 f9 7f 3f 01 d5 80 3f e9 f3 80 3f
       1.0039477 0.9999076 1.0065004 1.0074435
000030 09 a8 7f 3f 2f d6 80 3f 8d 1f 7f 3f c6 0a 81 3f
       0.99865776 1.0065364 0.9965752 1.0081413
000040 14 74 80 3f e2 66 7e 3f 7a 01 80 3f 30 f4 80 3f
       1.0035424 0.99375737 1.0000451 1.007452
000050 ee 45 80 3f ba 49 81 3f b5 25 80 3f dc bf 7f 3f
       1.0021341 1.0100625 1.0011507 0.9990213
000060 cf ed 7f 3f 78 5c 7f 3f 9b 6f 7f 3f 07 ac 80 3f
       0.9997224 0.9975047 0.9977967 1.0052499
000070 72 be 7f 3f d6 74 7f 3f 24 0a 80 3f 4c 56 80 3f
       0.9989997 0.9978765 1.0003095 1.0026336
000080 b2 5f 80 3f b7 e4 7f 3f 00 43 7e 3f 53 12 80 3f
       1.0029204 0.99958366 0.99320984 1.0005592
000090 c6 e9 7f 3f e0 0f 7f 3f 4d b2 80 3f 46 6d 7f 3f
       0.99966085 0.996336 1.0054413 0.99776113
0000a0 af 57 80 3f cb ca 80 3f fd a5 80 3f fb 24 80 3f
       1.0026759 1.0061888 1.0050656 1.0011286
0000b0 cb 63 80 3f 0a 85 80 3f b5 a1 81 3f 44 75 80 3f
       1.0030454 1.00406 1.0127474 1.0035787
0000c0 4b af 7f 3f 10 4d 7f 3f fe 72 80 3f 1d f4 7e 3f
       0.9987685 0.99726963 1.0035093 0.9959124
0000d0 89 18 80 3f 5f 4a 7f 3f 32 99 7f 3f 1a 31 7d 3f
       1.0007488 0.99722856 0.9984313 0.9890305
0000e0 e0 5e 80 3f b3 41 7e 3f f1 92 7e 3f 3d aa 80 3f
       1.0028954 0.99319 0.99442965 1.0051953
0000f0 2e 74 7f 3f fa f8 7f 3f
       0.9978665 0.99989283

batch1.bias f4 [62]
000000 19 5b e8 b9 a8 97 a2 bb 8c 8d e6 b9 90 3e 18 3b
       -0.0004431836 -0.0049619265 -0.0004397448 0.002323065
000010 3c 08 80 ba e7 b4 9b 3a bf 4d 2b bb ec 3b a0 b9
       -0.0009768079 0.0011879475 -0.002613887 -0.00030562223
000020 fa 63 33 3a d7 b1 b9 ba 92 92 01 3b d6 ba 6a 3b
       0.0006843206 -0.001416738 0.00197712 0.003581693
000030 08 ff 2e bb 68 7d ca ba 2c 71 28 bb b5 36 38 bb
       -0.0026702303 -0.0015448751 -0.0025702221 -0.002810878
000040 e7 4f 80 ba e9 47 55 39 a5 a6 57 bb 92 d3 87 ba
       -0.0009789438 0.00020340052 -0.0032905724 -0.0010362735
000050 54 fe f8 3a 38 62 9c ba 2e 9c a4 ba 6c 12 89 bb
       0.0018996694 -0.0011931127 -0.0012558752 -0.0041831043
000060 c9 f9 5b bb 62 60 a5 bb 03 6d ba 3a 34 87 2f bb
       -0.0033565632 -0.00504689 0.0014223162 -0.0026783468
000070 63 a5 39 bb 13 ef 7e bb b1 a6 0c bb 73 4e 1e 3a
       -0.0028327338 -0.0038899824 -0.002146166 0.00060389115
000080 a4 2e 71 bb 2a 37 43 3a a1 4f c8 bb ec 5f 40 bb
       -0.0036801482 0.000744688 -0.006113008 -0.002935405
000090 5e 26 37 bb fe d1 50 3a c1 4b 12 39 89 e1 ca 3a
       -0.0027946453 0.00079658616 0.00013951866 0.0015478592
0000a0 ef 73 57 bb 63 78 e4 ba fa a8 36 bb 84 9c f2 bb
       -0.0032875498 -0.0017430898 -0.0027871714 -0.007403912
0000b0 cb 29 29 ba aa fe 39 3b 68 6f 16 3b bf 8e 65 3a
       -0.0006453066 0.0028380551 0.0022954587 0.00087569276
0000c0 89 54 3c bb 70 c0 42 bc 36 d7 12 bb 4c 4e 0e bb
       -0.002873691 -0.011886701 -0.0022406108 -0.002171415
0000d0 af 78 a4 bb 74 ac 37 3a 91 b1 b7 bb 1a db b2 bb
       -0.0050192694 0.00070065935 -0.0056058844 -0.005458248
0000e0 d5 30 8e bb d4 51 28 bb 6d 2a 1d ba c5 4a 8b ba
       -0.0043393173 -0.002568354 -0.00059953966 -0.0010627141
0000f0 27 e7 9f 3a 5e 1d 99 3a
       0.0012199626 0.0011681726

conv2.weight f4 [54, 62, 8]
000000 38 0e 13 3c c5 56 b2 3c 27 fe 7b bb 02 95 1c 3d
       0.008975558 0.02176989 -0.0038451047 0.038228042
000010 f3 45 6f bc d5 07 36 3d f7 a7 c5 bc 2e b3 b0 bb
       -0.01460408 0.044441063 -0.024127943 -0.0053924536
000020 bc 8f 10 3d e3 62 4c bb 91 bb 24 3c bd 1d b5 bb
       0.035293326 -0.003118687 0.010054485 -0.0055272267
000030 7c 3d 38 3d 35 5a 1d bd 3b 47 4e bd 2e ce 0c bd
       0.04498051 -0.038416106 -0.0503609 -0.034376316
000040 1f d2 13 3d 1f 49 d2 bb 72 ab 89 bc 8f b4 ce bc
       0.03608906 -0.006417408 -0.016805384 -0.025232581
000050 d8 3c 24 3d b6 1f c5 3c c9 7e 3c bd 3c f1 77 3c
       0.040097088 0.024062973 -0.04601935 0.015133198
000060 52 e0 83 3a e7 72 a4 3c 84 3b 43 bd fa a0 1a bd
       0.001006136 0.020074321 -0.04766418 -0.037751175
000070 92 e6 3d 3d c0 42 d3 3c 0f eb 15 bc 06 ae 04 3d
       0.046362467 0.025788665 -0.009150281 0.032392524
000080 d9 24 1f bd 56 90 20 bd 3c 36 bf bc 5f be e4 bc
       -0.0388535 -0.03920015 -0.02334129 -0.027922807
000090 64 4b f8 3c 24 32 f0 3c 15 87 e3 3b 13 ce fb 3c
       0.030309387 0.029320784 0.0069435933 0.030737912
0000a0 de 52 18 3d ef 9c a4 39 c1 c7 13 3d 3f 82 86 3c
       0.037188403 0.00031397442 0.036079172 0.016419528
0000b0 5d 6f 24 3d e6 d0 16 bd b8 42 8e bc f6 e0 d9 3b
       0.040145267 -0.036820315 -0.017365798 0.006649132
0000c0 82 fe eb 3c 6b ab a6 bc a8 a6 2f 3c 70 21 b2 39
       0.028807882 -0.02034541 0.010720886 0.00033975719
0000d0 a1 b2 cb 3a 1d c2 1d 3d 35 fd 90 b9 c0 a3 12 bb
       0.0015540906 0.0385152 -0.00027654474 -0.0022375435
0000e0 43 1b 36 bd 18 c9 03 3d 28 4c 35 bd f1 1a de bc
       -0.044459593 0.0321742 -0.04426208 -0.027112456
0000f0 de 1b bf 3b 80 ac 47 bd f5 76 fb ba 80 6a 88 3a
       0.0058321794 -0.048748493 -0.0019185232 0.0010407716
000100 76 62 3f bd 07 d2 a3 bc ec 47 f5 bb 19 80 0b bd
       -0.04672476 -0.01999761 -0.0074853804 -0.03405771
000110 e4 5d af bc 20 b3 12 bd 96 41 80 bc 95 90 90 bc
       -0.021407075 -0.03581536 -0.015656274 -0.017647067
000120 d5 e1 14 3d 16 ae 2b bc 90 ac c2 bb 99 4a 04 bd
       0.036348183 -0.010478517 -0.005940981 -0.032297704
000130 49 1d 2c 3d 73 f5 20 3d a6 f7 12 3b d4 2a 57 b9
       0.042020116 0.03929658 0.0022425442 -0.00020519953
000140 5c 38 76 bc 28 c9 3e 3c 62 41 80 3c d6 6a b8 3c
       -0.015028086 0.011644639 0.015656177 0.02251188
000150 af 18 0f 3d cb 70 11 bd 85 e8 16 3d be ea 12 3d
       0.03493565 -0.03550796 0.03684284 0.0358684
000160 b5 f6 72 3b 2c 5a 4f bc 61 3d c7 3a c9 77 15 3d
       0.0037073318 -0.012655776 0.0015200787 0.03649119
000170 1e 60 19 3d 1a d2 0b bd a6 10 55 3c 1f 72 73 bc
       0.03744518 -0.034135915 0.013004458 -0.014858752
000180 cd 77 17 bc e3 d0 3a 3c 54 39 14 bd 9c 82 d4 3c
       -0.009244871 0.011402342 -0.036187485 0.025941186
000190 d6 9d 8a 3c 37 16 22 3d ab 57 3e 3c 1b c5 13 3d
       0.016920965 0.039571967 0.011617581 0.036076646
0001a0 4f ef 83 bc 73 c7 92 3c 7a 64 e5 ba 7f 21 5a 3a
       -0.016105322 0.01791737 -0.0017501258 0.00083210313
0001b0 c4 3a 25 bd eb f3 ea 3c 48 d3 2a bd 0b e0 8a 3c
       -0.040339246 0.028680762 -0.0417054 0.016952535
0001c0 ec 52 60 3c e3 dd 98 bb 25 07 21 3d f7 2c 34 3d
       0.013691645 -0.004665123 0.039313454 0.043988194
0001d0 3b b6 9a bc 21 6f a1 bc 78 8b d4 bc 31 08 03 bd
       -0.018885722 -0.01970631 -0.02594541 -0.031990234
0001e0 5b a2 5f bc 9d b4 6b bc 13 ed d5 bc 6d 97 10 bd
       -0.013649548 -0.014386323 -0.026114022 -0.03530066
0001f0 b3 30 c7 bb c9 1c 91 3c 2a 36 1c bd 69 68 dd 3c
       -0.0060788034 0.017713921 -0.038137592 0.027027326
000200 e2 2e 51 bc be 99 b5 bb 5f e6 b2 3c c3 f9 f0 3b
       -0.012767525 -0.005542009 0.021838365 0.0073539927
000210 20 de cb ba 99 73 bb 3b 5b ee 02 3a 9c c1 10 bd
       -0.0015553869 0.0057205674 0.0004994624 -0.03534089
000220 62 db 3f 3d a6 26 de 3c 23 9f 47 3c 5e 87 10 bd
       0.04684008 0.027118038 0.012183937 -0.035285346
000230 e1 15 df 3c 5f 8b 14 bc 52 55 15 bc 5f 02 b1 3c
       0.027232112 -0.009066432 -0.00911458 0.021607576
000240 ee 3e e7 3c eb 0e bf bb 40 9c c1 bc e2 6c 0d bd
       0.02822825 -0.005830636 -0.023634076 -0.034527667
000250 74 15 4f bc 07 2e fb 3b 13 b3 1e bd 3e 09 12 bd
       -0.012639392 0.007665399 -0.038744997 -0.035653345
000260 e0 87 2f 3d cd 1e 17 3d 1a 47 44 bc c0 8f db ba
       0.04285419 0.03689461 -0.011979843 -0.0016751215
000270 65 d1 28 3d f9 c8 f7 bb 66 d7 2a 3c f7 11 27 bd
       0.04121532 -0.0075617996 0.010427332 -0.040788617
000280 93 47 0d bc 37 59 d3 bc 1c f9 9c 3c 96 56 cf bc
       -0.008623022 -0.025799377 0.019161753 -0.025309842
000290 6b ba 9f 3b 19 a2 c4 3b 21 36 3b 3d 74 4a 9f 3b
       0.0048745177 0.006000769 0.04570592 0.0048611704
0002a0 dc 7a 10 3d 28 9b 02 bc b6 3d 36 3d 82 39 0a bc
       0.035273418 -0.007971562 0.044492446 -0.0084365625
0002b0 95 f4 ac bc 69 91 0d bd 92 99 36 bd eb 81 e3 b9
       -0.02111272 -0.034562502 -0.04458005 -0.0004339361
0002c0 d3 ae dc bb f6 05 f3 3c 8e c8 04 bd ef 19 df 3b
       -0.006734708 0.029665928 -0.032417826 0.0068085114
0002d0 a3 fa 36 3c c0 dd f2 3c 9e 48 1a bd 30 25 5e bc
       0.011168155 0.029646754 -0.03766691 -0.013558671
0002e0 dc 62 94 3b e2 16 0c bd 97 b7 48 3d 7a b6 83 3c
       0.0045283865 -0.03420151 0.04900321 0.016078223
0002f0 c2 ef 23 bc 80 96 3e bd 25 7b d9 bc 6e 5a 9a bc
       -0.010005893 -0.046530247 -0.026547978 -0.018841948
000300 8f 92 8b 3b 65 fa c5 3c 31 c9 1e bc 5b 39 d8 ba
       0.0042594145 0.024167249 -0.009691522 -0.0016496585
000310 de c8 63 3c 74 0d eb bc 3a 4b 09 3c 72 bc 67 bb
       0.013902871 -0.028692938 0.008379752 -0.0035360125
000320 a6 e5 11 3d 2e 7a d8 3c df 35 80 bc ce d1 00 bd
       0.0356194 0.026425447 -0.015650688 -0.031450085
000330 a7 f1 16 3d f9 26 20 3d 28 67 9d 3c 22 aa 24 bd
       0.03685155 0.039099667 0.019214228 -0.040201314
000340 cd 17 ac bc bf eb ce bc db 4b 1c 3d 80 97 0a 3d
       -0.021007443 -0.025258897 0.03815828 0.033835888
000350 52 e0 fb 3c 4e dd 22 3d 54 c9 d4 3b bc b0 62 bb
       0.030746613 0.039761834 0.0064937267 -0.0034590205
000360 4b e0 08 bd 82 7d 1a bb 91 10 b4 3c ff c3 35 bd
       -0.033417027 -0.0023573344 0.021980556 -0.04437637
000370 3f a3 cb bb 6b 4f d6 3c 3a 7b 9e 3c 4c e4 0b bc
       -0.006214529 0.026160916 0.019345868 -0.008538317
000380 8d 37 c1 ba b3 e7 1d bd a1 fc fb bb 7a ed 0c bd
       -0.0014741287 -0.038551044 -0.007690028 -0.034406163
000390 5e bc 31 bb 6e 62 cc bb b0 21 ba 3c 4d df a7 3c
       -0.0027120332 -0.0062373197 0.022721142 0.02049222
0003a0 75 3f 07 3d b8 f0 05 3d 43 ba 64 3a 6c c0 ce bb
       0.0330195 0.03270027 0.0008725265 -0.0063095596
0003b0 9e 43 fc bc d4 a3 8b 3b 95 90 c8 bc b5 02 f3 3c
       -0.030793961 0.004261473 -0.024483005 0.029664377
0003c0 77 a4 25 3d c5 c9 0a 3d 2c 0a 9f 3b 88 a2 44 3c
       0.04044005 0.03388383 0.0048535075 0.012001641
0003d0 4a de 36 3d ad 0b f4 b7 fe 51 22 3d f1 05 9e bc
       0.044645585 -2.9092504e-05 0.039628975 -0.019289942
0003e0 99 10 88 bc 83 72 3b 3c 2d 95 05 3d 35 2c 15 bc
       -0.016609477 0.011440876 0.03261297 -0.009104778
0003f0 4b 23 c0 3c 9b 43 bd 3c 36 13 1f 3c eb 4f b7 bb
       0.023454329 0.023103526 0.00970917 -0.0055942438

conv3.weight f4 [4, 54, 8]
000000 5f 35 aa bc e3 07 6b 3b 9b 82 a3 bb f1 f7 43 bd
       -0.020777402 0.0035862855 -0.0049899346 -0.047843877
000010 71 68 96 ba a2 d3 08 bb 54 5e 89 3c 96 cc 8b ba
       -0.0011475218 -0.0020878096 0.016768612 -0.001066583
000020 2e 2a d2 3b 33 d0 43 3d 83 26 63 bc 82 71 26 bd
       0.0064137196 0.047805976 -0.013864162 -0.040635593
000030 fc e6 43 3d f3 04 a3 bc 76 62 93 3c ff 4a 9d 3b
       0.047827706 -0.01989982 0.017991286 0.0048002
000040 b9 74 e3 bb bb ba d7 3c 6d 3a cc 3b 05 51 b2 3c
       -0.0069414047 0.026334157 0.006232551 0.021767149
000050 81 a3 36 bd c1 8c 07 3c 21 79 a3 bc 45 91 05 3d
       -0.044589523 0.008273304 -0.01995522 0.032609243
000060 f4 43 e1 bc 61 94 12 bd 3f 98 af 3b 02 78 d9 bb
       -0.027498223 -0.035786036 0.0053587253 -0.0066366205
000070 c1 fb da bb fb ea 2c 3d c2 16 02 3d d4 71 c3 bc
       -0.0066828434 0.042216282 0.031759985 -0.023857988
000080 e0 b4 17 bc 9e fd 4d 3c 25 e1 6c 3c d0 cd 97 bc
       -0.009259433 0.012572674 0.0144579755 -0.018530756
000090 e8 b2 9e 3c c5 b2 32 3d 31 3d 11 bd 23 58 19 bd
       0.019372419 0.04362752 -0.035458747 -0.03743757
0000a0 bf 9a ff 3c af 97 22 bd b0 66 27 3d 8a a2 d6 bc
       0.031201718 -0.039695438 0.040869415 -0.026200552
0000b0 d6 2c a1 bb b8 6c 0f 3c 12 05 c4 3c 56 00 f2 3c
       -0.004918675 0.008753948 0.023928199 0.029541176
0000c0 73 44 39 3d 72 94 13 bd e4 95 d0 3c c9 5c b6 3b
       0.045231294 -0.03603024 0.025462098 0.00556526
0000d0 2c ba 15 3d cb 23 c5 3c 5d 2e 39 3c bb 06 89 3c
       0.0365545 0.024064919 0.011302558 0.016726842
0000e0 78 06 58 bd ab d7 2c bd 6c a8 c7 bc 79 66 d4 3c
       -0.052740544 -0.042197865 -0.024372302 0.025927769
0000f0 89 42 3d 3c f4 08 f2 bb 4b 43 1a 3c 9b 1c 0b 3d
       0.011551508 -0.007386321 0.009415458 0.033962827
000100 79 43 15 3d 55 ce c8 3c 63 31 d4 bb f4 ac b4 3a
       0.0364413 0.02451245 -0.006475614 0.0013784454
000110 20 60 44 3c b6 39 bd 3c 59 8f f0 3c 15 13 26 3d
       0.011985809 0.023098808 0.029365228 0.04054554
000120 21 a6 2f bd 15 60 06 3d 6a ed e3 bc f2 2d 2b bd
       -0.042883042 0.032806475 -0.027823169 -0.041791864
000130 35 ed a2 3b c8 9c 1c bd 74 93 bc 3c ed 19 03 bd
       0.004972125 -0.038235456 0.02301953 -0.032007147
000140 0d d3 28 3d ee bc b1 3c 71 17 ba bc a5 89 2a 3d
       0.0412169 0.021696534 -0.022716256 0.041635174
000150 20 8f 15 bd 77 6a 14 3d 1e f0 00 3d c1 a6 c5 3c
       -0.036513448 0.036234345 0.031478994 0.024127366
000160 d2 5c 81 3c 70 84 a1 3c e3 fb 08 bc 1d 43 bb 3c
       0.01579133 0.019716471 -0.008360836 0.02285915
000170 24 3a 27 bc 77 99 c3 3c 65 b4 3f bd 35 3d 27 bd
       -0.010206733 0.023876889 -0.046802897 -0.040829856
000180 20 85 3f bd 95 30 17 bd cc 2b 1a bd 46 b5 10 bb
       -0.046757817 -0.036911566 -0.037639424 -0.0022080704
000190 fe cc 3b bc 10 27 cd bc 97 bd e8 3c 37 0c 04 bd
       -0.011462448 -0.02504304 0.028410716 -0.03223821
0001a0 6e af 38 bd 1f dc 40 3c ee af 9b bc d6 33 93 bc
       -0.045089178 0.011771231 -0.019004788 -0.017969053
0001b0 4d 97 10 3c d0 2a 44 bb 5b 3e 81 3c 17 39 21 3d
       0.008825135 -0.0029932745 0.015776804 0.039361086
0001c0 83 f3 b9 3b 7e b1 34 bd 65 7d 0a 3d 73 df 94 b8
       0.005674781 -0.044114582 0.03381099 -7.0988106e-05
0001d0 a3 86 31 bd 3e eb c5 bc 7b 8f d3 bc d2 83 0b bc
       -0.04334129 -0.024160024 -0.025825253 -0.008515315
0001e0 28 4c 48 bd c5 08 9d 3c 17 75 ef bc ce f9 b7 3c
       -0.048900753 0.01916922 -0.029230637 0.022457983
0001f0 88 9a d4 3c c8 a3 8d bc 62 b4 49 bd 11 be 38 bd
       0.025952592 -0.017290011 -0.049244292 -0.045103136
000200 8e e2 d7 3c 4f fa d6 3c a5 d6 1e 3d 5f 24 5d bc
       0.026353147 0.026242403 0.03877892 -0.013497441
000210 c0 7e b5 3c cf 15 99 3c 0f fc f1 bb 7d b2 1d 3d
       0.022155166 0.018687157 -0.007384784 0.038500298
000220 2a 0c db ba 61 57 13 3c 6f 8e bc bc 99 83 51 3d
       -0.0016711999 0.008993001 -0.023017136 0.051150892
000230 87 83 e4 3c 39 0f 31 3d f2 5f 36 bd 15 e5 02 3d
       0.027894748 0.043227408 -0.044525094 0.03195675
000240 22 ad 2a 3d 54 db 12 3d 3d a7 10 3d 2f 4b 46 bd
       0.04166902 0.0358537 0.03531574 -0.048411544
000250 e9 94 cf 3c 30 24 6c bb 43 2a a2 bc a2 49 39 3d
       0.02533956 -0.0036032312 -0.019795543 0.045236237
000260 84 ba 36 bc f4 e2 27 bd bc 7f 0f bd 05 f8 e4 3c
       -0.011152867 -0.040987924 -0.035033926 0.027950296
000270 79 a7 17 bd 6b c1 6c bc 67 fc cb 3c 96 e2 d9 bc
       -0.03702495 -0.014450411 0.024900628 -0.026597302
000280 23 19 fb 3b 06 1b b9 3c 58 72 89 3c b1 e7 4f bc
       0.0076629086 0.022595894 0.016778156 -0.012689517
000290 c1 8f ed 3c 4b c2 07 bb f2 b1 17 3d 18 93 25 bd
       0.028999211 -0.0020715173 0.037034936 -0.040423483
0002a0 50 ed 2e bc b0 4c cd 3c 27 1a 41 3d ee 39 e2 3a
       -0.010676697 0.025060982 0.04714408 0.0017259696
0002b0 ff 82 0c 3d 33 d5 e5 bc 44 3f 60 3c 34 9a 33 3d
       0.034304615 -0.028055763 0.013686959 0.04384823
0002c0 e7 21 19 3d bf 32 c0 bc 44 76 42 bd 31 de 19 3d
       0.037385847 -0.023461698 -0.04747607 0.037565414
0002d0 53 4e 0e 3d d8 46 59 bd 93 6d 2d bd f6 92 8a b7
       0.034742665 -0.053046077 -0.042340826 -1.6519316e-05
0002e0 60 9d 29 3d 20 88 90 3c 1f 44 9e bb 94 84 a6 3c
       0.04140985 0.017643034 -0.004829898 0.02032689
0002f0 61 a1 2e 3d 6a 40 d4 bc 1a bf 7d bc a7 52 08 3c
       0.04263437 -0.025909621 -0.015487457 0.008320487
000300 fe 5d f6 3c e0 1d 04 3d ff 4c e3 3c 74 24 f3 3c
       0.030074116 0.032255054 0.027746676 0.029680468
000310 40 51 49 bd 23 93 a1 3c 3b ab 42 bc b6 69 ab ba
       -0.04914975 0.01972348 -0.011881645 -0.0013077769
000320 1b 0a d3 bb 8e df 4e 3d 89 89 2c 3d 57 35 52 ba
       -0.0064404137 0.050506167 0.04212335 -0.00080188125
000330 95 b8 d1 3c 79 fb 2c 3d 7f 27 10 3d 58 13 34 bd
       0.02560071 0.04223201 0.035193916 -0.04396376
000340 42 05 d2 3c 1a 9d 3d bc 0e 38 b8 3b fa df ed bb
       0.025637273 -0.0115731 0.0056219166 -0.007259366
000350 d4 2f 1d bd c5 5b 19 bc c4 64 0f 3d 52 8e 5e 3c
       -0.03837569 -0.0093602585 0.035008207 0.0135837365
000360 83 23 2b 3d 19 ed 0b 3c 0a 35 0c bc 2b 45 49 bd
       0.041781913 0.008540415 -0.008557567 -0.04913823
000370 5c 39 39 3c 7d 52 97 3c 69 a3 a6 bb 46 4a ec 3c
       0.011305179 0.01847195 -0.005085398 0.02884401
000380 13 02 92 bb 9a 94 d2 bc 2f f1 04 bd 02 19 03 bd
       -0.0044558137 -0.025705624 -0.032456573 -0.03200627
000390 ef 93 d1 3c 3e 53 1e bd c2 fa 39 3c ac 13 e1 bc
       0.025583236 -0.038653605 0.011351289 -0.0274752
0003a0 95 84 67 bc 01 0a 29 bd 70 4b 37 bc 71 0d 89 3c
       -0.014130731 -0.041269306 -0.011187419 0.016730042
0003b0 d3 33 39 bd fe 30 db 3c 0c 93 4b bd 91 07 16 bd
       -0.04521544 0.02675676 -0.04970078 -0.03662831
0003c0 cf 33 c9 bb 8f 52 f4 bb 53 90 b5 3b 52 5a 02 3d
       -0.0061402093 -0.007456131 0.0055408864 0.031824417
0003d0 f1 a8 72 bc 7e 2c 23 3d 51 da a1 3c a7 4a 99 3c
       -0.014810787 0.039837353 0.019757422 0.018712355
0003e0 1c 73 12 3d 44 dd 30 ba fd fb 40 bc aa 3d 2b 3d
       0.035754308 -0.00067468383 -0.011778829 0.041806854
0003f0 a2 36 04 bd a2 56 22 3d e1 4a e6 bc fa 05 5d bc
       -0.032278664 0.0396334 -0.028111877 -0.013490194

dense1.weight f4 [284, 132]
000000 64 11 ab bd d1 52 84 bd 7d 34 97 bd 60 c7 89 bd
       -0.083529264 -0.064611085 -0.07383058 -0.06727481
000010 45 84 97 bc 8f 63 0b 3c c6 2b 81 bc f5 0a a8 3b
       -0.018495688 0.008507623 -0.015767943 0.0051282593
000020 11 49 6f bc 33 c8 73 3d 30 11 82 bd c7 42 34 bd
       -0.014604823 0.059517097 -0.063509345 -0.044008996
000030 c6 36 78 3d 73 3b 2d bd 15 f0 0e bc df b9 41 3c
       0.06059911 -0.042293023 -0.008724232 0.0118241
000040 f1 3c 85 bd 55 67 b1 bc 3b 81 e8 bc 6a de a0 3d
       -0.06505764 -0.021655718 -0.028381934 0.07854922
000050 bf 52 58 3b 55 82 16 3d fc a5 30 3d 97 e0 a0 bd
       0.0033008305 0.036745388 0.043127045 -0.07855337
000060 75 b6 42 3d b5 9b 5a bd 2b 24 b3 3c 87 e1 57 3c
       0.047537286 -0.05337115 0.021867832 0.0131763285
000070 65 35 27 3c 8a 75 8f bd 73 19 91 bd a7 1d 3d 3d
       0.010205601 -0.07004841 -0.07084932 0.046170857
000080 99 1a 59 bd d7 e8 91 bc 78 54 76 bb 97 ba 62 bc
       -0.05300388 -0.017811222 -0.0037586968 -0.013838432
000090 74 e6 17 3d 85 eb 91 3c 52 ab 82 3d 11 89 3a bd
       0.03708501 0.0178125 0.06380333 -0.045540873
0000a0 16 40 4b 3b f9 6d e5 bc 36 5d 97 3d 2c 5a fe 3c
       0.003101354 -0.02800654 0.073908255 0.031048857
0000b0 ea a7 a2 3d 0f d3 36 bc ad a0 2e bd cf 0e 6d bd
       0.07942183 -0.011158719 -0.0426337 -0.05787545
0000c0 4a 7b d4 bc a1 e1 4f 3d 83 63 54 bd c2 29 31 3d
       -0.025937695 0.050752286 -0.051852714 0.043252714
0000d0 64 a4 85 bd 17 93 1c bd a0 01 86 bd 20 4f 68 3d
       -0.06525496 -0.038226213 -0.06543279 0.056716084
0000e0 37 0e 37 3a 44 d4 42 bb 6e de 9f bd f0 ff 86 bd
       0.0006983014 -0.002972857 -0.07806097 -0.06591785
0000f0 1b 8b 92 3d 00 17 cc 3b 05 51 de 3c 9c 30 80 bd
       0.071554385 0.0062283278 0.027138242 -0.062592715
000100 0e 76 cd bc d3 c4 e9 bc a4 a5 4d bc 2a 7a 88 3d
       -0.025080707 -0.028536236 -0.012551699 0.06663926
000110 81 54 17 bb 54 09 a2 bb 60 8b 25 3d 85 fd af bd
       -0.002309114 -0.0049449597 0.04041612 -0.08593277
000120 26 0c 61 3d d1 c0 84 3d 01 2f 25 3d db f4 9d bd
       0.054943226 0.06482089 0.04032803 -0.07712718
000130 01 cd 5d bd 6b 53 fb 3c 98 fa 36 bd db 45 48 3d
       -0.054150585 0.030679425 -0.04467258 0.048894744
000140 b7 e9 94 bc 04 31 ac 3d 38 80 24 3c f7 18 84 bd
       -0.01817785 0.084077865 0.010040335 -0.06450074
000150 9f 0b 51 bd 44 68 66 bd d4 d1 42 3d 56 06 95 bc
       -0.051036473 -0.05625178 0.04756339 -0.018191498
000160 11 05 fd 3c 1a 66 1d 3d a0 a7 7e bc 0c dd 04 3d
       0.030886205 0.03842745 -0.015542895 0.03243737
000170 61 03 1f bd f6 37 b0 3d 99 73 8a 3c 48 f3 ab bd
       -0.03882158 0.08604424 0.016900824 -0.083960116
000180 eb ce 0a bc c5 58 b9 bd 52 f2 ab bd af 79 af 3d
       -0.008472185 -0.090501346 -0.08395828 0.08568131
000190 46 9f 6f 3c 83 db 8f bd 4d 19 ee 3c 84 b1 44 bd
       0.014625376 -0.070242904 0.029064799 -0.048020855
0001a0 da 05 80 3d 59 86 24 3d 4c 2d 9c 3d 66 42 3f bd
       0.06251116 0.040167186 0.07625827 -0.04669418
0001b0 09 66 1c bd 0b a6 24 3d dc 51 95 bd e3 31 0b 3d
       -0.038183246 0.040197413 -0.07291004 0.033983123
0001c0 91 94 cd bc 57 c7 c5 bb 85 32 8b 3d 67 1c 4c 3d
       -0.025095256 -0.006035726 0.06796745 0.049831774
0001d0 ad db 5c 3d cc 60 ca bc d1 27 72 3d a1 f1 b2 3c
       0.053920437 -0.02470436 0.059120003 0.021843733
0001e0 19 f1 87 bd 56 73 a7 bd 38 02 32 bd 52 9a 32 3d
       -0.066377826 -0.081762955 -0.043459147 0.043604203
0001f0 8c 5f 47 bd fc 50 a9 bd 7a 9f 67 3d a9 87 9c bd
       -0.048675105 -0.082674 0.056548573 -0.076430626
000200 6e 84 9c bb 9d 88 a9 bc e2 82 a7 3d d1 8b 58 bd
       -0.004776529 -0.020695025 0.08179261 -0.052867714
000210 05 81 a1 bd 31 df f1 bc c4 13 80 3d 65 d1 87 bd
       -0.07885937 -0.029525371 0.0625377 -0.06631736
000220 00 b2 10 bc 0f d5 6f bd ef 6e d4 ba 7e 20 65 bd
       -0.008831501 -0.058552798 -0.0016207377 -0.05593919
000230 59 48 97 3d 0f 96 a7 3d 3c fd 1b 3d 08 ae 97 bd
       0.07386846 0.08182918 0.0380833 -0.07406241
000240 de 6e 27 bd 5b a1 e4 3c 25 6d bb 3b ad 96 1b 3d
       -0.040877216 0.027908972 0.005719798 0.037985492
000250 cc 92 a6 3d 8a 7c 66 bd ea 1a 79 3c 16 00 88 3d
       0.08133468 -0.056271113 0.015204171 0.066406414
000260 9b c1 3e 3d 73 29 6c 3d 5d ae 8d bd ef 56 61 3d
       0.046571355 0.057656717 -0.06918023 0.055014547
000270 41 8d 07 3d e4 3a 84 bd 87 fe 81 3c a2 6e 04 bd
       0.033093695 -0.06456545 0.015868438 -0.03233207
000280 2a 21 7b 3d 44 d7 a2 bd 71 6e a3 3c ae 69 a2 3d
       0.061310925 -0.07951215 0.019950124 0.07930313
000290 44 37 ee 3c 6d d3 1b bb fc 41 a7 3d 2c 81 ec bc
       0.029079087 -0.0023777143 0.081668824 -0.028870188
0002a0 29 66 8d 3d 48 e2 20 bc a6 57 a6 bd 89 c3 21 bd
       0.06904251 -0.009819575 -0.08122186 -0.039493117
0002b0 d7 14 21 bd 9b 08 1a bd ba 25 b7 3d c9 6e 99 bd
       -0.039326515 -0.037605863 0.08942743 -0.07491834
0002c0 b1 9f a0 3c 5f d8 fb 3c 55 ec 84 3d 2e be 34 bd
       0.019607397 0.030742822 0.06490389 -0.044126682
0002d0 4a e6 ab 3d 59 02 1b 3d 75 49 51 bd 69 39 1c bc
       0.083935335 0.037844036 -0.051095445 -0.009535172
0002e0 07 d6 47 bc ab 33 f0 bb 49 2e 08 bc 19 00 e6 bb
       -0.012197024 -0.007330378 -0.0083118165 -0.0070190546
0002f0 63 e6 9b 3d a0 44 da bc f9 ae 3b bd 06 8a 58 bd
       0.07612302 -0.026644051 -0.045821164 -0.052866004
000300 53 60 a9 bd 13 4a 8c 3d fd 66 78 3a 0f a5 01 3c
       -0.082703255 0.06850066 0.00094757957 0.007912888
000310 0c 04 a0 3d 64 7c c3 3b f2 4b a4 3b fa 74 69 3d
       0.07813272 0.0059657563 0.005013936 0.056996323
000320 dc 89 3b bd 28 46 47 3b 3c 2f 00 bd 29 e2 69 bd
       -0.04578577 0.0030406807 -0.031295046 -0.05710045
000330 a7 3d e1 bc 55 06 61 3d a9 fa 7b 3d 3c bd a1 3d
       -0.027495218 0.05493768 0.061518345 0.07897422
000340 27 e1 04 3c 9d d9 9b 3d 69 33 8c bd de ce 30 bd
       0.008110321 0.07609866 -0.06845743 -0.043166034
000350 fc 14 4e 3d e4 e4 94 3d 2c 76 27 3d 91 49 32 bd
       0.05031298 0.0727022 0.04088418 -0.04352719
000360 3b 80 16 3d 75 25 e8 3c 08 13 88 3d ae fe bf bb
       0.036743384 0.028338173 0.06644255 -0.0058592176
000370 f6 94 5f 3d 46 7c 4a bc 1e a2 06 bd 54 0b 93 bd
       0.05458542 -0.012358731 -0.03286945 -0.07179895
000380 57 ac 8f 3d 06 ec 5b 3d bb 2d 20 3d c9 69 18 3d
       0.07015293 0.053691886 0.039106112 0.03721026
000390 9e 55 40 bd f0 96 a8 3c 58 f6 88 3d c9 82 a2 3d
       -0.04695665 0.020579785 0.06687611 0.079351015
0003a0 56 3e 9a 3d a3 3c 66 bd 0f f0 c6 3c 5f d4 92 bc
       0.07531421 -0.05621017 0.02428439 -0.017923532
0003b0 4b 06 66 3d 26 4f d2 bc 7e a5 42 bd e1 40 73 3d
       0.056158345 -0.025672507 -0.047521107 0.059388045
0003c0 74 42 27 3d 49 1c 37 bd 60 7d fe 3a 64 77 2c 3d
       0.04083486 -0.04470471 0.0019416027 0.042106047
0003d0 55 8f 82 3c 64 19 51 3d 4c 39 cf 3b d7 0a 67 bd
       0.015937487 0.051049605 0.006323969 -0.056406822
0003e0 e8 aa 2b 3d c0 8e 7c b9 c4 34 43 bd b2 eb c3 bb
       0.041911036 -0.00024085771 -0.047657743 -0.005979025
0003f0 21 89 01 3d 05 f9 9b bd 9b a4 2a bc 1f 92 cd bc
       0.031624917 -0.07615856 -0.010415222 -0.02509409

dense1.bias f4 [284]
000000 8f b1 4b bc bb dd 00 3c 57 ea 04 bd d0 d5 3d 3b
       -0.01243247 0.007865365 -0.032450046 0.0028966554
000010 0a d6 fb bc d5 fd dd 3c 8a e8 3f bd 09 21 a9 3d
       -0.03074171 0.027098576 -0.046852626 0.08258254
000020 21 a2 9d 3d f3 b0 5a 3d 99 13 92 3d e0 c7 51 bd
       0.07696939 0.05339141 0.07132644 -0.051216006
000030 c0 66 41 3d 0c 8d 87 b8 45 4e 5e 3c f1 96 57 3c
       0.04721713 -6.463574e-05 0.013568466 0.013158546
000040 0d 22 32 bd ba 9f a6 bc c3 b0 38 3d ac ba a5 bd
       -0.043489505 -0.020339835 0.045090448 -0.080922455
000050 42 01 80 bd 91 3e f7 bb 8d 48 62 3c 56 0e 15 bd
       -0.0625024 -0.0075453003 0.013811243 -0.036390625
000060 b1 d4 8d bd 81 75 02 bc 55 d8 96 bd e3 e1 8d 3d
       -0.06925333 -0.007962585 -0.07365481 0.0692785
000070 87 1a 76 bd c3 de 05 bd f0 13 9c bc 8e 7f 0a 3d
       -0.060083892 -0.032683145 -0.019052476 0.033813052
000080 a5 c0 0a bc fe 18 fe 3b 85 d1 62 bd 17 78 90 3d
       -0.008468782 0.007754444 -0.055375595 0.07054155
000090 19 76 82 3c a6 87 17 bd 4b 0c 40 3d ab 28 6a bd
       0.015925454 -0.0369946 0.046886723 -0.05716769
0000a0 44 38 63 3d be 77 0c 3d 12 43 bd bc 45 58 42 bc
       0.05547358 0.034293883 -0.02310327 -0.011861865
0000b0 be 36 a6 3d b5 34 54 bd 3a 2f ca bc 17 bd 07 bd
       0.0811591 -0.051808078 -0.024680723 -0.033139315
0000c0 13 da 49 3d 10 ff 46 3d bc 08 47 bd bf 88 04 3d
       0.049280237 0.04858309 -0.048592314 0.032356974
0000d0 bf c4 a0 bd da 7c 74 3d 07 e5 77 3c 5b ea f9 3b
       -0.07850026 0.05968938 0.015130288 0.0076268143
0000e0 1d 0c 3d bd 78 72 ad bd 33 40 a8 3d 82 4b 2a 3d
       -0.04615413 -0.08469099 0.0821537 0.041575916
0000f0 13 a5 08 bd de 52 4a 3c 3d 19 a7 bd 47 c9 7e 3d
       -0.033360552 0.012348859 -0.08159111 0.06220367
000100 ec 1a 60 3d 6a 8f 46 3d d5 e4 a6 3d d1 cc fe bc
       0.054713175 0.048476614 0.08149115 -0.031103523
000110 ae 27 9a 3d 27 bd 85 3c ad 21 2c 3b ba a9 5c bd
       0.075270995 0.016325546 0.002626519 -0.0538728
000120 c9 4c 1e bd 95 a1 95 39 f1 a3 4b 3d 85 c7 25 bd
       -0.038647447 0.00028539883 0.049716894 -0.04047348
000130 81 07 e7 3c 1c 9a 5a bd ed 37 b4 bd 4e 8d ae bd
       0.02820182 -0.053369626 -0.087997295 -0.085230455
000140 8e 26 8d bd 8a d0 58 bb 3e e0 7e 3d f2 7d c2 ba
       -0.06892119 -0.0033083283 0.062225573 -0.001483856
000150 ac ec 36 3d f2 0c 64 3c ae cc 93 3d 28 7c 0c 3d
       0.0446593 0.013919102 0.07216774 0.034298092
000160 4d e6 fe 3c 6b fe 76 3d 8b 85 5a bd 51 f4 24 bd
       0.031115675 0.060301226 -0.053350013 -0.04027206
000170 b1 11 07 bd 15 c7 84 bd b2 86 87 bd 1a e9 5e 3d
       -0.032975856 -0.064832844 -0.06617488 0.05442152
000180 45 13 74 bd 0c 3a a0 3d 28 e3 63 bd fb d6 22 3c
       -0.05958869 0.078235716 -0.055636555 0.009938951
000190 3e 59 8c bc d8 61 32 3d a4 45 ab bd 54 de 57 3c
       -0.017132398 0.043550342 -0.08362892 0.013175566
0001a0 5b 3a 85 bd e9 17 8b bd 95 e4 a9 3d 32 25 98 3c
       -0.06505271 -0.0679167 0.08295552 0.018572424
0001b0 b3 a1 62 bc bf e0 8e bd 42 8b b2 bd 3d b9 3e bc
       -0.013832497 -0.06976461 -0.087179676 -0.011640844
0001c0 29 38 2f 3c bd 82 3f bc c9 9e a5 bd d6 17 43 bb
       0.010694542 -0.011688885 -0.080869265 -0.0029768846
0001d0 e5 bc 21 3d ea 5c 2d bd c6 67 0a 3d d8 19 24 bd
       0.039486784 -0.042324938 0.033790372 -0.04006371
0001e0 ce 7c 8a bd f9 93 76 bc 29 7a 3c 3c 68 4f bc 3a
       -0.06762086 -0.015049928 0.011503735 0.0014366927
0001f0 75 15 a3 3d 48 93 05 bd 25 19 b0 bc a6 ec 53 bd
       0.07963077 -0.03261116 -0.021496365 -0.051739357
000200 d2 4a ad bd c5 b1 ae bc 61 0e 9f bd ea fd a3 3d
       -0.084615365 -0.021325001 -0.077664144 0.08007415
000210 e6 07 b1 3c e6 58 af bd fc 8f 34 bd 6c 2a 5d bd
       0.021610212 -0.08561878 -0.044082627 -0.053995535
000220 0c b0 fe bc 2d 06 a8 3d 8f a2 4d bc 31 d2 13 bd
       -0.031089805 0.08204303 -0.012550964 -0.036089126
000230 2a 36 a8 3d 3f 38 e4 bc 3a 4b 98 bd 5d 83 09 3b
       0.08213456 -0.027858851 -0.07436223 0.002098284
000240 20 0d d2 3c a2 e8 a8 bd ba 01 cf 3c ca 28 36 3d
       0.025641024 -0.08247496 0.025269378 0.044472493
000250 fa 29 4c bc 1d 1d 3f bd 4c 41 2a bd 46 1f 00 bd
       -0.01246118 -0.046658624 -0.04156618 -0.031279825
000260 6f 59 d7 bc a5 94 01 bc a8 e8 93 3d 2f a1 ea 3a
       -0.026287762 -0.007908975 0.0722211 0.001790082
000270 3d 9b 87 3d 50 83 29 3d 9e 4c 02 bd 77 4b 89 3d
       0.06621406 0.041384995 -0.03181135 0.06703847
000280 14 93 29 3d 58 60 84 bd 86 71 05 3c 16 dd 9e 3d
       0.04140003 -0.064636886 0.008144742 0.077570125
000290 8d 24 53 bd d8 2a 53 bd 27 08 8c bd dd d0 65 bc
       -0.05154853 -0.05155453 -0.068374924 -0.014026848
0002a0 a6 d3 a0 bd a3 2f 34 bd e1 79 98 3d 7d aa 1d 3c
       -0.07852869 -0.043990742 0.074451216 0.009623167
0002b0 a0 76 fc bb 69 4d 18 bd 00 c0 df 3c 6a 00 9f 3d
       -0.007704571 -0.0371832 0.027313232 0.07763751
0002c0 9e 71 c8 bc 9c 8d ca 3c 81 18 76 bd 7e be f4 3b
       -0.02446824 0.024725728 -0.060081962 0.0074689975
0002d0 a6 c2 47 3c c2 d5 4c 3d 39 f1 a8 bd 5a 39 17 bd
       0.012192404 0.050008543 -0.082491346 -0.03691993
0002e0 fe 03 99 3c f5 58 c0 ba f0 91 3f 3d a5 a8 64 bd
       0.018678661 -0.0014674949 0.046770036 -0.055824894
0002f0 39 b9 a4 3d e4 db 3d bd 68 ab a3 bd c1 01 86 bd
       0.08043141 -0.046352282 -0.079916775 -0.06543303
000300 22 f1 8f 3d 98 d1 59 3d 96 6a 8b bb 7b 39 0d 3d
       0.07028414 0.0531784 -0.0042546494 0.034478646
000310 ce c0 ec bc a8 a0 03 bd 77 50 73 bd 8d 4e be 3c
       -0.02890053 -0.032135636 -0.05940291 0.023230815
000320 0f 8b 51 3d ca 07 81 bd 89 e0 a6 3d 67 2d 60 3d
       0.051158007 -0.06300314 0.081482954 0.0547308
000330 4f 4f 1c 3d fe e5 4e 3c bf db 37 3d 3a f1 9c 3d
       0.038161572 0.012628077 0.0448873 0.07663198
000340 6e 15 2f bd 2b e3 91 3d 5b a4 9d 3d a9 4b 4b bd
       -0.042745046 0.07123407 0.07697364 -0.049632702
000350 1f 07 82 bd 2d 64 02 3d 39 5a 9d 3d 91 b7 a0 bc
       -0.063490145 0.031833816 0.07683224 -0.019618781
000360 a1 c2 86 bd 6e e7 52 bd 8b 38 2b 3d 9e e8 93 bd
       -0.06580091 -0.05149024 0.04180197 -0.072221026
000370 98 40 5c bd f1 ce 12 3d 99 59 6e bb 1e 4b 5c 3d
       -0.05377254 0.035841886 -0.0036369322 0.053782575
000380 92 68 85 3d 88 8c 75 3d 1c 83 77 b9 f0 85 74 bd
       0.06514086 0.059948474 -0.00023604598 -0.059698045
000390 05 b9 8c 3d 81 39 1d bd d4 d4 cc bc a8 f9 a7 bc
       0.06871227 -0.038384918 -0.025003828 -0.020504788
0003a0 2c 4b dc bc b3 7c c2 3c de 4f e0 bc 07 3d 14 3d
       -0.026891313 0.023741102 -0.027381834 0.036191013
0003b0 73 e1 21 3d 8d 59 43 bd 20 25 74 bd f5 8f 2a 3b
       0.039521646 -0.047692824 -0.059605718 0.0026025746
0003c0 46 7d 52 3d 08 ea c7 3c e8 cd d6 bc 8c b6 8c 3c
       0.051389 0.024403587 -0.02622123 0.017176889
0003d0 bc 34 60 3b 7d 91 9b 3d 26 2e 09 bd 9c 71 04 3d
       0.003421112 0.07596109 -0.033491276 0.03233491
0003e0 8f 9f c8 3c 2c ff 57 3d 30 0e 02 3b 8d 5f 71 3d
       0.024490146 0.052733585 0.0019844882 0.058929015
0003f0 94 53 5d 3d f8 d7 86 3d 13 15 b3 bd 98 7a 16 3c
       0.054034784 0.065841615 -0.08744254 0.009184502

dense2.weight f4 [85, 284]
000000 b0 82 4d 3d b0 38 01 bd 9a f3 57 3d 77 bc 1f bd
       0.05017346 -0.031548202 0.05272255 -0.038998093
000010 3a 0c 93 3c dd a8 1a bc 9e 5e 2a bb 11 06 2b bd
       0.017950166 -0.009439674 -0.0025996338 -0.041753832
000020 54 99 64 bd 60 f4 d5 bc 57 ce e2 3c a5 e9 e3 3c
       -0.055810288 -0.026117504 0.027686281 0.027821371
000030 5b d5 85 bc 38 85 34 3d 5e 94 03 3d e7 e0 6d bd
       -0.016337087 0.04407236 0.032123916 -0.05807581
000040 fb e5 28 3d 63 c5 65 bd 43 f1 d3 bc 65 07 4d bd
       0.04123495 -0.056096446 -0.025871878 -0.05005588
000050 53 50 93 3c cb 0c 53 bd 4b 40 c3 3c 96 9f 9b 3b
       0.017982638 -0.051525872 0.023834368 0.0047492487
000060 67 5d 3c bd 15 8b 5f 3d 8d 75 36 bd 26 d0 ee 3c
       -0.045987513 0.054576 -0.0445457 0.029151987
000070 06 f9 ae 3b cc 8f 07 3d 31 58 c3 3a c1 d3 84 bc
       0.0053397445 0.03309612 0.0014903602 -0.016214253
000080 e5 36 15 bd b9 b1 9b bc bf 96 6a 3d e0 e9 d6 3c
       -0.036429305 -0.019005643 0.05727267 0.026234567
000090 c1 54 0d bd b6 31 df bb d3 07 7c 3d ae cf 25 3d
       -0.034504656 -0.006811346 0.0615309 0.040481262
0000a0 db 6b 4c 3d 40 3e 2f 3d e9 4c 1b 3d 5d fc 2d bd
       0.049907546 0.042783976 0.037915144 -0.042477
0000b0 fe a2 fb 3c fd 0b 9a 3c fe 78 a1 3b 78 e6 8e bc
       0.03071737 0.018804545 0.0049277535 -0.01744388
0000c0 a3 a9 8d bd a5 a4 78 3d 19 cf fb ba c9 00 55 3d
       -0.06917121 0.060703892 -0.00192115 0.052002702
0000d0 05 ba 70 bd b0 0d ba 3c 02 fc 49 bd 43 fc 88 bc
       -0.058771152 0.022711605 -0.0493126 -0.01672185
0000e0 46 4d 8b 3c af 4c 01 3d e3 32 9f bc 69 15 0a bd
       0.01700462 0.03156727 -0.019433444 -0.033711825
0000f0 dd 16 e4 bc 1f 03 22 3d 11 bf 4a bd 99 15 ad bc
       -0.027842933 0.039553758 -0.04949862 -0.021128463
000100 c2 5f f7 bc 65 bb 46 bc ba 31 73 3d 38 a0 76 bc
       -0.030197028 -0.012129639 0.059373595 -0.015052848
000110 00 5c 48 3d d9 8b d5 3c f5 d5 66 3b 9d 9f 6f 3d
       0.048915863 0.026067661 0.0035222743 0.05850183
000120 cf 7e ec 3c f8 c4 64 bc a9 ea 3c 3d a6 b7 94 bc
       0.02886906 -0.013962977 0.046122227 -0.018153977
000130 f7 0f 2c bd 3e 4f 1a bd 68 62 3d 3d ba de 16 bc
       -0.042007413 -0.037673227 0.046236426 -0.009208376
000140 9c 40 16 3d ad 00 e4 3c a3 63 a9 3c 22 a1 f8 bc
       0.03668271 0.027832353 0.020677393 -0.030350272
000150 4f c0 fb 3c 9e 6e 42 3c 76 7b 0d bd 3a 28 32 3d
       0.030731348 0.0118671935 -0.03454157 0.043495394
000160 55 47 8d bc 6d 63 89 bc ae de 0d bd 7e 37 10 bd
       -0.017245928 -0.016771043 -0.034636192 -0.03520917
000170 2b eb 44 bc b2 82 0e bd 3b 06 2f bc 50 ee 0c 3d
       -0.012018959 -0.03479261 -0.010682638 0.03440696
000180 9e cf 91 bb 88 19 fd 3a f4 4e 01 bd 7c ba 0a 3d
       -0.0044497987 0.0019309977 -0.031569436 0.03386925
000190 0b 1b 1e bd d2 1f ce 3b 23 1f 67 bd 02 9d 4e bd
       -0.03860001 0.0062904144 -0.05642618 -0.050442703
0001a0 b4 64 b9 b9 9a 40 39 3d 59 6a 24 bd 72 42 2c 3c
       -0.0003536098 0.045227624 -0.040140484 0.010513889
0001b0 b5 54 ee bc 4f 5f f1 3c b0 f1 c6 3c 86 ff bc bc
       -0.029093126 0.029464392 0.024285167 -0.023071062
0001c0 f5 16 5c bd 0e 8f 55 bc 81 fe 2c bd ab f9 a1 bb
       -0.05373283 -0.013034595 -0.0422349 -0.004943093
0001d0 85 c6 fb ba 4a 76 3d 3d a6 29 89 bc 26 29 02 3c
       -0.0019208944 0.046255387 -0.016743492 0.007944381
0001e0 15 60 50 3d 64 5f 11 bd 6e db 5a 3d cd 02 2f bd
       0.05087288 -0.035491362 0.05343192 -0.04272728
0001f0 61 70 b0 bc 1a 05 53 3c bf 49 35 bd ef d5 27 3d
       -0.021537961 0.012879634 -0.044259783 0.040975507
000200 cf 6e 35 bc e5 22 0f 3d 36 7a 0f 3d 9f 63 d0 bc
       -0.011073782 0.034945387 0.03502866 -0.025438128
000210 36 ed 67 3d 67 ad 13 3d d0 1d e1 bc 66 86 c2 bc
       0.056622706 0.03605404 -0.027480036 -0.023745727
000220 33 8a 5a bd d2 36 02 bd 97 e2 43 3c 9d 95 82 bc
       -0.053354453 -0.031790562 0.011955879 -0.015940482
000230 3b 18 70 bd 36 ec a1 bc ad cc c4 bc 53 f7 06 bd
       -0.058616858 -0.019765954 -0.024023378 -0.03295071
000240 52 16 1f 3d 42 5b 0e bd bf 47 42 3d 0d 94 25 bd
       0.038839646 -0.034755 0.047431704 -0.040424395
000250 e5 b3 02 bd be 71 fc bc d9 84 66 bd 8e d6 ae 3c
       -0.031909842 -0.030815955 -0.056279037 0.021342542
000260 f4 7a 71 3d e6 72 21 3c d6 19 28 3d a1 33 39 bd
       0.058955148 0.009854054 0.041040264 -0.045215253
000270 08 0d ce 3c e6 02 68 3d b7 95 1f bd 2c a7 e6 3b
       0.025152698 0.05664339 -0.03896114 0.0070389714
000280 37 5b 2f bd 39 4b 13 bd 5d 49 97 3b af 3e 63 3d
       -0.0428116 -0.03596041 0.0046169 0.0554797
000290 51 09 5b 3d 36 3e 47 bd 44 c6 0e 3d 10 c7 1b 3d
       0.05347568 -0.048643313 0.03485705 0.038031638
0002a0 86 fc ab 3c 83 a4 aa 3c ba 71 69 bd af 5b 5e 3d
       0.020994436 0.020830398 -0.056993224 0.054286655
0002b0 a3 d8 42 bd a5 71 01 bd ba 4d 04 bd 7c 72 0d 3d
       -0.047569882 -0.03160252 -0.03230069 0.03453301
0002c0 fb 5d 25 3d 1e fb d7 3c 45 18 3a bd 3e 3c fa 3c
       0.04037283 0.02636486 -0.0454333 0.030546304
0002d0 87 6a 0d 3d 72 e8 52 bd a4 6a c6 3c e8 86 d1 bc
       0.03452542 -0.05149121 0.024220772 -0.025577024
0002e0 2c 91 4e 3d 59 0c 8c 3c de b9 1e 3d 40 0f 4c 3d
       0.050431415 0.017095732 0.038751476 0.04981923
0002f0 bc be 35 bd 8d 96 84 bc 93 b8 14 bd 59 4e 90 3c
       -0.04437135 -0.01618507 -0.036308836 0.017615484
000300 dd 10 4e 3d cb 7a 1a bc 28 83 ab 3b a3 38 b8 bc
       0.05030905 -0.00942869 0.005234141 -0.022487944
000310 a4 24 1f 3d 88 9d 42 bd e0 fd 90 bc 37 6c 9c 3b
       0.038853303 -0.047513515 -0.017699182 0.0047736424
000320 ed 4a 1c bd de a2 b0 3c 3e c9 ac bc b9 97 11 3b
       -0.038157392 0.021562036 -0.021092054 0.0022215678
000330 68 31 48 3c 54 47 42 3d 9a 5f 6e 3d f2 78 1c bd
       0.012218811 0.047431305 0.05819664 -0.03820128
000340 eb 8b 44 3d 34 84 5f 3d 40 d4 d3 bb 4b 04 ad 3c
       0.047985 0.054569438 -0.006464511 0.021120211
000350 86 54 62 3d ef 76 f0 bc 7e 02 28 bd 45 0d ca 3c
       0.05525639 -0.029353587 -0.041018 0.02466453
000360 59 2c 64 bd 63 70 0d 3d 0f 99 37 3d 01 81 27 3d
       -0.055706356 0.03453101 0.044823702 0.040894512
000370 b2 6d 6e bd 7b 1c 15 3d b1 88 42 bc 56 f3 8e bb
       -0.058210082 0.036404114 -0.01187341 -0.004362504
000380 48 08 11 bd 07 79 76 3b 58 59 c8 bc f7 92 8b bc
       -0.03540829 0.003760876 -0.024456665 -0.017037852
000390 01 1d 45 3c 46 20 fd bc 42 b5 53 3b 6f b6 d4 3c
       0.012030841 -0.030899178 0.0032304083 0.025965897
0003a0 84 51 54 3d 63 f5 4f 3d f5 0a de 3c fb be 5a bc
       0.05183555 0.05077113 0.027104834 -0.013351197
0003b0 6c 30 6a 3d 2d 5d 73 3c 4d 81 00 3d d5 c2 a9 3c
       0.057175085 0.014853758 0.03137331 0.020722786
0003c0 de 11 00 3d a8 23 17 3d 55 be 42 3d f8 d6 67 3d
       0.03126704 0.03689924 0.047544796 0.056601495
0003d0 25 46 a6 3a 35 d3 10 bd e4 07 2e 3d e7 e6 41 bd
       0.00126857 -0.035357673 0.042487994 -0.047339346
0003e0 29 b2 56 3d 7d 46 2a 3d bf 7f ba bc b5 3e 2d bb
       0.052416 0.04157113 -0.022765992 -0.0026435081
0003f0 aa 49 95 3c a9 26 11 3d 40 c0 aa bc 58 91 98 bc
       0.018223602 0.03543726 -0.020843625 -0.018623993

dense2.bias f4 [85]
000000 f6 1e e1 3c f2 dd 1f 3c 34 e0 33 3d 76 98 ed bc
       0.027480584 0.009757506 0.04391499 -0.029003363
000010 37 32 66 bd f4 b7 19 bd 10 ae bc bc 6a 7b 1c bd
       -0.056200232 -0.037528947 -0.023032218 -0.038203634
000020 e3 68 5d bd 6b 48 4a 3c 33 2f 2e bd 5c 2b 0a bd
       -0.054055106 0.012346367 -0.04252548 -0.033732757
000030 59 c1 04 bd 29 53 cb bc 9c fa 77 3c 04 5d 6b bd
       -0.032410953 -0.024819927 0.0151354335 -0.057461753
000040 03 fa 00 bd c8 77 fb ba 79 ea 75 3d bb bd 34 3d
       -0.03148843 -0.0019185478 0.060038064 0.044126254
000050 13 35 4d bd da 36 b5 3b 16 05 54 3d d4 4d 0c bd
       -0.050099444 0.0055302205 0.051762663 -0.03425391
000060 88 7b 47 bd f2 87 2a 3d 12 fd 79 3d 42 ae fa 3c
       -0.048701793 0.041633554 0.061032362 0.03060067
000070 93 79 06 bd c2 39 58 3d 76 15 4d bd 85 22 67 bb
       -0.032830786 0.052789457 -0.050069295 -0.0035268378
000080 db 7c 3a bc e3 5f 13 3d d0 24 d9 bc d6 94 8e bc
       -0.011382307 0.035980117 -0.026506811 -0.017404955
000090 03 59 26 bd b3 86 7c 3d 5a bb 81 bb bf a9 07 bc
       -0.040612232 0.061651897 -0.0039591016 -0.008280217
0000a0 75 9b 56 3d 47 fe 20 3d f7 55 14 bc db b5 08 bd
       0.05239435 0.039304998 -0.009053699 -0.033376556
0000b0 e8 4e 8c 3c ea 22 00 bd 99 90 cd 3a ab e3 50 3c
       0.01712747 -0.031283297 0.0015683352 0.012749593
0000c0 e3 95 dc bc 89 da 82 bc 9a 8f a6 bc e2 7e dc bc
       -0.02692694 -0.015973346 -0.020332146 -0.026915971
0000d0 88 0b dd bc 64 04 3f 3d ab c5 1b 3d 8d 03 12 bc
       -0.026983038 0.046635047 0.038030308 -0.008911979
0000e0 eb 1c 7d bc 77 de 47 bd 82 b5 40 3d 10 f8 c7 bc
       -0.015448789 -0.048796143 0.0470481 -0.024410278
0000f0 4f 56 43 bd 8d fb a8 3c f1 29 aa 3b 3c e0 c3 bc
       -0.047689732 0.020627761 0.005192988 -0.023910634
000100 63 c9 d0 3b 19 d0 5b bd b2 15 6f 3d a7 8b 30 b9
       0.0063716634 -0.053665254 0.0583703 -0.00016836693
000110 ed 59 a5 bc 67 e0 1b 3d d7 19 93 bc 01 7d 1e bd
       -0.020184482 0.038055804 -0.017956657 -0.03869343
000120 e0 c1 48 bc 46 f5 94 3b 87 be 24 bd 63 5a 3d 3c
       -0.012253255 0.0045458404 -0.040220764 0.011557194
000130 d8 44 7c bd 38 e2 29 bd 1d ae a4 bc 4a cd 64 bc
       -0.061589092 -0.041475505 -0.020102555 -0.01396496
000140 c3 dd ff 3b 8f 3d c4 3c 3b 5e 2e 3d 1a 8c 60 bd
       0.0078084185 0.023955135 0.042570334 -0.05482111
000150 0d 60 67 b9
       -0.00022065658
