models/3layer_cnn_models/AATT.pt (torch_old, 566701 bytes, 10 tensors)

conv1.weight f4 [19, 1, 2, 4]
-0.1542188 0.15834767 -0.013809341 0.17786391 0.16189703 0.0030917083 0.26235268 0.24976876
0.09213747 -0.049143407 -0.28736535 -0.20686966 -0.21580699 0.05306458 0.07368738 -0.09885241
-0.2545759 -0.024393294 -0.27857625 -0.114475965 0.24136694 -0.088743 -0.023857772 -0.28879914
-0.3422043 -0.1639892 0.044769153 0.3377848 -0.32016554 0.33220732 0.30587482 -0.35316503
-0.28763157 0.3689274 0.13317978 -0.14043127 0.07961631 -0.03321501 0.0083765555 0.01045061
0.056846533 -0.2763256 0.14646523 -0.025461886 -0.17832825 0.08542235 -0.34446606 0.22395766
-0.2376854 -0.08003187 -0.018769655 0.06782829 -0.31435445 -0.11588213 0.39359272 -0.002159635
-0.19556841 -0.34667245 -0.18478936 -0.025571495 -0.044575423 -0.19931 -0.31021744 -0.2731036
-0.0011604956 -0.22831216 0.10033357 0.11274866 0.109828636 0.06732298 -0.025117695 -0.10361817
0.23546448 -0.2181679 -0.05292035 0.10523479 0.2203335 -0.11742194 0.25948313 -0.13870868
0.2527896 -0.3452399 0.20294738 -0.18945982 0.2435502 0.18730836 0.2827363 -0.34516248
-0.18584408 0.20607325 0.20087472 -0.27065977 -0.3192112 -0.16048166 -0.1386183 0.067532815
-0.00107085 0.17258762 0.21816425 -0.34917948 0.1499152 -0.2213671 -0.12541398 -0.02109307
0.0764972 0.2895812 -0.0944548 0.219353 0.28759423 0.28413844 -0.19198886 0.28661406
-0.34241813 0.14371301 0.17794356 -0.0297051 -0.14946821 0.037433784 -0.18184488 -0.28989044
-0.03344291 0.2746456 -0.0032572823 0.3021143 -0.18381265 -0.001826854 0.2759585 0.30241242
0.296785 -0.31853288 0.026373344 -0.07838064 -0.17370738 0.062377285 -0.018195603 0.2408209
0.29477936 -0.27050838 -0.051131215 -0.19881766 0.27552205 -0.042627774 -0.22427131 -0.17338425
-0.06424931 0.26256642 0.33943737 0.015408066 -0.13777062 -0.121672206 0.27905264 0.027780686
00000000: 88eb 1dbe e425 223e 9340 62bc f521 363e
00000010: 56c8 253e 429e 4a3b 1753 863e 62c3 7f3e
00000020: 92b2 bc3d 994a 49bd 8d21 93be a4d5 53be
00000030: 82fc 5cbe 3f5a 593d 69e9 963d 2273 cabd
00000040: c657 82be 72d4 c7bc 8ca1 8ebe 6072 eabd
00000050: e528 773e e4be b5bd 6071 c3bc 7bdd 93be
00000060: 6735 afbe c9ec 27be dc5f 373d 21f2 ac3e
00000070: bdec a3be 1417 aa3e a09b 9c3e 0cd2 b4be
00000080: 7244 93be 0de4 bc3e 4860 083e 37cd 0fbe
00000090: e00d a33d 760c 08bd d23d 093c 0939 2b3c
000000a0: e9d7 683d 8d7a 8dbe fbfa 153e 7295 d0bc
000000b0: ae9b 36be eaf1 ae3d db5d b0be 2855 653e
000000c0: cd63 73be c0e7 a3bd d2c2 99bc 8fe9 8a3d
000000d0: 11f3 a0be 9c53 edbd fc84 c93e aa88 0dbb
000000e0: 1643 48be 0d7f b1be 6c39 3dbe 507b d1bc
000000f0: b894 36bd ec17 4cbe d2d4 9ebe 3cd4 8bbe
00000100: c51b 98ba aaca 69be b07b cd3d c5e8 e63d
00000110: d6ed e03d a1e0 893d a0c3 cdbc c335 d4bd
00000120: 9a1d 713e 6867 5fbe 02c3 58bd 5685 d73d
00000130: 1b9f 613e ea7a f0bd f9da 843e a609 0ebe
00000140: a36d 813e 49c3 b0be 70d1 4f3e c101 42be
00000150: 3965 793e c3cd 3f3e d0c2 903e 23b9 b0be
00000160: e94d 3ebe de04 533e 1ab2 4d3e eb93 8abe
00000170: a76f a3be 4e55 24be f5f1 0dbe a54e 8a3d
00000180: c35b 8cba cfba 303e 7366 5f3e a7c7 b2be
00000190: 5f83 193e 0fae 62be 866c 00be 60cb acbc
000001a0: 90aa 9c3d fd43 943e 8571 c1bd 139e 603e
000001b0: 8d3f 933e 987a 913e ba98 44be 14bf 923e
000001c0: 6e51 afbe 8129 133e d636 363e 1c58 f3bc
000001d0: 320e 19be 2b54 193d 8b35 3abe 856c 94be
000001e0: 6ffb 08bd 599e 8c3e 2178 55bb baae 9a3e
000001f0: 6239 3cbe 0c73 efba 6f4a 8d3e cdd5 9a3e
00000200: 34f4 973e be16 a3be e90c d83c 0786 a0bd
00000210: 59e0 31be 537f 7f3d f20e 95bc c199 763e
00000220: 52ed 963e 1380 8abe f76e 51bd db96 4bbe
00000230: 3a11 8d3e 769a 2ebd 61a7 65be a48b 31be
00000240: 2495 83bd 1b6f 863e bcca ad3e 1d72 7c3c
00000250: be13 0dbe 472f f9bd fddf 8e3e 5294 e33c

batch1.weight f4 [19]
0.99622923 1.0005034 1.0204017 0.9545054 0.9527376 0.98735166 0.9533736 1.0
1.042994 0.9956917 1.0351781 0.9987519 1.0182394 1.0312784 0.9979371 0.9768167
0.9660994 1.0266689 0.9971831
00000000: e108 7f3f 7f10 803f 869c 823f 775a 743f
00000010: 9de6 733f 14c3 7c3f 4b10 743f 0000 803f
00000020: d480 853f a7e5 7e3f b780 843f 34ae 7f3f
00000030: ab55 823f ee00 843f ce78 7f3f a910 7a3f
00000040: 4a52 773f e369 833f 6447 7f3f

batch1.bias f4 [19]
-0.012920448 0.0026039786 -0.0021588528 0.00014499325 -0.0051992005 -0.013644129 -0.0047255317 -0.0042061596
0.00037973543 -0.017480414 0.006832937 -0.007591182 0.015835622 -0.025376895 -0.0038010508 -0.00998846
-0.04536766 0.0066403267 -0.003431459
00000000: 49b0 53bc 83a7 2a3b 8a7b 0dbb 5409 1839
00000010: 0e5e aabb a08b 5fbc a2d8 9abb d3d3 89bb
00000020: 3a17 c739 1633 8fbc d4e6 df3b 73bf f8bb
00000030: b5b9 813c 35e3 cfbc 0d1b 79bb a3a6 23bc
00000040: 70d3 39bd 1997 d93b 54e2 60bb

conv2.weight f4 [23, 19, 4]
-0.07366367 0.017120747 0.0586353 0.08313892 -0.009168838 -0.08839887 0.01811162 0.027773056
-0.028650869 0.0065756193 -0.009639826 -0.07838786 0.012796235 0.0851564 0.036059354 -0.12413908
0.039781168 9.7789816e-05 0.10631663 0.02364872 0.08126177 -0.069340184 0.019944351 0.065664925
0.07246473 -0.071355395 -0.05837746 -0.041576084 0.08246861 -0.015658004 -0.005819671 -0.07001814
0.006688266 -0.06861727 0.07254359 0.07500843 6.7046676e-05 0.06966326 -0.07603546 -0.10754661
0.042574283 -0.049140237 0.046131518 0.06354075 0.06204557 -0.018290235 -0.04713254 0.091904484
-0.093488336 -0.04402323 0.08780599 -0.1327762 -0.048494592 -0.0060506803 -0.063228354 0.03988202
0.12419974 -0.034429662 0.09490416 -0.05696154 0.05578816 0.0017568343 -0.011560408 0.031682
0.034613468 0.05494707 -0.095717974 -0.12305606 0.014178531 0.031416394 -0.07346268 -0.07647361
-0.080754295 -0.047446236 0.03252652 -0.07434801 0.07577187 -0.078932725 0.015154325 -0.039524827
-0.08027691 0.08241589 0.0037192213 -0.029462831 0.009571719 0.10216566 -0.0048823804 -0.043384433
-0.06732431 -0.015123883 0.0069340765 -0.01880604 0.005550686 0.05731348 0.014538515 0.0021048163
0.044348262 -0.08758355 -0.10205823 -0.09390529 -0.08420785 -0.018391192 -0.06361364 -0.014382007
0.11865666 0.04507024 0.07283381 -0.07672697 -0.058256015 -0.06434474 -0.012414798 -0.10130926
0.027345771 0.09729109 0.013854062 0.039069865 0.094696514 0.034002826 -0.07476934 0.008371465
0.0057314206 -0.009875433 -0.039246324 -0.069489926 0.10354222 -0.09761898 0.05622356 -0.056919705
-0.032762237 -0.048730288 -0.00097134773 0.039235637 0.028938651 -0.010300548 0.11478825 -0.101398826
0.012818014 -0.039764673 0.041764762 0.040647432 -0.02736131 0.047682624 -0.0035859095 0.08621455
0.017181993 -0.105052084 -0.02681732 -0.066465385 -0.024497177 -0.1012296 0.120368 0.008291694
0.08487104 -0.062146444 0.059579894 -0.07253817 -0.061733216 -0.12215439 0.08554021 -0.008023786
-0.015481793 0.029538734 0.11349075 -0.048634257 0.07296736 -0.07934061 0.056410696 -0.07169179
-0.040196452 0.079871185 -0.07604156 0.0038606813 0.056216475 0.088513486 -0.045544207 0.07444448
0.09180149 -0.061488003 0.04331432 -0.054049313 0.09874173 -0.04002313 0.12516226 -0.036242157
0.018959623 0.0168319 -0.029517837 -0.04078 -0.005026704 0.010013174 -0.0037811566 0.025235804
0.08106481 -0.10284435 -0.062131695 0.10299936 -0.062011216 -0.10144275 0.0460652 0.082679324
0.055935528 -0.06583926 -0.09339143 0.08751949 0.07630977 0.08521046 0.0807674 0.034584984
0.055966754 0.076399565 0.020934809 -0.07423896 0.09108958 0.014943052 0.07431658 0.002679509
-0.04134602 -0.017010314 0.10798046 0.018863127 0.050913773 0.008714103 0.01217124 -0.0031888215
-0.031786982 0.05245552 0.094050124 0.03209889 -0.026336731 -0.03978496 0.05641998 0.11181068
0.076766215 0.020331372 0.068381585 0.08810223 0.11218945 0.057696432 -0.09652559 -0.05082148
0.046462417 0.075802244 -0.020661507 0.007866665 0.09051422 0.01800839 -0.113343164 -0.05361354
0.047705706 -0.023094963 0.04636899 0.016629588 -0.004332307 -0.037393928 -0.07145559 -0.07710065
00000000: fadc 96bd cf40 8c3c 912b 703d bd44 aa3d
00000010: e538 16bc 770a b5bd d25e 943c 5284 e33c
00000020: 3ab5 eabc 4b78 d73b 5cf0 1dbc d089 a0bd
00000030: 4da7 513c 7b66 ae3d f9b2 133d a13c febd
00000040: 94f1 223d 8214 cd38 89bc d93d f6ba c13c
00000050: 926c a63d 3a02 8ebd 5662 a33c 557b 863d
00000060: 6368 943d c722 92bd 341d 6fbd af4b 2abd
00000070: 4de5 a83d 3745 80bc f0b2 bebb ac65 8fbd
00000080: 3e29 db3b 3687 8cbd bc91 943d 059e 993d
00000090: 699b 8c38 9cab 8e3d 7bb8 9bbd 6641 dcbd
000000a0: 5f62 2e3d 4647 49bd 67f4 3c3d a721 823d
000000b0: 7f23 7e3d 67d5 95bc 0d0e 41bd 6b38 bc3d
000000c0: d076 bfbd b451 34bd a0d3 b33d 7cf6 07be
000000d0: 44a2 46bd c944 c6bb de7d 81bd 545b 233d
000000e0: 6f5c fe3d 1e06 0dbd 1d5d c23d 8150 69bd
000000f0: 2082 643d 9445 e63a de67 3dbc fcc4 013d
00000100: dac6 0d3d 2e10 613d c907 c4bd d104 fcbd
00000110: 124d 683c 7aae 003d 9a73 96bd 329e 9cbd
00000120: 8262 a5bd fc56 42bd 873a 053d c543 98bd
00000130: 482e 9b3d 7ba7 a1bd d949 783c c9e4 21bd
00000140: 3868 a4bd aac9 a83d 2ebe 733b 095c f1bc
00000150: b3d2 1c3c 3b3c d13d 60fc 9fbb e0b3 31bd
00000160: 54e1 89bd 2aca 77bc 4037 e33b 200f 9abc
00000170: 87e2 b53b 8ac1 6a3d f432 6e3c f5f0 093b
00000180: 86a6 353d 015f b3bd e803 d1bd 6b51 c0bd
00000190: 2a75 acbd 20a9 96bc de47 82bd 82a2 6bbc
000001a0: 4302 f33d 929b 383d e429 953d 0823 9dbd
000001b0: dc9d 6ebd 2dc7 83bd 7067 4bbc 3b7b cfbd
000001c0: 3d04 e03c 8d40 c73d 26fc 623c b907 203d
000001d0: 3ff0 c13d 8c46 0b3d ab20 99bd 7828 093c
000001e0: a4ce bb3b 91cc 21bc c1c0 20bd bc50 8ebd
000001f0: f20d d43d 76ec c7bd ad4a 663d a324 69bd
00000200: b231 06bd 6999 47bd 0ba2 7eba 8cb5 203d
00000210: c010 ed3c a1c3 28bc 1a16 eb3d 30aa cfbd
00000220: a602 523c 48e0 22bd 8711 2b3d ec7d 263d
00000230: d324 e0bc db4e 433d 9401 6bbb 4191 b03d
00000240: 40c1 8c3c 8c25 d7bd ffaf dbbc 011f 88bd
00000250: 4eae c8bc 7751 cfbd 7f83 f63d e3d9 073c
00000260: ded0 ad3d 458d 7ebd 0c0a 743d e48e 94bd
00000270: f8db 7cbd 152c fabd b52f af3d 3376 03bc
00000280: 59a7 7dbc 37fb f13c d76d e83d b734 47bd
00000290: e96f 953d 547d a2bd e70e 673d 25d3 92bd
000002a0: 09a5 24bd 8193 a33d adbb 9bbd 7c03 7d3b
000002b0: 3f43 663d 8f46 b53d 908c 3abd 5976 983d
000002c0: 6b02 bc3d d8da 7bbd 5b6a 313d d062 5dbd
000002d0: 1b39 ca3d 4bef 23bd 892a 003e a872 14bd
000002e0: 3651 9b3c 0ee3 893c 64cf f1bc ee08 27bd
000002f0: 0db7 a4bb 4c0e 243c 48cd 77bb 51bb ce3c
00000300: 4f05 a63d 0fa0 d2bd ce7d 7ebd 54f1 d23d
00000310: 79ff 7dbd 37c1 cfbd ddae 3c3d c753 a93d
00000320: a71c 653d bcd6 86bd 0244 bfbd 6b3d b33d
00000330: 4c48 9c3d d282 ae3d 6169 a53d fca8 0d3d
00000340: 653d 653d 6077 9c3d 7a7f ab3c 990a 98bd
00000350: 2c8d ba3d b4d3 743c 4b33 983d b49a 2f3b
00000360: 725a 29bd 3759 8bbc dc24 dd3d d886 9a3c
00000370: f68a 503d 99c5 0e3c e169 473c 8cfb 50bb
00000380: 1133 02bd 99db 563d 5a9d c03d 207a 033d
00000390: 21c0 d7bc 8ef5 22bd a318 673d fffc e43d
000003a0: 9b37 9d3d fa8d a63c a50b 8c3d f16e b43d
000003b0: 95c3 e53d 1853 6c3d 35af c5bd 2f2a 50bd
000003c0: 604f 3e3d 353e 9b3d 5242 a9bc 2fe3 003c
000003d0: 855f b93d 5586 933c 7620 e8bd df99 5bbd
000003e0: 0f67 433d a631 bdbc 69ed 3d3d c63a 883c
000003f0: 06f6 8dbb 602a 19bd 4f57 92bd f2e6 9dbd

conv3.weight f4 [6, 23, 6]
-0.058607616 0.08863115 0.07854774 0.07807057 -0.04353154 -0.02174436 -0.04234892 0.08813166
-0.04818333 0.045084044 0.00895685 -0.031283617 0.06431098 0.004004919 -0.05873255 -0.004657333
0.054234833 -0.06424081 -0.088457376 -0.022152333 -0.09414856 0.03966518 0.0116631985 0.004634813
-0.046285298 -0.07167235 -0.018993387 -0.0187771 0.06588767 0.08323704 0.048646238 -0.009779012
0.02302038 -0.09698905 0.03927231 0.04636199 0.06875284 0.052660502 0.027687572 -0.007682612
0.03782033 -0.013450638 0.08179034 -0.02543908 -0.04629716 -0.0073654423 -0.027578259 -0.0033003069
-0.0024793912 -0.071750894 0.017883811 -0.0407153 0.08106984 0.09158052 -0.110170566 -0.090271845
-0.040588524 -0.047437057 -0.05068747 -0.0506627 0.0031795427 0.078949824 0.091996744 -0.086127564
0.027630184 -0.11100698 -0.06977579 0.043563202 0.088741206 0.03454672 0.04926598 0.08370052
0.034820005 0.041307185 -0.09993429 -0.082754605 -0.015348599 -0.050892424 -0.021104256 0.013447779
-0.06740837 -0.06792205 -0.068594 0.010629214 0.008772013 -0.024680292 -0.024771689 -0.051906906
0.06920764 -0.031466078 -0.03535628 -0.057284333 -0.07063984 -0.060661606 0.0048498125 0.03841999
-0.08146642 -0.019582478 0.052167676 0.02567872 0.047945615 -0.032514513 0.043274783 -0.01475034
0.06952858 0.037780963 0.08802121 -0.013066007 -0.027765919 0.0035437876 0.03321821 -0.02273013
-0.0336807 -0.115480326 -0.057188652 0.056851033 -0.020528154 -0.047963243 -0.046892013 0.053022817
0.012799361 -0.0060281293 0.029220987 0.008511387 0.0420106 0.017550034 -0.03949403 0.07292042
0.061116755 0.031111306 0.052354883 0.01002316 0.033106513 -0.035875846 0.012206479 -0.0002667663
-0.06399401 -0.088162996 0.03807641 -0.006211585 0.037873257 -0.056908414 -0.025363952 0.021588571
0.020558156 -0.043051258 0.050385825 0.08058018 -0.015326477 0.058517683 0.06521097 -0.013521555
-0.020846536 0.027835814 -0.03845584 0.0021837319 -0.018521894 0.030728238 -0.07530383 -0.030670164
0.076302394 0.016579363 -0.007863084 -0.057132304 -0.011888515 0.07049944 -0.018477593 0.05164382
-0.008330248 -0.0872123 0.054199595 0.022691472 -0.04578824 -0.028014446 0.058148805 -0.007607793
0.0075186063 -0.05701211 -0.0016747729 0.044978335 0.00405854 -0.05445421 0.02247616 0.033773385
-0.05718219 0.037556 -0.009222019 -0.046888802 0.030004479 -0.023421252 -0.010882176 -0.053651676
-0.062881134 -0.011287605 -0.07714287 0.07764285 -0.02833689 -0.0023375982 -0.09486152 0.03695543
-0.08447939 -0.03991343 -0.024047852 0.030008813 0.000235801 0.004480406 -0.019985046 0.0052237604
0.064677894 -0.038088385 0.04568008 -0.032545045 0.0051211906 -0.03019228 -0.006715446 0.078879796
-0.11068964 -0.008084409 0.015099419 0.018043777 0.018698031 0.035508253 0.014500308 -0.018997058
-0.033466034 0.013125257 -0.028488934 0.005093094 -0.0026823126 0.010626142 -0.046995252 0.04776187
-0.029796196 0.05405235 0.03313018 0.022968886 -0.03478934 0.057353176 0.07512269 0.05015066
0.05103616 -0.04431726 -0.04545583 0.030235043 -0.044590604 -0.064389326 -0.045679208 -0.0766083
0.023560932 0.066472664 0.036509242 0.0251085 0.00067221286 0.041289356 -0.045928888 0.020437788
00000000: 8a0e 70bd 4084 b53d a3dd a03d 77e3 9f3d
00000010: 214e 32bd 3a21 b2bc 1076 2dbd 5f7e b43d
00000020: e25b 45bd 0caa 383d c0bf 123c 4023 00bd
00000030: 7ab5 833d b23b 833b 8b91 70bd 8a9c 98bb
00000040: 5825 5e3d b090 83bd 2429 b5bd cf78 b5bc
00000050: f6d0 c0bd f577 223d 0017 3f3c a1df 973b
00000060: a795 3dbd f4c8 92bd 0598 9bbc 6fd2 99bc
00000070: 1df0 863d 2e78 aa3d 4741 473d 2638 20bc
00000080: 3c95 bc3c 32a2 c6bd 00dc 203d 12e6 3d3d
00000090: 4ace 8c3d 8ab2 573d 0cd1 e23c 6cbe fbbb
000000a0: 7ee9 1a3d 1160 5cbc b281 a73d 9e65 d0bc
000000b0: 17a2 3dbd cf59 f1bb cdeb e1bc f649 58bb
000000c0: 487d 22bb 22f2 92bd 1281 923c 16c5 26bd
000000d0: f207 a63d 918e bb3d 1ba1 e1bd 72e0 b8bd
000000e0: 2740 26bd 5c4d 42bd aa9d 4fbd b183 4fbd
000000f0: e05f 503b 72b0 a13d ca68 bc3d a663 b0bd
00000100: b258 e23c a157 e3bd 9ce6 8ebd 546f 323d
00000110: f3bd b53d dd80 0d3d 20cb 493d 2e6b ab3d
00000120: 6c9f 0e3d b931 293d 59aa ccbd 3f7b a9bd
00000130: b178 7bbc 9374 50bd d5e2 acbc 1354 5c3c
00000140: 660d 8abd b71a 8bbd 037b 8cbd 2826 2e3c
00000150: 7db8 0f3c 532e cabc ffed cabc 569c 54bd
00000160: bcbc 8d3d 93e2 00bd bfd1 10bd faa2 6abd
00000170: 9fab 90bd 4e78 78bd 2deb 9e3b 485e 1d3d
00000180: ded7 a6bd 6f6b a0bc c6ad 553d 2e5c d23c
00000190: 9f62 443d f02d 05bd e640 313d 69ab 71bc
000001a0: 0065 8e3d 36c0 1a3d 7744 b43d ce12 56bc
000001b0: 5a75 e3bc e43e 683b d10f 083d 8a34 babc
000001c0: c6f4 09bd f380 ecbd a63e 6abd a1dc 683d
000001d0: a92a a8bc 1b75 44bd d711 40bd 742e 593d
000001e0: 69b4 513c 9d87 c5bb da60 ef3c 5873 0b3c
000001f0: 4f13 2c3d 17c5 8f3c 7ec4 21bd 4d57 953d
00000200: 9055 7a3d 23dd fe3c 1372 563d 2e38 243c
00000210: b29a 073d 8df2 12bd affd 473c c4dc 8bb9
00000220: 4b0f 83bd cd8e b4bd 02f6 1b3d 8d8a cbbb
00000230: fd20 1b3d cc18 69bd 10c8 cfbc 84da b03c
00000240: 9469 a83c 8456 30bd 5e61 4e3d 3907 a53d
00000250: e71b 7bbc 3db0 6f3d 548d 853d 8389 5dbc
00000260: 5bc6 aabc ef07 e43c df83 1dbd f11c 0f3b
00000270: 3abb 97bc c9b9 fb3c e538 9abd ff3f fbbc
00000280: 6e44 9c3d 72d1 873c 2ad4 00bc 9003 6abd
00000290: 0cc8 42bc 0362 903d 525e 97bc 7888 533d
000002a0: 987b 08bc 5d9c b2bd 6500 5e3d 77e3 b93c
000002b0: 738c 3bbd 8d7e e5bc 712d 6e3d cb4a f9bb
000002c0: a45e f63b 8885 69bd 0e84 dbba 343b 383d
000002d0: 80fd 843b 610b 5fbd ed1f b83c f655 0a3d
000002e0: df37 6abd 52d4 193d f417 17bc 790e 40bd
000002f0: f4cb f53c eddd bfbc 284b 32bc dcc1 5bbd
00000300: d3c7 80bd a6ef 38bc 15fd 9dbd 3703 9f3d
00000310: c422 e8bc 6432 19bb c246 c2bd 945e 173d
00000320: 8803 adbd 447c 23bd 0000 c5bc 0bd5 f53c
00000330: 5941 7739 5fd0 923b aeb7 a3bc 142c ab3b
00000340: d875 843d 9102 1cbd 091b 3b3d f44d 05bd
00000350: a9cf a73b cd55 f7bc 3e0d dcbb bb8b a13d
00000360: 40b1 e2bd 7874 04bc 8e63 773c 8bd0 933c
00000370: 9d2c 993c 1a71 113d b392 6d3c b89f 9bbc
00000380: ae13 09bd 510b 573c a061 e9bc f8e3 a63b
00000390: bdc9 2fbb 4519 2e3c 187e 40bd f3a1 433d
000003a0: 2717 f4bc ff65 5d3d 83b3 073d 3f29 bc3c
000003b0: 447f 0ebd 2aeb 6a3d edd9 993d c76a 4d3d
000003c0: 4b0b 513d 0486 35bd e42f 3abd 7baf f73c
000003d0: a3a4 36bd 8dde 83bd 1f1a 3bbd d0e4 9cbd
000003e0: db02 c13c d222 883d b78a 153d 57b0 cd3c
000003f0: 7137 303a 071f 293d ee1f 3cbd 266d a73c

dense1.weight f4 [357, 252]
-0.037394945 -0.035456512 -0.054844577 -0.007192919 0.0463223 0.029090721 -0.016552914 -0.094227195
0.016255978 0.0008200436 -0.03211758 0.044725437 -0.008050709 -0.084980175 -0.04852253 -0.028408825
0.0004285558 0.025472857 0.020155499 0.0535929 0.055905677 0.022445453 -0.055417355 -0.027260114
0.0041017225 -0.021035902 0.049340047 -0.003278931 -0.029977841 -0.023520881 -0.059147857 0.04286773
-0.0536758 -0.006593984 0.053375658 0.005356509 0.017453546 0.04636786 0.07295643 -0.008504857
-0.010304855 -0.00293749 -0.05181525 -0.050544918 0.029321006 -0.034640122 -0.021356925 -0.028462512
-0.01900474 0.011696421 0.053911235 -0.04972086 -0.030770293 -0.04030179 0.014398752 0.068851225
0.04877848 0.02172132 -0.012276716 -0.056006107 -0.0572655 -0.059032414 -0.054944865 -0.051461656
0.0071528684 0.016530504 -0.054130536 -0.0508402 -0.019354487 0.02887391 -0.025043005 0.02393458
-0.046408497 0.02421609 -0.06295111 -0.0037166749 0.013568129 -0.008407931 -0.019449439 0.030659419
-0.02140756 0.04918474 -0.00039501442 0.005342517 -0.013794665 -0.011202054 -0.021344792 -0.035489902
-0.055435076 0.06706211 0.009666665 -0.046282675 -0.016666451 -0.057444792 -0.05548076 -0.029435953
0.01842058 -0.03549513 0.05633142 -0.002567806 -0.000112887166 -0.01620864 0.03534446 -0.013779149
0.056980062 -0.023513272 0.02133233 0.021892093 -0.07668317 -0.06295442 -0.050583173 -0.01849242
0.024477692 -0.03283513 -0.055243477 0.0061353603 -0.032363594 -0.0063412916 0.0012010904 -0.0020296508
-0.043722324 0.00010352155 -0.03834522 -0.038625266 -0.03028055 0.029126598 0.049392316 0.041713845
0.032721434 -0.021196645 -0.023254355 -0.055423204 0.0055834744 -0.030324174 0.034643047 -0.04421947
0.040433347 -0.04601791 -0.03714655 0.048924528 -0.015404098 -0.022498822 0.039107114 0.00390951
-0.03600252 -0.00057421764 0.059047632 -0.028916806 0.011972337 -0.0056386413 0.024286607 0.04540375
0.029804263 0.05535771 -0.00545358 0.03957328 0.059119854 0.025151819 0.01858403 -0.010423854
-0.047628414 0.076175615 0.024819123 0.034412205 -0.030840605 0.029629514 -0.058619663 0.01521769
-0.00089489203 0.014163477 0.020762939 0.04020121 0.024850072 -0.058881693 -0.06326247 -0.06623237
-0.042191926 0.037212007 0.006449415 0.032439303 0.029417895 -0.013712751 0.035990696 -0.01438138
-0.02233584 0.05963417 -0.041072667 -0.022787387 0.042660285 -0.061776772 0.044180233 0.04155547
0.023421654 0.035637632 -0.050183833 0.017181443 -0.008897856 -0.033081092 -0.022467865 0.049910396
0.011871006 0.021815024 -0.029581815 -0.016616367 0.00012499961 0.012425359 0.0018195157 0.034613393
-0.03177313 0.005508892 -0.041222487 -0.046284936 -0.06058472 -0.04590007 -0.015384482 0.036072683
-0.022621393 0.041814514 -0.053372275 -0.023318073 0.04784276 -0.06094997 -0.0387994 0.007691125
-0.029749755 0.014242151 0.032840546 -0.00071629276 -0.066488124 0.018029781 0.045632333 -0.0082024075
-0.0538063 0.034477565 -0.00686957 0.032263175 -0.009520162 -0.039543737 0.07010479 0.035144776
0.029519958 0.026202304 -0.021063916 0.023161251 -0.05896169 0.008077196 0.038319547 -0.060746092
0.016917875 0.011811343 -0.040362462 0.039356083 -0.0072877733 -0.056289382 0.005247942 0.036204226
00000000: 712b 19bd d93a 11bd b5a4 60bd 94b2 ebbb
00000010: 74bc 3d3d aa4f ee3c fa99 87bc 30fa c0bd
00000020: 422b 853c 32f8 563a b98d 03bd 0532 373d
00000030: 1fe7 03bc 160a aebd 8fbf 46bd a0b9 e8bc
00000040: c9af e039 74ac d03c 251d a53c 3b84 5b3d
00000050: 5afd 643d 87df b73c 4ffd 62bd 9a50 dfbc
00000060: be67 863b 7c53 acbc ca18 4a3d 55e3 56bb
00000070: 1794 f5bc ddae c0bc 0645 72bd 1396 2f3d
00000080: 28db 5bbd 5912 d8bb 6fa0 5a3d a785 af3b
00000090: bdfa 8e3c 3aec 3d3d 2e6a 953d f557 0bbc
000000a0: b2d5 28bc e782 40bb 3a3c 54bd 3008 4fbd
000000b0: 9b32 f03c cde2 0dbd b8f4 aebc 372a e9bc
000000c0: d4af 9bbc 58a2 3f3c 07d2 5c3d 1aa8 4bbd
000000d0: fb11 fcbc 7d13 25bd bee8 6b3c df01 8d3d
000000e0: f2cb 473d e9f0 b13c 4724 49bc a966 65bd
000000f0: 3b8f 6abd f9cb 71bd de0d 61bd 75c9 52bd
00000100: 9c62 ea3b fb6a 873c fbb7 5dbd d03d 50bd
00000110: 4d8d 9ebc fa88 ec3c fd26 cdbc 7412 c43c
00000120: d616 3ebd d260 c63c 83ec 80bd 7593 73bb
00000130: dc4c 5e3c 6bc1 09bc 6e54 9fbc 7629 fb3c
00000140: e85e afbc f075 493d f019 cfb9 4810 af3b
00000150: 0503 62bc d288 37bc 46db aebc dc5d 11bd
00000160: e40f 63bd dc57 893d ef60 1e3c e792 3dbd
00000170: 1588 88bc 3b4b 6bbd cb3f 63bd ab23 f1bc
00000180: c2e6 963c 5763 11bd c6bb 663d a348 28bb
00000190: d6bd ecb8 fbc7 84bc 5ac5 103d f1c1 61bc
000001a0: ed63 693d e89e c0bc 23c1 ae3c 0c57 b33c
000001b0: 110c 9dbd 3fee 80bd 4d30 4fbd 6a7d 97bc
000001c0: 7185 c83c 217e 06bd fc46 62bd 220b c93b
000001d0: b08f 04bd 9cca cfbb e86d 9d3a e403 05bb
000001e0: 2e16 33bd b519 d938 e10f 1dbd 8735 1ebd
000001f0: ea0e f8bc e79a ee3c 994f 4a3d 23dc 2a3d
00000200: e906 063d 96a4 adbc eb7f bebc 7103 63bd
00000210: 94f5 b63b 676a f8bc dee5 0d3d 7a1f 35bd
00000220: 709d 253d 477d 3cbd fb26 18bd 1665 483d
00000230: 7861 7cbc 734f b8bc c82e 203d 591b 803b
00000240: 6177 13bd 1887 16ba eedb 713d f0e2 ecbc
00000250: 9f27 443c 5ac4 b8bb b5f4 c63c 48f9 393d
00000260: 1228 f43c c4be 623d f2b3 b2bb 9717 223d
00000270: a927 723d 300b ce3c 893d 983c d0c8 2abc
00000280: 0316 43bd f601 9c3d 7951 cb3c d0f3 0c3d
00000290: 70a5 fcbc 98b9 f23c 2c1b 70bd 9e53 793c
000002a0: 3097 6aba ee0d 683c 0a17 aa3c 06aa 243d
000002b0: 6192 cb3c ee2d 71bd c18f 81bd d6a4 87bd
000002c0: 71d1 2cbd 9e6b 183d 9d55 d33b 13df 043d
000002d0: ccfd f03c 72ab 60bc fb6a 133d e19f 6bbc
000002e0: a7f9 b6bc f642 743d d03b 28bd 9dac babc
000002f0: 8dbc 2e3d a409 7dbd 55f6 343d 1236 2a3d
00000300: c5de bf3c c4f8 113d 908d 4dbd 19c0 8c3c
00000310: 50c8 11bc 0a80 07bd 870e b8bc d86e 4c3d
00000320: 9c7e 423c 6cb5 b23c 9055 f2bc 0c1f 88bc
00000330: 5412 0339 bc93 4b3c d17c ee3a c6c6 0d3d
00000340: 8b24 02bd ef83 b43b e9d8 28bd 4695 3dbd
00000350: af27 78bd b601 3cbd 320f 7cbc f3c0 133d
00000360: 8050 b9bc b245 2b3d e39c 5abd 8b05 bfbc
00000370: c5f6 433d ada6 79bd 1fec 1ebd d505 fc3b
00000380: c2b5 f3bc e957 693c cf83 063d 98c5 3bba
00000390: ed2a 88bd 31b3 933c f8e8 3a3d 6463 06bc
000003a0: ff63 5cbd 5938 0d3d 211a e1bb 6426 043d
000003b0: 74fa 1bbc 9df8 21bd 1a93 8f3d f8f3 0f3d
000003c0: d7d3 f13c 37a6 d63c 3c8e acbc aabc bd3c
000003d0: d081 71bd 3756 043c f5f4 1c3d e5d0 78bd
000003e0: 5b97 8a3c 5d84 413c 1c53 25bd d833 213d
000003f0: 46ce eebb b28f 66bd eef6 ab3b e24a 143d

dense1.bias f4 [357]
0.038651686 0.0487893 0.017237242 0.004371712 0.023012243 0.0047168285 -0.011483459 0.021218793
0.027179062 0.01773865 0.011900831 0.043306127 0.02206968 -0.051800456 -0.037151344 0.010641196
0.025498504 -0.017477414 -0.05042061 0.033504516 0.009159064 0.03718207 -3.4095538e-05 0.015792772
0.008070609 -0.0417216 0.01496663 0.025751289 0.04106022 -0.059200346 -0.021704111 0.012165121
-0.03872759 0.046681747 0.018602636 0.029299337 3.06964e-05 0.029552398 0.02409699 -0.06040285
-0.051519394 -0.021443665 -0.008526101 -0.047123633 0.045999438 -0.049119335 0.009683355 -0.03190295
0.045865 -0.0041490514 0.012497308 -0.034484357 -0.0020825497 -0.050617307 0.051794272 0.030634133
0.028150437 0.03732265 -0.0163305 -0.046887208 0.05705438 0.055282034 -0.030805018 -0.016754262
-0.031904627 0.006123405 0.030369213 -0.030031694 0.012757178 -0.0042781136 -0.022133982 -0.0036303217
-0.016619682 -0.032445338 0.03448771 -0.022212457 0.03622469 -0.02951344 -0.04794367 0.051645864
-0.039908342 0.050205633 -0.05417695 0.0007382229 -0.014901128 -0.028435027 0.051097635 -0.017644793
0.029018996 0.028286736 -0.033593927 -0.051025618 -0.0065637864 0.04526453 -0.04607528 -0.018434273
-0.011309667 -0.00939627 0.021075815 0.013879584 -0.039521515 -0.0058039348 -0.0038714865 0.009682634
-0.0057753967 -0.03965646 0.01292489 -0.01499504 -0.035612147 -0.0023100353 -0.026462229 -0.027540974
0.009984095 0.00028077274 -0.011792412 0.002859143 -0.023411928 -0.028625347 -0.02646209 -0.0520186
-0.054439496 -0.037359547 -0.029111292 -0.0037758248 -0.039758686 0.021895569 0.01431377 0.02599519
-0.0007114109 0.04887929 -0.009368885 -0.023322903 -0.008604906 -0.01136262 0.052695625 -0.06020158
0.030485328 -0.03122158 0.021130618 0.01548971 -0.03804411 0.021385048 -0.0034688364 -0.05027925
-0.020284945 -0.015862457 -0.0323551 -0.039705653 0.05691178 -0.0114168925 0.020627426 -0.01957832
-0.03762726 0.006657092 -0.017069198 0.037867222 -0.05159368 -0.049906287 -0.052740697 0.045150235
0.049103763 -0.044853963 -0.011511177 -0.016857442 0.004394641 0.008693716 0.05516954 -0.014768574
-0.0062564355 0.005111662 0.019776981 0.052071862 0.011436131 0.040852606 -0.0029019786 0.023803364
-0.026070256 0.017747562 0.0021068433 0.028508801 0.008072239 -0.0012526012 -0.006261754 0.0340682
-0.031792667 -0.0064465557 0.04017742 -0.015301579 0.016202332 -0.041146837 0.009363285 0.021036
-0.02971001 0.037287828 0.048910856 -0.031313553 -0.039293185 0.03650799 -0.040845428 -0.0012393993
0.047623783 -0.05256475 0.04347902 0.020389784 -0.0341035 0.008090516 0.02374283 0.028288038
-0.01992546 -0.009879118 0.02286462 0.033690203 -0.048778336 0.0328843 -0.038233653 -0.04785959
-0.0022220553 -0.019471591 0.0037892016 0.010325405 0.04726792 -0.009163366 -0.04430185 -0.005088293
-0.04909133 0.0010886665 0.03376135 0.0095982365 0.011189707 -0.004781421 0.020342613 0.034713063
0.043633368 -0.0454644 0.036574297 0.056496684 -0.017756274 -0.027183749 -0.013410942 -0.04517652
-0.051959112 0.020983603 0.010515498 0.041250646 -0.018300194 0.0282328 -0.037413403 -0.0052478923
0.04373232 0.03843578 -0.04875369 0.026709726 0.013242992 -0.029251598 -0.028677607 0.028729187
00000000: 3b51 1e3d 4ad7 473d 1e35 8d3c 9440 8f3b
00000010: 2c84 bc3c a08f 9a3b 1e25 3cbc 09d3 ad3c
00000020: a0a6 de3c a550 913c b4fb 423c c461 313d
00000030: 79cb b43c b72c 54bd 022c 18bd 6958 2e3c
00000040: 3de2 d03c cb2c 8fbc d785 4ebd 083c 093d
00000050: e60f 163c 3a4c 183d ce01 0fb8 d85f 813c
00000060: 963a 043c 45e4 2abd 9936 753c 5ef4 d23c
00000070: c32e 283d 107c 72bd d2cc b1bc 3750 473c
00000080: d2a0 1ebd 5c35 3f3d 8e64 983c 2a05 f03c
00000090: 02c0 0038 df17 f23c 0d67 c53c fb68 77bd
000000a0: 0006 53bd a0aa afbc 0fb1 0bbc b604 41bd
000000b0: e869 3c3d 5b31 49bd efa6 1e3c abac 02bd
000000c0: f0dc 3b3d c4f4 87bb 82c1 4c3c 783f 0dbd
000000d0: 637b 08bb 1854 4fbd 3b26 543d 6ff4 fa3c
000000e0: bf9b e63c a3df 183d 8ac7 85bc cd0c 40bd
000000f0: dbb1 693d 6a6f 623d ce5a fcbc 3c40 89bc
00000100: 6dae 02bd d8a6 c83b dbc8 f83c 0705 f6bc
00000110: 7c03 513c 6b2f 8cbb 5352 b5bc b1ea 6dbb
00000120: 0026 88bc 67e5 04bd fc42 0d3d e6f6 b5bc
00000130: 5760 143d 2bc6 f1bc 9560 44bd 9d8a 533d
00000140: ee76 23bd 6ca4 4d3d a6e8 5dbd 4d85 413a
00000150: dc23 74bc 93f0 e8bc c14b 513d d08b 90bc
00000160: 3fb9 ed3c 96b9 e73c c999 09bd 3d00 51bd
00000170: 0815 d7bb 4d67 393d 6fb9 3cbd 7903 97bc
00000180: 2e4c 39bc d0f2 19bc 30a7 ac3c 3267 633c
00000190: 50e1 21bd ef2e bebb c4b8 7dbb e9a3 1e3c
000001a0: 8a3f bdbb d06e 22bd ebc2 533c c2ad 75bc
000001b0: 0bde 11bd f663 17bb 51c7 d8bc 9c9d e1bc
000001c0: 5494 233c ae34 9339 f634 41bc 7660 3b3b
000001d0: 5fca bfbc b47f eabc 06c7 d8bc 7511 55bd
000001e0: f3fb 5ebd 5306 19bd ce7a eebc d473 77bb
000001f0: 01da 22bd 565e b33c 4e84 6a3c ddf3 d43c
00000200: fa7d 3aba a735 483d f47f 19bc ac0f bfbc
00000210: 97fb 0cbc 482a 3abc 5ed7 573d ef95 76bd
00000220: 5ebc f93c 66c4 ffbc 1e1a ad3c 8dc8 7d3c
00000230: 24d4 1bbd b22f af3c 6b55 63bb 9df1 4dbd
00000240: 9d2c a6bc fcf1 81bc c886 04bd 65a2 22bd
00000250: 541c 693d eb0d 3bbc d9fa a83c b762 a0bc
00000260: 0b1f 1abd bc23 da3b b4d4 8bbc a91a 1b3d
00000270: e553 53bd 896a 4cbd a106 58bd 74ef 383d
00000280: 0721 493d cab8 37bd 6099 3cbc 9e18 8abc
00000290: ec00 903b 1670 0e3c 75f9 613d e4f7 71bc
000002a0: c902 cdbb bb7f a73b 5603 a23c 4e49 553d
000002b0: 9c5e 3b3c 1055 273d 1f2f 3ebb 46ff c23c
000002c0: 4a91 d5bc 5663 913c f712 0a3b 4a8b e93c
000002d0: 6d41 043c 522e a4ba 662f cdbb 198b 0b3d
000002e0: 0739 02bd a13d d3bb 1491 243d 79b3 7abc
000002f0: c1ba 843c 9689 28bd 7768 193c b153 ac3c
00000300: 6862 f3bc 1fbb 183d c056 483d a442 00bd
00000310: e4f1 20bd 6789 153d 894d 27bd 5773 a2ba
00000320: 2811 433d 234e 57bd 0f17 323d 7a08 a73c
00000330: 1db0 0bbd 158e 043c 5380 c23c 51bc e73c
00000340: b83a a3bc 06dc 21bc 954e bb3c bdfe 093d
00000350: cbcb 47bd b0b1 063d e49a 1cbd 6b08 44bd
00000360: e79f 11bb e382 9fbc 4154 783b e32b 293c
00000370: 029c 413d f121 16bc db75 35bd b2bb a6bb
00000380: fe13 49bd 96b1 8e3a 5749 0a3d ec41 1d3c
00000390: 0855 373c 77ad 9cbb 8da5 a63c 492f 0e3d
000003a0: e7b8 323d e138 3abd eece 153d 1169 673d
000003b0: 9b75 91bc 74b0 debc 91b9 5bbc 040b 39bd
000003c0: 14d3 54bd cee5 ab3c 3249 2c3c 70f6 283d
000003d0: 4aea 95bc 7948 e73c cc3e 19bd 83f6 abbb
000003e0: a920 333d d66e 1d3d f3b1 47bd 5bce da3c
000003f0: 22f9 583c 0ca1 efbc 4ded eabc 7959 eb3c

dense2.weight f4 [134, 357]
0.026769014 0.012055478 0.05099863 0.045632422 -0.0260102 0.009032129 -0.043337878 -0.0410561
0.011029065 0.010195312 -0.013792127 -0.029861012 -0.019229084 0.027998444 -0.0064736353 0.03017368
-0.057449013 -0.0023140672 -0.0016317389 0.021894075 -0.016194433 -0.018667573 -0.034245543 -0.0140366815
0.025123663 0.0069241826 -0.04314955 -0.05333919 -0.013201357 0.04142705 -0.055007644 -0.0036937995
-0.015326779 0.008062804 -0.025333399 0.007720993 0.040000923 -0.026337346 0.0053196866 -0.03958065
0.00059304916 -0.038668957 -0.0027715033 -0.040875345 0.029594013 -0.012824167 0.0012477434 0.0066831964
-0.028807018 -0.009036802 -0.03875465 0.05176774 0.0042858557 0.0042301863 0.033405554 0.04565149
-0.036927894 0.03808046 0.03329518 -0.037019745 -0.04216694 0.035920918 -0.037230104 0.01492348
-0.040933993 0.0002365348 0.015181755 0.04275674 0.018411698 0.00049837877 0.017895564 -0.0263033
-0.040221754 0.033277627 0.028290866 -0.03666082 -0.012470431 -0.0059005413 -0.020489905 0.023272088
-0.044773445 0.039694246 -0.0135598 -0.014564795 -0.027682018 -0.015889337 0.017461263 0.02632993
-0.012174867 -0.049536526 -0.02866291 -0.040942524 -0.04060985 0.043871846 0.009290692 6.8786234e-05
0.005855755 0.004460121 -0.008217229 -0.0047604633 -0.016104452 -0.03795903 -0.0029833158 0.017966632
0.055666655 -0.04704189 0.02036007 0.042856388 -0.03373042 0.034137577 0.028621593 0.036228575
0.024493422 0.029410005 0.047195014 -0.0351945 -0.010065222 -0.039343283 0.0030099088 0.0011434471
0.014410953 -0.008529368 0.035395727 0.0067760465 -0.023810843 0.04276471 -0.02950886 0.02404077
0.043103818 -0.04399838 0.031102585 0.02243829 -0.046938717 -0.040288556 0.004134346 -0.0010581946
-0.03238534 0.02555833 -0.030721858 -0.04533999 6.143665e-05 -0.043719355 0.057621155 0.008975613
0.023023408 -0.016213242 0.01747928 0.047654647 -0.016417943 -0.031435046 -0.0010025159 -0.039663255
-0.0073142275 -0.012044324 -0.014792246 0.013335412 -0.012069107 -0.03188353 0.033917878 -0.00899555
0.026902294 0.026232196 0.029625837 0.0024567114 -0.0377288 0.054429185 -0.01735089 0.015939318
0.03300697 0.028365733 -0.0018532216 -0.026112711 -0.025376925 0.034223057 -0.030117895 -0.054480195
0.04011654 0.030709002 0.01371612 -0.0094453795 0.049641456 0.023627715 0.02058036 -0.02232498
0.026007352 0.029243292 0.013817744 0.0108941225 0.05066145 0.052453164 0.040047172 0.012925979
0.03443696 0.049122598 0.04395748 0.020072412 -0.029182926 0.03229414 -0.021977441 -0.03690742
0.041134536 -0.043043517 0.022853866 0.047680695 0.01586916 -0.021764224 0.011812279 0.0074209184
-0.03696959 0.0062489575 -0.018813383 0.02307641 -0.028297592 0.024337161 -0.0469302 -0.044014543
-0.0123467725 0.004401845 -0.045064088 -0.021513361 -0.042656127 0.022927405 -0.0023575106 0.0052696844
0.046980064 -0.0068280706 -0.028346559 -0.041075982 0.03636873 -0.013651551 -0.036936697 0.015810335
0.02897182 0.050742794 -0.04097625 -0.034296975 0.0058678235 -0.017675793 -0.04564297 -0.04220608
0.008233382 0.047389466 0.008292456 0.011601434 0.0072542843 -0.04878651 -0.0354417 0.027430445
0.008703133 0.052890394 -0.037491623 0.004451366 0.006673452 0.01327564 0.010480606 0.0050492664
00000000: b14a db3c 5784 453c f0e3 503d 10e9 3a3d
00000010: 5813 d5bc 7ffb 133c 0f83 31bd 712a 28bd
00000020: 40b3 343c 3d0a 273c 60f8 61bc 159f f4bc
00000030: 5086 9dbc fe5c e53c ca20 d4bb cb2e f73c
00000040: a84f 6bbd 9ba7 17bb 12e0 d5ba 345b b33c
00000050: 30aa 84bc bdec 98bc 0e45 0cbd 1cfa 65bc
00000060: 24d0 cd3c 41e4 e23b 95bd 30bd 327a 5abd
00000070: 814a 58bc 69af 293d b24f 61bd ac13 72bb
00000080: 2c1d 7bbc da19 043c fd87 cfbc 6200 fd3b
00000090: 02d8 233d 6bc1 d7bc c450 ae3b 521f 22bd
000000a0: db76 1b3a 5763 1ebd 1ca2 35bb e86c 27bd
000000b0: 256f f23c 741c 52bc 528b a33a b7fe da3b
000000c0: b2fc ebbc 180f 14bc 32bd 1ebd 690a 543d
000000d0: 5d70 8c3b 609d 8a3b 43d4 083d 0ffd 3a3d
000000e0: b441 17bd 42fa 1b3d 8760 083d 04a2 17bd
000000f0: 3eb7 2cbd d021 133d 987e 18bd 9d81 743c
00000100: 67aa 27bd 5406 7839 e5bc 783c b121 2f3d
00000110: 21d4 963c a2a5 023a b899 923c 057a d7bc
00000120: 91bf 24bd 1f4e 083d 3fc2 e73c a829 16bd
00000130: c750 4cbc 5459 c1bb 72da a7bc 1ba5 be3c
00000140: 5c64 37bd 6f96 223d ec29 5ebc 2ea1 6ebc
00000150: 66c5 e2bc 5b2a 82bc ec0a 8f3c deb1 d73c
00000160: 1879 47bc d0e6 4abd 7bce eabc 59b3 27bd
00000170: 8456 26bd f7b2 333d fd37 183c 5441 9038
00000180: a2e1 bf3b 3526 923b 8ea1 06bc a9fd 9bbb
00000190: 7ced 83bc ee7a 1bbd bc83 43bb c22e 933c
000001a0: b802 643d ffae 40bd 29ca a63c 2e8a 2f3d
000001b0: e928 0abd d8d3 0b3d d577 ea3c 6a64 143d
000001c0: 6ea6 c83c 40ed f03c 8f4f 413d 1c28 10bd
000001d0: 9ae8 24bc 6c26 21bd e441 453b b8df 953a
000001e0: eb1b 6c3c c3be 0bbc 1cfb 103d 9909 de3b
000001f0: f50e c3bc 0c2a 2f3d 91bc f1bc 26f1 c43c
00000200: a18d 303d a537 34bd d9ca fe3c 81d0 b73c
00000210: d042 40bd 9d05 25bd 6879 873b 1eb3 8aba
00000220: 7ea6 04bd b45f d13c 68ac fbbc 6db6 39bd
00000230: 8dd7 8038 1113 33bd 2904 6c3d 730e 133c
00000240: 969b bc3c a2d1 84bc b530 8f3c 8531 433d
00000250: ec7e 86bc 09c2 00bd da66 83ba f075 22bd
00000260: 30ac efbb 8e55 45bc 2d5b 72bc c67c 5a3c
00000270: 81bd 45bc 4e98 02bd 79ed 0a3d 1262 13bc
00000280: 3362 dc3c e7e4 d63c e2b1 f23c c700 213b
00000290: 8489 1abd 23f1 5e3d 7423 8ebc 2c93 823c
000002a0: 5132 073d 415f e83c cce7 f2ba 53ea d5bc
000002b0: 45e3 cfbc 7a2d 0c3d ceb9 f6bc a026 5fbd
000002c0: 3e51 243d 7291 fb3c 94b9 603c cbc0 1abc
000002d0: d754 4b3d e98e c13c 2598 a83c e0e2 b6bc
000002e0: 5f0d d53c a18f ef3c d263 623c 437d 323c
000002f0: 6182 4f3d 21d9 563d 8108 243d 7cc7 533c
00000300: c50d 0d3d c734 493d c20c 343d e66e a43c
00000310: 0811 efbc dc46 043d 090a b4bc 3c2c 17bd
00000320: b07c 283d 664e 30bd 0838 bb3c d54c 433d
00000330: 0a00 823c e34a b2bc 4a88 413c 2d2b f33b
00000340: 6d6d 17bd 0ec4 cc3b 861e 9abc bd0a bd3c
00000350: 5ad0 e7bc ba5e c73c e239 40bd 9848 34bd
00000360: 1e4a 4abc 5a3d 903b 1f95 38bd ca3c b0bc
00000370: 31b8 2ebd 41d2 bb3c 7780 1abb 51ad ac3b
00000380: 2b6e 403d 02be dfbb 0b37 e8bc 4a3f 28bd
00000390: 61f7 143d c1aa 5fbc ef4a 17bd ad84 813c
000003a0: 4f56 ed3c add7 4f3d b6d6 27bd fc7a 0cbd
000003b0: df46 c03b d3cc 90bc 1ff4 3abd 48e0 2cbd
000003c0: 4fe5 063c 751b 423d 15dd 073c f113 3e3c
000003d0: 59b5 ed3b 5dd4 47bd 512b 11bd d0b5 e03c
000003e0: 9697 0e3c 99a3 583d d190 19bd c4dc 913b
000003f0: f9ac da3b 1282 593c d9b6 2b3c 5174 a53b

dense2.bias f4 [134]
-0.04271395 0.02246695 -0.022483237 0.049400553 0.016122922 -0.019923683 0.021775022 -0.016867843
0.0035022183 0.025558202 0.0075573567 0.04092525 0.012456769 0.022404827 -0.0012695915 0.0033003031
-0.00059780007 -0.046541475 -0.04024079 -0.049054943 0.027026026 -0.04630787 -0.004686902 -0.004230088
0.003901678 -0.023186665 -0.020396264 -0.036264617 0.030268544 0.04407472 0.01913983 0.030186852
-0.02612558 -0.01422875 0.028779464 -0.015549003 0.03653812 0.022666387 0.016337812 -0.030277748
0.015683493 0.03550893 0.034994874 -0.045770075 0.023403546 -0.04295678 -0.026436899 -0.0041185324
0.0352152 -0.018060202 0.012262186 0.049845308 -0.031809125 -0.015864976 0.015205721 0.006065403
0.029939424 -0.0067814435 0.038510058 0.038769454 -0.028018288 -0.03990986 -0.019295668 0.031197034
0.036801156 -0.024821308 0.052468058 0.043428067 0.040997144 0.053946197 0.038709328 0.010317263
-0.05194181 0.006536933 -0.03896334 0.033960477 -0.024110079 0.045066163 0.032409217 0.053156655
0.0014497343 -0.03437082 0.044236045 -0.039193857 -0.04279052 0.008965773 0.03765724 0.0069222394
-0.042871777 0.021171506 -0.039544173 0.026091801 0.014530288 -0.04118485 0.047596604 -0.0057568327
-0.03862388 -6.7799134e-05 -0.01131052 0.025628166 0.030030333 0.046177413 0.015849354 -0.0025769302
0.00725846 -0.003386426 0.035719045 -0.05362146 0.013327848 -0.005121446 -0.018844072 -0.009957534
-0.029234428 0.009540278 0.005194505 0.04906547 0.02695668 -0.00066553755 0.003304201 -0.04631303
-0.0026673349 0.03427599 -0.00685002 -0.049135495 0.05321062 -0.027002625 -0.02624268 -0.03558026
-0.003958528 0.044523407 0.00018745947 -0.020010764 0.028960956 -0.035067923
00000000: d3f4 2ebd 9c0c b83c c42e b8bc 3c58 4a3d
00000010: 3814 843c fe36 a3bc 8861 b23c 6e2e 8abc
00000020: 7985 653b 6f5f d13c b4a3 f73b 3ca1 273d
00000030: 7a17 4c3c 548a b73c 6c68 a6ba e649 583b
00000040: afb5 1cba 46a2 3ebd 87d3 24bd d6ed 48bd
00000050: af65 dd3c 52ad 3dbd 9594 99bb 8d9c 8abb
00000060: 4bb3 7f3b f6f1 bdbc 1116 a7bc 358a 14bd
00000070: bdf5 f73c b287 343d 22cb 9c3c 6b4a f73c
00000080: 5005 d6bc b41f 69bc e9c2 eb3c 3fc1 7ebc
00000090: ffa8 153d dcae b93c e0d6 853c 0a09 f8bc
000000a0: ab7a 803c d071 113d c956 0f3d 6779 3bbd
000000b0: cbb8 bf3c 73f3 2fbd 3292 d8bc c1f4 86bb
000000c0: d03d 103d fdf2 93bc 56e7 483c 982a 4c3d
000000d0: 494a 02bd 44f7 81bc 6b21 793c 4ac0 c63b
000000e0: 8643 f53c df36 debb b9bc 1d3d b8cc 1e3d
000000f0: 9c86 e5bc 8578 23bd f311 9ebc ec90 ff3c
00000100: cfbc 163d 0e56 cbbc bfe8 563d a1e1 313d
00000110: 9fec 273d b0f6 5c3d ac8d 1e3d bd09 293c
00000120: efc0 54bd c533 d63b 0698 1fbd 241a 0b3d
00000130: 8082 c5bc 4c97 383d 87bf 043d cbba 593d
00000140: 0305 be3a 6bc8 0cbd db30 353d bd89 20bd
00000150: 1d45 2fbd 2de5 123c 7a3e 1a3d f4d3 e23b
00000160: 519a 2fbd de6f ad3c 12f9 21bd 79be d53c
00000170: 7210 6e3c 72b1 28bd a8f4 423d d0a3 bcbb
00000180: 1334 1ebd 622f 8eb8 c24f 39bc 29f2 d13c
00000190: 2c02 f63c 8724 3d3d 81d6 813c b7e1 28bb
000001a0: 60d8 ed3b cdee 5dbb 224e 123d 2da2 5bbd
000001b0: 0c5d 5a3c ced1 a7bb e25e 9abc ed24 23bc
000001c0: 0a7d efbc d44e 1c3c ab36 aa3b e0f8 483d
000001d0: 41d4 dc3c 7877 2eba 4b8b 583b bbb2 3dbd
000001e0: 74ce 2ebb fb64 0c3d 2276 e0bb 4d42 49bd
000001f0: 61f3 593d 9c34 ddbc e4fa d6bc 9bbc 11bd
00000200: 8ab6 81bb 2d5e 363d c590 4439 9ded a3bc
00000210: 873f ed3c 62a3 0fbd

dense_output.weight f4 [1, 134]
0.052142587 -0.05022285 0.03859037 0.012805593 -0.07255203 0.01172676 -0.052844938 0.0060390006
-0.022861347 0.020456886 -0.048931293 0.052250255 -0.075655885 -0.04946552 0.00015296882 0.06949886
0.028473157 -0.060762543 0.039810415 0.020791326 -0.008890997 0.03761122 -0.047154732 0.055224583
-0.018563164 -0.013989633 0.0088493675 0.019675856 -0.048181962 -0.034334887 -0.04218708 0.053461738
0.0007743862 -0.047439087 -0.0063165007 -0.07539891 0.038752995 -0.014021704 -0.05726831 -0.077014044
-0.063888215 -0.049750887 0.00798974 -0.026524207 -0.0014207764 -0.04731547 -0.057725478 0.043866184
0.030373923 0.00027636395 0.059119277 0.009767366 -0.0029924149 0.07453962 0.06946952 -0.0033533392
0.05314103 -0.059123445 0.054232944 -0.06255119 -0.056118235 0.005166035 -0.0007256979 0.035536226
-0.019229846 0.005704654 0.049726807 0.062106248 -0.02976929 0.07758868 0.01770545 -0.020012759
-0.036173668 -0.055335447 -0.041270804 0.0015012056 -0.031462885 0.00683292 -0.059776038 0.05178973
-0.014556509 0.00048516755 0.057465747 0.03908624 0.032423735 -0.04527589 0.025440758 0.03674799
-0.02027759 0.048638012 0.06586166 0.075677454 0.005774135 0.04794073 0.05639038 -0.044574473
0.011155236 -0.07828899 -0.018249858 -0.068683736 -0.006116528 0.00083651935 0.009718819 0.06428133
-0.072405994 -0.030697206 0.00053348887 -0.04009252 0.035380863 0.02664078 -0.03132512 -0.033697464
-0.044605706 0.06240826 -0.021171974 0.021978993 -0.07038707 -0.082573764 -0.030015953 -0.051031075
0.08055684 0.04835355 0.0007521291 0.024873562 0.051217243 0.00681455 -0.013469786 0.030030273
-0.005990571 -0.04754158 0.03406869 0.0029076596 -0.04370269 0.049090795
00000000: 7793 553d 7ab6 4dbd f010 1e3d 8dce 513c
00000010: 2996 94bd 9921 403c ef73 58bd cfe2 c53b
00000020: b847 bbbc 3395 a73c 2e6c 48bd 5d04 563d
00000030: 79f1 9abd 5b9c 4abd 4166 2039 6b55 8e3d
00000040: 8a40 e93c 25e2 78bd 3f10 233d 9252 aa3c
00000050: 8bab 11bc 390e 1a3d 5225 41bd 2c33 623d
00000060: c711 98bc c634 65bc f0fc 103c 432f a13c
00000070: 735a 45bd bda2 0cbd 5ccc 2cbd b2fa 5a3d
00000080: 2e00 4b3a 7d4f 42bd a6fa cebb be6a 9abd
00000090: 76bb 1e3d 4abb 65bc 2d92 6abd 8ab9 9dbd
000000a0: d3d7 82bd 96c7 4bbd 66e7 023c 4b49 d9bc
000000b0: 5839 baba decd 41bd 8d71 6cbd 07ad 333d
000000c0: bcd2 f83c f1e4 9039 0e27 723d 4d07 203c
000000d0: 641c 44bb 3aa8 983d 0946 8e3d b2c3 5bbb
000000e0: 69aa 593d 6d2b 72bd 5d23 5e3d d71a 80bd
000000f0: 3cdc 65bd d847 a93b c33c 3eba 6f8e 113d
00000100: e987 9dbc 1bee ba3b 56ae 4b3d 1f63 7e3d
00000110: bade f3bc d0e6 9e3d 050b 913c ccf1 a3bc
00000120: d72a 14bd 6ca7 62bd 930b 29bd 1ac4 c43a
00000130: 3adf 00bd b0e6 df3b b8d7 74bd 7821 543d
00000140: 6d7e 6ebc 165e fe39 3461 6b3d e518 203d
00000150: c0ce 043d 3673 39bd 2369 d03c 0f85 163d
00000160: 301d a6bc a738 473d 7ae2 863d c8fc 9a3d
00000170: f434 bd3b 805d 443d 99f9 663d b993 36bd
00000180: 73c4 363c fa55 a0bd ba80 95bc 0faa 8cbd
00000190: 286d c8bb dd49 5b3a ae3b 1f3c eea5 833d
000001a0: 9849 94bd b578 fbbc d5d9 0b3a 0e38 24bd
000001b0: 86eb 103d c43d da3c c54e 00bd 5a06 0abd
000001c0: 79b4 36bd ce9f 7f3d d970 adbc 4a0d b43c
000001d0: 1927 90bd 6f1c a9bd 04e4 f5bc f605 51bd
000001e0: fcfa a43d 5f0e 463d 882a 453a a4c3 cb3c
000001f0: 2cc9 513d 974c df3b 61b0 5cbc 0c02 f63c
00000200: 8d4c c4bb f6ba 42bd 9c8b 0b3d 6f8e 3e3b
00000210: 9801 33bd 6e13 493d
