models/3layer_cnn_models/AC.pt (torch_old, 548113 bytes, 10 tensors)

conv1.weight f4 [81, 1, 8, 4]
00000000: a3f8 5abc 037f 39be 1bf5 4d3d 2fda ee3d
00000010: f699 24be d95f 33bb 1187 1d3e 1911 ca3d
00000020: 8ed5 203d b7f1 093e c6fd 043e 382f f1bd
00000030: b1a0 093d 6a65 11bc 7b7c 68be 2895 7abe
00000040: 70be d0bd effd 933e e78c 80be 3d4f 54bd
00000050: fd62 cd3c 6354 853c 60c3 c33a 7710 87be
00000060: d15d 4f3e 4058 afbe 7001 8dbe 2461 493e
00000070: 386c 07be 90f4 593d 5197 09bd a7ac 393e
00000080: 2beb 623e fc6a 633d 0630 21be e561 e7bd
00000090: 7838 69bd ab3b 14be ad37 a3bd 5c88 593e
000000a0: 3d38 b9bd 053b ca3d 2919 95be 09d3 1e3e
000000b0: d0fc d63d 8f03 7aba a3f0 243e 6347 8dbe
000000c0: c732 36be ea09 af3d a2ee 2e3e 102f dd3d
000000d0: ac69 f6bd 6284 413e 27f3 bf3b f3ef 723e
000000e0: 3aa9 3a3d 82b5 de3c f922 42bd 6d19 8b3d
000000f0: 5079 97be 4f0c 613e 4b42 d7bc 6d54 943d
00000100: ac59 073d 38c2 14be a248 163e fd5f 073e
00000110: ec27 163e ada4 4a3d 6e9f 07be f542 bfbd
00000120: 809c 453d 5714 75bd f899 59be f1c7 b3bd
00000130: 32ee c93c f657 d8be 54d5 093d 93d2 663d
00000140: bab5 cabd 1866 5a3e 396b d63d 60c2 39be
00000150: f5aa 493d 7156 9dbe feec c5be c539 433e
00000160: ecdd 2f39 cd43 bdbc 8ee2 043e 79fb 1abe
00000170: 5ff1 09be aea1 0ebe e633 163e 6b3e bebd
00000180: ed73 fdbd b0c0 44be ce0e 983d 9af7 1fbe
00000190: 84c8 2d3d 64d4 ec3d 66f6 1bbf 5076 06bd
000001a0: 0660 2abe 70d8 b2bd 02c3 6e3c 2a21 3ebd
000001b0: dbcf fbbc 255f 3b3e 8aff eebd c92d 7ebd
000001c0: 748c ddbc eb3e 04be f4de 803e 36e8 47be
000001d0: 5e00 e8bd 9d27 443d 688f 0dbe cdeb 8d3d
000001e0: 5db9 4e3e 6c56 9f3d f51d d23d aadd 04be
000001f0: 4e16 02be 5a69 24be a9ed 7e3d 7004 b4bc
00000200: 595f ecbb 9233 563e 4e0f 9cbd 9754 29bd
00000210: 692f ce3d 0c77 163d b058 ca3c fc06 dcbd
00000220: c506 143e ece9 1ebd 4a39 05be b995 3dbe
00000230: 6ea0 ef3c b245 70be dfdc 243e 7dbe 343e
00000240: 5af4 47bd d1f5 8c3d 4fb1 65be 7d7c 563d
00000250: f6d7 03be 5955 dfbb badb 36be a46c 9b3b
00000260: 2870 26be ac45 8dbe 8d64 2b3e a3a4 863e
00000270: bcdd c2bd f384 5c3e 6ec8 54be 6de9 8c3d
00000280: 12f3 2bbd 3567 35be 1206 b53e 4d96 0bbe
00000290: 5c0a 4abe 1936 3a3d d49f bfbd 67e5 f83d
000002a0: 0267 5b3e 9ddf 25be 8e50 8cbe 5ecc 123e
000002b0: 31ad 1b3e 690b e43c 98ed fe3d 3239 853d
000002c0: 9a73 e23b a8e2 153e 8153 d3bc 82e3 2abe
000002d0: a606 a6bc 342f 9d3d 93c0 5bbe 6139 d33d
000002e0: 2643 19be c556 fb3d f3c5 383e dbe0 89be
000002f0: 94d0 89be 0ece 04be e0de 863c 4d37 e63b
00000300: 730d 53be 1a9e d5bd 73ff 593e 98ed edbe
00000310: 4fdc 2bbe 9c7e 54be 639b 3fbd 817f 263e
00000320: 4522 5f3d 63c6 0d3e fc9a 29bd 8588 0cbf
00000330: d33a 23be 5da4 1fbe b327 49be f948 9f3c
00000340: df6d 973d 7a16 8f3d 7907 90bc 86b3 05ba
00000350: 3f01 adbd 72fc 913d a3ed a03c 5abb a33d
00000360: fd00 953d c21a 2b3e a96d 9abc 0fa0 153d
00000370: 14ba 8a3c 392b 603e 2c20 44be 15d5 15be
00000380: f78e 17bd 81a4 65be 4391 003e 5234 9e3c
00000390: 2a0c 4dbd b966 42be 2587 a43c 0678 433e
000003a0: b23e 3dbe a940 163e 448f b8be af80 263e
000003b0: 56f2 f1bd 3abf ac3d 4e08 31be 0c6b c0be
000003c0: ce77 313e 9010 90bd 61a2 65be c266 99be
000003d0: 2137 fd3c 71ff d23d e9a8 fcbd ba53 a43d
000003e0: 842c f73d 6b53 c93d 1f36 013d 1a72 493c
000003f0: ceef e9bc 74a0 003e f0ec 063d 7596 e1bc
-0.013364944 -0.18114857 0.05028258 0.11662709 -0.16074356 -0.0027370362 0.15383555 0.09866542
0.03926616 0.13471113 0.12987432 -0.117765844 0.033600513 -0.008874277 -0.22703736 -0.24470961
-0.10192573 0.28904673 -0.251075 -0.05183338 0.025071615 0.01627559 0.0014935546 -0.2637975
0.20250632 -0.34247017 -0.2754016 0.19665962 -0.13224876 0.05321175 -0.033591572 0.18132268
0.22160022 0.05552195 -0.15740976 -0.11297969 -0.05693862 -0.14475887 -0.07969604 0.21243423
-0.0904393 0.09874538 -0.29120758 0.15510191 0.10497439 -0.00095372734 0.1610742 -0.27593526
-0.17792808 0.08546813 0.17083219 0.10799992 -0.12031874 0.18898156 0.0058578434 0.23724346
0.045571543 0.027186159 -0.047396634 0.06791959 -0.29584742 0.21977352 -0.026276728 0.072426654
0.033044502 -0.14527214 0.14676145 0.1322021 0.14663666 0.049473453 -0.13244411 -0.09338943
0.048244953 -0.05983385 -0.2125014 -0.0877837 0.024649713 -0.4225461 0.03365071 0.056353163
-0.09897943 0.21328008 0.1046967 -0.18140554 0.049235303 -0.30730012 -0.38657373 0.19065006
0.00016771973 -0.023103619 0.12977049 -0.15134992 -0.13470982 -0.13928863 0.14668235 -0.09289249
-0.12375627 -0.1921413 0.07424699 -0.15621796 0.042427555 0.11563948 -0.6092285 -0.032827675
-0.16638193 -0.087326884 0.014572861 -0.046418346 -0.030738762 0.18298014 -0.11669834 -0.062055383
-0.027044512 -0.12914626 0.251701 -0.19522175 -0.11328195 0.04788934 -0.13824236 0.06929741
0.20187898 0.077801555 0.1025962 -0.12975183 -0.12703821 -0.16055813 0.06223837 -0.021974772
-0.0072135148 0.2091811 -0.07620107 -0.041340437 0.100676365 0.036734626 0.024700493 -0.1074352
0.14455707 -0.038797304 -0.13010135 -0.18514146 0.029251304 -0.23464087 0.1609988 0.1765079
-0.048817016 0.06882823 -0.22430919 0.052364815 -0.12875351 -0.006815594 -0.17857257 0.0047431756
-0.16253722 -0.27592218 0.16737576 0.26297483 -0.09514949 0.21535091 -0.20779583 0.0688046
-0.041979857 -0.17715152 0.35356194 -0.13631554 -0.19730514 0.045461748 -0.09356657 0.1215313
0.21426013 -0.16198583 -0.27405208 0.14335772 0.15202786 0.027837472 0.12447661 0.0650505
0.0069107534 0.14637244 -0.025796654 -0.1668835 -0.020266842 0.07675019 -0.2146018 0.103136785
-0.14967021 0.12272409 0.18044262 -0.26929364 -0.26916945 -0.12969229 0.016463697 0.0070256353
-0.20610599 -0.10430546 0.21288852 -0.46470332 -0.1678326 -0.20751423 -0.046779048 0.16259576
0.05447604 0.1384521 -0.04140757 -0.5489581 -0.15940408 -0.15590043 -0.1964405 0.019443976
0.07394003 0.06986709 -0.017581688 -0.00051002984 -0.08447503 0.07128228 0.019644564 0.07994719
0.07275579 0.16709426 -0.018851118 0.036529597 0.016934432 0.21891488 -0.19152898 -0.14632066
-0.037001576 -0.22426035 0.12555413 0.019312058 -0.05006043 -0.18984498 0.020083973 0.19088754
-0.18480948 0.14673103 -0.36046803 0.16260026 -0.118138 0.08434911 -0.17288324 -0.3758167
0.17330858 -0.07034409 -0.22425224 -0.2996121 0.030910077 0.10302628 -0.123369046 0.08023782
0.120690376 0.09830364 0.031545755 0.01229527 -0.02855673 0.12561208 0.032940805 -0.027537564

batch1.weight f4 [81]
00000000: b47f 6c3f d2ef 2e3f a2cd 503f 0d37 4c3f
00000010: 9fea 453f 53b4 463f e3c8 333f 9742 733f
00000020: 1f90 663f ce41 403f 8130 4d3f b666 613f
00000030: 4e4c 6f3f b87a 733f 0503 483f cc76 613f
00000040: 65dc 613f 6df3 793f d647 5a3f e69a 3e3f
00000050: b784 263f 57c9 553f ee46 573f 683b 703f
00000060: b1d6 2a3f 6866 7a3f d3bd 683f 55e5 6c3f
00000070: 025f 363f 0cb6 7d3f 0ea5 503f 0a72 573f
00000080: 97f5 703f 400a 763f ebdb 443f 9c02 263f
00000090: 982b 533f 8066 483f 1e58 563f 772e 453f
000000a0: 1938 783f 98cb 6d3f a082 223f 4526 683f
000000b0: 622a 5e3f 810f 783f ba4b 483f 36a0 5f3f
000000c0: 6f88 563f 98e8 653f ada7 523f 0be3 693f
000000d0: dff5 553f 3a6e 2a3f 13f5 343f 37fa 773f
000000e0: 315d 5d3f 2e0d 473f 6832 2b3f cf2e 673f
000000f0: ad11 113f f8da 443f f777 683f ca76 573f
00000100: 766d 5c3f d788 383f 8f42 1c3f 7a20 5f3f
00000110: 5902 593f 3be9 7a3f abc3 683f 17d7 353f
00000120: 31a1 633f 204d 443f 2964 1e3f 0ae4 593f
00000130: 79b2 413f 1e5e 333f 7068 803f c54c 6b3f
00000140: 9d9a 383f
0.9238236 0.68334687 0.8156377 0.797715 0.7731113 0.776189 0.70228404 0.95023483
0.9006366 0.7510041 0.80152136 0.8804735 0.93475807 0.9510913 0.7812961 0.88071895
0.8822692 0.97637063 0.8526586 0.74455106 0.65046257 0.83510345 0.84092605 0.93840647
0.66733843 0.9781251 0.9091465 0.9253743 0.7123872 0.99105906 0.81501853 0.84158385
0.9412474 0.9610939 0.7689807 0.6484773 0.82488394 0.782814 0.83728206 0.77024025
0.969606 0.92888784 0.6348057 0.90683395 0.8678342 0.9689866 0.7824055 0.8735384
0.8380193 0.89808035 0.822871 0.91362065 0.83578295 0.6657444 0.70686454 0.9686617
0.86470324 0.77754486 0.6687379 0.903058 0.56667596 0.7689662 0.9080805 0.8416563
0.86104524 0.720838 0.6103906 0.8715893 0.8476921 0.9801213 0.90923566 0.71031326
0.88917834 0.76680183 0.6187158 0.85113585 0.7566295 0.70065486 1.0031872 0.91914016
0.7211092

batch1.bias f4 [81]
00000000: 118f 7dbc bf08 06be 4f5e dabd 3cde 56bd
00000010: 22f3 3cbd b43c a9bd 2781 b1bd de76 1abc
00000020: a9d2 03b9 5a52 debd 2abb a7bc a607 f1bd
00000030: 12f6 64bd 1c1d afbd 6931 32bd 0008 0cbd
00000040: a33e d5bc 15a4 753d 2b4d c3bd e0cb f2bd
00000050: 0595 44be ce55 36bd 2c10 65bd a804 86bb
00000060: d0fb e2bd 1fd4 3fbb 4e08 243c 21b9 17bd
00000070: bd14 2ebe eb13 013c f652 623d 00d3 92bd
00000080: 8574 9b3c 71ba 39bb 96f5 ddbc 4cf7 33be
00000090: 5cf6 60bd 2930 30be 1c09 90bd b691 1bbe
000000a0: 9fe4 1a3d 42a8 54bd d0af 4abe 7450 0cbd
000000b0: b27c a7bc 0adb 923d 65f2 d0bd dee1 abbd
000000c0: 497b edbc fb05 8e3d c32d 46bd f7e9 99bd
000000d0: 6c7d a2bc 0dc3 aebd 78ca dbbd ed0b 21bd
000000e0: 361a d5bd cddc 3dbe 102c 7fbd b719 86bd
000000f0: 5e2d ecbd 6a85 35be 2199 9cbd 39a9 113d
00000100: 9009 3cbd a02e bbbd 1298 06be 4f6b a53c
00000110: 0c55 d5bd afb6 e03b d9a2 733c c676 0fbe
00000120: 3578 d1bc ef60 abbd 936e b2bd 9e05 ba3d
00000130: 74bc 063c 318e 553d 6dc5 6d3d af5d 64bd
00000140: a945 b3bd
-0.015476004 -0.13089274 -0.10662519 -0.052458033 -0.046130307 -0.08263531 -0.08667212 -0.009427754
-0.0001257161 -0.10855551 -0.020474989 -0.11769037 -0.055898733 -0.08550474 -0.043504152 -0.034187317
-0.026030844 0.059970934 -0.09536203 -0.11855292 -0.19197471 -0.044515423 -0.055923626 -0.0040899105
-0.11083186 -0.002927072 0.010011746 -0.037041787 -0.17000099 0.007878284 0.0552549 -0.07169151
0.01897646 -0.0028339888 -0.027094644 -0.17574805 -0.054922447 -0.17205872 -0.070329875 -0.15192303
0.037815686 -0.051918276 -0.1979363 -0.034256414 -0.020445202 0.07170685 -0.10202483 -0.0839269
-0.028989451 0.069347344 -0.048383486 -0.075153284 -0.019835196 -0.08533297 -0.10731977 -0.039318014
-0.1040539 -0.1854126 -0.06229788 -0.065478735 -0.115320906 -0.17726675 -0.076463945 0.035561774
-0.045907557 -0.091397524 -0.13143948 0.02019277 -0.10416612 0.006857715 0.014870369 -0.14010152
-0.025570014 -0.08368098 -0.087124966 0.09083103 0.008223642 0.052137557 0.058049608 -0.055753406
-0.08753521

conv2.weight f4 [35, 81, 6]
00000000: 9c4e 603d 53f3 d5bd 5cae 353d a7de 3fbc
00000010: 1e2a f33c 74bf 95bd 503d 473d 922d 88bc
00000020: c0ee de3b eb9c 183b 4273 abbd 5c0f 66be
00000030: 141f bcbd 34b2 f93b b4c5 adbd f68a 2d3d
00000040: da39 8dbd d97c 4abd 2a7e 73bd d2d7 ddbd
00000050: 86d1 ecbd 9ea3 8fbd 7127 f23d 0d8a 163c
00000060: 6078 e4bc c554 bd3d 0948 653d aa40 86bd
00000070: 7692 133d 268b 5bbe 690f bd3b 7b9f 8f3c
00000080: 1b72 523d c89c 3e3b 04c6 5c3d fde2 e03b
00000090: 17b3 0cbe 8c2c 5a3c 1767 c7bd 8e47 9639
000000a0: 56db 033e e6aa 0b3d 43e4 58be 851d 76be
000000b0: b3be 2fbe a6e2 33bd ad21 d6bb 10aa 2ebe
000000c0: 7981 95bc 05ca 94bd 61d0 b4bd 4715 ba3d
000000d0: a593 063e b9a4 b93d 2b37 a13d fae7 5cbd
000000e0: 1653 713d 0a89 93bd 537b 72bd cf94 8d3d
000000f0: 1d73 d5bd a7c5 7abd 2596 85bd 8280 e7bd
00000100: 2d15 2bbd aad3 5a3d 0de1 af3d 27aa 413c
00000110: 6ed5 1fbc 2fff f9bc 2b02 eebd de78 4dbd
00000120: 5921 ca3d 2cb7 ebbd 7167 0dbe e97f 123d
00000130: 44ee a2bd e186 58bd d6eb 4f3d 5042 733d
00000140: be6b fbbc bf76 993c 6548 0abe 65ef 853d
00000150: bd75 eb3d 7043 1b3e 189b cdbd 427a 89bd
00000160: c9da debc 42b3 cd3d ff3b aa3b 3b95 7f3d
00000170: c794 e7bd bbd8 d8bd ba78 b03d b245 9e3d
00000180: f7e5 26be 1987 c7bd 5fb2 663d b70d c1bc
00000190: 022a d6bd 0efb d1bc 744b 8ebe 6bba 6fbd
000001a0: 76b1 1d3c 10aa 82bd 1d88 10be c723 89bc
000001b0: cfe9 dd3d 3c2e cc3d 47f3 bc3d 53d3 c9ba
000001c0: 6fd4 033d 8b40 07bd 4f7a c13c ab96 f0bb
000001d0: 0312 e63d 9b7a 5ebd 09a1 333d b645 0e3e
000001e0: b9b5 f4bc f10f a6bd 0bc7 3bbd d905 413c
000001f0: ef30 ddbc c9f5 25be 606d 0d3b 1121 793a
00000200: f21e de3b 3b27 e13a fad2 d0bd d1ef 47bd
00000210: 8108 b93b bd69 0e3b 068d 12bd 8d95 00be
00000220: c1a4 1cbd 916e f5bd ae0c f2bd d548 7abc
00000230: 8c1a 803d 4bb5 043d 02e6 dabd 04b4 38bd
00000240: 158d 933c 3924 f5bd 75cc 093d 15cf 33bd
00000250: e5ad 04be d66b 2fbe 977a 09be 3149 f4bd
00000260: 52f2 93bd 425d 70bc db56 493d 1499 94bd
00000270: ede7 fabd 3e10 32be 7cd9 1bbb 1cd0 d53d
00000280: 7f15 19bd 3c47 55be 6958 abbd dc08 98bd
00000290: 6913 bf3d e043 1f3d 5d68 be3c 1023 fabd
000002a0: 79c8 5dbb 84ff 1a3d bc59 18be 09ae 86bd
000002b0: 8ea2 0b3d f334 bb3c b1fd d9bd 09a8 94bb
000002c0: b258 313e 6397 da3d 682f 8bbd cc7a d7bc
000002d0: 3690 24be f969 22be 2651 de3c 2df9 513c
000002e0: 3396 2d3d 5cea f83b 9256 8d3d 0130 bfbd
000002f0: b376 f63d 502f 4fbc 8c01 e3bb 089c 71bd
00000300: b281 da3d ad5a df3d 6a8e 833d 6f11 d8bd
00000310: 666e 0fbc 2b09 a73d ef55 19bd 71c8 c1bd
00000320: f7be 17be 4e9b 48be 8304 593c 819a 223c
00000330: 3a9f 8ebc ab07 fabc 2541 d0bd 910b 7e3c
00000340: 666c 4ebd f8ea 29bc 2b7c 1b3d f767 ca3d
00000350: 13bc 7fbb 8fa8 b4bc 05c8 d53d d38d 4ebd
00000360: b967 c4bc 1d3f fb3c 536c 07be 8269 21bd
00000370: ab47 52bd 4d79 b93c dece b23c b577 c4bc
00000380: 6573 b2bd cd38 05bd c265 debc 1b13 babd
00000390: 7fed 943c ad63 de3c 18c4 5e3e fe93 803d
000003a0: 2805 103e b93a e73d 9d3e d23d 9797 05bc
000003b0: f91e 0fbd 4e91 1cbc 3cfb 07bb 9c31 beba
000003c0: d23f 8a3d f580 af3d 916b 923d d6be 193c
000003d0: 669d 4abd dc6e da3b 649f 70bc 4733 4f3d
000003e0: 663a a9bc 1761 643d 12d0 5ebd 794b 483d
000003f0: 8703 babd fcec cf3d c5ca 10bb 2686 013e
0.054762468 -0.10446801 0.044355735 -0.011710799 0.029683169 -0.073119074 0.048642457 -0.016623292
0.0068033636 0.002328689 -0.08371593 -0.22466797 -0.09185615 0.0076201204 -0.084849745 0.04236885
-0.068958 -0.04943547 -0.05944649 -0.1083218 -0.11563401 -0.070136294 0.11823929 0.009188187
-0.02788943 0.09244684 0.0559769 -0.065553024 0.036028348 -0.214398 0.0057696593 0.0175321
0.05137835 0.0029085148 0.05389978 0.0068629966 -0.13740192 0.013316285 -0.0973646 0.00028663542
0.12876639 0.03409853 -0.21180825 -0.24034698 -0.1716259 -0.04391732 -0.006534776 -0.17057061
-0.018250214 -0.07265095 -0.088288076 0.090860896 0.1314226 0.090646215 0.078718506 -0.053932168
0.058917128 -0.072038725 -0.059199642 0.069131486 -0.10422347 -0.061223652 -0.065227784 -0.11303808
-0.04176824 0.053424515 0.08587847 0.011820353 -0.009755475 -0.030517189 -0.11621507 -0.050164096
0.09869642 -0.11509547 -0.13808991 0.035766516 -0.07955602 -0.052863006 0.05076202 0.059389412
-0.030691024 0.01873338 -0.13504179 0.065398015 0.11497066 0.15162444 -0.100393474 -0.06712772
-0.027203934 0.10043956 0.0051951404 0.062398177 -0.11307674 -0.10588213 0.08616777 0.07728137
-0.16298662 -0.09742565 0.05632245 -0.02356611 -0.10457231 -0.025632408 -0.2779194 -0.05852739
0.0096248295 -0.06380093 -0.14114423 -0.016740693 0.10835611 0.09969756 0.09226089 -0.0015398063
0.032185014 -0.033020537 0.023617892 -0.00734218 0.11233904 -0.054316144 0.043854747 0.1389378
-0.029871808 -0.08108509 -0.04584412 0.011781179 -0.027000872 -0.16207041 0.0021580085 0.00095035235
0.0067785913 0.0017177829 -0.101964906 -0.04881269 0.0056467657 0.0021730505 -0.03577902 -0.12557049
-0.03824306 -0.119839795 -0.11818825 -0.015276154 0.062550634 0.032399457 -0.10688402 -0.04509355
0.01801161 -0.119697995 0.03364225 -0.04389866 -0.1295696 -0.1713098 -0.1342567 -0.11928023
-0.07223953 -0.014670672 0.049155097 -0.0725576 -0.122512676 -0.17389008 -0.0023780754 0.10440084
-0.037374016 -0.20827955 -0.08366472 -0.07423565 0.09329874 0.03888309 0.023243124 -0.12213719
-0.0033841415 0.037841335 -0.14877981 -0.06576163 0.03409057 0.022852397 -0.10644091 -0.004536633
0.17318991 0.10673406 -0.067961514 -0.026303671 -0.16070637 -0.15860738 0.027138304 0.012815756
0.04237957 0.007596297 0.069012776 -0.09335328 0.12034359 -0.0126455575 -0.0069276746 -0.058986694
0.10669269 0.10905967 0.06423648 -0.105502 -0.008754348 0.081560455 -0.03743547 -0.09462059
-0.14818941 -0.19590494 0.013245705 0.009924532 -0.01740991 -0.030521234 -0.10168675 0.015505687
-0.050396346 -0.010370962 0.037960213 0.09883111 -0.0039022013 -0.022053031 0.10438541 -0.050428223
-0.02397524 0.030669743 -0.13224916 -0.03940726 -0.05133788 0.022640849 0.021827158 -0.023982862
-0.08713416 -0.032524873 -0.027148131 -0.09085675 0.018179653 0.027147138 0.21754491 0.06278227
0.14064467 0.11290497 0.10265849 -0.008153818 -0.034941647 -0.009556128 -0.0020749113 -0.0014510634
0.06750454 0.085695185 0.07149423 0.009383878 -0.049466513 0.0066660475 -0.014686439 0.05058601
-0.02065773 0.055756655 -0.05439765 0.0489001 -0.09082704 0.10152623 -0.0022093516 0.1264883

conv3.weight f4 [12, 35, 8]
00000000: 1614 fcbc f7bf 3f3d 5d90 283d 42e6 053d
00000010: 3a78 b83b ba2c 253d 664e 793d aea0 e03b
00000020: a325 8f3c 052f 0a3d a8e1 a4bd 96bc bdbb
00000030: 9f98 163b 3e2f 993b aa0a 8bbc ac50 de3b
00000040: 5f03 58bd 8dd3 a0bd b4ea eabc d251 57bd
00000050: f2f7 753c 6aa7 64bd db23 0abc c45f a9bd
00000060: 6ed3 e0bc 2078 0f3d fc72 ef3c fd8c ed3c
00000070: b273 dbbb b1ad c33c 2cf8 ab3d 4678 46bd
00000080: e3a9 cebb e3b2 c7bc d62a 883d e552 95bd
00000090: bd52 56bc 02f9 0fbd 020c 03bc 377d b4bd
000000a0: b733 06bc e230 c9bb 7837 87bd 9cea 7cbc
000000b0: a9e0 09bc a004 3cbd ae1a ae3b 616c 0bbc
000000c0: 6519 59be a48e f4b8 4816 a43c 8a7d 61bd
000000d0: a31e 17bd a59a 6abc 2fa6 1a3c 653e 123e
000000e0: 2651 8b3c 1ca9 cdbb fdb4 f8bb 3be6 a3bd
000000f0: 06d8 ecbb 6447 0bbd d8de 40bd adbe 03bd
00000100: 86b5 193c 3d70 44bd 5ca4 41bc 71e1 38bc
00000110: d178 3f3d 1a4d 80bd cb00 c8bd 883b 06be
00000120: ef8b b7bd a389 f63d 5d18 34bd 62a5 babd
00000130: be20 1bbe abc5 52be c4a8 d93c 93fb 013e
00000140: a4a3 a4bd edd4 e2bc f8b3 1bbc 7301 63bd
00000150: 70b7 f7bd b170 babd 8ba2 5cbd f6fa 42bc
00000160: ac62 4c3d 6988 323d 3365 da3b 9372 b23c
00000170: 1f0a 5e3c ffdc 5f3d f935 72bd 0c75 68bd
00000180: a974 bbbc c52c f1bd b751 bd3d fe50 f33d
00000190: e1d6 0e3c 590c cd3d 54c8 e5bc afa6 fd3d
000001a0: 9c71 35be 9e9d 65bd 794f 6a3d 6d28 993c
000001b0: 872a bf3c e800 34bc 6d16 8fbd b27c 12be
000001c0: c9ae a43c c5bb 453c 2c7d 4f3d 67be 6c3c
000001d0: 2d12 823c ba65 8fbc 2c61 583d de8b 583d
000001e0: eccf a3bc 33c0 673d 0836 adbc 4dc7 11bd
000001f0: a0bf 39ba 9862 713d 8c6a 073c 640e 5a3e
00000200: 8b92 2d3d 0d44 8bbc 7c88 dd3c 72d0 b53d
00000210: f3c9 15be 59b6 0fbe edae 19bd be8b 4fbb
00000220: aa6d aabd f6df 603b 5734 103d de51 423c
00000230: 9d2a 98bd 4c59 c2bc f478 b6bc 869e 82bd
00000240: d9cb 343d f488 b0bd 6d58 8c3d bec8 f43d
00000250: cfdb 8ebd 4a79 3f3d 22a5 c6bc 9b50 273d
00000260: 9045 5ebd e26e 91bd b563 1fbe ca86 8c3c
00000270: f219 e0bc da23 943c 7252 de3c fc7a bb3d
00000280: 1970 bcbc 717d 51bd e804 053d 816d 9f3c
00000290: 75c4 843c 918a 7bbd 8501 993c 4a31 f0bb
000002a0: c5e9 f03b 2884 bdbd 6f02 dc3a f02e 173c
000002b0: 5d0f ca3c 7b75 883c c27e 683c 89e2 b93c
000002c0: 5c63 0dbb fbae 10bd a4c0 193d 4b9b 99bc
000002d0: 16a0 d0bc e827 69bd 184f bbbc b4dc c2bc
000002e0: e580 46bc 3fdf f93b 2673 d9bd 9529 c9bd
000002f0: faa0 d7bd bd14 36bc 74ab 713d e92d 0abe
00000300: 457e a5bd b01c 8a3d cec4 d5bc 93c4 d7bc
00000310: e65c 903d d1ed 5c3d 595b 213c 4e8b f6bc
00000320: 704c 74be ee5e 96bd b740 4fbe 8729 edbd
00000330: b265 9ebb 6163 e83b 3bf7 99bd f97c 053d
00000340: 6a6d 77bc 3f51 a8bd eec0 9d3d 3134 03be
00000350: 822a ff3c 1fff 743d 0a80 96bd 2a9c be3d
00000360: e887 81bc 90e4 4cbd f3e1 1cbd b12e 9e3d
00000370: 550f 59ba dbff 56bc 1a79 77bb e7f9 dabd
00000380: 6da0 523d 4962 8d3d 969d 5c3d 4ab0 27bd
00000390: b19d 93bc 4e8b 72bd dcba fabc 22db 10be
000003a0: 5d85 cabd 260b 813a 074d 76bd a3c2 5d3d
000003b0: ff45 29bd 3df5 163d 9ace 9b3b 9f6b 5bbc
000003c0: 06ec 0bbd 0fa6 5dbd e375 dd3a e539 a33b
000003d0: 78d2 02bd 43a2 b6bc e985 acbb 5648 11bd
000003e0: d2d6 8f3a 6d0b d4bc 2457 983d b74a aebc
000003f0: 2207 21be 4a9c 07be fb72 e9bc 2727 cc3c
-0.030771296 0.04681393 0.0411533 0.032690294 0.0056295665 0.040325858 0.060865782 0.006855092
0.017474001 0.033736248 -0.08050853 -0.0057903035 0.0022979153 0.004674821 -0.016972858 0.006784519
-0.05273759 -0.0785285 -0.028676368 -0.052568264 0.015012728 -0.05582372 -0.0084314 -0.08270219
-0.027444568 0.03502667 0.029229634 0.028997893 -0.0066971416 0.023886533 0.083969444 -0.048454545
-0.006306873 -0.024377292 0.06648795 -0.072912015 -0.01308125 -0.03514958 -0.007998468 -0.08812945
-0.008191041 -0.0061398605 -0.06602377 -0.015436795 -0.00841538 -0.04590285 0.005313239 -0.008509726
-0.21201093 -0.000116613955 0.020030156 -0.055051364 -0.03689445 -0.014319097 0.009439035 0.14281614
0.017006468 -0.006276263 -0.007589935 -0.08002897 -0.0072279004 -0.03400363 -0.04708752 -0.032164264
0.0093816575 -0.0479586 -0.0118189715 -0.011284218 0.04674608 -0.06264706 -0.09765776 -0.13108647
-0.08962237 0.12037971 -0.043968547 -0.091135755 -0.15149209 -0.20583217 0.026569732 0.12693624
-0.080390245 -0.027689422 -0.009503357 -0.055421304 -0.12095535 -0.091035254 -0.05386595 -0.011900654
0.04989879 0.043587122 0.006664896 0.021783149 0.013552218 0.054654118 -0.059133504 -0.05675225
-0.022882776 -0.11776117 0.092441015 0.118806824 0.008718223 0.10012121 -0.028049625 0.12385308
-0.1771912 -0.05605852 0.057204697 0.018696034 0.023335708 -0.010986544 -0.06986699 -0.1430538
0.020102875 0.0120686935 0.050656483 0.014449692 0.015877808 -0.017504562 0.052827045 0.052867763
-0.019996606 0.05657978 -0.021143928 -0.03559046 -0.00070857443 0.058931917 0.008265149 0.21294552
0.042376082 -0.017000223 0.02704262 0.088776484 -0.14627819 -0.14034404 -0.037520338 -0.0031668986
-0.08321698 0.0034313179 0.035206165 0.011860339 -0.07430003 -0.02372422 -0.022274472 -0.06377892
0.044139717 -0.08619872 0.068528034 0.11952351 -0.06975519 0.04674653 -0.024248663 0.040848356
-0.05426556 -0.07101227 -0.15565379 0.017154116 -0.027356122 0.018083502 0.027138922 0.09154317
-0.023002671 -0.05114502 0.032475382 0.019461395 0.01620696 -0.061411444 0.018677482 -0.0073300945
0.0073520862 -0.092537224 0.0016785393 0.009227499 0.024665529 0.016657582 0.014190378 0.022691028
-0.0021574115 -0.035323124 0.037537232 -0.018750807 -0.02546696 -0.056922823 -0.022864863 -0.02378688
-0.012115692 0.00762549 -0.10617666 -0.09822384 -0.10528751 -0.011113343 0.0590014 -0.13494076
-0.080807246 0.06743753 -0.02609482 -0.026338851 0.07048969 0.053937737 0.009848439 -0.030095723
-0.23857284 -0.07342325 -0.2023953 -0.11580186 -0.0048339004 0.007091925 -0.075178586 0.032589886
-0.01510177 -0.082186215 0.07702814 -0.12812878 0.031148199 0.059813615 -0.0734864 0.0930713
-0.015811875 -0.05002266 -0.03830142 0.077237494 -0.0008280178 -0.013122524 -0.003776139 -0.10692196
0.051422525 0.06903512 0.053861223 -0.040939607 -0.018019529 -0.059214883 -0.03060668 -0.14146093
-0.09888718 0.0009845241 -0.060132053 0.0541407 -0.04132652 0.03685497 0.0047548534 -0.013392358
-0.034160636 -0.054113444 0.0016896095 0.004981267 -0.031939 -0.02229417 -0.005264987 -0.035469376
0.0010974056 -0.025884354 0.07438496 -0.021275861 -0.15725377 -0.13243213 -0.02849721 0.024921013

dense1.weight f4 [214, 420]
00000000: 0c62 b83c 4f7e a6bc ef82 643d 3131 03bc
00000010: 4474 3ebc 18a7 be3c 86a0 8a3d ec36 053c
00000020: e11e 9dbc 46f9 ea3b b819 8b3b 52b5 9abb
00000030: c66b 8a3d d8c8 793c b67d 1cbc 75c0 ea3b
00000040: 17df 723d 56b9 ee3c 4d33 87bc b3a6 6d3d
00000050: 0970 0b3d bc18 7f3d fcb4 273d 0931 ebbc
00000060: 441c d3bc 7ae7 033d 1fd7 473c a5b5 86bc
00000070: 66a3 8b3c a1c6 d5ba ea7f 7dbc 0346 fb3c
00000080: 9bc2 c33c 9f10 873d d472 dc3d a87f e23c
00000090: 9ffa 1fb8 e7d1 2ebd 174a 7c3d 6247 6d3d
000000a0: 409a 7f3d 4e54 203d c44a 2fbe 8e75 c2bc
000000b0: a73b 9fbd 7ef0 0abd 1265 893c c4f8 cf3b
000000c0: 1eab 8bbd e392 28bd c592 b9bd aeec 21bd
000000d0: ea06 16be d0a3 02bc 2d5f aabd 8ac0 23bd
000000e0: 87fa 04be 7f50 c5bd 1f64 f7bc 79f0 babc
000000f0: 8eed 9abd a3dd ef3b 0491 223d 8e88 9d3c
00000100: 860d d1bc 26e7 dabc 8c02 41bc 82ad a9bc
00000110: e355 88bd fa65 c2bc 2f68 56bc 49bf 953c
00000120: 8bab 483e d593 89bd 2a28 5dbd 0911 82bd
00000130: e068 5e3d 7f5e 6a3c a4e8 1f3d 0a91 a03d
00000140: e49e 5a3d d8db f83c 8846 973d c314 1abc
00000150: 7813 23bd 0096 38bd 847c 1fbe d2ed 693d
00000160: 9fc6 513d 3e0a bfbc 6c80 253e 8770 953c
00000170: 2321 163d 6d26 b33d b0e8 683c b1ec e93c
00000180: 6e8f 5a3d b2c3 df3d 3bd5 7d3c b0df 313c
00000190: 76f5 f2bc 7c0a a43d 596c 3dbc 2fc3 32be
000001a0: 78f9 fabc a798 49bd a801 03be efaa f73b
000001b0: 30f4 c13c b03c 9b3c 1112 f8bb eb4f 13bb
000001c0: 156b f23d 6054 943d 0ab0 843d a129 5a3b
000001d0: 3b0c 0abe a693 573d 6e73 4b3d c032 253d
000001e0: 440c a3bd d1ed 36bd 6233 ab3c 84aa 163d
000001f0: d134 4ebd 4a2d a0bd a13e 253d 5312 843d
00000200: 81d8 8abd ef98 1d3d 3c8c 59bc c1e8 143d
00000210: bb57 94bd 7636 72be 1836 a1bc b5b3 a53d
00000220: 8bb2 3c3d 9d51 94bd e330 79bc 12b7 1ebe
00000230: f16a b13c 27fd 1dbe c88b bc3c 24ab 023d
00000240: f6de d3bc bd4c 81bd fb3a 3bbd 95db 0ebe
00000250: 59c5 82be 5f38 6a3d 51bd c5bd 4c30 08be
00000260: 1559 413d 1af8 9e3d f8d6 063e 58c2 c7bc
00000270: 7a81 473d 1a48 30bb d338 3cbd 6dea 773c
00000280: b5be d63c 34a5 923c 9b8a 89bd 5b6b 50bc
00000290: f59b f1bc 5884 8bbd 61c2 3ebb e05b 79bd
000002a0: 3740 043d b47f 163d bb96 523e 6df8 933d
000002b0: f1af 39be e2f6 d6bb 03c5 f4bc 42ed 523c
000002c0: 2d6e 84bd 98e7 e2bc fd8e d13d 333d b2bd
000002d0: a6bf 233e 0099 0e3e 5df7 aa3d 2f69 83bc
000002e0: 8c97 97bd 84f9 a43c 9fc6 9bbd 0b80 053d
000002f0: bbc9 edbd caa3 f4bc 1a29 773d 7f4f 70bd
00000300: 1554 ce3c a2b3 95bd f567 85bb ad58 4e3d
00000310: 629e 993d aba6 2dbd 547c 06be 5530 193e
00000320: b19a 38bd 50b6 e43d 943a acbc 9037 a8bd
00000330: bcad 933d 8877 ae3d 9db9 93bd ba81 d0bb
00000340: 2fb1 60bc 19e8 76bd 4d53 c2bc 3dd8 fa3c
00000350: 23cc 853d b19d 9aba 9cc2 5e3d ee31 83bd
00000360: 4a3f 58ba a0be 3f3d f8ca 053d e063 a73c
00000370: e7bc 713d a618 153d d2ca 92bd d3a8 6c3d
00000380: 9f4f cf3d 1cb3 093e 99c5 ecbd 9325 5e3d
00000390: 4bf1 e7b8 090f f63c 7230 143d d8ae e03d
000003a0: 83ec 293d b061 973d 4e46 cb3d 9e2e 1cbd
000003b0: 5f38 efbc b2ce de3d d7d9 d23d 77db 9e3d
000003c0: 5755 7f3c 8c98 0cbd 320b e23b 5382 2e3d
000003d0: 9b73 be3d 1754 ffbd 527b 3ebd 8c9b d83d
000003e0: 99c6 24bd d7b2 0dbc 50f7 a2bc 8582 9d3b
000003f0: 826c 4bbc 903e bb3d 8e18 983c 4878 e43d
0.02250769 -0.0203239 0.05578893 -0.008007334 -0.0116244 0.023273036 0.06768899 0.00813077
-0.019179763 0.007170829 0.0042450093 -0.004721322 0.067588374 0.015245639 -0.009551456 0.007164056
0.059294786 0.02914111 -0.016503954 0.058020305 0.034042392 0.062279448 0.040944085 -0.028709905
-0.025770314 0.032203175 0.012197285 -0.016444037 0.017045688 -0.0016309806 -0.015472392 0.030673033
0.023896506 0.06594967 0.10764089 0.027648762 -3.8141963e-05 -0.042680647 0.061594095 0.057929404
0.062402964 0.0391429 -0.17118365 -0.023737695 -0.0777505 -0.033920757 0.016771827 0.006346794
-0.068197474 -0.041155707 -0.09061197 -0.039532356 -0.14651075 -0.007973626 -0.083189346 -0.03997854
-0.12986194 -0.09634494 -0.030199109 -0.022819744 -0.07564841 0.0073201223 0.03968908 0.019230153
-0.025519144 -0.026721548 -0.011780392 -0.020712618 -0.066570066 -0.023730267 -0.013086363 0.018279688
0.19596688 -0.0671765 -0.05399338 -0.063509054 0.054299235 0.014304756 0.039040223 0.07840164
0.053374186 0.030378267 0.073865 -0.009404364 -0.03981349 -0.045064926 -0.15574843 0.05711157
0.05121481 -0.023320314 0.1616227 0.018242134 0.036652695 0.087475635 0.014215633 0.028555246
0.05335944 0.10925998 0.015492733 0.010856554 -0.02965806 0.08009812 -0.011561477 -0.17457269
-0.030636534 -0.049217846 -0.127936 0.0075582187 0.023676008 0.018949836 -0.007570513 -0.0022478055
0.118368305 0.07242656 0.06478889 0.0033288973 -0.13481228 0.052631043 0.04967063 0.040331602
-0.07961324 -0.044660393 0.020898525 0.03678371 -0.05034334 -0.07821138 0.04034293 0.064488076
-0.06779576 0.038475927 -0.013278063 0.036354784 -0.07243296 -0.23653588 -0.019679114 0.08090917
0.04606871 -0.07242129 -0.015209409 -0.15499523 0.021657439 -0.15428601 0.023015872 0.031901494
-0.025863152 -0.06313465 -0.045710545 -0.13950951 -0.2554119 0.057182666 -0.0965525 -0.13299674
0.047204096 0.07762165 0.13167942 -0.024384663 0.048707463 -0.0026898445 -0.04595263 0.015131575
0.026213983 0.01790104 -0.0671589 -0.012720908 -0.029493311 -0.06812352 -0.0029107558 -0.060878634
0.032287803 0.03674288 0.20565312 0.07225118 -0.18133523 -0.0065601924 -0.029879099 0.0128739495
-0.06466327 -0.027698323 0.10232351 -0.08703079 0.15991077 0.13925552 0.08347962 -0.016041366
-0.07401952 0.02013851 -0.07606243 0.032592814 -0.11610743 -0.029863257 0.060341932 -0.058669563
0.025186578 -0.07309653 -0.0040712305 0.050377537 0.07500912 -0.042395275 -0.13133365 0.14959843
-0.0450694 0.11167586 -0.021024026 -0.08213723 0.072108716 0.085188925 -0.07213137 -0.006363121
-0.013714119 -0.06027994 -0.023721362 0.030620689 0.065330766 -0.0011796263 0.054384813 -0.06406008
-0.0008249177 0.046812654 0.03266427 0.020433366 0.059018042 0.03640046 -0.07167591 0.05777819
0.101226084 0.13447231 -0.11561126 0.054235052 -0.00011059883 0.030036466 0.036179014 0.10970849
0.04148532 0.07391679 0.09925519 -0.038130395 -0.029201685 0.10879268 0.10295456 0.07756703
0.015584311 -0.034325168 0.0068983072 0.042604756 0.09299394 -0.12467211 -0.046504326 0.10576543
-0.04022846 -0.008648596 -0.019893318 0.004806819 -0.012416007 0.09142792 0.018566396 0.11155754

dense1.bias f4 [214]
00000000: 6c19 a4bd 335d 06bd 28c2 2abd 802b 07bc
00000010: b720 2dbd 608c 6e3d e517 453d 20bb 7abd
00000020: 49d2 9fbd 7e4b 603d 7fa4 14bd 0e4c 713c
00000030: 40bf c0bc 8c63 c0bc ba7b 2bbc e60d 48bd
00000040: 2cec c33c 5469 173d 5705 0cbc 39a0 63bd
00000050: 04a2 71bd c437 23bc cea2 963d 9dd6 eabc
00000060: 958e d73d 86d7 593d f628 50bd e027 803c
00000070: 0bf4 8d3d 8f73 aabc ff05 8fbd 809c 18bc
00000080: 9ff8 96bc e9ab 4d3b c590 0b3c 6b6b 2b3d
00000090: 19c1 ef3b da87 47bd c7fd 293d 3f88 ed3c
000000a0: 08ff a83c 4143 8bbd 66a2 0c3d 7576 18bd
000000b0: fdcb 77bd 2557 ce3d 6010 6d3d fd1b 59bd
000000c0: 1dba 90bd 5a66 933d a9a3 29bd c649 b83c
000000d0: ef0b 543d 78a2 23bd 25cb ae3d a02d 8c3c
000000e0: 31bb 2f3d 3e22 8c3d d1ed 713d 16f6 36bc
000000f0: 9c45 8fbc a974 e23c 8c42 5fbd 06e0 0ebd
00000100: 0f11 b13c af6a a6bd 35fb 593d d382 873d
00000110: 06c2 a6bc 5c3a 463d fd68 1a3d 351a a03d
00000120: 3b65 12bd 240a 30bd 7f69 04bd 87ed 983d
00000130: 80cc 98bc b12d d13b 6b9a 6dbd 8a82 99bc
00000140: efd2 8b3a 4bc5 7cbb 1fff 60bd 1dd6 123d
00000150: f5f1 4c3d adca 8e3d acdd 54bd c747 963d
00000160: 0363 bebc 06bd 423d a660 c1bd 5fe8 553d
00000170: edd7 03bd 9d05 913c f2c8 8ebd b54a 9dbd
00000180: eee7 a93d fcb4 973c 6239 093d b0a2 3bbd
00000190: 15e6 40bd e94c 5a3d f5c1 103d 3026 31bd
000001a0: 282d 953d 0e61 e83c 1c64 0c3d 76b8 b73c
000001b0: a1fc 3d3c 4c43 9abd 8892 e03c 3924 06bc
000001c0: e90e 62bd 7100 683d aaf7 e6bc 9174 ba3b
000001d0: 517c 9f3d f098 303d 54da 74bd a5a8 9abd
000001e0: d63b 09bd 37ce be3d 3efb 733c 16da 8bbd
000001f0: 4571 25bc be45 a5bc c0b2 1cbd 295f 4dbd
00000200: f728 393c 813b 34bd 66f2 0e3d 7524 e2bc
00000210: cf8d 4b3a 951f c7bd 484f b43c d4e2 10bd
00000220: 7218 863c 9a1d 6a3d 019f dfbc 43ee b23d
00000230: 1034 15bc d449 f5bb ec8c 2dbd f9b4 34bd
00000240: 88cb 023d 2d4a 19bb f9be 59bd 4a25 31bd
00000250: 1687 14bb 9868 bfbd 4d10 9abd cc3f abbd
00000260: 258a 85bd 5d3b bebc cc73 d0bc 180f ed3b
00000270: 1e19 113c c217 a33c 6fae c6bd 6339 d1bc
00000280: edf3 7fbc 6555 ea3a fc92 8d3c 9b12 103d
00000290: fac4 46bc 03c5 993b c94c ffbc cf1b 76bd
000002a0: f4dd 8fbd 829b 413d 42d7 70bc b1c3 47bd
000002b0: 9916 33bc 5d7f 1c3d ed39 3abd 91d7 49bb
000002c0: cffe 0fbd 6e44 2e3d 8767 14bc da62 173c
000002d0: 1303 ad3d 2911 013d 6308 1e3d f715 8e3d
000002e0: 8c4a c53c b34e 15bd 7f9a 8b3d 4d4a b3bc
000002f0: 6b39 70bd 637b 4fbd 07ab 133c b588 243c
00000300: 498b 633c 0f55 123d 1b26 8e3d 2848 6b3c
00000310: f578 c33c 5b71 bdbc 3f4d a03c ad54 f9bc
00000320: 0d70 5dbd eff9 943c 1ebb 663d f743 023c
00000330: 3b67 3dbd 80b7 debc 4bde 113d 8592 26bd
00000340: e2ad 943d 9a71 5a3d 0946 0cbd 0446 6ebd
00000350: d1d9 92ba da13 abbc
-0.08012661 -0.032803725 -0.041689068 -0.008250117 -0.042267527 0.05823934 0.04811849 -0.061213613
-0.078037806 0.054759495 -0.03628969 0.0147276055 -0.023528695 -0.023484968 -0.01046651 -0.04884138
0.023916326 0.036965683 -0.008546195 -0.055572722 -0.0589924 -0.009962026 0.07355271 -0.028666789
0.10525242 0.053184055 -0.050820313 0.015644014 0.06931313 -0.020807056 -0.069835655 -0.009314656
-0.018429099 0.0031382984 0.008518402 0.04185049 0.00731672 -0.048713543 0.041501787 0.028995631
0.02062942 -0.06799937 0.034334563 -0.037222344 -0.060497273 0.10075215 0.057876945 -0.053005207
-0.07066748 0.071972564 -0.041415844 0.022496115 0.051769193 -0.039949864 0.085348405 0.0171116
0.04290313 0.06842469 0.05906469 -0.01116707 -0.017489247 0.027643519 -0.054506823 -0.034881614
0.02161458 -0.08125817 0.053218085 0.066167496 -0.02035619 0.0483955 0.03769778 0.078174986
-0.035741072 -0.04297842 -0.03232717 0.0746718 -0.0186522 0.0063836207 -0.058008593 -0.018739004
0.0010667722 -0.0038569744 -0.054930802 0.035848726 0.050035436 0.06972251 -0.051969215 0.07337909
-0.023240572 0.047543548 -0.09442262 0.05222356 -0.032188345 0.017702872 -0.06971921 -0.07680265
0.0829619 0.018518917 0.03350199 -0.045809448 -0.047094423 0.053296003 0.03534122 -0.04324931
0.072840035 0.028366592 0.03427516 0.022426825 0.011595876 -0.07532367 0.027413622 -0.008187347
-0.05519 0.056641046 -0.028194267 0.0056901653 0.07787383 0.043114603 -0.059778526 -0.07551698
-0.03350433 0.09316676 0.014891444 -0.06828706 -0.010097806 -0.020174857 -0.038256407 -0.05013958
0.011301271 -0.04400206 0.034899138 -0.027605275 0.00077649666 -0.09722821 0.02201046 -0.03537257
0.016369078 0.057157136 -0.027297499 0.08736851 -0.009106651 -0.0074856076 -0.04237072 -0.0441179
0.031932384 -0.002339016 -0.05316064 -0.043248452 -0.0022663525 -0.093461215 -0.075226404 -0.08361778
-0.065204896 -0.023221666 -0.025445841 0.0072344653 0.008856086 0.01990879 -0.09701239 -0.02554006
-0.015622121 0.0017878233 0.017282002 0.035173994 -0.012131924 0.004692675 -0.031164544 -0.060085114
-0.07024756 0.047267444 -0.014699759 -0.04877061 -0.010930681 0.0382074 -0.0454654 -0.0030798654
-0.035155114 0.04254573 -0.009057886 0.009239877 0.08447852 0.031510506 0.038582217 0.06937783
0.024083398 -0.036452007 0.06816577 -0.021886015 -0.058648508 -0.05065478 0.009012944 0.010042359
0.013888189 0.03572565 0.06940862 0.014360465 0.023861388 -0.023125341 0.019568084 -0.030435884
-0.054061938 0.018185584 0.056330793 0.007950774 -0.046241026 -0.027187109 0.035612386 -0.040667076
0.07259728 0.053330995 -0.03424648 -0.05817224 -0.001120383 -0.02088349

dense2.weight f4 [108, 214]
00000000: a6a1 473d 2bb8 dcbb 25aa 1abd d703 53bc
00000010: af92 8e3c 3d35 27bd 696d 143d dacb 8e3c
00000020: 0439 153d 1db4 4abb 9d67 b13d f283 a8bc
00000030: 51ba 0bbb b261 3bbd a767 fcbb c96b 323d
00000040: f08b 1f3d 8781 993d c10b e5bb 971f 22bc
00000050: a707 2fbd 0ed1 61bb 043c bfbc fc7c 863d
00000060: 820e 7c3d e52e f2bc fa30 a53c b86f a53b
00000070: e98f bfbd bd7f c73c 64ee 20bd 6f0b fcbc
00000080: 56f7 6b3d 1539 773d 35fd 33bd bc89 38bc
00000090: 3dc2 6b3d f700 813c 87c8 433d abc9 e53c
000000a0: 7ced 50bd 3f5f 073c d3db 2b3b 37cc e03c
000000b0: dce7 973c a558 34bd b509 c83c 7eeb 92bd
000000c0: 820c bfbc 85ea 04bb 040d 65bd 36bd 893c
000000d0: f6f8 3b3d 4331 863a f10d 883c ee88 5ebc
000000e0: 70e9 6bbc 00a4 e4bc 77d1 5dbc 151a 853b
000000f0: daef 3dbc 84a5 36bd 5ff6 0e3d 956e afbc
00000100: e165 b4bd 7f96 0b3d d390 8cbc 6fe4 90bc
00000110: cf96 fb3b fb1c eabc a587 09bd 581c 29bd
00000120: 3c05 88bd edbc 643d 6259 89bb c2a4 e3bc
00000130: 84ef 93bc a71e a7bc 59e4 413b b675 bdbc
00000140: 77a4 d5bc 5cdd 613d 38c8 8c3d 871c 153c
00000150: 59e1 6f3c 5d3f eabc d523 11bd 4d62 f03c
00000160: 1627 1bbd 3cf5 42bd d212 d4bc 2ca1 0d3d
00000170: 9f98 e3bc 9955 a8bc 0c2e c5bd 8fda 08bc
00000180: 900f 193d 8bcd ab3d 6663 5f3d 9bd2 643c
00000190: 69f6 083c eab1 363d 1737 b43c 8444 18bd
000001a0: ce71 4f3c 6df1 303d 47f8 3a3d b1a1 b0bb
000001b0: 345a 873c c45f 61bd 6753 063d 3092 18bd
000001c0: e064 0cbd c7a2 db3c 6dfb d23c be60 c23c
000001d0: d17f a23c 850d 3c3d c61a 31bd a02c 73bd
000001e0: d416 08bd d7f4 f4bc 10fd ac3c 6749 d23d
000001f0: 06cc 2c3d 7506 863c f52a b43c 292a 653a
00000200: e1f9 9fbb 3c1b efbc a58e 05bd b481 a6bc
00000210: d721 173d b616 97bd a19d b9bc 4793 c03d
00000220: 4c8b 083c d259 cf3c ede5 c8bc 3362 413d
00000230: 7f87 493d d399 803b 2095 5cbd b963 99bc
00000240: 0bab 44bd 5f0a 19bc d852 0bbd 67cc 8d3c
00000250: 4d6a 1cbd 3aea bf3c 0012 f03c 67a2 e5bc
00000260: 0568 023d 4ff5 f83b 47e9 c1bc f945 08bc
00000270: 9137 dbbc ce7a 45bd 706e acbc 0229 f63c
00000280: 015c fabc 2f49 903c 053b acbd 0a62 133d
00000290: a29e 00bc 6ab0 08bd a6e1 b53b 8b46 afbd
000002a0: 4d54 003c c093 a13d 1d84 84bd 559b 0cbb
000002b0: 57e6 883d c4ad 7e3c 8733 61bc d726 9abc
000002c0: e51a 853d 69fe f53b e776 52bd 397f b93d
000002d0: 1ec1 e63c 4875 89bd 18d2 d13c 2376 7e3d
000002e0: 1045 11bc 9d0e 42bc bc61 d53d 13ee 34bc
000002f0: 671f 9bbc 41e0 aa3d 1c81 023d 3fa9 f83c
00000300: b18a ddbb da49 41bd 96ab 6dbc 08f7 41bd
00000310: 7458 563d e525 213c 111f 8aba 0cbc f6bd
00000320: 8043 533c 21cc 563d f166 383d 20c2 6dbd
00000330: a59a 6ebc a472 f8bc 280e 953c 0586 3d3d
00000340: 6e7f e53c b503 773d d8da 683d 6400 47bc
00000350: 5eea 423d c6d2 85bd d48f 31bd 77a9 59bd
00000360: d2b9 24bd fd75 7abd 257d 08bd 78dc 2abd
00000370: 15e2 4a3c dc5e 963c 7d34 ad3c c1b2 bebc
00000380: 8a64 2c3c 6c0d 7a3d d7de 8e3d 934b b9ba
00000390: ce5a 0c3d 3b32 7dbd fd49 17bd b4e2 7cbb
000003a0: 66a9 dbbc 3edb ed3c 4804 ab3c 41a8 5dbd
000003b0: d0a5 74bd 8467 8c3d e54a 02bd ea26 203c
000003c0: 2149 363c df99 cfba 3a5c 2e3d a241 163d
000003d0: d3fc 4fbc 7d40 51bc 17d8 f4bc 3b02 c93c
000003e0: d9ea 743d 4771 9d3d 1c29 93bd 3556 72bd
000003f0: 2c82 2dbd 6bc7 d53c 6869 f8bc 14bb b93b
0.048738144 -0.0067358217 -0.03775992 -0.012879333 0.017403929 -0.040822256 0.036237154 0.017431188
0.036431327 -0.003093011 0.08662341 -0.020570729 -0.002132077 -0.045747466 -0.007702786 0.043559823
0.038951814 0.074954085 -0.0069899266 -0.009895227 -0.042731907 -0.0034456882 -0.023344047 0.06566808
0.061537273 -0.029563377 0.020164955 0.0050487183 -0.093536206 0.024352903 -0.039289847 -0.03076717
0.057608925 0.060357172 -0.04394265 -0.011263307 0.057558287 0.01574753 0.04779866 0.028050264
-0.051007733 0.0082624545 0.0026223555 0.027441127 0.018543176 -0.04402985 0.024418691 -0.07173823
-0.023321394 -0.0020281386 -0.055920616 0.016813856 0.045891725 0.001023807 0.01660821 -0.013582451
-0.014398918 -0.027910233 -0.01353871 0.004061947 -0.01159283 -0.04459144 0.034902927 -0.021415034
-0.08808494 0.03407907 -0.017158901 -0.01768705 0.00767789 -0.028578272 -0.033576626 -0.041286796
-0.066416234 0.055844236 -0.0041915635 -0.027788524 -0.018058546 -0.020400358 0.0029585569 -0.023127418
-0.0260794 0.055142745 0.06874126 0.00910104 0.014641129 -0.028594667 -0.035434563 0.029343748
-0.037879072 -0.047597155 -0.02588788 0.034577534 -0.027782736 -0.020548629 -0.09627923 -0.00835289
0.037368357 0.083888136 0.054538153 0.013966228 0.00835953 0.044603266 0.021998925 -0.037174717
0.0126614105 0.04319899 0.045646932 -0.005390369 0.016522504 -0.05502297 0.032794382 -0.03724879
-0.03427589 0.026811017 0.025754655 0.02372777 0.019836338 0.04591133 -0.043238424 -0.05936873
-0.033224896 -0.029901905 0.021116763 0.10267907 0.04218676 0.0163605 0.02199314 0.0008741939
-0.004882083 -0.029187791 -0.03260674 -0.02032552 0.036897507 -0.07377379 -0.022658171 0.09403091
0.008333992 0.025311384 -0.0245237 0.04721279 0.049201485 0.0039245873 -0.053853154 -0.01872431
-0.04801468 -0.009340852 -0.034014553 0.01730938 -0.038187314 0.023427118 0.029305458 -0.028031541
0.031837482 0.0075976024 -0.023670806 -0.008317464 -0.026759895 -0.04821282 -0.021048754 0.03004885
-0.030561449 0.017613022 -0.084096946 0.03598217 -0.007850321 -0.033371367 0.005550581 -0.08558377
0.007832599 0.07889509 -0.06470511 -0.002145489 0.06684559 0.015544359 -0.013745195 -0.018817348
0.0649927 0.0075071347 -0.051382925 0.09057469 0.028168257 -0.06711823 0.025612876 0.062124383
-0.008866563 -0.011844304 0.10419032 -0.011043089 -0.018935872 0.08343554 0.03186141 0.03035414
-0.006760918 -0.04718957 -0.014506241 -0.047354728 0.05233045 0.009835695 -0.0010537823 -0.12047586
0.012894511 0.052440766 0.045020048 -0.05804646 -0.014563237 -0.030328102 0.018195227 0.04627039
0.028014865 0.06030627 0.05684933 -0.012146089 0.04758679 -0.065343425 -0.043350056 -0.05314013
-0.040216275 -0.06114768 -0.033322472 -0.04171416 0.012383004 0.01835578 0.021143192 -0.023278596
0.010522017 0.061047956 0.06976097 -0.0014136903 0.034266286 -0.06181548 -0.036935795 -0.0038587274
-0.026814174 0.029035207 0.020876065 -0.054115538 -0.059728444 0.068556815 -0.031809706 0.009774903
0.011125834 -0.0015838704 0.042568423 0.036683686 -0.012694555 -0.012771723 -0.029888196 0.024537196
0.05979428 0.076876216 -0.07185575 -0.059164245 -0.04236047 0.026096066 -0.0303237 0.0056680534

dense2.bias f4 [108]
00000000: abad 37bd 42e9 803e 46c3 b1bc d4dc 2abd
00000010: 46e1 8e3c f64e 0d3e 5527 78bd db90 a3be
00000020: ae51 423c def8 ccbc 9293 a93c 9553 2a3c
00000030: 4b5e 243e 275d 84bc f6be 0dbc 470e 45bd
00000040: 36be d8bc 8497 e3bd 93d1 bcbc ccfb 0c3d
00000050: 1ca7 9c3d 39bb 17bb d9e9 1a3e 7d2b 2a39
00000060: c4b1 fcbd 8b54 88bd 8a19 873d f906 143d
00000070: 0113 c7bb fd8f 1bbd c704 083b e093 423a
00000080: b111 a4be 17e5 41bd e711 0ebd deb3 8b3d
00000090: 93c7 7d3d 00ec 3d3c 3c10 20be 7af0 d53d
000000a0: e672 e3bc 4081 bd3c 6b73 b3bd 7627 e3bc
000000b0: 24bc 123c 8d46 34bb 4a39 33bc 11cf 043d
000000c0: f590 9cbd 4fb4 28bd 1792 00bc afaf 68bd
000000d0: b21e 503d ce64 cebc 5d16 dc3a 2f9b 483c
000000e0: 8793 8dbd 0a19 c4bd d082 b6be 1c8d 5b3d
000000f0: 9f23 1b3d 2043 383b 851c c4bc 0c78 d13b
00000100: 560a 6b3c 5020 44be d5ab 603c ce0b 62be
00000110: 0bac aebb e605 173e 8993 7abc bdcb 95bd
00000120: c23f 8d3d 7bf3 4a3c 405f b63b 37a6 a73e
00000130: e531 c6bc f43d d73d 60f2 4a3c 98fa 683d
00000140: 9927 b3bd fdeb 88be 121a 9dbd f999 a93d
00000150: 6fa8 6cbc 23a3 b33d c6c4 843c 66e0 a43d
00000160: c247 90be 3b38 a53e b851 963c 9b69 8e3c
00000170: ca3c c53d e35e 2bbc 8b43 a43d 93c6 d9bc
00000180: 7cfd 37bd 0a6b c2bc 4722 2e3d 0d10 af3e
00000190: 8a4c bb3b db05 623d 78cb 7abc 1d44 a0bd
000001a0: c4e7 b03e 07ca 96bb 8bf0 abbe 7ffa aa3d
-0.044843357 0.25177962 -0.021699559 -0.041714504 0.017441403 0.13799652 -0.060584385 -0.31946453
0.011860294 -0.025021013 0.02070025 0.010395904 0.16051595 -0.0161577 -0.008651486 -0.04810932
-0.026457887 -0.11112884 -0.023049152 0.03441982 0.07649061 -0.0023152365 0.15128268 0.00016228664
-0.123385936 -0.0665675 0.06596668 0.036139462 -0.0060752635 -0.037979115 0.00207548 0.0007422548
-0.32044747 -0.047337618 -0.03468504 0.06821416 0.061957907 0.011591911 -0.15631193 0.10446258
-0.027764749 0.02313292 -0.087622486 -0.027728777 0.008955989 -0.0027507872 -0.010938952 0.032424036
-0.07644836 -0.04118758 -0.0078473305 -0.05680817 0.050810523 -0.025194552 0.0016791333 0.01224403
-0.06912904 -0.09575088 -0.35646677 0.05360137 0.037875768 0.0028116181 -0.02393938 0.0063924845
0.014345726 -0.19152951 0.013712843 -0.22074816 -0.0053305677 0.14748344 -0.015293964 -0.073142506
0.068969265 0.012387152 0.005565554 0.32744 -0.024193713 0.105098635 0.012386888 0.05687961
-0.08747787 -0.26742545 -0.07670988 0.08281321 -0.014444455 0.0877135 0.01620711 0.08050613
-0.28179747 0.32269463 0.018349513 0.017384341 0.09630735 -0.0104596345 0.08020695 -0.026583945
-0.044919476 -0.02373268 0.04251316 0.34191933 0.0057159113 0.055181365 -0.0153073 -0.078254916
0.34551823 -0.0046017203 -0.33581957 0.083485596

dense_output.weight f4 [1, 108]
00000000: bf49 00bb 4e17 023c 716d 11bb 9b1f f0ba
00000010: 527e bf3a 991c 333b de24 96ba 5ace 1bbd
00000020: 2299 a3ba 926e 1f3b 4910 293a 5364 47bb
00000030: a3d1 7d3b 36cd 7cb8 8d1f dc39 5513 37ba
00000040: 9c59 1abb 02f4 103b e8bf 0b3b d843 f5b9
00000050: b283 d2ba 5092 06bb 58d3 c3b7 c1c8 70ba
00000060: 9a63 78bb cca9 97ba b638 ddb9 decc 74ba
00000070: dac6 41bb e04d 82bb 6d7d 2fbb 5cba 19bb
00000080: 144c 05bd 9c92 f639 3161 db37 ddbd 94ba
00000090: 091c 013b 8e3a a03a b9b1 6cba 4321 23bb
000000a0: 9db2 84ba ae17 73b9 28a5 b3bb 18f5 d739
000000b0: 850e daba 2478 afbb 4d24 88ba 6ab4 d33a
000000c0: 1776 d1ba 709d 41ba c262 293a 3079 31ba
000000d0: 46a3 e0bb c778 8db9 cb9f 15bb 9ea3 a6ba
000000e0: 97d5 d939 97ec 11bb e7e3 8fbd 62ab 7fbb
000000f0: 88b8 9e3b 52c6 0b3b 141d 2c3b 632e 16bb
00000100: 79e3 9fbb 96a0 83ba 8b7b b7b9 8ef9 32bb
00000110: c133 283a 6762 483b f0f4 03bb e3a9 26bb
00000120: 8024 d83a b7c3 2aba d3d3 8eba 44c0 943c
00000130: c7a3 63ba e80a 763b 59b1 c039 cca2 d8ba
00000140: cf44 7c3b 5e93 38bc ac54 6d3a 1f6a 8cba
00000150: 9a7a a9ba c386 b7ba fc46 d3ba 4bf0 42bb
00000160: 5928 e6bb ef58 843c 93fd 6eb9 0c99 0e3b
00000170: d35e 58bb c8d5 b2bb 9836 96bb d2ef c8ba
00000180: 9e25 de3a 7b89 e0b8 efdd ef3a 6bfb ea3c
00000190: 1e62 91ba d923 c2ba 649f 953a 50dd 253b
000001a0: d32d 0d3d a3b9 0b3b d812 e5bc bed9 c43a
-0.0019575206 0.007940127 -0.0022190476 -0.0018319966 0.001460979 0.0027330278 -0.0011455079 -0.03803859
-0.001248155 0.002432738 0.0006449265 -0.0030424788 0.003872969 -6.02726e-05 0.00041985177 -0.00069837767
-0.0023551947 0.0022118096 0.0021324102 -0.0004678059 -0.0016060977 -0.0020533986 -2.3344226e-05 -0.0009185188
-0.0037901164 -0.0011570989 -0.00042194658 -0.0009338389 -0.0029567988 -0.0039765686 -0.002677764 -0.0023457026
-0.032543257 0.0004703001 2.6152093e-05 -0.0011348088 0.0019700548 0.0012224482 -0.0009029168 -0.0024891652
-0.0010124032 -0.00023183107 -0.0054823346 0.00041190605 -0.0016636407 -0.005354898 -0.0010386795 0.001615179
-0.0015980628 -0.0007385826 0.00064615544 -0.00067700725 -0.006855401 -0.00026983602 -0.002283084 -0.0012713557
0.00041548602 -0.0022266263 -0.07025891 -0.0039012064 0.004843775 0.0021327925 0.002626245 -0.0022915832
-0.004879412 -0.0010042365 -0.00034996527 -0.002730939 0.00064164033 0.003057623 -0.0020135008 -0.002543085
0.001649037 -0.0006514149 -0.0010896869 0.018158086 -0.00086837675 0.0037543122 0.00036753228 -0.001652801
0.0038493162 -0.011265604 0.00090534496 -0.0010712779 -0.0012930215 -0.0014001954 -0.0016119177 -0.0029745277
-0.007023853 0.016155688 -0.00022791912 0.0021758704 -0.0033015504 -0.0054576136 -0.004584145 -0.0015330261
0.0016948467 -0.0001070676 0.0018300394 0.028684339 -0.0011091863 -0.0014811709 0.00114153 0.0025308914
0.03446753 0.0021320365 -0.027963087 0.0015018506
