models/3layer_cnn_models/GTT.pt (torch_old, 918649 bytes, 10 tensors)

conv1.weight f4 [86, 1, 7, 4]
000000 b8 d6 2d be 7f 29 10 be d3 35 49 be 3f aa e5 3d
       -0.1697644 -0.1407833 -0.19649439 0.112141125
000010 61 b1 13 3e d3 41 12 be 53 47 dc bd b4 67 3c be
       0.14423133 -0.14282922 -0.107557915 -0.18398935
000020 e7 67 0a be 9e 69 49 bb 89 a5 19 3e f8 51 f5 bd
       -0.13516198 -0.0030733119 0.15004553 -0.11978525
000030 dc cf 99 bd da 5b f4 3c 33 1f 24 be 92 03 3c bd
       -0.07510349 0.029828954 -0.16027527 -0.045901842
000040 88 8b 0b bd 89 ed af bd b6 af 07 ba f9 59 59 3d
       -0.034068614 -0.08590228 -0.0005176024 0.05306432
000050 70 9f cc 3c 3d c7 42 3c f7 d0 ba bd 1a d5 e8 bd
       0.02497837 0.011888322 -0.09121888 -0.11368771
000060 36 58 c0 bd 41 ef 83 3d e5 88 38 3c a4 4e 3a bb
       -0.09391825 0.064421184 0.011263107 -0.002842822
000070 32 fb d7 bd 64 b4 dd bd 40 f0 9c 3d 04 60 92 bd
       -0.105459586 -0.108254224 0.076630116 -0.0714722
000080 c5 a2 5e be 27 73 a1 3d 00 2b 18 3e 01 d7 44 be
       -0.21741779 0.07883292 0.14860153 -0.19222642
000090 55 3c 3e be e1 9d 3d 3e 61 4b f8 3b 96 86 d7 bc
       -0.18577702 0.18517257 0.0075773452 -0.026309293
0000a0 ac 3a 5b 3a 05 9f 9a bd a9 bf 18 3e e8 a4 20 3e
       0.000836293 -0.07549862 0.14916863 0.15687907
0000b0 54 e8 a4 3c a7 fd 92 bd 0d 74 a7 bd 4a 25 d3 bd
       0.020130314 -0.071772866 -0.08176432 -0.10309847
0000c0 01 f9 5a 3d 97 6a c7 bc 48 a7 d7 3d 42 ee 30 bd
       0.053460125 -0.024342818 0.10529953 -0.04319597
0000d0 b0 cc 36 bd 79 06 0f be 12 a0 9b 3b 40 6c 15 3d
       -0.0446288 -0.13967313 0.0047493065 0.03648019
0000e0 ac 68 ff 3d 51 8e 86 3b de 88 9f bc 92 a7 4d be
       0.124711365 0.004106321 -0.019474443 -0.20083454
0000f0 b5 4d f5 bd 30 71 39 3e 41 c5 2f bd 6e 74 32 3c
       -0.11977712 0.18109584 -0.042912725 0.010892017
000100 cd cb d7 3d 0d b3 a8 bd fe e6 d3 3d 79 a4 a3 bd
       0.10536919 -0.08237276 0.10346793 -0.07990355
000110 af 01 33 3c 6a 45 50 3e 25 2a 7b 3d 7b 0e 79 3d
       0.010925694 0.2033898 0.06131949 0.060804825
000120 49 54 10 bd ba a5 c1 bd 3d de 5b 3d 03 8c 36 3e
       -0.03523663 -0.09455438 0.05367874 0.17826848
000130 36 5e af 3d fe 5a 16 bd be 98 8f 3d e9 50 fc bd
       0.08562891 -0.03670787 0.07011555 -0.1232012
000140 01 34 48 be 1a fb 4e 3e b7 06 33 be f0 67 b2 3c
       -0.19551088 0.20212975 -0.1748303 0.021778077
000150 ad 18 2c bd 3f 36 06 3e d4 af 0d 3e f1 df d2 3c
       -0.04201572 0.1310663 0.13836604 0.02574155
000160 8b 91 2f 3c 0d ae e1 3b 7f a8 c0 3d 12 dc 54 3b
       0.0107158525 0.0068872035 0.09407138 0.0032479805
000170 d1 c1 47 bc 38 81 09 3e 20 ba 58 3c 29 4a 07 be
       -0.0121922055 0.134282 0.013227969 -0.13211884
000180 d0 36 1f 3e 6b b8 2a be 00 50 bf 3d 02 75 0e be
       0.15548253 -0.16671912 0.09341431 -0.13911822
000190 30 b9 1b 3e fd bf 5d 3e ef 4c a1 3b 9a f1 80 bd
       0.15207362 0.21655269 0.0049225013 -0.06296082
0001a0 ad e3 ae bb a7 de ff bd c0 19 4b 3e 85 be 9e bd
       -0.0053371997 -0.124936394 0.19834042 -0.077511825
0001b0 1a 5e 3d 3d d6 6f 3e 3e f1 94 eb bd 77 bf 8c 3d
       0.04623232 0.1859735 -0.11503018 0.068724565
0001c0 ed c4 12 3d a8 d8 53 bd 0e a1 3a 3e 45 2f ca bd
       0.035832334 -0.05172029 0.182255 -0.09872297
0001d0 af 8a b5 3d 88 06 10 be 3f a3 40 be f6 e9 08 3e
       0.088643424 -0.14064991 -0.18812273 0.13370499
0001e0 7a 79 34 be 20 03 be 3d 9c 55 bf 3d 5a 0f 65 3e
       -0.17624465 0.0927794 0.093425006 0.22369137
0001f0 08 6f 04 3c 23 09 b1 3c ca 62 38 be 7f 1d bc bd
       0.008083113 0.021610802 -0.18006435 -0.091853134
000200 84 ec 92 3d 27 39 12 3e b5 37 1b 3e 93 65 8b 3c
       0.07174018 0.14279614 0.1515797 0.017016208
000210 4a 0e 08 bd ed ee 15 3d 61 e3 9b bd 4a 76 9b 3d
       -0.033216752 0.03660481 -0.076117285 0.07590921
000220 38 8a ff bd 4a e0 5a be dd c7 3c 3c 27 5e 59 be
       -0.12477535 -0.21374622 0.0115222605 -0.21227323
000230 5e f7 47 bd cc b4 ed 3d e4 81 36 3c e4 f0 7f 3c
       -0.048819892 0.1160675 0.011139367 0.015621398
000240 2f d7 4c 3d 1f 78 ad 3d 2d 04 ac bc f3 9c 12 3e
       0.050009903 0.08470177 -0.020998085 0.14317684
000250 ea 74 de bd a0 7c 0f bc cf a4 2f bd 77 97 69 bd
       -0.10862143 -0.00875774 -0.042881783 -0.057029214
000260 53 5c 47 3c a5 58 1e be 50 4f f7 3d 9c ef 31 3e
       0.012168008 -0.15463503 0.120756745 0.1737656
000270 17 9d 3a 3e 00 25 3f 3e 35 61 81 bd 9f cd c8 3d
       0.18223988 0.18666458 -0.06317369 0.09804844
000280 c3 b9 14 be db c6 0d be 0c bc 01 bd 4c 63 00 bb
       -0.14523987 -0.13845389 -0.031673476 -0.0019590436
000290 5b 10 d1 bd 2b 7d 8f bb 35 56 1f 3e 9f 78 15 3e
       -0.10208198 -0.004378935 0.15560229 0.14596795
0002a0 db 56 02 3d 5f 34 09 be e3 b6 48 3c 2a 5f 2c 3e
       0.031821113 -0.13398884 0.012250635 0.16833177
0002b0 55 98 bb 3c 77 ef 25 bd 0e 99 d4 3d 30 25 dc 3d
       0.022899786 -0.040511575 0.10380755 0.107492805
0002c0 5e 41 9d bc 7c 48 54 3c a1 e4 6c bd 0e cc 00 3e
       -0.019196209 0.012956735 -0.057835225 0.1257784
0002d0 35 f5 10 be 97 51 38 bc 22 9d 5b 3c 4b 4a 26 be
       -0.14156039 -0.011249921 0.013404163 -0.16239278
0002e0 40 d4 10 3e fe 35 35 3e 0c ec 08 3e a7 c2 0e be
       0.14143467 0.17696378 0.13371295 -0.13941441
0002f0 46 8a 4c bd 66 ad 0c 3d 60 25 0e be f1 10 86 bd
       -0.049936555 0.034345053 -0.13881445 -0.065462
000300 51 78 bc 3a c3 83 9d 3c b8 b6 6b bd bb 9f d3 bd
       0.0014379119 0.019227868 -0.0575473 -0.103332005
000310 b3 d8 0d 3e 48 06 41 3e 48 a3 e0 bc e5 c1 7e 3d
       0.13852195 0.18850052 -0.027421609 0.06219663
000320 06 f5 81 bd 47 51 a7 bd 54 78 df 3d 45 b5 7b 3d
       -0.06345563 -0.08169799 0.10911623 0.06145217
000330 ed 5b 07 3e 7a 5b f0 3d ca 9d 14 3e ba 4e e1 3d
       0.1321866 0.11736198 0.14513317 0.11001344
000340 ca 7a 44 3e 08 e7 76 3d 1c 8b 9f 3d c0 c4 a8 bb
       0.19187465 0.060278922 0.07790205 -0.0051504076
000350 9a 42 53 be 4f cf f5 3d bc d1 2f 3e 5c 52 f3 3d
       -0.20630875 0.120024316 0.17169851 0.11880943
000360 2e 16 04 be 32 17 7c bd 2b 50 71 be 22 26 dd bd
       -0.12899086 -0.06154556 -0.23565738 -0.10798289
000370 47 77 3e be b3 53 07 be 50 e7 1a 3e b9 94 2f be
       -0.18600188 -0.13215522 0.15127301 -0.17146577
000380 bf ec 16 3c 37 50 02 3d 4e 77 47 bd 97 2b 05 be
       0.009211718 0.03181478 -0.048697762 -0.1300491
000390 26 67 2a 3e 8c 68 7b be 02 f6 49 3e 3a 45 1b 3e
       0.1664091 -0.245516 0.19722751 0.15163127
0003a0 de 45 25 be 69 17 c5 3c 91 b5 af bd 6a a8 bf bd
       -0.16139933 0.024059014 -0.08579553 -0.09358294
0003b0 a3 a8 62 be 2e c3 0f 3e 06 e2 9b 3d 90 c6 3d be
       -0.22134642 0.14039299 0.0761147 -0.18532777
0003c0 c1 17 02 3e 6f 34 85 bd 56 22 42 3e 14 aa e7 bd
       0.12704374 -0.065041415 0.1895841 -0.11311737
0003d0 3f 5e 10 be fe 84 1c be bb 5f d1 3d 9b 49 23 3e
       -0.14098452 -0.15285107 0.10223337 0.15946047
0003e0 a0 5f 1f 3e e7 f0 09 3e 72 2a da 3d 6c 14 ff 3c
       0.15563822 0.13470803 0.10652627 0.031137668
0003f0 fd ab f0 bd c0 ab ab 3d 7b ed 46 3d 6c 06 0f 3e
       -0.11751554 0.08382368 0.048566323 0.13967294

batch1.weight f4 [86]
000000 99 f9 7f 3f 4b 3d 7d 3f b0 1d 7c 3f b6 0d 7b 3f
       0.9999023 0.9892165 0.984828 0.98067796
000010 94 6e 7b 3f 3b b5 80 3f f1 d2 7c 3f ef d9 78 3f
       0.98215604 1.0055307 0.9875937 0.9720754
000020 52 e6 7c 3f 81 f1 7d 3f 74 f8 7a 3f 15 72 7d 3f
       0.9878894 0.9919663 0.9803536 0.990022
000030 cb 33 7b 3f da 79 80 3f f7 2f 7c 3f 48 71 7f 3f
       0.98125905 1.0037186 0.9851069 0.9978223
000040 2e 75 7e 3f 7a dd 83 3f a5 55 7c 3f 59 4a 7c 3f
       0.9939755 1.0301964 0.98568183 0.98550946
000050 1f f7 7e 3f af 5b 7b 3f 74 e3 7c 3f ff d9 7b 3f
       0.99595827 0.98186773 0.98784566 0.9837951
000060 03 41 7c 3f e9 5f 7d 3f 1f 24 80 3f 24 9f 7c 3f
       0.985367 0.9897447 1.0011023 0.9868033
000070 f4 3f 80 3f 33 ca 79 3f 09 63 7c 3f 79 97 7f 3f
       1.0019517 0.97574157 0.98588616 0.99840504
000080 64 39 80 3f 0d 87 78 3f 74 72 7e 3f ec 3d 79 3f
       1.0017514 0.9708107 0.9939339 0.9736011
000090 27 48 7c 3f 69 64 7d 3f 85 94 7b 3f 7e d5 7c 3f
       0.98547596 0.9898134 0.982735 0.98763263
0000a0 24 3b 7d 3f 2b b6 78 3f 07 a7 80 3f b6 8c 7d 3f
       0.98918366 0.97152966 1.0050973 0.9904283
0000b0 62 7d 80 3f c6 cd 7f 3f 8c 27 7d 3f a8 af 7c 3f
       1.0038264 0.9992336 0.9888847 0.9870553
0000c0 e0 ac 7e 3f 6f 46 79 3f bc 4d 7c 3f 7d 6b 7d 3f
       0.99482536 0.973731 0.98556113 0.9899214
0000d0 bb 5a 7f 3f a8 77 7e 3f c9 3e 7d 3f 9e 57 7b 3f
       0.9974782 0.9940133 0.9892393 0.9818057
0000e0 79 7b 80 3f 8e bc 7a 3f 34 9b 7d 3f a1 36 7f 3f
       1.0037681 0.9794396 0.99064946 0.9969273
0000f0 de f9 7c 3f 62 d7 7a 3f ad b3 7f 3f 07 34 7d 3f
       0.9881877 0.979849 0.9988354 0.9890751
000100 62 f6 7b 3f 31 12 80 3f a2 33 70 3f 4a 84 7f 3f
       0.98422825 1.0005552 0.93828785 0.9981123
000110 42 62 7d 3f 37 f5 80 3f 65 a9 7a 3f af cd 7d 3f
       0.98978055 1.0074834 0.97914726 0.99141973
000120 4a 79 78 3f 17 df 7d 3f 02 e0 80 3f a4 71 80 3f
       0.9706007 0.99168533 1.0068362 1.003468
000130 fb 23 7a 3f eb e2 7c 3f 43 76 81 3f ad 35 7d 3f
       0.9771115 0.9878375 1.0114216 0.9891003
000140 ff 41 80 3f 8c f2 7a 3f a9 46 7a 3f 40 d9 7a 3f
       1.002014 0.9802635 0.9776407 0.9798775
000150 9e ab 72 3f 92 04 80 3f
       0.9479312 1.0001395

batch1.bias f4 [86]
000000 a4 25 48 bc 5a 03 aa bc 22 fa 8c bc b9 e0 f2 bc
       -0.0122160055 -0.020753551 -0.017209116 -0.029648172
000010 46 81 93 bc 48 93 38 3a 94 c8 e3 bc 13 7c 11 bd
       -0.018005978 0.00070409896 -0.027805604 -0.035518717
000020 e4 f0 99 bc 45 af c5 bc d5 23 d8 bc 5b e4 66 bc
       -0.018791623 -0.024131427 -0.026384274 -0.01409253
000030 c5 f2 72 bc ab 13 c6 3b c0 f7 d3 bc cb 7f 8b 3b
       -0.014828389 0.006044825 -0.025874972 0.0042571775
000040 65 d8 a7 3a 6f 5e e7 3b 55 21 cc bc d6 f2 9a bc
       0.001280558 0.007060818 -0.024918238 -0.018914621
000050 23 2e f5 3a bc d2 96 bc a4 a6 8e bc 26 fa 85 bc
       0.0018705766 -0.018411033 -0.017413445 -0.016354632
000060 94 0f a2 bc c5 0b 4f bc 9f 62 8a bc 15 fe 84 bc
       -0.019782819 -0.012637083 -0.01689273 -0.016234437
000070 b1 25 ea ba ea 3d 27 bd c1 d9 8a bc e1 67 4d bc
       -0.0017864016 -0.04083053 -0.016949536 -0.012536974
000080 4c af f0 3b 42 65 f0 bc 07 e0 88 bc 91 74 e6 bc
       0.0073451158 -0.029345158 -0.016708387 -0.028131755
000090 5a e2 31 bc 8e e7 af bc 16 1e 8f bc 72 f4 66 bc
       -0.010857189 -0.021472719 -0.0174704 -0.014096366
0000a0 4d eb ea bc 10 ab 4e bc 79 62 5f bc 24 48 9a bc
       -0.028676653 -0.012614027 -0.013634318 -0.018833227
0000b0 52 f8 98 bc eb f8 89 bc 66 1e 5b bc 0c 25 5d bc
       -0.018673096 -0.016842326 -0.013373947 -0.013497602
0000c0 8e f3 72 bc a1 c4 c0 bc 91 e9 87 bc 3e a2 5b bc
       -0.014828576 -0.02353126 -0.016590865 -0.013405381
0000d0 6b ac fb bc b7 95 86 3b 19 37 45 bc de 38 4b bc
       -0.030721864 0.004107203 -0.012037062 -0.012403695
0000e0 68 60 51 bc 85 dc 15 bc f4 29 64 3a 44 d2 16 bc
       -0.012779333 -0.009146814 0.0008703761 -0.009205405
0000f0 25 6e 78 bc f0 c2 86 bc e0 4c e3 bc 68 2f 9b bc
       -0.015162979 -0.016450375 -0.027746618 -0.018943503
000100 04 77 c0 bc 02 45 a0 bc 4b 52 a1 bb 56 89 6b 3b
       -0.023494251 -0.019564155 -0.00492314 0.0035940013
000110 f3 40 b2 bc 08 f7 5e 3b 9f 2d a7 bc 83 24 3e bc
       -0.021759486 0.0034021754 -0.020407496 -0.011605385
000120 42 96 af bc 3c 18 73 bc b8 5e 3a 3b 0b 85 12 bc
       -0.021433953 -0.014837321 0.0028437804 -0.008942853
000130 ae 2d ae bc 81 eb 6f bc 82 1e 00 3b 9e 81 94 bc
       -0.021262016 -0.014643551 0.0019549434 -0.018128213
000140 23 3c 47 bc f0 c6 bd bc 5a 75 bc bc 73 e7 60 bc
       -0.012160334 -0.02316615 -0.023005176 -0.013727057
000150 52 b1 5f bc 3a 0b 8d bc
       -0.013653116 -0.017217267

conv2.weight f4 [18, 86, 7]
000000 f1 37 a0 3d 03 70 7d bd 75 70 02 bd e0 a9 57 3c
       0.0782317 -0.0618744 -0.03184553 0.01316306
000010 b9 f0 46 bd e4 0c 7d 3d fc 6e ad 3d 51 c0 e2 3c
       -0.048569415 0.06177987 0.08468434 0.027679594
000020 3e 93 5b 3b c4 65 f1 3c 4d 58 f5 3b a3 8a 68 bc
       0.0033504511 0.029467471 0.007487333 -0.01419321
000030 f5 e5 ca 3b 74 f1 95 3c b2 8d 65 bd 20 4f 3f 3c
       0.006191964 0.01830361 -0.056043334 0.01167658
000040 c7 f2 3b 3d 4f 9d 0f 3c 48 d9 26 3c 09 55 b0 bc
       0.045885827 0.008765533 0.01018364 -0.021524923
000050 4e 29 1b bc 3c fc e7 3c f0 52 de bb cb 66 19 bd
       -0.009470297 0.028318517 -0.0067847893 -0.037451547
000060 c5 d8 4b 3c a5 d6 16 bd f1 d8 18 bd 22 b3 87 bc
       0.012441819 -0.036825795 -0.037316266 -0.01656491
000070 a5 1a d4 3c 98 10 97 bc b7 0d e5 bc 29 e3 f2 3c
       0.025891611 -0.01844053 -0.027960641 0.029649334
000080 44 7c c1 bb 01 dc 98 bc 4f a6 01 3d 09 44 a9 bc
       -0.005904706 -0.018659594 0.031652745 -0.020662325
000090 45 c9 af bc 08 aa c7 3c d7 a0 6d bb b2 fb 18 bd
       -0.021458277 0.02437307 -0.0036259198 -0.03734941
0000a0 72 77 8f 3c 5e 52 a1 3b 2c bc 2a 3d aa c8 cb bc
       0.01751301 0.004923149 0.04168336 -0.024875958
0000b0 77 c3 d0 3c d0 38 ae bc fc e1 e8 3c 42 0d 8d bc
       0.02548383 -0.021267325 0.02842807 -0.017218236
0000c0 b1 79 05 3d b3 1b 73 bc 89 7e ad bc 3b 16 1b 3c
       0.032586757 -0.014838147 -0.0211785 0.009465749
0000d0 57 b4 0d bc 1e f1 84 3c 1a 78 86 bb 26 c7 4b 3d
       -0.008648953 0.016228255 -0.0041036727 0.04975047
0000e0 4a 8c c8 3b ec dd 2b bd 1f 34 1e 3d 67 e5 b9 bc
       0.0061202394 -0.041959688 0.038623925 -0.022692395
0000f0 8b f3 72 3d 5b da 9b bc 37 80 29 bd 40 57 87 3c
       0.059314292 -0.019025018 -0.04138204 0.016521096
000100 5a c0 81 bc 61 07 29 bc 55 50 72 3c 15 f6 95 3c
       -0.01583879 -0.010316701 0.01478966 0.018305818
000110 11 62 16 3d cf 9d 16 3d 5c 67 99 3c 01 8b 0d bd
       0.036714617 0.03677159 0.018726043 -0.034556393
000120 70 d7 ae 3c 59 2c b6 3c 05 d8 cd 3c 3a db cf 3c
       0.021342963 0.022237943 0.02512742 0.02537309
000130 a2 58 9b 3b c9 64 1c 3d 8f 38 9f 3c a8 5c 15 bd
       0.0047407905 0.038182054 0.019436149 -0.036465317
000140 ea ab 03 3b ba 7b 44 3d 70 42 09 3c c7 36 f2 3b
       0.0020091482 0.047969557 0.008377656 0.007391784
000150 89 2d 8d bc 64 db b2 bc 84 43 59 3c e2 1f 95 3c
       -0.017233627 -0.02183313 0.013260726 0.01820368
000160 38 56 6f bd d1 aa 0d bd fd 22 95 3b db 4a 7e 3d
       -0.058431834 -0.03458673 0.00455129 0.062083106
000170 e1 16 9c 3c 51 40 78 3c 6f 2e b8 3d 8f 96 c0 bd
       0.019053878 0.015152053 0.089932315 -0.09403717
000180 b4 83 23 bc 37 4a 42 3d cc ff 81 3c 46 9a 57 3d
       -0.009980131 0.047434058 0.015869044 0.05263736
000190 63 62 c4 bc fd 81 2d 3d 81 d7 34 bd 09 3c 1e 3d
       -0.023972696 0.042360295 -0.044150833 0.038631473
0001a0 e7 9d ab bc da 82 08 bd 80 d0 d3 bc a4 87 38 bc
       -0.020949317 -0.033327915 -0.025856256 -0.011262808
0001b0 5d 82 06 3c c6 a2 51 3d 03 70 88 bc d8 60 3d 3d
       0.008209792 0.051180623 -0.016654974 0.046234936
0001c0 f0 f9 ea bc 04 e1 aa bc e1 e7 23 bd 8f 18 af bc
       -0.028683633 -0.020859249 -0.04001606 -0.021374015
0001d0 3d ce 50 3c 4a 5a 57 bc eb 46 88 3b f0 c9 32 bd
       0.012744484 -0.013144085 0.0041588447 -0.043649614
0001e0 05 90 35 3c 43 42 7b bd ae 16 2f 3c 12 66 52 bd
       0.0110817 -0.06134249 0.01068656 -0.051366873
0001f0 67 5d 42 3c bb 76 12 bd b2 bb 92 3c 32 f2 ae bc
       0.011863089 -0.03575776 0.017911766 -0.021355722
000200 10 99 53 bc 49 31 35 bd d5 61 8a 3c d8 09 e6 3c
       -0.012914911 -0.044236455 0.016892353 0.028080866
000210 97 67 b4 bc 0d 07 7f bd cd b4 60 3c a3 dc fb 3c
       -0.022022052 -0.062262584 0.013714981 0.030744856
000220 d1 f5 f0 3c 86 ed d0 bc d6 07 aa 3b 7a e0 86 3c
       0.02941409 -0.025503885 0.0051889224 0.01646446
000230 29 8e 2e bd aa 52 0c 3d 17 d2 99 3c c3 f8 3e bd
       -0.042616043 0.034258522 0.018776936 -0.046623956
000240 25 14 44 3d bb 6b d6 3c 88 65 1a 3d 7d 21 08 3c
       0.047870774 0.026174417 0.037694484 0.0083087655
000250 88 aa ef 3b 36 43 97 3d 7e 57 bc 3b 62 7b a0 bc
       0.00731403 0.07385866 0.0057477346 -0.019590084
000260 25 9e 03 3d ac 14 63 3c 4b 2d 8a 3d 89 cc a9 bc
       0.03213324 0.013859909 0.0674692 -0.020727413
000270 8e 8c 0f 3d 69 af 1f 3d cd 4d e1 bb f0 2a 2e 3d
       0.035046153 0.038985644 -0.0068757297 0.042521417
000280 44 ea 80 bd 0e 01 18 3c 3e 5d 20 bd 6b ed 0f bb
       -0.062946826 0.009277595 -0.039151423 -0.002196158
000290 9c 49 ff 3c f8 ff 3c bd b5 54 ee bc 30 72 fb bc
       0.03116303 -0.04614255 -0.029093126 -0.030694097
0002a0 e1 0f 8b bc 88 3c cd 3c 9e 8d 18 3d d2 5c d2 bb
       -0.016975345 0.025053278 0.03724443 -0.0064197564
0002b0 ed 97 3f 3d 6b ca 9e 3c 9c e3 e1 3b 10 4b c8 ba
       0.046775747 0.01938363 0.006893588 -0.001528116
0002c0 db f7 2a 3d 1a 87 c1 bd d8 3d 7c 3c ce b6 28 3b
       0.04174028 -0.09449597 0.015395604 0.0025743726
0002d0 69 f6 08 bd 7e cc 66 bd 59 14 09 bd 22 b6 34 bd
       -0.03343812 -0.056347363 -0.03346667 -0.044119008
0002e0 0d 5a 1f 3b 18 2d 8f 3b d4 4f d4 ba 89 a6 04 bd
       0.002431515 0.0043693893 -0.0016198107 -0.032385383
0002f0 ef 99 91 bc e3 5a df bc f3 8e f9 3c 02 e2 df 3b
       -0.017773597 -0.027265018 0.030463671 0.006832362
000300 32 db c7 bb eb a9 26 bd 74 9b 6f bb 47 d1 06 bc
       -0.006099128 -0.04068939 -0.0036561163 -0.008228607
000310 c4 87 48 3d eb 37 67 bc 24 d0 10 3b 36 63 88 3c
       0.0489576 -0.014112453 0.0022096718 0.01664887
000320 4b e6 e3 3c 67 93 a9 3c 2d b1 1b bc 3c 83 15 3d
       0.027819773 0.02070017 -0.009502691 0.036502108
000330 7d 38 8a bd 45 64 ac 3b 44 eb c2 bc 8e 7a 77 3c
       -0.067490555 0.0052609765 -0.023793824 0.015104903
000340 6f 6e c4 bc d5 89 52 bd 63 aa 93 bc 7f 29 02 3c
       -0.02397844 -0.051400978 -0.018025583 0.007944464
000350 ce 82 13 bd 2d 28 2d 3d 00 ca 3c bc 99 32 8d b9
       -0.036013417 0.042274643 -0.01152277 -0.00026931314
000360 c4 01 71 bd 3b c0 f8 3c 88 e4 d1 bc 78 84 ad bc
       -0.058839574 0.0303651 -0.025621668 -0.02118133
000370 6d 64 6d 3d 04 66 53 3c 84 62 de bc 63 de 0f bd
       0.0579571 0.01290274 -0.027146585 -0.035124194
000380 63 ab 2a bd 47 1a b4 3c 0e 28 0b 3d ea 3f 2a 3d
       -0.041667353 0.021985186 0.033973746 0.04156486
000390 96 da 32 3c ea 3c 48 3d 64 57 33 bd fd 81 7f 3c
       0.010916373 0.048886217 -0.043784514 0.015594956
0003a0 c3 b3 ce 3c 41 bd 90 3c ca f1 81 3c ff 5c fd bc
       0.025232201 0.017668368 0.015862364 -0.030928133
0003b0 41 69 57 bc 8f cc 84 bc 48 41 3c 3d 9a 2a e0 ba
       -0.013147653 -0.016210822 0.045960695 -0.001710254
0003c0 c8 f6 73 bc 6c 26 99 3d b5 1e 5f bc eb a0 e1 3c
       -0.01489038 0.074780315 -0.013618161 0.027542552
0003d0 2f 97 ef 3c 0d 6d 1f bd 77 95 44 3c 35 4c 53 bc
       0.029246895 -0.03892236 0.011998526 -0.012896587
0003e0 77 3f 0e bd 5b 83 08 bb ad 8f 04 bd 8b c1 48 bc
       -0.034728494 -0.0020830247 -0.032363582 -0.0122531755
0003f0 1e 5d 6b bc b2 1f a8 bc fd 67 5d 3c 11 62 c1 3c
       -0.014365463 -0.020522926 0.013513562 0.023606332

conv3.weight f4 [20, 18, 5]
000000 5b 77 17 3d 50 a2 9e bd 7c 13 6c bc ab fe b2 3d
       0.03697906 -0.077458024 -0.014408942 0.0873998
000010 37 5a b1 bc e2 65 9e bd 22 b8 46 3d eb 9e 63 bd
       -0.021649463 -0.07734276 0.048515446 -0.055571478
000020 8c 6d b9 3d 32 7c 27 bd 29 30 82 bd 93 e9 29 3d
       0.090540975 -0.040889926 -0.06356842 0.04148252
000030 c0 64 d8 bd eb 05 0b bc c1 fe 01 bd e7 36 db bd
       -0.105660915 -0.008485298 -0.031737093 -0.10703831
000040 4d ab 86 bc 15 03 6f bd 92 45 97 3c b9 ee aa 3d
       -0.016439104 -0.05835255 0.01846579 0.08346314
000050 54 7b 1d bd d1 9b 26 3d 7a cf ca bd 6c 23 4e 3d
       -0.038447693 0.04067594 -0.09902854 0.05032675
000060 59 8c ad bd cf cc 9d ba f5 d0 13 3d d3 9b 38 3d
       -0.08474035 -0.0012039187 0.03608795 0.04507048
000070 ed bc 6a bd d1 60 5d bd c5 da 22 3d 18 d8 eb bd
       -0.05730908 -0.05404741 0.039759416 -0.11515826
000080 93 b0 af 3d 78 78 ab 3d ac 5d 72 bc 39 e3 58 3b
       0.08578601 0.08372587 -0.014792841 0.003309442
000090 91 b2 c9 bd 78 59 2c bd 31 35 ad 3d b9 af 3d bd
       -0.09848512 -0.04207751 0.08457411 -0.04631016
0000a0 32 33 6a bd 01 8b 12 bc 31 a0 a7 bd 6e d2 32 bc
       -0.05717773 -0.008944274 -0.08184851 -0.010914428
0000b0 60 03 f2 bd 58 1f 19 bd 29 8c 31 3d 61 e0 26 3d
       -0.1181705 -0.037383407 0.043346558 0.04074133
0000c0 73 28 02 bd fc 55 28 3d 6a d3 af 3d 68 6f 11 bd
       -0.031776857 0.041097626 0.08585246 -0.035506636
0000d0 98 89 a4 bd 36 89 3c 3d 11 f7 ce bd 5f fe c2 bd
       -0.080340564 0.046029292 -0.10105718 -0.09521174
0000e0 cb 51 e8 bd 7b 55 7f bd d1 1e 86 bc c0 e5 1e 3d
       -0.11343726 -0.06233738 -0.016372116 0.038793325
0000f0 c0 a2 a2 3d 39 66 0c be 7a a8 38 3d dd 62 d1 bd
       0.07941198 -0.1371087 0.045082547 -0.10223935
000100 96 5b 95 bd d4 74 99 bc 68 7c 1e bc 04 e7 1e bd
       -0.07292859 -0.018732466 -0.009673215 -0.038794532
000110 5e 9c ae ba f7 f7 eb bc ab e3 b4 bd d4 8a b3 3c
       -0.0013321748 -0.028804762 -0.08832487 0.021916784
000120 98 4d 6f bd a8 2c fd bd 54 af 9b 3d 6f 31 8e bd
       -0.05842361 -0.12362033 0.076018006 -0.069430225
000130 22 79 18 3d 84 88 da bc d0 7d 8b 3d fd ab 86 3d
       0.037224896 -0.026676424 0.06811106 0.06575773
000140 36 93 c6 bd aa 93 2d bd 3e d5 ba bd e0 5e 89 3d
       -0.09696047 -0.04237715 -0.09122704 0.06707549
000150 e5 a5 14 3d ee 42 d7 bd d6 d5 3b 3d 88 df bb 3c
       0.03629102 -0.10510813 0.045858227 0.022933736
000160 fd 91 84 3d c4 68 08 3c e7 5d c3 bd bc 0d de bd
       0.064731576 0.008325759 -0.09539395 -0.108424634
000170 ff f5 bc bd b3 9e a1 3c d6 02 ce bc 49 d7 50 3c
       -0.092266075 0.019728994 -0.025147837 0.0127466405
000180 8a f9 9e bd ae 9b 94 3d 6f a2 af 3d e5 87 93 bd
       -0.077624395 0.07256256 0.085759036 -0.07203654
000190 50 26 80 3d db 66 d9 bd c5 5c ad bd c7 87 57 3d
       0.062573075 -0.10615321 -0.0846496 0.05261972
0001a0 d3 19 c1 bc 75 cd a9 bc 6d e0 25 bd a3 c1 78 3d
       -0.023571884 -0.020727852 -0.040497232 0.06073154
0001b0 5c cd b1 bb 8e 75 8a 3d 87 a2 80 3d bd fe 92 bd
       -0.005426092 0.06760703 0.06281 -0.07177494
0001c0 cc 8b 7e 3d 9d d7 a8 3d 77 dd a1 bd 27 c8 7b 3d
       0.06214504 0.0824425 -0.07903569 0.061470177
0001d0 ca dc a7 bd 2c eb d2 bc db e5 e3 bd 9d d4 4d bd
       -0.08196409 -0.025746904 -0.11127826 -0.050251592
0001e0 33 29 0b 3d e0 80 0d be b1 d5 41 3d 26 37 08 bd
       0.033974838 -0.13818693 0.047322933 -0.03325572
0001f0 4a dc 06 bd 28 8d 27 3d 15 4f e6 3b 69 46 d6 bd
       -0.032924928 0.0409061 0.0070284703 -0.104626484
000200 ed 18 78 3d c2 15 52 3d 54 04 77 3d a5 5d d0 3c
       0.060570646 0.05129028 0.060306862 0.025435278
000210 4a 71 a9 bd 10 32 12 3b 5b 35 1b 3d d4 43 00 bd
       -0.08273561 0.0022307672 0.03789268 -0.031314686
000220 ac 95 24 bc d0 d8 ae bd 65 89 a3 bd e7 21 17 bd
       -0.01004545 -0.085374475 -0.0798519 -0.036897566
000230 a8 4e 66 bd 41 70 b8 3d f1 d1 36 3d e4 b9 bb 3d
       -0.056227356 0.09005786 0.04463381 0.09166315
000240 af 1a a8 3d 95 61 33 bc 7e 60 4b bd 8d 9d 25 bd
       0.082082145 -0.010948558 -0.04965257 -0.040433455
000250 63 6f a7 3d c8 d0 8a bc 75 6b e7 bd 96 e2 58 bd
       0.08175542 -0.016945258 -0.11299793 -0.052950464
000260 0e 6f c4 bd bc 0e de bc 6b cf 92 3d 6b 64 7d 3d
       -0.095914945 -0.027106635 0.07168468 0.061863344
000270 d8 63 8f 3d 0f 28 b4 bd 0b 5e ba bd 76 72 83 bc
       0.070014656 -0.08796703 -0.090999685 -0.01604579
000280 a6 e8 e5 3b 1b bd a4 bd 09 c9 ac 3d 43 3b b0 bd
       0.0070162592 -0.080438815 0.08436782 -0.08605053
000290 fe ba 90 bc 67 8f bc 3d 4a 8e 53 3d 9c 2d a2 bd
       -0.01766729 0.09207039 0.05164937 -0.079188555
0002a0 01 c6 45 3d 81 df 91 3d c7 fb 4b 3d d0 6e a5 bd
       0.048284534 0.07122708 0.04980066 -0.080777764
0002b0 dc 74 38 bd c8 3e ab bd 30 e0 be 3d c4 f3 72 3d
       -0.04503332 -0.08361584 0.09320104 0.059314504
0002c0 a6 9c 34 bd ad 92 a7 bc 96 3b c1 bc 09 a7 a7 bc
       -0.044094704 -0.020455683 -0.023587983 -0.02046539
0002d0 84 f2 17 3d c5 d3 96 3d 4b 0e f7 bc 23 3f a8 bd
       0.037096515 0.073646106 -0.030158183 -0.082151674
0002e0 9e 9f 8c 3d 17 83 df 3b 82 19 88 3b 7f c3 dc bd
       0.06866382 0.006821047 0.0041534314 -0.107794754
0002f0 54 6e 8e bd 95 bc 51 bd 3e 61 14 3d 95 fc 02 3c
       -0.06954637 -0.051205236 0.03622555 0.007994791
000300 b1 36 99 3d 88 3b b4 3b b2 fd 05 bd 22 ec fc bc
       0.07481135 0.0055002607 -0.032712646 -0.030874316
000310 28 1e dc bb da 27 27 bd 37 3d b2 3b 9c 9d d1 3b
       -0.006717462 -0.04080949 0.0054394263 0.0063969623
000320 b4 5e 9b 3d 03 a4 a3 3b 2a ad ac bd 70 47 ba 3d
       0.075864226 0.004993917 -0.08431466 0.09095657
000330 76 33 48 bd 97 5d ec bd a6 5d d6 bd fe fc 35 3c
       -0.048877202 -0.11541288 -0.10467081 0.011107681
000340 99 d3 9d 3d 89 a1 93 bd 4c 49 4b bd 57 10 04 bd
       0.07706375 -0.07208545 -0.04963045 -0.032242145
000350 84 e8 85 3d c9 e2 f4 bd 09 ef e0 bd 0a cb c6 bc
       0.065384895 -0.11957318 -0.10983092 -0.024266738
000360 58 e8 e7 bc 55 2e de 3a fd 8d 85 3d ae 16 04 bc
       -0.028309032 0.0016951064 0.06521223 -0.008062048
000370 2c 87 88 bd 43 39 45 bc 3f 59 10 bc c3 ea 82 3d
       -0.06666407 -0.012037578 -0.00881034 0.063924335
000380 bf c6 c1 bd 26 50 99 3c f0 04 86 3d 2d 77 c2 bd
       -0.09461736 0.018714976 0.065439105 -0.09495387
000390 46 b3 e5 3c 90 be 9f 3d f4 e0 af bc 17 1b 27 3d
       0.028039586 0.07800019 -0.02146957 0.04079732
0003a0 75 0a db bd db 59 4c 3d 52 ff 85 bd 51 8b 35 bd
       -0.10695354 0.04989038 -0.06542839 -0.044322316
0003b0 c0 11 6e bd 21 62 96 3d 9c 74 3d 3c ed b6 a6 bd
       -0.058122396 0.07342935 0.011563446 -0.08140359
0003c0 84 d4 af ba 06 b4 69 bc 39 b0 f0 3c 9a 86 63 3c
       -0.0013414775 -0.014264112 0.029380905 0.013887072
0003d0 42 45 76 bd 74 7b 3c bd 53 0b 6f bc c3 fd 27 3d
       -0.060124643 -0.04601617 -0.014590102 0.04101349
0003e0 d9 15 66 3d 6a c8 a8 bd 7b c9 fa bc 41 8a 60 bd
       0.05617318 -0.08241351 -0.030613651 -0.05481935
0003f0 a2 6e c5 3d ae bb d8 bd 18 4b f4 bd 40 fd b6 3d
       0.09640242 -0.10582672 -0.119283855 0.08935022

dense1.weight f4 [263, 740]
000000 2e e4 02 bc 64 43 6a 3c 28 25 c6 bb e9 5a 1b 3c
       -0.007988973 0.014298294 -0.00604691 0.009482124
000010 8d 63 a1 bc 8b 48 1f bd 57 8d be 3c 45 47 10 ba
       -0.01970079 -0.03888754 0.023260755 -0.0005503784
000020 0b 4a b8 bc bb e5 05 bb 99 50 d6 bc fa 7e 48 3c
       -0.022496244 -0.002043112 -0.026161479 0.012237305
000030 aa dc e5 3c a0 b8 25 3c fd 27 04 bd de 82 0e bd
       0.028059322 0.010114819 -0.0322647 -0.034792773
000040 e3 7b 94 bc fb c2 93 bc 36 40 da bc 46 62 a9 bb
       -0.01812548 -0.01803731 -0.026641946 -0.005169186
000050 34 9f 2c 3d 02 2a 01 3c ed 51 0c 3d 4d 41 bf 3a
       0.042144015 0.007883551 0.034257818 0.0014591605
000060 29 09 04 3d f7 25 a8 ba 07 2a 89 bc c3 b4 26 3d
       0.0322353 -0.0012828697 -0.016743673 0.04069973
000070 3a 42 64 bc 8f d0 22 3c 64 d4 1e 3d d8 59 ed bc
       -0.013931805 0.00993742 0.03877677 -0.028973505
000080 6c 09 6d 3c 3a 66 f7 3c 29 86 fc bc ac 8d 83 3c
       0.014467578 0.030200113 -0.030825691 0.016058765
000090 9d 2c c4 bc 29 a6 57 bc 26 c4 f1 3c ea 8b bb bc
       -0.023947055 -0.013162174 0.029512476 -0.022893865
0000a0 7c 9c c2 3b fc ce b5 bc 94 8a 39 3d 2b d0 68 3a
       0.0059390645 -0.022193424 0.045298174 0.0008881117
0000b0 33 25 6e bc c2 91 f8 3c 1d 90 35 bc eb 81 7c 3c
       -0.014535236 0.03034294 -0.011081723 0.015411834
0000c0 07 78 90 3c bd 0b ba bc 49 33 7f bc 03 c0 b7 bc
       0.017635358 -0.022710675 -0.015576192 -0.022430426
0000d0 33 e4 e3 3c a1 97 95 3c f1 90 06 bd f5 55 1d bd
       0.027818775 0.018260779 -0.03285307 -0.038412053
0000e0 8e 89 0c 3b 5e 4f e0 3c 87 0c f3 bb cc 6c 61 bc
       0.0021444294 0.027381595 -0.007417265 -0.013758849
0000f0 2f f4 13 3d 42 50 60 bc 8b c1 cd bc 3a 19 ae 3c
       0.036121543 -0.01369101 -0.025116703 0.021252263
000100 8e 46 93 3c 87 20 dd ba ae dd de 3c 70 ef cc bc
       0.017977979 -0.0016870656 0.027205314 -0.025016516
000110 5c 01 95 bc 71 62 49 3c df e5 d1 bc 30 76 ee 3b
       -0.018189125 0.012291537 -0.025622306 0.0072772726
000120 0c 98 c3 3c 34 50 3c bb 6b 03 e2 3b 80 30 03 3d
       0.023876213 -0.0028734328 0.00689738 0.032028675
000130 d3 7d 7a bc 2c 89 16 bd 37 92 42 bc 6d f7 9a bb
       -0.015288788 -0.03675191 -0.011875681 -0.0047292025
000140 23 a2 37 3d 2f c5 24 3d a8 b5 f1 3c 64 c6 76 bc
       0.04483236 0.04022711 0.029505566 -0.015061948
000150 5a 5f 07 3d 22 35 a9 3b 84 30 e3 bc 26 47 92 bc
       0.03304992 0.0051638046 -0.027733095 -0.017856192
000160 1d b8 95 bc 89 e6 5b 3d ba 27 d9 bc 9a 3f 9a 3c
       -0.018276269 0.053686652 -0.0265082 0.018829156
000170 22 73 31 3d 94 97 d2 3c 15 b2 b9 bc 8d 56 16 3d
       0.04332269 0.025707044 -0.022667924 0.036703635
000180 4c 2c 23 bc ff b3 89 bc 77 74 b3 bc fa 56 3f 3b
       -0.009959292 -0.016809462 -0.02190612 0.002919613
000190 91 1a db 3c 09 6f 31 3d 04 7e 7a bc 4b 64 9d 3c
       0.026746066 0.043318782 -0.0152888335 0.019212862
0001a0 01 b2 da 3b bb bb 50 bc ca 22 8b bc c6 45 63 ba
       0.0066740518 -0.012740071 -0.016984362 -0.000866976
0001b0 d8 7e ba 3c 8b ab e6 3c 67 90 da bb 24 c6 94 3c
       0.022765562 0.02815797 -0.006670046 0.018160887
0001c0 4f 95 aa bc be e6 f9 3b 36 a4 58 3c 18 b3 be bb
       -0.020823149 0.0076263836 0.013222745 -0.0058196895
0001d0 33 ee 0d 3b 53 40 a1 bb fb 86 23 bd 87 9e 44 3c
       0.002165687 -0.004920998 -0.03992365 0.0120006865
0001e0 48 44 9a bc ec 55 d1 3c e2 1b a4 3c a9 54 ad 3b
       -0.018831387 0.025553666 0.020032827 0.0052896333
0001f0 6b ae c3 3c 1d bf 16 3d a1 df e4 3c e7 bf 21 3c
       0.02388688 0.036803354 0.027938666 0.009872413
000200 e6 66 16 3b 3d b0 72 3c 59 3c 7c 3c 78 cf 00 bc
       0.0022949516 0.014812526 0.015395247 -0.007861964
000210 ba 60 ba bc 9a 4c a7 3c e9 ea 3a 3c 4e e9 11 bb
       -0.022751201 0.020422269 0.011408546 -0.0022264305
000220 d1 ad ee 3b ea 99 db b9 0d 86 c7 b9 e4 7e d3 bc
       0.007283904 -0.0004188561 -0.00038056113 -0.025817342
000230 18 74 ae 3c 4b e9 83 3c f0 07 35 3c a9 66 95 bb
       0.021295592 0.016102454 0.011049256 -0.004559357
000240 6d 55 1f 3c 3e 59 f5 3c 34 7e fc 3c 9f b0 c9 3b
       0.009724957 0.02994978 0.030821897 0.006155088
000250 7a fb 91 bb 3d 53 8a bb 60 93 b3 bc 97 22 09 3d
       -0.004455027 -0.0042213486 -0.02192086 0.033480253
000260 c8 35 3e bc ab 83 6d bc 14 e6 b7 3c 43 16 03 bd
       -0.011609502 -0.014496724 0.022448577 -0.032003652
000270 8e d5 46 3b 2b 81 b2 3c 78 31 ba 3c 01 83 b9 bc
       0.003033969 0.021790108 0.022728667 -0.022645475
000280 66 a6 1c bc 71 16 0f 3c b7 f7 16 3b 7d 11 4d 3c
       -0.009561157 0.008733378 0.0023035833 0.012516377
000290 cc 62 b5 3a fe 35 aa 3c a4 da ea bc 0a b0 56 bc
       0.0013838648 0.020777699 -0.02866871 -0.013103494
0002a0 7c b7 28 3d 43 7c ce 3c d2 c8 f0 3b 2b 9e 84 bc
       0.04119061 0.025205737 0.0073481584 -0.016188702
0002b0 f7 3e c5 3c 1d 11 e1 bb 88 88 61 3b f2 51 a0 3c
       0.024077876 -0.006868495 0.0034413654 0.019570325
0002c0 4d 1f 53 3c 49 df 51 3c 80 44 48 3b 1a 4c 91 bc
       0.012885881 0.012809583 0.0030558407 -0.017736483
0002d0 0f 0d b7 bc 17 5a c2 bc 59 6c 05 3b a9 5c f6 3c
       -0.022345094 -0.023724599 0.002035877 0.03007348
0002e0 7d 80 06 3d 72 0c 10 3c aa 03 86 bc b7 72 da bb
       0.03283738 0.00879203 -0.016359169 -0.006666507
0002f0 fc 36 8a bc 19 f7 f5 3b 43 91 c7 3c 01 3d 3f 3d
       -0.016871922 0.007506263 0.024361258 0.046689037
000300 24 40 25 3c ea b9 57 3c 44 3d 52 3c ba b9 92 3c
       0.010086093 0.013166884 0.01283199 0.017910827
000310 96 31 3a 3d 67 2b b8 3c f3 48 3c 3c 8c d8 b5 3c
       0.045457445 0.022481633 0.011492002 0.022197984
000320 d9 5d 3b bc c1 15 39 3c 3d 3c 08 3b 0b fc 08 3c
       -0.011435949 0.01129669 0.0020787858 0.008360873
000330 98 79 d7 bb 1b 57 25 3c 76 bd 1a 3d c9 17 c8 3c
       -0.0065757744 0.010091568 0.03777834 0.024425404
000340 9b 49 83 3b 5c 4c 86 bc ff 82 ee bc b8 ad 86 b9
       0.004006577 -0.016393833 -0.029115198 -0.00025687902
000350 a9 1c 18 bb 55 ce 30 3d 10 10 99 bb 3c b8 04 3d
       -0.0023210442 0.043165524 -0.0046711043 0.032402262
000360 5f 49 09 3c 98 16 de ba 00 cd b3 bb ea bf d6 bc
       0.008379309 -0.0016943989 -0.0054870844 -0.026214559
000370 11 48 60 3d db 1f b8 bb 4b 9c d1 3c 0c 65 e0 bc
       0.054756228 -0.005619032 0.025587222 -0.027391933
000380 3d 4e c3 3c e4 a6 0a 3c 15 1d 04 3d 4f 94 5a 3c
       0.023841018 0.008462641 0.032254297 0.013341024
000390 43 c9 16 3c e9 e4 93 bb ba 22 15 3a c0 21 88 bc
       0.009203258 -0.004513372 0.00056890736 -0.016617656
0003a0 42 bb c6 3c 48 64 13 3c d2 af 27 3d a2 f3 f8 bc
       0.024259213 0.008996077 0.04093916 -0.03038961
0003b0 3c 5d 2c bc 33 59 84 bc 40 4b cd 3c d5 be 97 bc
       -0.010520276 -0.016155815 0.025060296 -0.018523613
0003c0 d2 ef b0 bb a3 45 00 3d e6 36 a5 bb 02 65 80 3c
       -0.0053996826 0.03131641 -0.005041945 0.015673164
0003d0 b3 23 4a 3d 1e 47 4d 3c 7d ef d9 3b 93 ca c4 3b
       0.04935045 0.012529163 0.0066508637 0.006005594
0003e0 ad fa cd bc 93 57 d8 bc 63 2c f2 bc 81 88 cd 3c
       -0.025143946 -0.026408946 -0.02956218 0.025089504
0003f0 da 68 6c 3c 12 fb c6 3c 0f 15 66 3c be a7 06 bd
       0.014429295 0.024289642 0.014043107 -0.032874815

dense1.bias f4 [263]
000000 e6 44 ae bb 1d 89 bd bb 41 52 39 bc 25 91 b2 3c
       -0.005318272 -0.0057841674 -0.011311115 0.021797726
000010 05 ff 77 3c 36 38 e4 bb 5d a4 eb bb 48 a5 ac 3c
       0.015136485 -0.0069647087 -0.0071912245 0.021074906
000020 60 63 56 3c cc c2 06 bc c5 cf ac bc 0a c9 e4 3c
       0.013085216 -0.008225154 -0.021095166 0.027927894
000030 18 91 ba bc 0e 86 8c b9 3b c6 52 bb 68 34 4b 3b
       -0.022774264 -0.0002680276 -0.0032161612 0.0031006578
000040 6c 93 6b 3c 68 84 d0 3c 37 52 24 bc 5b f1 ec bc
       0.01437841 0.025453761 -0.010029367 -0.028923681
000050 0d b9 e5 3a 2e 9e ad bc 3b aa f9 3c 0a 89 02 bd
       0.0017526463 -0.02119359 0.03047668 -0.031868972
000060 12 d3 26 3d 12 d7 ba bc d6 0b ce 3c 62 84 b0 3a
       0.040728636 -0.022807632 0.025152128 0.0013467188
000070 99 39 1a bd e3 16 24 bc cb eb ca 3c 12 cf 0e 3c
       -0.037652586 -0.010015222 0.024770638 0.008716362
000080 9b 9a b5 3c f7 a6 b7 3a 55 6c ba 3c f3 4d 93 3b
       0.022168448 0.0014011551 0.022756735 0.0044953763
000090 f1 d5 fa bc f9 6f 01 bb 9b 38 7d bc ac da f6 bb
       -0.030619593 -0.0019750579 -0.01545539 -0.007533392
0000a0 7c 19 f5 3c f4 75 a2 bc 0f 66 43 bb f1 3b e8 bc
       0.029919378 -0.019831635 -0.002981547 -0.028348895
0000b0 74 e4 1a bd 14 f9 b1 bc 48 db ed 3c f2 0f 12 bc
       -0.037815526 -0.021725215 0.029035226 -0.0089149345
0000c0 50 3b 6e bc 81 e7 f1 3a d7 77 81 ba 72 92 16 3c
       -0.014540508 0.0018455834 -0.0009877634 0.009190189
0000d0 ad cd e9 3b 57 d1 b6 bc 5b 41 33 bc 9d dc 61 3b
       0.007135114 -0.022316618 -0.010940875 0.003446377
0000e0 2d 13 24 bc 23 23 18 3b 54 46 1c bc 0c a3 1c 3b
       -0.0100143375 0.0023214302 -0.009538252 0.0023900894
0000f0 88 3f a7 bc 9e ff 1d bd 4a ce 98 bc 1a 93 18 bc
       -0.020416036 -0.038573854 -0.018653054 -0.0093124155
000100 2d 9e cb bb 0a ee 19 bd 22 60 87 3c 2b ac c7 bc
       -0.0062139244 -0.037580527 0.016525332 -0.024374088
000110 01 70 3a bc 1e 18 6f bc 6b 5a ea bc 9c a8 f6 3c
       -0.011379243 -0.014593152 -0.028607568 0.030109696
000120 4b f1 40 bd b5 ca 10 3c 1f e0 82 bb 30 18 cc 3c
       -0.047105115 0.008837392 -0.0039940025 0.024913877
000130 43 ea 5c 3c 30 d3 0d 3d 69 5f ec 3c 93 02 15 3d
       0.013483587 0.034625232 0.028854089 0.036379408
000140 80 6d 2b bc 8b bb a9 3c 30 85 19 bc a6 91 13 bc
       -0.010463119 0.02071931 -0.009370133 -0.009006893
000150 c9 43 e7 bc f3 11 31 3d 04 55 87 bc ee 81 3d 3d
       -0.028230565 0.04323001 -0.01652003 0.04626649
000160 31 5f 64 3c fe be 60 3c 7b c7 c7 3c 7e ec fe bc
       0.013938711 0.013717411 0.024387112 -0.031118628
000170 17 e7 9b bc 45 36 b9 3c f3 7d 06 3d 36 bd 06 3d
       -0.01903109 0.022608886 0.03283496 0.03289529
000180 ce 81 38 3c a0 43 e3 3c 9b 01 2b bd 99 41 8c bc
       0.011261417 0.027742207 -0.041749578 -0.017121123
000190 69 03 a4 bc 45 38 1b bb 3f ab 26 bd f5 72 80 bc
       -0.020021157 -0.0023684662 -0.040690657 -0.015679816
0001a0 ad 34 e2 3c 1c 4d 29 3c 90 c3 80 3c 24 7a da bb
       0.027613008 0.010333326 0.015718251 -0.0066673923
0001b0 61 84 ad bb f7 4a 1a bd 28 50 07 bd c5 1a cb 3c
       -0.005295322 -0.03766915 -0.033035427 0.024793038
0001c0 30 cc 05 3c cb be ce 3b d3 1b d8 3c 5f 1f 9c bc
       0.008166358 0.0063093654 0.026380455 -0.019057928
0001d0 fd 0e 23 bd df a6 84 b9 9f 6b 68 bb d4 c0 72 bc
       -0.039809216 -0.0002530133 -0.0035464538 -0.014816482
0001e0 3e 74 b2 bb ed df f3 bb bd 1c 55 bb fd 3b 38 3c
       -0.005445986 -0.0074424655 -0.003251835 0.011244771
0001f0 c4 6d bf 3c c3 87 dd 3c ee 31 6e bc dc 75 f0 bb
       0.02336777 0.027042275 -0.014538271 -0.0073382687
000200 51 36 cd 3c de d6 62 bc cf 18 f9 3c 92 f0 b1 3b
       0.025050314 -0.013845174 0.030407337 0.0054302895
000210 6d b5 5e bc aa 2e 96 3c 87 f9 7c 3c 02 7a 43 3c
       -0.01359306 0.018332798 0.015440351 0.011930944
000220 1a f1 ae 3c c0 0c ed bc 88 70 d8 3c 4d db 96 bc
       0.0213552 -0.028936744 0.026420847 -0.018415118
000230 2f b2 89 3c 4e d2 07 3d 9b 94 91 bc 31 5e 0d 3d
       0.016808597 0.033159547 -0.017771056 0.034513656
000240 34 eb 9f bc a8 c6 f3 bb 65 60 cb bb f2 2f 7e bc
       -0.019521333 -0.007439453 -0.0062065595 -0.015514361
000250 10 2c 8c 3c 79 5a 0a 3d 54 c6 20 bb b2 aa 14 3d
       0.017110854 0.033777688 -0.0024532275 0.0362956
000260 57 d6 7d 3b 87 1e b2 bb 60 3e f2 3c 97 36 da 3c
       0.0038732493 -0.005435768 0.029570758 0.026637359
000270 1a 10 54 bb e1 14 eb ba b3 3c 85 3c c1 6f 0a bd
       -0.003235823 -0.00179353 0.016264295 -0.033797983
000280 31 6e bd bc 20 94 ee 3c 61 20 00 bd 65 47 77 bc
       -0.023123832 0.029123366 -0.03128088 -0.015092705
000290 08 9c 8a 3c 6d 6b 38 bc e6 4e d7 3b 1c 40 1e bd
       0.016920105 -0.011256081 0.0065706847 -0.03863536
0002a0 53 7e 74 3c 54 88 79 3c 58 8f f9 bc e3 a5 77 bc
       0.014922696 0.015230257 -0.03046386 -0.015115234
0002b0 ab 4d 01 3d e3 9d 14 bb 0b bf 7c bc 84 6c f6 3c
       0.03156821 -0.0022677116 -0.015426408 0.030081041
0002c0 4e ad 9a 3c 0b 50 d2 bc aa a4 fb 3c 1f a3 07 3d
       0.018881466 -0.025672933 0.030718166 0.03311455
0002d0 26 09 97 bc 6a f1 07 bc b4 f1 11 bd c1 3e 9d bc
       -0.01843698 -0.008297304 -0.035630897 -0.019194962
0002e0 00 21 d3 bc 90 80 61 3b ec a9 0b bd 92 21 40 3d
       -0.025772572 0.0034408905 -0.034097597 0.046907015
0002f0 91 a2 49 3d da a4 f2 bc 7b 27 ea 3c 84 13 b2 bc
       0.0492273 -0.029619623 0.028583279 -0.021737821
000300 21 46 05 3c 54 d5 0f 3d 3e df 29 bd 89 e8 ed bc
       0.008134396 0.035115555 -0.041472666 -0.029041545
000310 6f dd 07 3d 28 eb aa 3c 1c af a3 bc 35 b2 83 bb
       0.03317016 0.020864084 -0.01998096 -0.0040190467
000320 f3 90 9b bb 7b 1f cb bc dc fe 9f 3a 85 aa 7c bc
       -0.004747504 -0.024795284 0.0012206691 -0.015421514
000330 32 3b ee 3c 1a d9 e5 bc b6 54 00 3d 2b f5 f4 3c
       0.02908096 -0.028057624 0.031330787 0.029902061
000340 81 f7 56 3c 0d 80 37 3d 90 8a 19 bd 40 a2 4e 3b
       0.013120533 0.044799853 -0.03748566 0.0031529814
000350 29 d1 54 3c e5 0e f3 3c d9 c2 85 bc 86 cd 03 3c
       0.012989321 0.029670188 -0.016328262 0.008044606
000360 9d 8f 01 bd 42 bd d7 3c ce 25 12 bc c6 5d 7d bb
       -0.0316311 0.026335362 -0.008920146 -0.003866063
000370 4e 9d 41 3c 36 cb b6 3c 43 ec cd 3c 60 44 68 3c
       0.0118172895 0.022313695 0.025137072 0.014176458
000380 b0 a5 0c 3d f2 01 82 3b fb 2d aa 3c a4 75 46 bc
       0.0343377 0.003967517 0.020773878 -0.012113009
000390 21 26 ca 3c 31 4d 65 bc 5d f2 22 bc 67 b4 b0 bc
       0.024676384 -0.013995455 -0.009945479 -0.021570398
0003a0 62 dd ff bb 9b 50 ac bc e4 2b 27 3c 22 d5 6b bb
       -0.0078083733 -0.02103453 0.010203335 -0.0035985191
0003b0 ca b1 cb 3c 0d 2b 9e 3c e2 fd c0 3b bb df bb 3c
       0.02486505 0.019307638 0.00588964 0.022933831
0003c0 44 47 f0 3b e6 7e 1f 3d dc 36 85 bc 12 76 cf bc
       0.0073327143 0.03893938 -0.01626151 -0.025324855
0003d0 b9 98 c2 bc a7 35 a0 b9 a2 15 8a 3c 30 1e 36 bc
       -0.023754464 -0.00030557552 0.016856018 -0.011115596
0003e0 77 86 b5 3c f5 32 82 3c 6b 70 1c 3d 2b 04 6c 3a
       0.022158844 0.015893439 0.038193148 0.00090033066
0003f0 15 29 92 bb 69 99 c6 bb 15 bc b3 3c a4 ec 87 3c
       -0.0044604638 -0.0060607684 0.02194027 0.016592331

dense2.weight f4 [72, 263]
000000 0b 5b c6 bc e0 7f e4 bb 4c 87 2e 3d 36 3b bb 3c
       -0.024213335 -0.0069732517 0.042609498 0.022855382
000010 cf 53 73 bc 55 58 5c 3c 22 00 9d 3c 5e ef 54 3c
       -0.0148515245 0.013448794 0.019165102 0.012996523
000020 ef 67 85 bd 98 07 6a bd a8 9f 88 bc fc fd 4d bd
       -0.065139644 -0.05713615 -0.016677693 -0.050291047
000030 26 1b 52 bd ab 27 43 3c c6 f6 87 3d 5d 52 ec bc
       -0.051295422 0.011911313 0.06638865 -0.028847868
000040 2d 58 90 bb 7d 8d ea bb 43 31 0d bd 2b 61 6d bd
       -0.0044050426 -0.00715798 -0.034470808 -0.057953995
000050 85 f4 65 bd 96 44 d4 3c c0 e3 42 bd 97 c3 52 bd
       -0.056141395 0.02591161 -0.04758048 -0.05145606
000060 4e 77 cb 3c 57 de 55 bc 86 6c ef bc 54 ee 88 3d
       0.024837162 -0.013053498 -0.029226553 0.066860825
000070 5a 51 b1 3c d4 5c 03 3d 98 89 48 3d 02 1d 2e 3d
       0.021645237 0.03207095 0.048959345 0.042508133
000080 79 5f 58 3d d5 4b 0c 3d 11 0b 8a bd 23 0a e4 bc
       0.052825425 0.034252007 -0.06740392 -0.027836865
000090 4d 7b ce 3c 5e 2c 4c 3d f0 b7 bc bb d2 b2 80 bd
       0.025205279 0.049847 -0.0057592317 -0.06284107
0000a0 e5 b4 c6 bc cd 45 1b bd 0d a3 1c bc 45 58 88 bd
       -0.02425618 -0.037908364 -0.009560359 -0.06657461
0000b0 3b ae 23 3d 39 68 1b 3c 52 8c 55 bc 53 c9 69 3d
       0.03996108 0.009485298 -0.013033943 0.057076763
0000c0 d4 50 9d 3c ef 39 7d bd 02 12 37 3b 00 27 80 3c
       0.01920358 -0.061822828 0.0027934317 0.015643597
0000d0 14 04 4a bd fe c7 fc 3b a0 ff 50 bd 40 0d 6b 3c
       -0.049320295 0.0077142706 -0.051025033 0.014346421
0000e0 22 74 17 3c 20 47 91 3c a8 b4 0e bd 7b 34 8e 3c
       0.009243997 0.01773411 -0.034840256 0.017359009
0000f0 5f a4 d1 3c d4 e9 95 3b 44 13 9d 3c 61 cc 1c 3d
       0.025591074 0.0045749936 0.019174226 0.03828085
000100 cb 4d b8 bc ee 09 34 bc e2 ec 18 bc be f4 3e 3d
       -0.022498032 -0.010988696 -0.009333821 0.046620123
000110 c5 9e 55 3d d6 98 47 bd 0b 09 98 bd c2 40 20 3d
       0.052153368 -0.04872974 -0.074236 0.039124258
000120 6b fb 00 bc 55 32 f9 bc bf e7 4f 3d 24 59 ad bc
       -0.007872443 -0.030419508 0.05075812 -0.02116067
000130 a5 30 c4 3c 10 6d 35 bd ad 86 6e bd 15 80 44 bd
       0.023948977 -0.044293463 -0.058233906 -0.04797371
000140 b7 8a f4 3c b0 8e 21 bd a1 b2 e1 bc 26 58 ab bc
       0.0298513 -0.039442718 -0.027550997 -0.020916056
000150 2a cf f3 bc 60 d4 43 3d 91 e7 8e bd a6 44 ac bb
       -0.02976187 0.04780996 -0.069777615 -0.005257207
000160 ac 2c 04 3d 1e 63 36 bd 07 51 58 3d 22 cd d8 3c
       0.032269165 -0.04452812 0.05281165 0.026465002
000170 52 9a fd bc 09 a2 99 3c e4 2e 0f 3d 69 fa f8 3c
       -0.030957375 0.018754022 0.034956828 0.030392842
000180 64 10 c7 3b 69 44 8b 3d 51 44 5d bd c4 7f 70 3b
       0.006074952 0.068001576 -0.05402023 0.0036697248
000190 01 93 2d 3d d1 76 49 3d e1 32 2b bd 26 30 7a 3c
       0.042376522 0.049185578 -0.04179657 0.015270269
0001a0 72 96 20 3d c9 8c 4f 3c f2 c7 f3 3c 71 d3 54 3c
       0.039205976 0.012667843 0.029758427 0.012989865
0001b0 8f dc 16 bd 70 3b 16 3d f2 9c 01 3b 4f 7d 71 bd
       -0.036831435 0.036677778 0.0019777385 -0.058957394
0001c0 7a 1a fd bb b4 62 c7 3b 4e ff 18 3d 87 f6 04 3d
       -0.0077241035 0.0060847644 0.037352853 0.03246167
0001d0 39 f7 1d 3d b1 99 fd bc c1 c8 a5 3c e8 7e 76 3c
       0.038565848 -0.030957075 0.020237328 0.015044905
0001e0 cc b4 0f bd bf 44 3f 3c db 8d 14 bd 42 16 3e bd
       -0.03508453 0.011674105 -0.036268096 -0.046407945
0001f0 5b 61 e8 bc cd 3c 52 3d 70 5f ba bb 6e a8 a9 bc
       -0.028366735 0.051327515 -0.0056876466 -0.020710196
000200 24 81 46 3d fd b8 07 bd e4 cd 07 3b 3b 29 2f 3d
       0.048463 -0.033135403 0.0020722086 0.04276393
000210 d1 c8 3e bd 38 6b b2 3c 42 5d e2 bc 3f 89 3c bd
       -0.046578232 0.021779642 -0.02763236 -0.046029326
000220 16 26 59 bd 02 6b 85 3d 29 d7 3a 3d 85 9e 8d bb
       -0.053014837 0.06514551 0.04561535 -0.0043218755
000230 6f 13 ab bc 10 d4 39 3d 57 1b 39 3d eb c0 6e 3d
       -0.02088329 0.045368254 0.04519209 0.05828945
000240 74 3e 5f 3d fb a1 1b 3c a2 ea 3a bd 47 69 17 bd
       0.05450292 0.009499068 -0.04563392 -0.036965635
000250 0f 43 99 bc 67 3a 72 3d 82 b1 5a bc cf a1 5b 3d
       -0.018708734 0.059137728 -0.013347985 0.05362111
000260 a7 47 bf 3b 71 01 01 bd 69 84 fe bc 44 0b 07 bd
       0.005837399 -0.031495515 -0.031068997 -0.032969728
000270 49 b7 29 bd 76 24 ee 3c af 6b b2 3a 5e a4 14 3d
       -0.04143456 0.02907012 0.0013612414 0.036289565
000280 e8 f5 4c 3d 9b 49 10 bd a6 db f7 bc 8d 32 54 3d
       0.050039202 -0.035226446 -0.030256104 0.05180602
000290 20 cd b3 3c 96 21 25 3d ae 88 a7 3c d5 6b c0 3c
       0.021948397 0.040315233 0.020450916 0.023488918
0002a0 06 c5 11 3d 5c ee 82 3d 3e fb 05 3d f5 e3 26 3a
       0.035588287 0.0639312 0.032710306 0.00063663657
0002b0 98 27 3c 3b ac ff 3a bd 1c 46 3e 3d 4c d4 7d bd
       0.0028710123 -0.045653984 0.04645358 -0.06197004
0002c0 69 9a 56 3d cc c2 38 3d 7e 78 0c bd d8 d7 e4 3c
       0.05239335 0.045107648 -0.034294598 0.027934954
0002d0 d0 01 81 bd 1f 86 3d 3a 17 90 39 bd a3 68 06 3b
       -0.06299174 0.00072297634 -0.04530343 0.0020509146
0002e0 42 b5 57 3d 1b aa f3 bc da f5 3d 3c ee 53 f1 bc
       0.052663095 -0.029744199 0.01159426 -0.029458966
0002f0 d1 bc 36 3d 51 c2 18 3d 53 0b 44 3d 28 bf e0 3a
       0.044613663 0.03729469 0.047862362 0.0017146813
000300 09 7f 56 3d 0a 94 0e bd eb 0b e2 3b 97 a2 d4 bc
       0.052367244 -0.03480915 0.0068983934 -0.025956435
000310 9b c2 78 bd 7a 7e 48 bd 5a 06 04 bd 47 dd 6a bc
       -0.060732465 -0.048948742 -0.03223262 -0.014334983
000320 2e ef 87 bc f3 b1 49 3d a9 f3 71 3d 61 b5 01 3d
       -0.016593542 0.04924197 0.059070263 0.031667117
000330 9b d8 5d 3c 0f 18 06 bd 16 f4 b2 3c d0 0f 42 3c
       0.013540412 -0.032737788 0.021844905 0.01184459
000340 28 f2 72 3d ed 20 5e bd 88 d5 48 bb 06 0d 19 3c
       0.05931297 -0.05423062 -0.0030644853 0.009341484
000350 cc 8d 46 3d 6d 39 1f 3d 57 d6 15 bd f4 e4 35 3d
       0.04847507 0.038873125 -0.036581364 0.0444078
000360 44 09 ee bc 89 d0 7d 3c 7d b9 e2 bb 65 88 b8 3c
       -0.029057153 0.015491613 -0.0069190846 0.022525975
000370 28 66 31 bd da 85 3a 3b 8c 21 ca b9 be 24 2c bd
       -0.043310314 0.002846113 -0.00038553437 -0.042027228
000380 17 b5 98 3d 7c cb 60 bc eb 0e 34 bc 29 53 63 3d
       0.07456415 -0.013720389 -0.010989885 0.05549923
000390 a4 95 13 bd ee 0e 95 3c f7 81 b2 bc ed ed 66 bc
       -0.03603138 0.018195596 -0.021790488 -0.014094812
0003a0 45 ea 28 3d b9 11 d7 3c 1e 1f 02 bd 43 0a 0a 3c
       0.04123904 0.026253568 -0.031767957 0.008425298
0003b0 f3 ea 51 bd 70 d1 f1 3c dc d0 5a 3d a7 2b 7a 3c
       -0.051249456 0.029518813 0.05342184 0.015269197
0003c0 5c 3b 54 3b 20 3e d2 3c b5 08 c6 38 20 f5 8c bd
       0.0032384014 0.02566439 9.4429975e-05 -0.068826914
0003d0 06 79 b7 3c d5 0a 2e 3c b0 07 0a bc a1 d5 df 3c
       0.022396576 0.0106227 -0.008424684 0.027323546
0003e0 3b b0 9b ba 5f 70 60 3c a0 a6 24 3c 9d 28 4b 3d
       -0.0011878082 0.013698666 0.010049492 0.04959928
0003f0 e4 dd 85 3c d2 ff a9 bc f3 d9 65 3d ea 66 a7 3c
       0.016341157 -0.020751867 0.056116056 0.020434815

dense2.bias f4 [72]
000000 1b 2c 2c bd 78 1f 26 3d 5d 61 4c bd e0 67 00 bd
       -0.04203425 0.040557355 -0.04989754 -0.031349063
000010 db 0f 41 bc be b6 1b bc 4c f3 80 3c d9 27 15 bd
       -0.011783565 -0.009504018 0.015741013 -0.036414955
000020 33 ef 91 bc 85 d8 af 3d fb a3 8b 3b 90 59 d2 3a
       -0.017814254 0.0858622 0.0042614914 0.001604842
000030 0c 85 92 bd b5 bc 95 3d 40 0c ee 3b 86 fa 5b 3c
       -0.07154283 0.07311384 0.007264644 0.013426429
000040 f4 52 a6 3d da 9c 6d 3d 79 78 97 3c 41 a6 30 3d
       0.08121291 0.058010913 0.018490063 0.043127302
000050 83 c6 2d bc f5 6f b7 3a d6 23 a0 3d 1e b7 82 bd
       -0.010606411 0.0013995158 0.07819335 -0.06382583
000060 80 0b 1b bd d8 74 9a 3b e2 50 45 3d 1d 87 54 bb
       -0.037852764 0.004713636 0.04817284 -0.0032429167
000070 83 a0 aa 3d db 8a d1 bc f3 66 70 bd f7 33 1e bd
       0.083313964 -0.025578907 -0.05869193 -0.038623776
000080 d2 4f 61 3d 7e 58 f2 bc 5a 84 c4 3c 60 bf 84 3d
       0.055007763 -0.029583212 0.023988891 0.064818144
000090 d8 fe 70 bd b0 34 21 bb 4a c4 c6 bc 2d 2b b0 3c
       -0.058836788 -0.0024598055 -0.02426352 0.021504963
0000a0 50 44 53 3d e3 97 81 bd 9e 66 74 3b 45 97 5c 3d
       0.05157882 -0.06327798 0.003729261 0.0538552
0000b0 05 25 a6 bd 8c ec 51 3c eb d0 89 3b 2a 2e 6b 3d
       -0.0811253 0.012812745 0.004205813 0.057417072
0000c0 87 88 9c 3d 25 e4 a3 bc 61 b0 9b bd 7e c2 dc 3c
       0.07643228 -0.020006249 -0.07602001 0.02694821
0000d0 9c ad a2 bb 53 6d ec bb d4 28 ad 3d 04 8d 97 3d
       -0.0049645435 -0.007215181 0.08455053 0.073999435
0000e0 50 83 a7 bd 97 d3 8a bd 00 3c a2 bc 62 4a 36 3d
       -0.08179343 -0.06778639 -0.019804 0.04450453
0000f0 e6 e6 83 3d aa aa 04 bd 3b 6b a1 3b 43 be 9e 3d
       0.06440525 -0.03238932 0.004926113 0.07751133
000100 2a 91 82 39 2b f5 25 3d 8c 9d 97 3d c6 e1 a8 3d
       0.00024903688 0.040517014 0.074030966 0.08246188
000110 cf 63 79 3d 1d 1d 75 3b 7c 22 6d 3d d0 0c 6a 3d
       0.0608862 0.0037401386 0.057894215 0.057141125
